models/200-seed-100-synctwin_lss_yes_lasso/itr-0-nsc.pth.pth (torch, 349933 bytes, 20 tensors)

B f4 [400, 200]
00000000: 17b7 d138 17b7 d138 17b7 d138 17b7 d138
00000010: 17b7 d138 17b7 d138 17b7 d138 17b7 d138
00000020: 17b7 d138 17b7 d138 17b7 d138 17b7 d138
00000030: 17b7 d138 17b7 d138 17b7 d138 17b7 d138
00000040: 17b7 d138 17b7 d138 17b7 d138 17b7 d138
00000050: 17b7 d138 17b7 d138 17b7 d138 17b7 d138
00000060: 17b7 d138 17b7 d138 17b7 d138 17b7 d138
00000070: 17b7 d138 17b7 d138 17b7 d138 17b7 d138
00000080: 17b7 d138 17b7 d138 17b7 d138 17b7 d138
00000090: 17b7 d138 17b7 d138 17b7 d138 17b7 d138
000000a0: 17b7 d138 17b7 d138 17b7 d138 17b7 d138
000000b0: 17b7 d138 17b7 d138 17b7 d138 17b7 d138
000000c0: 17b7 d138 17b7 d138 17b7 d138 17b7 d138
000000d0: 17b7 d138 17b7 d138 17b7 d138 17b7 d138
000000e0: 17b7 d138 17b7 d138 17b7 d138 17b7 d138
000000f0: 17b7 d138 17b7 d138 17b7 d138 17b7 d138
00000100: 17b7 d138 17b7 d138 17b7 d138 17b7 d138
00000110: 17b7 d138 17b7 d138 17b7 d138 17b7 d138
00000120: 17b7 d138 17b7 d138 17b7 d138 17b7 d138
00000130: 17b7 d138 17b7 d138 17b7 d138 17b7 d138
00000140: 17b7 d138 17b7 d138 17b7 d138 17b7 d138
00000150: 17b7 d138 17b7 d138 17b7 d138 17b7 d138
00000160: 17b7 d138 17b7 d138 17b7 d138 17b7 d138
00000170: 17b7 d138 17b7 d138 17b7 d138 17b7 d138
00000180: 17b7 d138 17b7 d138 17b7 d138 17b7 d138
00000190: 17b7 d138 17b7 d138 17b7 d138 17b7 d138
000001a0: 17b7 d138 17b7 d138 17b7 d138 17b7 d138
000001b0: 17b7 d138 17b7 d138 17b7 d138 17b7 d138
000001c0: 17b7 d138 17b7 d138 17b7 d138 17b7 d138
000001d0: 17b7 d138 17b7 d138 17b7 d138 17b7 d138
000001e0: 17b7 d138 17b7 d138 17b7 d138 17b7 d138
000001f0: 17b7 d138 17b7 d138 17b7 d138 17b7 d138
00000200: 17b7 d138 17b7 d138 17b7 d138 17b7 d138
00000210: 17b7 d138 17b7 d138 17b7 d138 17b7 d138
00000220: 17b7 d138 17b7 d138 17b7 d138 17b7 d138
00000230: 17b7 d138 17b7 d138 17b7 d138 17b7 d138
00000240: 17b7 d138 17b7 d138 17b7 d138 17b7 d138
00000250: 17b7 d138 17b7 d138 17b7 d138 17b7 d138
00000260: 17b7 d138 17b7 d138 17b7 d138 17b7 d138
00000270: 17b7 d138 17b7 d138 17b7 d138 17b7 d138
00000280: 17b7 d138 17b7 d138 17b7 d138 17b7 d138
00000290: 17b7 d138 17b7 d138 17b7 d138 17b7 d138
000002a0: 17b7 d138 17b7 d138 17b7 d138 17b7 d138
000002b0: 17b7 d138 17b7 d138 17b7 d138 17b7 d138
000002c0: 17b7 d138 17b7 d138 17b7 d138 17b7 d138
000002d0: 17b7 d138 17b7 d138 17b7 d138 17b7 d138
000002e0: 17b7 d138 17b7 d138 17b7 d138 17b7 d138
000002f0: 17b7 d138 17b7 d138 17b7 d138 17b7 d138
00000300: 17b7 d138 17b7 d138 17b7 d138 17b7 d138
00000310: 17b7 d138 17b7 d138 17b7 d138 17b7 d138
00000320: 17b7 d138 17b7 d138 17b7 d138 17b7 d138
00000330: 17b7 d138 17b7 d138 17b7 d138 17b7 d138
00000340: 17b7 d138 17b7 d138 17b7 d138 17b7 d138
00000350: 17b7 d138 17b7 d138 17b7 d138 17b7 d138
00000360: 17b7 d138 17b7 d138 17b7 d138 17b7 d138
00000370: 17b7 d138 17b7 d138 17b7 d138 17b7 d138
00000380: 17b7 d138 17b7 d138 17b7 d138 17b7 d138
00000390: 17b7 d138 17b7 d138 17b7 d138 17b7 d138
000003a0: 17b7 d138 17b7 d138 17b7 d138 17b7 d138
000003b0: 17b7 d138 17b7 d138 17b7 d138 17b7 d138
000003c0: 17b7 d138 17b7 d138 17b7 d138 17b7 d138
000003d0: 17b7 d138 17b7 d138 17b7 d138 17b7 d138
000003e0: 17b7 d138 17b7 d138 17b7 d138 17b7 d138
000003f0: 17b7 d138 17b7 d138 17b7 d138 17b7 d138
1e-04 1e-04 1e-04 1e-04 1e-04 1e-04 1e-04 1e-04
1e-04 1e-04 1e-04 1e-04 1e-04 1e-04 1e-04 1e-04
1e-04 1e-04 1e-04 1e-04 1e-04 1e-04 1e-04 1e-04
1e-04 1e-04 1e-04 1e-04 1e-04 1e-04 1e-04 1e-04
1e-04 1e-04 1e-04 1e-04 1e-04 1e-04 1e-04 1e-04
1e-04 1e-04 1e-04 1e-04 1e-04 1e-04 1e-04 1e-04
1e-04 1e-04 1e-04 1e-04 1e-04 1e-04 1e-04 1e-04
1e-04 1e-04 1e-04 1e-04 1e-04 1e-04 1e-04 1e-04
1e-04 1e-04 1e-04 1e-04 1e-04 1e-04 1e-04 1e-04
1e-04 1e-04 1e-04 1e-04 1e-04 1e-04 1e-04 1e-04
1e-04 1e-04 1e-04 1e-04 1e-04 1e-04 1e-04 1e-04
1e-04 1e-04 1e-04 1e-04 1e-04 1e-04 1e-04 1e-04
1e-04 1e-04 1e-04 1e-04 1e-04 1e-04 1e-04 1e-04
1e-04 1e-04 1e-04 1e-04 1e-04 1e-04 1e-04 1e-04
1e-04 1e-04 1e-04 1e-04 1e-04 1e-04 1e-04 1e-04
1e-04 1e-04 1e-04 1e-04 1e-04 1e-04 1e-04 1e-04
1e-04 1e-04 1e-04 1e-04 1e-04 1e-04 1e-04 1e-04
1e-04 1e-04 1e-04 1e-04 1e-04 1e-04 1e-04 1e-04
1e-04 1e-04 1e-04 1e-04 1e-04 1e-04 1e-04 1e-04
1e-04 1e-04 1e-04 1e-04 1e-04 1e-04 1e-04 1e-04
1e-04 1e-04 1e-04 1e-04 1e-04 1e-04 1e-04 1e-04
1e-04 1e-04 1e-04 1e-04 1e-04 1e-04 1e-04 1e-04
1e-04 1e-04 1e-04 1e-04 1e-04 1e-04 1e-04 1e-04
1e-04 1e-04 1e-04 1e-04 1e-04 1e-04 1e-04 1e-04
1e-04 1e-04 1e-04 1e-04 1e-04 1e-04 1e-04 1e-04
1e-04 1e-04 1e-04 1e-04 1e-04 1e-04 1e-04 1e-04
1e-04 1e-04 1e-04 1e-04 1e-04 1e-04 1e-04 1e-04
1e-04 1e-04 1e-04 1e-04 1e-04 1e-04 1e-04 1e-04
1e-04 1e-04 1e-04 1e-04 1e-04 1e-04 1e-04 1e-04
1e-04 1e-04 1e-04 1e-04 1e-04 1e-04 1e-04 1e-04
1e-04 1e-04 1e-04 1e-04 1e-04 1e-04 1e-04 1e-04
1e-04 1e-04 1e-04 1e-04 1e-04 1e-04 1e-04 1e-04

encoder.attn_v f4 [20]
00000000: 7c3e e53e a0b5 d13f 8370 cc3f 5ed8 d93e
00000010: af3f d03e 9773 c83e c9d7 df3e a957 dd3e
00000020: 3a49 c03e 6c1f b73e 7e25 e93e 07d8 bd3f
00000030: e652 ec3e 778b c93f 9a71 d33f f0ea ca3f
00000040: 2ec3 c73f b421 ca3f ba2f db3e f263 d23f
0.44774234 1.6383553 1.5971836 0.42547888 0.40673587 0.39150688 0.43719319 0.43230942
0.37555867 0.3576616 0.45536417 1.4831551 0.46156996 1.5745686 1.6519043 1.5852947
1.5606439 1.5791535 0.4280985 1.6436751

encoder.lstm.weight_ih_l0 f4 [40, 10]
00000000: af61 73bc 3660 d53e 451e 893d c1b2 5c3e
00000010: 425e ae3e 3a5f b93e 9a9d b53d 798e b1bd
00000020: a0eb fe3c cb8d 53bc cd0f cbbd a465 9b3e
00000030: 4819 8c3e fd1e b13e fd4c d13d 89c7 c83e
00000040: fc1e f73e 3bb4 a13e 954c 74bc d0d0 e73c
00000050: 0c85 59bd 5090 b73e 3db0 413e 0023 e73e
00000060: c399 f43d d786 de3e ddc9 9e3e bb7c 153e
00000070: aff7 a1bb 41f5 8d3e 7c45 873e 5dcf b63d
00000080: a1ac df3e c129 533e 1b36 4fbd c35b 913d
00000090: 7718 0b3f 972c bd3e af47 173d c3b8 fe3e
000000a0: 2b60 6b3e 2bd1 5bbd 65c7 a33e e07f 0f3e
000000b0: 1472 f43d a445 843e 645e 78bd 37dc 6b3e
000000c0: 452b f33e 4210 973e 2c64 423e 942c ba3e
000000d0: 4c8f 433e b7f5 003e a69d 983e 07ed 833e
000000e0: ff5c ac3e 1fb2 083e 32b0 f63e 01d3 dd3e
000000f0: e048 213e e6d7 c93e 474b a73e 6d87 0c3f
00000100: 0545 0a3f 319d e43e 66c0 ea3e d161 b23e
00000110: 9754 373e 744f dd3d 2664 063f 9808 c53e
00000120: 5d1a 4c3c 5cbd b63e 3b9e 1d3e 19c4 1bbd
00000130: 61ae 0b3f cee0 8e3e 1f86 bb3e 5147 803e
00000140: 9999 d0bc a24b 043f ed2a 0c3e 3644 9cbd
00000150: 681a 073f b979 d53d f662 8f3d 1934 fa3e
00000160: 8448 cf3e f339 a73c 7786 283e b4b3 1b3d
00000170: 0fe1 e83e 5003 94bd d280 bb3c 5a04 ca3d
00000180: 2494 1e3c 4e76 f93e fe45 3f3d 43e6 103e
00000190: 01bc 583e 44b8 ca3d 0d18 253e 2a26 c43d
000001a0: 47b6 14be 7f62 d23e fb7f de3c 790d 6b3e
000001b0: 41f8 b43e 6455 7d3e 466f 14be fcb8 da3d
000001c0: 5dd1 2c3e babf 853e 2f44 ab3e 2c78 bf3e
000001d0: 0d1a d43d 14a9 c93e efce 373d c8e9 31bd
000001e0: b411 443d fd38 ea3e 88c5 a33e d21f 883e
000001f0: f019 353c 00e6 e6bb deeb 253e 4b9e 503e
00000200: ce78 ebbd d67f d13e 6665 39bc 453b f83c
00000210: af48 87bd dc48 293e 80d6 69bc adb5 d63e
00000220: f6a9 dc3e d762 433e 1e0d 653c 49d6 d13e
00000230: 3a2d ab3e a50e d53e 7007 07be 3f9a cb3d
00000240: 927c 9e3d 4290 273d 6e9f a83d af87 183e
00000250: ae74 d93e 96ca 4ebe 09c1 c7bd 0b83 233e
00000260: 7dc9 78bc fc61 0f3e 0126 7cbd eae6 05be
00000270: efaf 543e b548 953d 5d98 863e 2c5f aa3e
00000280: 91b6 b4bc 343c 9c3e c3af 723e dfb0 793d
00000290: b439 6cbd 7fb3 a23c 2798 e73e b619 12bd
000002a0: b2c2 afbd 524f 7ebd e764 be3e 9bed 663e
000002b0: ce2b a4bd 9182 da3e 9d86 05be 1db2 44be
000002c0: 39c3 e2bd cbb2 943e 62b0 93bb 537a 78bc
000002d0: 8853 8d3d f96e a0bc f9bc ee3e 0b61 273e
000002e0: fecc a43d 4ac2 ec3e 3595 fdbd c11a 373d
000002f0: c5d9 f13e bc05 89bd 9716 9a3e 683e d9bc
00000300: e66d 98bd 111e 893d b965 56bd 4e57 bb3d
00000310: fe8a 813c c642 4a3d 28fa b93d c43f 433d
00000320: c6fd b8be d077 57be b3fa 23be 642e 91be
00000330: c300 b8be bf43 253d ca9a e4be 7547 513d
00000340: 9300 08be c6d9 95be b4e1 17be af6d 3d3e
00000350: 6812 0cbe efdf a53e be6f fc3d 2567 1bbe
00000360: c004 da3e 9408 343e 3ed8 6e3e 8c93 e03d
00000370: a2d4 c33e e4cf 31bd eeae e1bd a868 943e
00000380: 5911 6d3d 35a7 243e 35f4 0abe 23e7 763e
00000390: 2bcb 49be 97e2 ab3d a77b 9ebe a2c7 efbe
000003a0: 590a c8bd 8e82 87be 1283 03be 3fd6 e6be
000003b0: ce22 9c3d a32c f8be b4ab b9be 39ca c2be
000003c0: 9f0d cfbe 5f6e 8fbd 819b 88be a415 c8bc
000003d0: 5ebb 76bd c95c 073e 2eee 74be 68d9 7cbe
000003e0: 8097 debe e839 44be d2f7 1d3e 3389 b8be
000003f0: 37f7 c3be f342 f53c a55b e2bc d69c a93d
-0.014854833 0.41674966 0.066952266 0.21552564 0.34056288 0.36205465 0.08867951 -0.08669753
0.031118214 -0.012912224 -0.09915123 0.30350983 0.27363038 0.34593955 0.102197625 0.39214733
0.48265827 0.31582817 -0.014910837 0.028297812 -0.0531054 0.3585229 0.18914886 0.4514389
0.1194339 0.4346225 0.31013384 0.14598362 -0.0049428563 0.27726176 0.264202 0.0892627
0.43686393 0.20621397 -0.05058871 0.0709758 0.54334205 0.36948082 0.036933597 0.49750337
0.22985904 -0.053666275 0.31988063 0.14013624 0.11935821 0.25834382 -0.060636893 0.23033224
0.4749395 0.2950459 0.18983525 0.36362135 0.19097632 0.12593733 0.29807776 0.25766775
0.336647 0.13349198 0.481813 0.43325046 0.15750456 0.3942253 0.3267462 0.54894143
0.54011565 0.44651178 0.45849913 0.34840253 0.17903362 0.1080617 0.52496564 0.3848312
0.012457457 0.35691345 0.15392391 -0.03802881 0.54562956 0.27905887 0.36625764 0.2505441
-0.025463866 0.51677907 0.1368825 -0.07630198 0.5277467 0.104236074 0.07001297 0.48867872
0.40485013 0.020413375 0.16457544 0.038013175 0.45484206 -0.07227194 0.022888575 0.09864111
0.009678874 0.48723072 0.04669761 0.14150338 0.21165468 0.09898427 0.16122456 0.09577592
-0.14522658 0.41090772 0.027160635 0.22954358 0.35345653 0.24739605 -0.14495572 0.10679814
0.16876741 0.26122838 0.33450457 0.3739637 0.10356531 0.3938681 0.04487508 -0.04343584
0.047868446 0.45746604 0.31986642 0.26586777 0.011053547 -0.007046461 0.16203257 0.20372884
-0.11497651 0.40917844 -0.011315679 0.0303017 -0.0660566 0.165317 -0.014272332 0.41935483
0.4309842 0.19080673 0.013980178 0.409838 0.33432943 0.41612735 -0.13186431 0.099415295
0.07738604 0.04090906 0.08233534 0.14895509 0.42471832 -0.20194468 -0.097536154 0.15967958
-0.015184757 0.14002222 -0.06155968 -0.13076368 0.20770238 0.072892584 0.2628812 0.33275735
-0.02205971 0.3051468 0.2369986 0.060959693 -0.057672217 0.019860981 0.4523327 -0.03566905
-0.08582057 -0.062087364 0.37186357 0.22551577 -0.080161676 0.4267774 -0.13039632 -0.1920857
-0.11072392 0.29042658 -0.0045071105 -0.015165883 0.06900698 -0.019584166 0.4662855 0.16345613
0.08046912 0.4624198 -0.123819746 0.04470325 0.47236457 -0.06690547 0.3009536 -0.026519015
-0.074428365 0.06695188 -0.052343104 0.091475114 0.015813347 0.049380086 0.09080917 0.047668234
-0.36131114 -0.21041799 -0.16013603 -0.28355706 -0.3593808 0.04034781 -0.44649345 0.051093537
-0.13281469 -0.2926771 -0.14832193 0.18498872 -0.13678896 0.3239741 0.12326001 -0.15176065
0.4258175 0.17581397 0.23324677 0.10965642 0.38248163 -0.04341115 -0.11019693 0.28986096
0.057877872 0.1607941 -0.1356972 0.24111609 -0.19706409 0.08392828 -0.30953714 -0.46831995
-0.09767599 -0.26466793 -0.12842968 -0.45085332 0.07623826 -0.48471555 -0.36263812 -0.3804491
-0.4044008 -0.070034735 -0.2668114 -0.024424382 -0.06023728 0.13218988 -0.23918983 -0.24692309
-0.4347496 -0.19162714 0.15426567 -0.36042175 -0.38274547 0.02993915 -0.02763159 0.08281867

encoder.lstm.weight_hh_l0 f4 [40, 10]
00000000: 3c34 95bd 6b07 0b3e ae4a cdbd 98d5 aabe
00000010: 506e f6ba 05d9 45be 2906 93bd f27e 0b3e
00000020: 5cee 36bd 3812 bcbd 3f07 a8bd 8a38 673e
00000030: 97f0 9cbc a616 9ebe 76f9 423d 41fd 8abe
00000040: 1a57 f2be 8c13 4cbe a80b 18bf 4e86 04bf
00000050: fb36 b1bd 5259 6d3d 4180 3c3e 91b4 f2be
00000060: bc20 89be 58f5 8abd 5482 3abe f718 2abe
00000070: 2485 abbe 2ff6 f4be 18c8 28be 0297 5e3e
00000080: 25b8 b83e 36bc edbe 1309 473d 2053 8e3d
00000090: 64b3 edbe ef30 bcbc d902 fbbd 4f94 d2bd
000000a0: 8e95 81be 3218 9b3e de64 b73e eaca c7be
000000b0: 8a30 d9be 64c2 99be ac22 9cbd a074 e6bc
000000c0: 0c21 4b3a b173 88be bcda 7cbe a241 b6bd
000000d0: 7bd8 8a3c f925 60bc d98f f3be 5a24 95be
000000e0: 45c2 b8be 42ac efbe a9de 4ebe ea6d 40be
000000f0: acca 09bf 10b5 9fbd dc23 af3d 2c80 3dbe
00000100: 596c 7dbe 594b 013e d1a8 a8be 80d8 a8be
00000110: 97c2 60be ebe0 88bd 365c b6be 381b 153e
00000120: b2d2 9bbd f00c 54be e35b 8a3d d413 31bd
00000130: ee7a 38be 1ae8 a4bd 2490 93be 0499 8dbe
00000140: a517 b1be 4664 ad3e 5787 893e 8283 823d
00000150: c252 a3be 0763 b9be cd82 ecbc c4c9 063d
00000160: 109b 8fbe 6031 eabe 216a 1bbe 8aef 723d
00000170: 9fd8 113a 2cfb bbbe 4e30 85bc adcc 0f3d
00000180: 5c4f d6be a81a bdbe 01d3 b0be f9e7 eb39
00000190: 6a05 903c 6404 c83e 1f78 22bd f594 de3d
000001a0: 7fde a7be a91f c13d d812 55be b301 f33d
000001b0: 85b4 77be f130 25be 86dd 11bf 7256 0fbe
000001c0: 8de8 663e 29da 5bbe 7e0d 46be 2d3f a6bd
000001d0: beea 21bd 8e3c bcbd 6948 19be cc55 4dbe
000001e0: 5ae1 5bbd bd7c 563d aa43 b53e 121f 89be
000001f0: 861c 02be e117 553d 9e8a 82bc cf75 b1be
00000200: fe50 5b3d 6c25 9cbe c76d 8dbe aef5 bc3e
00000210: c89d d03e b760 a0be 5617 96be c5a5 86be
00000220: aee3 d4be 6a84 62bd fc00 173c f927 3cbd
00000230: d1b5 a5be a6f9 ba3e d34f 5b3e 8d43 fc3d
00000240: 4f2f 8cbe e6fe c7be f66e f7be 6209 77be
00000250: 2e71 e23c bd41 7ebe a97e bbbe 4fc4 acbb
00000260: 4395 7c3b 541d 87be 1ff8 ce3d 007e 173d
00000270: 8c73 e4be afcf 31be 937a 9abd 3fa0 80be
00000280: 09a5 1dbf 8863 fa3e 31b1 43bd 999c 74be
00000290: 9aac 853c 5484 93be eb1d 8a3d 255c f1be
000002a0: f7fb f3be a10d 09bf fb3d 0fbe a8d7 2f3e
000002b0: 73b5 d93e d1e6 8cbe 17a1 cdbe f061 8f3d
000002c0: d6a1 1dbe 6876 8ebe d9df 91be 8868 96bd
000002d0: 0444 6bbe b050 76bd 917e 933e 0f8d 00bf
000002e0: 0698 01be c21a 7f3d d615 9d3d 3eb4 abbc
000002f0: c904 c73c 6bc4 d7be 6889 12bf 4ba8 b33d
00000300: b7ab 603e aec6 e4bd c56e 8a3d eef1 06be
00000310: 0af9 783d 86df 34bd 1537 16bf 0899 0cbe
00000320: 8c95 1d3e 141b 31be 1a88 cfbe 4f4f c6bd
00000330: d878 473e 94a3 abbd ac3a b33e 5e2f c23d
00000340: 278e c13e 5a80 dc3c 2c54 153c 4539 e63d
00000350: 238c 3aba ea87 6dbd deea 71be c5d5 93bc
00000360: d2d5 c9be f624 1dbe 7f26 a8be fc12 bb3d
00000370: 082f 4abd 1196 56bd 895d c13e b0b2 8cbe
00000380: 2d67 9e3d fe6b a0be 00fe d7be 0535 8fbd
00000390: 7dd8 373d 6659 a0be 6428 21be 99ef d2bd
000003a0: 0bb8 d5be 023a 093e 0599 ecbc 35df f93d
000003b0: 43a9 c8bb 0536 d43e 1010 953e 1fc0 3b3d
000003c0: 4f60 7d3d 9469 e5bc 9f6f 84be 674c 15bc
000003d0: 9519 963e ab0c 38be ed71 29bc bf67 973e
000003e0: a5a3 c9bc 483a 473e a88a b93e 542a 92be
000003f0: 6ed2 f3bb f122 853e ebe2 ea3d e1da a83e
-0.072853535 0.13577048 -0.1002401 -0.33366084 -0.0018801186 -0.19321068 -0.07178909 0.13622645
-0.04466091 -0.091831625 -0.08204507 0.22580162 -0.01915769 -0.30876654 0.047601186 -0.27146342
-0.47332078 -0.19929332 -0.59392786 -0.5176743 -0.08653065 0.05794651 0.184083 -0.47403386
-0.26782787 -0.06785077 -0.18213779 -0.16611086 -0.33500016 -0.47844073 -0.1648258 0.21737292
0.3607799 -0.46432656 0.04859264 0.069494486 -0.46425927 -0.022972552 -0.122564025 -0.10282194
-0.25309414 0.30291897 0.35819143 -0.39022 -0.42419845 -0.3003112 -0.07623801 -0.028131783
0.000774876 -0.26650766 -0.24692816 -0.08899237 0.016948929 -0.013680928 -0.47570685 -0.29129297
-0.36085716 -0.4681111 -0.20202126 -0.18791929 -0.5382488 -0.07798207 0.085517615 -0.18505925
-0.24748363 0.12626399 -0.32941297 -0.32977676 -0.2194923 -0.06683525 -0.35617226 0.14561164
-0.07608546 -0.2070806 0.06755807 -0.0432318 -0.18015644 -0.08052082 -0.28820908 -0.27655804
-0.34588352 0.33865565 0.2686107 0.063727394 -0.31899077 -0.36208364 -0.028870964 0.032907262
-0.2804799 -0.45740795 -0.15177204 0.059310474 0.000556359 -0.36715066 -0.016258385 0.035107303
-0.4185742 -0.369344 -0.34535983 0.00044995526 0.017580707 0.3906585 -0.039665338 0.10868255
-0.3278694 0.09429867 -0.2080797 0.118655585 -0.24189956 -0.16131951 -0.5697864 -0.1399782
0.22549649 -0.2146994 -0.19341084 -0.081175186 -0.03953051 -0.091912374 -0.14969029 -0.2005226
-0.05368171 0.052365053 0.35403186 -0.26781517 -0.12706193 0.052024726 -0.015935238 -0.34660193
0.053544037 -0.304973 -0.27622816 0.3690619 0.40745378 -0.31323788 -0.2931468 -0.26298347
-0.41579956 -0.05530206 0.009216543 -0.04593656 -0.32365277 0.36518592 0.2141717 0.12317572
-0.27379844 -0.3906166 -0.48326844 -0.24124673 0.027641859 -0.24829765 -0.36620072 -0.0052724252
0.0038541115 -0.26389563 0.10105919 0.036985397 -0.44619405 -0.17364381 -0.075429104 -0.25122258
-0.6157995 0.4890406 -0.047776405 -0.23887862 0.016317654 -0.28811896 0.06743988 -0.47140613
-0.4765317 -0.5353642 -0.13988487 0.1717211 0.42521247 -0.2751985 -0.40161964 0.07001102
-0.15393767 -0.27824712 -0.28491095 -0.073441565 -0.22975165 -0.060135543 0.288075 -0.5021524
-0.12655649 0.062281378 0.076701805 -0.02095997 0.024294274 -0.42142043 -0.57240915 0.08772334
0.21940504 -0.11170708 0.06759409 -0.13178226 0.060784377 -0.04415848 -0.586778 -0.13730252
0.15389079 -0.17295486 -0.40533525 -0.09683096 0.19479692 -0.083808094 0.350057 0.09481691
0.37803766 0.026916672 0.009114306 0.11241392 -0.0007116219 -0.057990946 -0.23624751 -0.01804627
-0.39420944 -0.1534613 -0.3284187 0.0913448 -0.04936126 -0.05238921 0.37766674 -0.27480078
0.07734523 -0.31332392 -0.42185974 -0.069925345 0.044884194 -0.31318206 -0.15738064 -0.10299606
-0.41741976 0.13401034 -0.02888156 0.122007765 -0.006123693 0.41447464 0.29113817 0.045837518
0.061859425 -0.028004445 -0.2586641 -0.009112454 0.29316393 -0.17973582 -0.010342103 0.2957134
-0.024614165 0.19455826 0.362386 -0.2854792 -0.0074408567 0.2600322 0.114690624 0.3297949

encoder.lstm.bias_ih_l0 f4 [40]
00000000: 2202 743e 8ee3 1e3e 94ac 82bd fb40 663e
00000010: f3bf de3e f98e e43d bc85 f0bb 3fe8 c03e
00000020: c035 5e3e 6340 ca3e 1ce0 983c 8579 ba3e
00000030: a5e1 893d 5c39 0d3e 0504 953e 02d9 dc3e
00000040: 573c d93d 6dee b03e 49a2 823c 9b79 543d
00000050: 9875 9c3d 5ffe 293a 066f a63e 98f9 babd
00000060: 9bea debd 7b18 b1be dc67 f1be e6cc 3bbe
00000070: aa24 443d f79c 71bd 064d 553e 7510 8e3d
00000080: b5d9 9a3e 3224 bf3e 96cc b93e 75ca 4f3d
00000090: 0b5a 083f 99ae 563e 23f2 a63e 52c5 163f
0.23828939 0.15516493 -0.06380573 0.22485726 0.4350582 0.11160082 -0.007340161 0.3767719
0.21700191 0.39502248 0.018661551 0.36420837 0.067324914 0.13791412 0.2910463 0.43134314
0.10607212 0.34556904 0.015946524 0.051873785 0.07639617 0.00064847426 0.3250658 -0.091296375
-0.10884591 -0.3458899 -0.4714955 -0.18339881 0.047886528 -0.058987584 0.20830163 0.06936733
0.30244222 0.37332302 0.362889 0.050730187 0.53262395 0.20965041 0.3260661 0.58894837

encoder.lstm.bias_hh_l0 f4 [40]
00000000: 595c a33e 16c9 8cbd 35d0 ab3d 9ab3 9f3e
00000010: 1dcc 3f3e 0b48 703e 057e 5e3e 93a5 31bd
00000020: edd0 3a3e 7bd1 1f3e 5e42 ce3e f58d 7b3e
00000030: 5a8b 983d 1260 4cbd 0101 113e 60eb 8dbb
00000040: ac1c b73c be71 403e 15a1 08be 6ad0 b53c
00000050: d7a8 5ebe e43a 533e 200f ac3e e613 db3d
00000060: e463 42be c3b6 d9be a713 afbd 46da 93be
00000070: 04ca 4abd bfa8 25be 4c12 c93d 112b 0f3f
00000080: 355a 693e 0947 e93d 1ea1 c23e 9e41 823e
00000090: 336e 333d e542 993e cc12 063f 8489 a93e
0.31906393 -0.068742916 0.08389322 0.31191713 0.18730207 0.23464982 0.2172776 -0.043370795
0.18243761 0.15607254 0.4028501 0.24565871 0.07448454 -0.049896307 0.14160539 -0.0043310374
0.022352539 0.18793389 -0.13342698 0.022194106 -0.21744095 0.20627934 0.3360529 0.10697155
-0.18983418 -0.4252225 -0.0854867 -0.28877467 -0.049509063 -0.16177653 0.09817943 0.5592509
0.22788318 0.11390502 0.38013548 0.25440687 0.043806266 0.2993385 0.5237243 0.3311273

encoder.lstm.weight_ih_l0_reverse f4 [40, 10]
00000000: 87f3 703e 48d3 073e 53fb e33e 6182 85bd
00000010: a368 ab3e 0748 403e abe4 b0bd 44c0 8d3e
00000020: f627 723e 8517 893e 2f5d 8ebd 55f1 29bd
00000030: 5440 e43d 8d35 fd3d d1c1 d23e 1395 773d
00000040: d10c b13e c065 383d c45c 113d 4433 313c
00000050: 8412 b43d d172 85ba 8843 e63e f633 ee3e
00000060: f4d6 7c3e 3e60 8dbc 7389 cf3e 4276 9e3d
00000070: 882e 803c 7390 833d 6865 0fbe 7965 173d
00000080: cb59 4b3d e1cc 083e 6c9e a33e 169a 853e
00000090: e592 03bc 1c45 bc3d 258f 32bd 1cc4 783e
000000a0: 3ade 26be f4ef 6fbd adcf 0fbe d870 bf3e
000000b0: a302 843e 27c2 d13c 2b07 c43d 8d9b 0c3e
000000c0: d2da 263d 95f5 623e 8b96 a43d 8b38 ae3e
000000d0: 1aab 0f3d 6950 b7bb d567 983e 494c 943e
000000e0: eae4 643e 3300 873e 94aa 923e a14e 333e
000000f0: 72c2 acbd 0f2c 74bd 5981 3cbd 2b20 ee3e
00000100: 55f7 75bd 3e5e 0d3e effc 983e 931e d03e
00000110: 9145 a53e b197 383e e0c4 43bd 17ea c63e
00000120: e02d b43e 5a50 f5bd 96bc 50bd 6caa 883e
00000130: 479c 983e 5ca3 e93e f46d ca3e f1ea 6f3e
00000140: 3714 aabd 6881 5d3e fa3e 25bd 160b 2b3e
00000150: 9265 0b3f 0587 ad3e 591f a63e 6098 96bd
00000160: 6e9d 2e3d 0490 b23e 41bc 053e 72d6 983e
00000170: 07a7 423e 2a6d 653e 3801 ce3d 4374 bf3d
00000180: 380a 833e ddee 43bd d38c a93e 5bca d13e
00000190: 1a2f ad3e dcb5 633e 9358 6a3e 004c 05bd
000001a0: 8868 1cbd e72d df3e 092d f7bd 0770 ffbd
000001b0: f780 d33e fcc7 87bc f2b8 b53e 0ca0 5dbd
000001c0: 34ef 4a3e f626 643e d54a 1e3d 5189 af3e
000001d0: ebbd 403e 0ba8 203e 7f5b 463e d99b 7f3e
000001e0: 26e9 d03d 08a2 ad3e a8aa c4bc 5a08 9f3e
000001f0: 1634 273e a9fe 7c3e ebbd 063d 5d55 c53e
00000200: e23b 663e c1d7 d03e a3eb d7bb 4558 323e
00000210: c903 a53d d910 7b3d c62d 693e 4246 aabd
00000220: 362b da3e d85e be3d 6899 3b3e 3f76 063e
00000230: fb7c bb3e b2d2 41be acab 143e 3f03 323e
00000240: 3b60 4e3e b298 debd 0ab7 9c3d f5c2 9ebc
00000250: ae86 0a3e f1fb 3d3e 69db a53e 64f4 a33e
00000260: abb7 adbd b678 b1bd 1c58 8e3b c5ce 253e
00000270: 61aa 0c3c 6c06 28bd 4c20 e13e 835c 3b3e
00000280: d6a1 5b3c 0fdb 153e 657a 5abc 5941 9b3e
00000290: 9552 873e a9da ab3e 576c 4a3e dfc0 62bd
000002a0: 996a 8f3e 1329 3b3e 6540 c5bd bb46 4a3d
000002b0: f684 a13e d480 dfbd 66d7 bc3e 1121 9e3e
000002c0: a670 2b3e 58fb 373e 3221 10be cb8f 1fbe
000002d0: fa34 5abd efa8 b7bd 173d 1cbc 60c2 1d3d
000002e0: 1ced 20bd 631d abbd 352c 0b3e e131 503e
000002f0: cfdd 823e f397 503e 75c8 d0bd cec0 c23e
00000300: 7bde edbd ce49 5f3c bcba 3f3e e173 c6bd
00000310: 6d33 603d 1572 863d cce2 a43d 19d3 2bbe
00000320: ce87 c83c 71bf cc3d ca42 ca3d 5e1f 8cbe
00000330: fcfc fbbd 9731 63be b316 52be e7b4 56bd
00000340: 0828 81be 4b42 94be 02a6 27bb 772b 963e
00000350: 289e a93e 6881 733e c25d 24be db8f bd3d
00000360: 2321 0dbd b803 313e 291a 1ebe fc7c a33e
00000370: 99f6 78be 1f5f 91be ad82 ddbe 0831 c3be
00000380: ec15 c2be a96d 38bc ad7b 86be 831d fcbd
00000390: 7f0c 9abe 4e69 3bbc 3326 463d a08e 8ebc
000003a0: a43e b1bd d6fc 143e 7661 cc3e 7562 26bd
000003b0: 6aa4 8fbb aef5 b63e 5214 703e 2cac 1d3c
000003c0: 88e8 823d c6cc 623c 5bf3 2e3e b9b0 9c3e
000003d0: be27 ad3e 309b d5bd cbbf 13bb c2c8 833d
000003e0: 3871 8cbe 7c89 4e3a d3f6 a03e 870b 96bd
000003f0: 886a 503e 5eb0 df3d af05 823d 0989 183d
0.23530398 0.13264191 0.44527683 -0.065190084 0.3347827 0.18777476 -0.08637365 0.2768575
0.23648056 0.26775756 -0.06951367 -0.041489918 0.11145082 0.123637296 0.41163495 0.060444903
0.3458009 0.04501891 0.03548886 0.010815445 0.08792594 -0.0010181313 0.44973397 0.46524018
0.24691373 -0.017257806 0.40534553 0.077374 0.015647188 0.06424036 -0.14003527 0.036962006
0.04964618 0.13359405 0.31956804 0.2609412 -0.008030628 0.09192869 -0.043593545 0.2429356
-0.1629571 -0.058578447 -0.14044066 0.3739078 0.25783262 0.025605274 0.0957168 0.13731213
0.040736027 0.22163995 0.08036526 0.34027514 0.035075285 -0.0055943024 0.29766718 0.2896445
0.22352949 0.2636734 0.28645766 0.17510463 -0.08435525 -0.05961233 -0.046021793 0.46508917
-0.060050327 0.13805482 0.29880473 0.40648326 0.32279637 0.18026616 -0.047795177 0.3885047
0.3519125 -0.119782165 -0.0509611 0.26692522 0.2980673 0.45632446 0.39537013 0.23429467
-0.08304637 0.21631396 -0.040343262 0.16703448 0.5445186 0.33892074 0.3244579 -0.07353282
0.042630605 0.348755 0.13060094 0.2985111 0.19009028 0.22404924 0.10058826 0.09348347
0.25593734 -0.04783522 0.33115253 0.40974697 0.33824998 0.22237343 0.22885351 -0.032543182
-0.038185626 0.43589708 -0.12069137 -0.124725394 0.4130933 -0.016574852 0.35492665 -0.05410771
0.19817811 0.22280487 0.038645584 0.34284452 0.18822448 0.15689103 0.1937084 0.24961795
0.102007195 0.33912683 -0.024007156 0.3106106 0.16328463 0.2470652 0.032895964 0.3854169
0.22483781 0.40789607 -0.0065893694 0.17416485 0.080573626 0.061295364 0.22771367 -0.08314182
0.42611092 0.09295434 0.18320239 0.13131045 0.3661879 -0.1892803 0.14518613 0.17384051
0.20153897 -0.10868968 0.076520994 -0.019380072 0.13527939 0.1855314 0.3239396 0.32022393
-0.084822975 -0.08665602 0.0043439995 0.16192158 0.008585543 -0.04102175 0.43969953 0.18297009
0.013405284 0.14634345 -0.013334845 0.30323294 0.26430193 0.33565262 0.19767891 -0.055359717
0.28011015 0.18277387 -0.09631423 0.04938386 0.31546754 -0.10913244 0.36883086 0.30884603
0.1674219 0.17966974 -0.14075163 -0.15582196 -0.05327318 -0.089677684 -0.009536049 0.03851545
-0.039288625 -0.083552144 0.13591082 0.20331527 0.25559852 0.20370464 -0.10194484 0.38037723
-0.116147004 0.013628436 0.18723577 -0.09690071 0.054736543 0.06564728 0.080510706 -0.16779746
0.02447882 0.09997452 0.0987602 -0.2736768 -0.12304112 -0.22186886 -0.20516472 -0.052418616
-0.25225854 -0.28956828 -0.0025581126 0.29330036 0.33128476 0.23779833 -0.16051391 0.09255954
-0.03445543 0.17286575 -0.15439667 0.31931293 -0.2431282 -0.28392884 -0.4326376 -0.38123345
-0.3790735 -0.011256614 -0.26266232 -0.123103164 -0.3008766 -0.011438681 0.048376273 -0.017401993
-0.08654526 0.14549574 0.39918107 -0.04062124 -0.0043836134 0.35734314 0.23445252 0.0096235685
0.06392008 0.013842767 0.1708502 0.3060358 0.33819383 -0.1042999 -0.0022544737 0.06434776
-0.2743013 0.0007878763 0.31438312 -0.073264174 0.20353138 0.10922311 0.0634874 0.037240062

encoder.lstm.weight_hh_l0_reverse f4 [40, 10]
00000000: 80c0 ffbd c266 a23e abb1 e9bd 5554 be3e
00000010: 7cbe d03e dff4 cb3e 561b 1b3e edc3 853e
00000020: a904 64be 0b82 d83c 6229 debe 4157 1cbd
00000030: 458e 1bbd 3f11 2c3e 454f c03e dc06 813e
00000040: 74de c73d 7b0a 8c3c bbb1 e8be 9d41 d1bd
00000050: d2a4 fb3c 51ae 6d3e 2e51 91be a111 babd
00000060: 3151 8c3e ff76 833e 8b78 10be 035d 653c
00000070: c1f9 19be b200 933d 4320 5cbe afe8 1c3e
00000080: 9d72 10bd 1b36 243e 57d1 7f3e 0cf5 eabb
00000090: c4a1 903e 1b34 033e f9b3 01be 7a7a bb3e
000000a0: 25f4 acbe 3a5a 143e 4d64 b0be b326 f33e
000000b0: fbdc b43e a4ea 863e 867f b63e cbc1 883d
000000c0: 1be8 9dbe 792b 9d3e 2ac6 d7be 63e0 733e
000000d0: 07c6 dabe 09d9 dd3d aea9 633e 1347 f03e
000000e0: 1770 d33d ca53 ea3e 98dd ecbe 83ec 303e
000000f0: a836 043e e899 07be 1493 f2be cbee dabd
00000100: bf50 b03e a6d5 3a3e 3c70 e93e b36c 3c3e
00000110: 57f6 dfbe e4b3 b3bd e557 c0be 95e2 933d
00000120: f5c4 ccbe afe9 813d a1ba b63e c7f6 36bd
00000130: d999 143e 552c 203e 5629 39be d4d6 5dbd
00000140: 3da9 c3be 39d6 e43e 9188 4abe d311 5bbc
00000150: d939 b1bd 3771 b3bd 5a6b a83e f184 663e
00000160: f826 98be b2b1 203e eb1e f0bc 0d0f 493e
00000170: aa7e a2bc 2b52 2bbe 9c59 183e 45df 2f3d
00000180: 7649 c23e 7436 2fbd 3464 9fbd f983 0e3e
00000190: 49b3 efbd 7a33 a43e 9083 a6be 363a 943e
000001a0: 52d1 3d3e ef0d c3bd 8934 a63d ee29 a5bc
000001b0: f54c c4be 0b37 5d3e ae76 9abe ab54 863d
000001c0: 2025 bdbe 3081 f73d 8f8b d83e 9fad 1ebd
000001d0: 7b8f 803e 29d7 d83d 5963 a5bc d4a7 cd3e
000001e0: 0031 dbbc e882 f73d ed32 85bc c57d d7bd
000001f0: bdda 963e 3fe5 c33e ffb7 d93d 63a7 8d3e
00000200: 50d5 c6bc 9a4a 37bd a2b8 7fbe a50b 8e3c
00000210: 9e78 12be aaad b53b 2d3d c33e f983 eabd
00000220: 9cd5 483e 48ba 973d f1a5 a4be 15e8 d03e
00000230: c315 2c3e 9af9 fe3e 370c 033e 4e6b 0cbb
00000240: 69b4 e03e a5ce 1f3e 054a b4bc 3c45 023f
00000250: a1f4 f0be 2175 713e 0daa 82be b64e bd3d
00000260: 5af6 9cbe 1c16 d03e f7a9 ff3e 7ade 963e
00000270: e09e ffba 42a5 edbd fccc 69bd feb2 d43d
00000280: 8682 8abe 4849 383e 81b9 99bd 8753 133e
00000290: f560 3e3e c844 8d3e d0ab c43c dec9 c93e
000002a0: 1a10 20bb 98f4 b33e c937 3eba 09da a93e
000002b0: be00 84be ee00 00bd f413 663e b687 c43d
000002c0: 2ca9 2b3c e4de 9c3e 3777 963d 5ee9 c63e
000002d0: 7302 e3be 026b 053f 9380 89bd f3b7 053e
000002e0: b672 9c3e 8593 a43d c27a c63e 6f7b 8d3d
000002f0: a7ba 743d 18e7 353d dd0a 96bd 6723 553e
00000300: 04df afbe 0911 de3e d2e3 3bbd 849d 983e
00000310: a36b 443e 07a8 5d3e 627c 8cbe 2da4 993d
00000320: ed13 cd3e 2c65 213e de25 833d a75d 253e
00000330: 6a3a 43be 1dc1 8fbd 0a78 c6be 4756 37be
00000340: 9c45 7fbd e425 6dbe 3d6c 22be e50c 433e
00000350: b46a b3be 1552 6b3d a45e 843e 6607 5e3e
00000360: cf8e 853e ac84 f53d 0797 b6bd 5525 0e3e
00000370: 87e3 4fbc 42ad 96be 0e4b b73e d025 ccbd
00000380: c05b 5abe b9dc 39be 00ba a9be 606b adbc
00000390: 01ed f8bc 2502 b8be a40d e53d e5bd ccbd
000003a0: e791 bdbe f4c0 e8bc 34a9 e5bd 9d82 6dbd
000003b0: d886 7a3e 33d7 9e3d 5ff1 3bbd 97a5 753d
000003c0: 8cc7 86be 607d d33e 332a 233e 470c fb3c
000003d0: dade 38be 53a8 adbd 59f1 533e 8db4 a43e
000003e0: dc1c 06bf 7b81 983e e6f5 c7be bbce dc3d
000003f0: 3a28 133e bb6d 113c cfd3 893e 6464 e43d
-0.12487888 0.31719023 -0.114108406 0.37173715 0.40770328 0.3983526 0.15147147 0.26126042
-0.22267403 0.026429197 -0.43390948 -0.03816915 -0.037977476 0.16803454 0.37560478 0.25200546
0.097592264 0.017094841 -0.45448098 -0.10217593 0.03071824 0.23211028 -0.28382248 -0.09085394
0.27405694 0.25676724 -0.14108483 0.0139992265 -0.1503668 0.07177867 -0.21496682 0.15323137
-0.035265554 0.16036265 0.249822 -0.007170325 0.28248417 0.12812845 -0.1266631 0.3661688
-0.33780017 0.14487544 -0.34451523 0.47490463 0.35324845 0.26350892 0.35644168 0.06677588
-0.30841145 0.3069723 -0.42143375 0.23816065 -0.42729208 0.10832412 0.22232696 0.46929225
0.10324114 0.4576705 -0.46262813 0.17277722 0.12911475 -0.13242304 -0.47377837 -0.106900774
0.34436604 0.18245563 0.4559344 0.1840084 -0.4374263 -0.08774546 -0.37567058 0.072209515
-0.39994016 0.063434 0.35689262 -0.04466894 0.14511813 0.15641911 -0.18082175 -0.054159954
-0.38215056 0.4469469 -0.19778658 -0.013370949 -0.08653612 -0.087618284 0.32894403 0.2251165
-0.2971723 0.15692785 -0.029311618 0.19634648 -0.019835789 -0.16730563 0.14877933 0.042937536
0.3794667 -0.04277654 -0.07782784 0.13917531 -0.11704118 0.32070524 -0.3252225 0.2895066
0.1853688 -0.09524142 0.08115489 -0.020161595 -0.38339964 0.21603028 -0.3016867 0.06559118
-0.36942387 0.120851874 0.42293975 -0.038739797 0.25109467 0.105879135 -0.020188974 0.40167105
-0.026756763 0.12085515 -0.016259635 -0.105220355 0.2946376 0.38260838 0.106307976 0.27666768
-0.024271637 -0.04474888 -0.24972776 0.017339537 -0.14303824 0.005544384 0.3813261 -0.11450953
0.19612736 0.07408577 -0.32157853 0.40802065 0.16805176 0.49799806 0.12797628 -0.0021426263
0.43887642 0.15606172 -0.022007952 0.50886893 -0.47061637 0.23579837 -0.25520363 0.092435285
-0.306567 0.40641868 0.4993436 0.2946661 -0.0019502304 -0.11603786 -0.057080254 0.103857026
-0.27052706 0.17996705 -0.07506085 0.14387332 0.18591674 0.27591538 0.024007708 0.39411825
-0.002442366 0.35147548 -0.00072562374 0.3317416 -0.25781816 -0.031250887 0.22468549 0.09596197
0.010477345 0.30638802 0.07346957 0.3884992 -0.44337806 0.52116406 -0.06713977 0.13058452
0.30556267 0.080359496 0.38765532 0.06908309 0.059748318 0.04440984 -0.07326291 0.20814286
-0.34349835 0.43372372 -0.045871563 0.29807675 0.19181685 0.21646129 -0.27438647 0.07502017
0.40054265 0.1576125 0.06403707 0.16149007 -0.19065252 -0.07019255 -0.38763458 -0.17904006
-0.062322244 -0.23158985 -0.15861602 0.19047888 -0.35042346 0.057451326 0.25853455 0.2168251
0.26085517 0.11988196 -0.08915525 0.13881429 -0.012688524 -0.2942906 0.3579945 -0.0996815
-0.21324062 -0.18150605 -0.3314972 -0.021169364 -0.03038645 -0.35939136 0.11184242 -0.09997157
-0.37025377 -0.02841232 -0.112139136 -0.05798589 0.24465501 0.0775589 -0.045884486 0.059972372
-0.26324117 0.4130659 0.15934066 0.030645503 -0.18053761 -0.08479371 0.20697536 0.32169
-0.52387786 0.29786286 -0.39054793 0.10781618 0.14370814 0.008876259 0.2691941 0.111519605

encoder.lstm.bias_ih_l0_reverse f4 [40]
00000000: b207 023e aae9 e33d 7d2b 59bd 93ac e83e
00000010: a0d7 b73e 0e4c 363e f3fc 5f3e 28db babd
00000020: 68f5 85bd a14a 1a3e 7b3a 913e 3280 4abe
00000030: ccb7 293e 9561 adbc dc52 01bb a2b2 a73e
00000040: 508b bd3e 88b7 133e 849a 89ba 6ce1 06be
00000050: 6c0f 75be b569 ae3e e795 18bd 1fe8 c83e
00000060: 68e2 af3e e5a7 f3bd fe74 e33d 73bc 86bd
00000070: f5eb 04bf 6b43 e0bd 7d03 b13e 94f2 c33e
00000080: cf0e 093f 71f2 8d3d 624a bd3e 9560 243e
00000090: f15d a53e 5520 b93e 0e27 0a3f f03b aa3e
0.12698248 0.11128552 -0.05301999 0.45444164 0.35906696 0.1780245 0.21873836 -0.09123832
-0.06540948 0.15067531 0.2836493 -0.19775465 0.16574019 -0.021164695 -0.0019733226 0.32753474
0.3702035 0.1442548 -0.001049832 -0.13171929 -0.23931664 0.34065023 -0.037252333 0.39239594
0.34352422 -0.11897258 0.11106299 -0.065789126 -0.5192254 -0.10950359 0.34572974 0.3827101
0.5353822 0.06931008 0.36970812 0.16052468 0.32298234 0.3615748 0.5396584 0.33248854

encoder.lstm.bias_hh_l0_reverse f4 [40]
00000000: 8f89 fe3d cc2b d93d db9c e93e 2861 b43e
00000010: b2f3 2dbe 53c0 cb3e 22d1 c4bd 4f42 16be
00000020: a239 853d b981 dc3d 5ef4 593e e88c b53e
00000030: 06bf 00be d858 6abd 5b6c 913e 16f4 eabd
00000040: f0e2 0d3e 45b7 3d3e 2f18 993d 95c0 373c
00000050: 5d88 d0be 21d4 01be cd1c 4c3d c7c5 db3e
00000060: 7277 153e 6c69 8a3e aeed 4a3c 7d71 a4bd
00000070: 5efc fabd 9221 0fbe f63b 043f eed8 433e
00000080: f28b 9c3e 419e d53d 506c 3a3e dab2 3b3e
00000090: 88d7 a03e 79a3 b93e 8462 493e 1314 843e
0.12428581 0.10604057 0.45627484 0.35230374 -0.16987494 0.3979517 -0.096102014 -0.14673732
0.06505133 0.1076693 0.21284625 0.35459065 -0.1257287 -0.057213634 0.2840298 -0.11472337
0.13856101 0.18526943 0.07475316 0.011215349 -0.40729037 -0.12678577 0.049832154 0.4292433
0.14596346 0.27033556 0.012385769 -0.08029459 -0.122551665 -0.1397765 0.51653993 0.19125721
0.3057552 0.10430575 0.1820538 0.18329945 0.31414437 0.36257532 0.19666487 0.25796565

decoder.lstm.weight_ih_l0 f4 [80, 20]
00000000: 8105 2c3d be72 393d 4590 e83d b108 9dbd
00000010: 6b34 983d f4c5 acbd 78c9 bc3b fbaa 9d3c
00000020: 65f8 e33d e668 edbb df04 bb3d c386 0abe
00000030: 8a76 22be 4412 853d 09b8 c93c 7bd3 103e
00000040: a8c2 43bd 1003 11be 9140 2abd 40ed 5cbd
00000050: ea6f 213e cbb2 8d3e a951 453e 4f4f 1abe
00000060: e9fa 82be 1258 9c3d ea90 5c3d 3a9c 88bd
00000070: 9ccc 1fbe b4a0 b2bd 89b0 e33d 09d7 723d
00000080: 1a1e cc3d 1bfa c03d 0b5c 043d 5c51 883e
00000090: c236 323e 78fc a9bd 2bf9 4fbe 7815 f13d
000000a0: abe2 84be 82c9 bc3d 6389 bc3d 0ca6 2bbe
000000b0: cbb9 14bd 50d8 a6bd 4ffa 13be a25a 2bbd
000000c0: 1589 393d 7c26 a7bd ced3 44be 787b 883d
000000d0: 09d0 c2bd 4fc5 22be b78b eabd 2439 72bc
000000e0: 3a9c c6bd c6cf 463e 7d4a 96bd f79f 533e
000000f0: f9b5 d33d 338e ea3c 6ae9 803e 4e5b 033e
00000100: 4b8d 6ebe db05 f2bb 3c33 3cbe d98d 6abc
00000110: 74a8 e83d 4453 5a3d 701f c93c ef21 663e
00000120: 1062 8b3d f6b8 433e c58b b93d 471f 92bb
00000130: adb1 d0bd e31c 073d c2b0 ec3d c80c ac3d
00000140: 38cc 30be 136e 0b3e bdac 0bbe 08e4 3fbe
00000150: 77b3 073e e181 fe3d dbc6 3cbe ebde 5abe
00000160: a515 093d eb6e 273e 8b93 86bd 709c f4bc
00000170: cd65 ff3c 9bd4 193d 8ea4 4c3e 8b59 943d
00000180: ab4d 143c 1c27 b5bc 48b6 92be 0e7e 03be
00000190: 729e 6dbe cf4f 0ebd 5e7a 23bd 7764 c0bd
000001a0: 2365 88be b103 3bbd 634a 2bbd 483a 70be
000001b0: f4da cbbb 91a2 41bd a78e 7d3d 7fc5 443e
000001c0: 8d3a d13c 0646 6f3e 596a 30be c3c0 55bd
000001d0: fe9b a6bd b0df 2c3e d696 65be 5d2e dfbd
000001e0: 7f03 2d3e cfe0 5cbe 7976 8fbb e5b9 bcbd
000001f0: 2785 e03b b397 3bbd f601 1ebe 4375 10be
00000200: bd24 8bbd 2861 b1bd 8ba0 04be ad3c b8bd
00000210: fcb0 963d 962e 24be 2c01 f53d b2f2 c43c
00000220: e2d0 873d c3c7 1e3e b0cc 22be c3c0 0abe
00000230: ccf7 f2bd 4d15 463d cba0 2e3e 2a0b ab3d
00000240: 120e c6bd 2246 bbbc ebae 0ebe dcf2 2fbe
00000250: 6430 433d 7c61 7fbe b98c 353e 64a9 66bd
00000260: f0fc 363e 2981 66bd 315e 42be 9ed8 533e
00000270: ba59 873b 50a0 4e3e 8893 f5ba e5dc 0bbe
00000280: b599 913d 33b2 d23d 9370 aebd ed3a c7bd
00000290: ffd5 bb3c 332c 03be 99e2 1abc 25f2 ef3d
000002a0: 7c73 823d 81d0 15be 4930 2d3e c106 fa3c
000002b0: 3cdf 9ebd 91b3 e1bc df5a 2d3c d419 f83d
000002c0: 7a4f 1fbe fcf3 bdbc 284c 97be 0c3c 813e
000002d0: ddab b13d 455c b23e b2d5 523e 5e3d 18be
000002e0: f2ea 88bd 9d26 063e 9f09 18be 4d73 49be
000002f0: d1d2 58be a8a5 8b3d 11c8 d6bd f68e 323e
00000300: 0521 02be acdd c03d b402 8e3e 6aea 433e
00000310: 9a92 9e3e 1890 e3bc b8e5 e8be ff68 563e
00000320: 2691 bfbd 1ac7 093e 3604 26be 77de 193e
00000330: 22b4 0dbe fe5c 213e 5a7f 403e 01ba 003e
00000340: be54 593d c77f 9c3d 4d8e e3bd 154a 293e
00000350: a55d db3d 2cc2 9abd e0c9 693d 3e3b a8bc
00000360: ae40 48bd effa d83d 614a 363e e0b4 3a3e
00000370: b1e1 7abd bebc ac3d 8fbf 223e d5ad 04be
00000380: 0970 a2be 8997 69be ac0e c7be 95b6 8d3d
00000390: 3c43 8dbe 329c 743a 2e5b a8be b50a 253d
000003a0: 41dc 35be d5a9 893e 3e03 553e 3c14 873d
000003b0: 9e76 0e3e 5838 883b 7191 efbe cdd8 98bd
000003c0: ceed 98be e418 82bd 0ecf 4e3e 656c f3bd
000003d0: d790 7fbe 6c31 e43c 53a8 cc3d 5382 fcbd
000003e0: 8bad 99be ff89 01be 534d 8d3d 6fb8 0e3e
000003f0: ac95 78be 48e0 5e3a 93ed 0bbe 812d 9f3e
0.041997436 0.045275442 0.11355642 -0.076676734 0.07431873 -0.08436194 0.0057613216 0.019246569
0.11131362 -0.007245171 0.091317885 -0.1352797 -0.15865532 0.064976245 0.024623888 0.14143173
-0.04779306 -0.14161325 -0.04156548 -0.053937197 0.15765348 0.2767547 0.19269432 -0.15069316
-0.25582054 0.076339856 0.05384914 -0.06670423 -0.15605396 -0.08722058 0.11117656 0.059287105
0.09966679 0.09422704 0.03231434 0.26624572 0.17403701 -0.08300108 -0.20309894 0.11771673
-0.25954184 0.09218122 0.09205892 -0.1676256 -0.03631 -0.08146727 -0.14450954 -0.04183448
0.045296747 -0.08161637 -0.19221422 0.06664175 -0.09512336 -0.1589558 -0.1145243 -0.014784131
-0.096977666 0.19415197 -0.07338426 0.2066649 0.10337443 0.028632259 0.2517808 0.12827799
-0.23296086 -0.007385952 -0.1837892 -0.014316046 0.11360255 0.053302065 0.024551123 0.22473882
0.06805813 0.19113526 0.09059862 -0.004459295 -0.10190139 0.032986533 0.115571514 0.08400875
-0.17265403 0.13616209 -0.13640113 -0.18739331 0.13252054 0.12427116 -0.18435232 -0.21374099
0.033467907 0.16350906 -0.0657111 -0.029859751 0.031176472 0.037556272 0.19984648 0.072436415
0.009051721 -0.022113375 -0.28654695 -0.12841055 -0.23204973 -0.03474408 -0.03991162 -0.09394162
-0.2663966 -0.045657817 -0.041818988 -0.23459733 -0.0062211696 -0.047274176 0.061903622 0.19215964
0.025540615 0.23366556 -0.17228068 -0.052185785 -0.08135222 0.16882205 -0.2242082 -0.10897515
0.16895865 -0.21570133 -0.0043781367 -0.09215144 0.0068518105 -0.04579897 -0.15430436 -0.14107232
-0.06794117 -0.08661109 -0.12951867 -0.08995948 0.07357976 -0.16033396 0.11963114 0.024041507
0.06631638 0.1550589 -0.15898395 -0.13550095 -0.1186367 0.048360158 0.17053525 0.08351739
-0.096706524 -0.02286059 -0.13933913 -0.17182487 0.04765357 -0.24939531 0.17729463 -0.056313887
0.17869925 -0.05627552 -0.18981244 0.20688102 0.0041305693 0.20178342 -0.0018735984 -0.13658483
0.071093954 0.10287895 -0.085175656 -0.09728036 0.02292919 -0.1280983 -0.009453439 0.11716107
0.06369683 -0.14630319 0.1691295 0.030520799 -0.07757422 -0.027551444 0.010580747 0.12114301
-0.15557662 -0.02318763 -0.2955029 0.25241125 0.086753584 0.3483602 0.20589331 -0.1486716
-0.06685437 0.13100667 -0.1484742 -0.1967289 -0.2117417 0.06818706 -0.104873784 0.17437348
-0.12707908 0.094172806 0.27736437 0.1913239 0.30971223 -0.02777867 -0.45487761 0.2093849
-0.09353857 0.13454857 -0.16212544 0.1502627 -0.13838246 0.1575813 0.18798581 0.12570955
0.053059332 0.07641559 -0.11111126 0.16532166 0.10711221 -0.075565666 0.05707729 -0.020536061
-0.04888981 0.10594737 0.17801811 0.18233061 -0.061250392 0.08434437 0.15893386 -0.12956937
-0.317261 -0.22811712 -0.3887838 0.069195904 -0.27590358 0.0009331136 -0.32882065 0.040293414
-0.17759801 0.26887384 0.20802018 0.06595656 0.13912436 0.0041571073 -0.4679065 -0.074632265
-0.2986893 -0.06352404 0.20196173 -0.11885909 -0.24957596 0.027855597 0.09993043 -0.12329545
-0.30015215 -0.12650298 0.06899514 0.13937543 -0.24275845 0.00085020484 -0.13664846 0.31089404

decoder.lstm.weight_hh_l0 f4 [80, 20]
00000000: 5a50 c0bd 9e69 6fbd cfd6 80be 3f9e 1abe
00000010: 29ff 0f3e e809 00be cb4b 88bd f7f1 34bd
00000020: 4d3a 74be 23f5 2dbd 35cb 5cbc cc79 173e
00000030: 5577 12bd c3ec 0d3e f5c6 f9bd 2d4f b3bd
00000040: 0b37 073e 1c6c e63c 530e 463d 104a 983e
00000050: 943d 0dbe c5c3 69be 5681 0abe b807 403e
00000060: 2126 9ebd 2b00 00be 4764 a23d acc2 0a3e
00000070: bf28 c63d 2184 823d 2e7c 663c 279c 06be
00000080: 97a1 873d 9494 aebd 6a84 3abd dc14 04be
00000090: 2ac0 fcbd 77c4 9fbd 9d9c 8dbd 6e5c 9abd
000000a0: 02ab b33d b888 693e 6366 a1bc 31e0 3bbd
000000b0: 8477 38be 17c5 a83d 2ec6 0e3e 25e0 3fbd
000000c0: bb1c 17bb abd1 69be b8a7 1d3e ecfa a63d
000000d0: 9f42 b3bd 7125 4fbd de5d b43d 3fef 0ebe
000000e0: fa84 593c 442a a5bd ad91 9abd ab91 04be
000000f0: 4169 d93c 2600 19be eaa6 b93d 4ed9 823d
00000100: 1f02 4a3e 8971 94be bdb5 0ebe d0d0 febd
00000110: a7c1 9fbe afb8 80be a588 cf3d 7e45 0b3e
00000120: 1158 463e 7706 453e 4deb babd c262 1c3e
00000130: a21c cc3d 6e08 003e 8b59 253d 8c29 b9bd
00000140: d2ca b43d 7262 5eba 1b2a 3d3e 6ae4 6a3e
00000150: 8e62 813e 7765 2abe 9ef4 2a3e 2a5e 8dbd
00000160: 42a3 03be dd12 b43d ba8b c9bd 8199 703e
00000170: 8b0e cf3d d6e7 3c3e 5ac1 76bc fac4 103e
00000180: 3363 b93d 4f6f a43d 7e28 90bd 8956 03be
00000190: 41d3 b93d 4441 02be d53d 31be 790e b23d
000001a0: 0b2b 943d 19f3 233e f034 b5bc 5ef0 a13d
000001b0: 00fb cebd 16f9 ed3d 08d2 3abe d8a3 f33d
000001c0: 8c04 b43d dac6 81bd 9241 2f3e 2864 a13c
000001d0: fcf9 873e eba5 1abd bdd9 083d 4f90 fb3c
000001e0: 408b 4bbd 4777 11bd c9a0 7a3d 578c 31bd
000001f0: f243 033d 5f37 90be 3ad3 783c 8d9f 98be
00000200: f47e 5abe f0b2 5dbe 886f 00be ed9d 64be
00000210: 7568 553e 009c 2a3e 026c 3b3e 9dcb f73d
00000220: b3dd 603d e61e f23d 5518 313e 8dd7 d4bd
00000230: bbbb 56be b7ca 673e cbb7 363e ea45 53be
00000240: a7b4 2bbe b3cc be3d dc64 f9bd 31f8 463e
00000250: 106f 2dbe 7d5a f83d 0f49 37be 0178 4fbe
00000260: 0414 bf3d 1495 39be 2ce3 1b3e d4ed c23d
00000270: def6 5e3e dae9 70be 3ebc b8bd 720e f63d
00000280: e66b 7fbe 8152 f73d e946 493e d0d9 283e
00000290: 9207 02be 3002 713e cc66 343e 8e0d 23be
000002a0: c5dc 2abe b50f 4cbe 4690 2d3e 9b3c 8e3c
000002b0: e212 e13d 66c7 62bd cf59 b93d 6c0c 96bd
000002c0: fc1c 31be b34c 673d cd61 12be 29cc b1bd
000002d0: a19f 8abd f758 c9bd 69e9 39be a418 593e
000002e0: 46b6 92bd 18b1 f33d 24e8 0e3e dd37 72bc
000002f0: 07d4 3b3e 10e4 25be fbb5 693e 7523 7fbd
00000300: 583b 61be 25ac 25bc 6cab a8bd ac3a 153e
00000310: 78d0 9f3c 33db 14bd e363 0d3e 62db 703e
00000320: c5b6 ed3d fb54 903c d698 c93d ed9d 3c3e
00000330: 4929 07be 7225 08bd 45be f9bd 357a cabd
00000340: af21 663e d28b f43d 9822 1fbe 8af6 5d3e
00000350: cf1f 863d ed6f 1ebe 1747 cc3d 85be b93b
00000360: e9e8 9dbd 8744 53be ef02 96bd f01a 76be
00000370: 7575 e63d 1f8a 3fbe 51f8 5cbe 01cb 983d
00000380: e0dc a8bd e168 4c3e 1f19 213e 25b3 20bc
00000390: 2bdf 82be 42ea e1bc 4123 8d3d e576 3e3e
000003a0: b540 8f3d 414e 7ebe 742f 4dbd e716 69be
000003b0: 4ac4 7ebe ce13 00be 4dd8 ca3d 3e9a 0c3e
000003c0: 4795 6bbd 11a2 4abd d98c 28be 61ce 6abe
000003d0: 1040 c03d a649 c2bc c825 153e 50bb 303e
000003e0: ad83 fe3d a562 95bd 8163 db3d c6e0 85bd
000003f0: d6e5 d6bc 510c f03d c2c0 cc3d feb2 2ebe
-0.09390326 -0.058450334 -0.25163886 -0.15099429 0.1406218 -0.12503779 -0.06655081 -0.04417607
-0.23850365 -0.04247011 -0.013476183 0.14792556 -0.035758335 0.13859849 -0.12196151 -0.08755336
0.13204591 0.028127722 0.048353504 0.29744005 -0.13793021 -0.22828586 -0.135259 0.18752944
-0.07722116 -0.12500064 0.07929283 0.13550824 0.096757405 0.06372858 0.014067693 -0.13145505
0.06622618 -0.08524433 -0.045536436 -0.12898582 -0.1234134 -0.078011446 -0.06914637 -0.07537161
0.087728515 0.2280606 -0.019702142 -0.045868102 -0.18014342 0.08240717 0.13942787 -0.04684462
-0.0023057896 -0.22833888 0.15396011 0.08153328 -0.08752941 -0.050572816 0.08806966 -0.13958453
0.013276333 -0.08064702 -0.07547317 -0.12946193 0.026539447 -0.14941463 0.090650395 0.06389104
0.19727372 -0.2899287 -0.13936515 -0.124421716 -0.31202433 -0.25140902 0.10133485 0.13600728
0.19369532 0.19240747 -0.09126911 0.15272048 0.09966399 0.12503216 0.040368598 -0.090411276
0.088277474 -0.00084832974 0.18473093 0.22938696 0.25270504 -0.16640268 0.16694877 -0.06902726
-0.12855247 0.087926604 -0.09841104 0.23496057 0.10110196 0.18447813 -0.015060747 0.1413764
0.09052124 0.08029043 -0.07038973 -0.1282598 0.090734966 -0.1272021 -0.17308743 0.08694167
0.07234772 0.16010703 -0.02211997 0.079071745 -0.10106468 0.11619775 -0.18244183 0.11896485
0.0878993 -0.06336756 0.17114857 0.019701079 0.2655791 -0.037755888 0.033410776 0.03070846
-0.049693346 -0.035514142 0.061188493 -0.04334673 0.03204722 -0.28167245 0.015187079 -0.29809228
-0.21337491 -0.2165029 -0.12542546 -0.22325869 0.20840628 0.16661072 0.1830292 0.12099383
0.05489893 0.118223 0.17294438 -0.103926755 -0.20970051 0.22635923 0.17843549 -0.20632139
-0.16768132 0.09316387 -0.121774405 0.19430615 -0.16936898 0.12126634 -0.17898963 -0.20260622
0.093299896 -0.18123275 0.15223378 0.09518018 0.2177386 -0.23526707 -0.09020279 0.12014474
-0.24943504 0.12076283 0.19655956 0.16489339 -0.126982 0.2353599 0.17617339 -0.1592314
-0.1668578 -0.19927867 0.16949567 0.017362883 0.1098993 -0.055365942 0.09050333 -0.07326588
-0.17296213 0.05646963 -0.1429512 -0.086815186 -0.06768728 -0.09831422 -0.18155445 0.21200806
-0.07163672 0.11899012 0.13955742 -0.014783827 0.18342601 -0.1620028 0.22823326 -0.062289674
-0.21995294 -0.010111843 -0.08235821 0.14573163 0.019508585 -0.036341857 0.13807635 0.23521188
0.11607126 0.017618647 0.09843604 0.18419619 -0.13199343 -0.033238836 -0.12194494 -0.098865904
0.22473787 0.11940731 -0.1554054 0.21676078 0.06549036 -0.15472384 0.09974497 0.0056684637
-0.0771044 -0.2063161 -0.07324778 -0.24033713 0.11252872 -0.18705033 -0.215791 0.07460595
-0.082452536 0.19961883 0.15732239 -0.009808336 -0.2556089 -0.027577523 0.0689149 0.18600042
0.06994764 -0.24834539 -0.050094083 -0.22762643 -0.24879566 -0.12507555 0.09904537 0.13730714
-0.05751541 -0.049470965 -0.16459979 -0.2293029 0.09387219 -0.023716759 0.14565194 0.17258954
0.12427459 -0.072942056 0.10712338 -0.06537013 -0.026232641 0.11721099 0.09997703 -0.17060468

decoder.lstm.bias_ih_l0 f4 [80]
00000000: 9d20 223e 0b33 693e b7ba 35bd 4393 243e
00000010: 86a8 893e b187 49be 4689 03bd 3fb9 363e
00000020: 32b7 883d 495b 5fbc 5c7f 3fbe cb4a b93b
00000030: 9160 573e 95be 843e 4c1f a63d 04e4 abbd
00000040: 186f 1f3e 79b0 62be c557 0cbe 0141 c83d
00000050: c80d 863d f3d2 573e 3e1a c1bd 4d35 13bc
00000060: a4fa aebc 3446 e43d 826a 08be 5366 173e
00000070: 2ac6 31bd 57e2 a23d 6dbb 0cbe 044d 8e3e
00000080: 8fb7 febd c1ed 0cbe c430 b93c c0e4 6d3d
00000090: 3e60 3b3e db5a 6abe 0bee febd dbfb 073e
000000a0: caac 603e b97c 05be 2f56 33bc 2d32 66bd
000000b0: 154d 893e db62 84bd d875 bb3c 1146 37be
000000c0: df8e 0abe c397 373e 6bf6 33be 6aae d03c
000000d0: 333a 4bbe ca94 38be ff07 84be a0fe 723d
000000e0: 4ea8 62be 29e9 373e b91c b43d 3f1c 183e
000000f0: 37a9 c23d 8c17 26be 2cdf 63be e8d7 9fbd
00000100: 0baf 303e 6c87 4a3e ed7f f2bd 6750 b9bd
00000110: e5b4 22be 2a17 453e 8f22 4dbe 0245 cbbd
00000120: b610 8c3d 0883 883e b14b 403e 0187 003e
00000130: 30e8 f23d 414f 5fbe 077b 763e 5691 2b3d
0.15832753 0.22773378 -0.04436752 0.16071801 0.26886386 -0.19680668 -0.032113336 0.17844103
0.06675567 -0.013632604 -0.18700927 0.005654668 0.21032931 0.25926653 0.08111438 -0.083931
0.15569723 -0.22137631 -0.13705356 0.097780235 0.06545597 0.21076564 -0.094288334 -0.008984876
-0.02135975 0.11146203 -0.1332188 0.14785127 -0.043401875 0.07953327 -0.13743372 0.27793133
-0.12437355 -0.13762571 0.022606261 0.05807948 0.18298432 -0.22886221 -0.12447747 0.13279669
0.21940914 -0.13035859 -0.010945841 -0.056200195 0.2681662 -0.06464168 0.02288334 -0.17897822
-0.13531063 0.17928986 -0.1757447 0.025473792 -0.1984642 -0.18025509 -0.2578735 0.05932486
-0.22134516 0.17960037 0.08794541 0.14854525 0.095049314 -0.1621992 -0.22253102 -0.07804853
0.17254274 0.19778222 -0.11840806 -0.09048539 -0.15889318 0.19247118 -0.20032714 -0.099252716
0.06839125 0.2666247 0.18778874 0.125515 0.118606925 -0.21807577 0.24070369 0.04188665

decoder.lstm.bias_hh_l0 f4 [80]
00000000: 9fdf 683e 88bf 823e ce7a 06be 1e73 e1bd
00000010: a1e3 8dbd ea0d 2d3e 047f 643e b0ab c43b
00000020: efa8 b73c 411e c03d f382 febd be6b f43d
00000030: b339 babd f7fb bbbd 2a17 02bd d1b2 a1bc
00000040: 4671 89bd b595 5abe eeb0 d03c 1d13 3f3e
00000050: bca3 50bd 2f03 2f3e a0cb 6a3d 35d0 cb3d
00000060: 439b 82bd d0fa 37be a956 763d e9f8 443e
00000070: 3c44 f43c f75f 323e a5d2 543d 8044 433e
00000080: d81e 40be 050d 2c3e 0a0b 20be 391a 2c3e
00000090: 10a1 303e 4008 54bd 1081 06be 6fd9 7abe
000000a0: 1c42 703e a02e 61be 04d0 06be 8cb9 ec3d
000000b0: 1208 183e ab30 963d b82e 473e 9868 9a3d
000000c0: a610 8f3d 4519 51bd 24b8 e83d 6672 8c3d
000000d0: de03 ba3d 8a1c 8fbd a34a 90bd a241 fabd
000000e0: e00a 44be 1b67 22be 7a28 103e d834 6f3d
000000f0: b06a 36bd 2869 e33c 49fa 77be f9fe d13d
00000100: b852 c03d 0ac3 c0bb f681 bdbd 8d44 353e
00000110: d620 acbd 1885 cabd b43b 753d edad 09be
00000120: 9ba3 3f3e dd6e 7f3e 8fd1 443e ad0c c0bd
00000130: df92 1f3c b32e 00bd 4302 933d 8043 de3c
0.22741555 0.25536752 -0.13132784 -0.11008285 -0.069281824 0.16899839 0.22314078 0.006001912
0.022419421 0.093807705 -0.1242732 0.11934613 -0.090930365 -0.09178918 -0.031760372 -0.019738587
-0.06711058 -0.21346171 0.025474992 0.18659635 -0.0509374 0.17091058 0.0573231 0.09951822
-0.0637727 -0.17966771 0.06014124 0.19235577 0.029817693 0.1741942 0.0519587 0.190691
-0.18761766 0.16801842 -0.15629211 0.16806878 0.1724894 -0.05176568 -0.13135171 -0.24497007
0.23462719 -0.21990442 -0.13165289 0.11558828 0.14846829 0.073335014 0.19451416 0.07539481
0.06985597 -0.05104949 0.11363247 0.06857757 0.09082769 -0.06987865 -0.07045486 -0.1221955
-0.19144773 -0.15859644 0.1407794 0.058400005 -0.04453534 0.027760103 -0.2421657 0.1025371
0.09390777 -0.0058826255 -0.09253304 0.17701931 -0.084047005 -0.09888667 0.05987139 -0.13445254
0.18714754 0.24944635 0.19220565 -0.09377418 0.009739607 -0.031294536 0.07178166 0.027131796
