models/101-seed-100train_control-10/itr-0-decoder_Y.pth.pth (torch, 1255 bytes, 2 tensors)

lin.weight f4 [5, 10]
000000 ce 6e 91 be f9 58 d2 be ce 5f c3 be 66 4a da 3e
       -0.2840485 -0.41083506 -0.3815903 0.42634887
000010 10 0b 48 bf 4a e2 a6 3e 0c 25 36 3f e6 47 2a 3f
       -0.7814188 0.3259452 0.7115028 0.6651596
000020 a7 57 36 3f 3e c3 3a bf f6 38 6d be 7d f6 01 bf
       0.71227497 -0.72954166 -0.2316626 -0.50766736
000030 c2 78 11 bf 06 2d 2c 3f 73 4b 13 bf f5 71 10 3f
       -0.56824887 0.672562 -0.57537 0.56423885
000040 1e 47 f2 3e ea 44 12 3f 1e 91 e7 3e ba a3 3b bf
       0.47319883 0.57136405 0.45227903 -0.732967
000050 9d 1b 93 be 64 33 0b bf 44 5b cd be f4 f0 19 3f
       -0.28732005 -0.5437529 -0.40108693 0.6013329
000060 df 9b 14 bf c7 cd 4e 3f 85 32 07 3f ca 1f 11 3f
       -0.5805034 0.8078274 0.5281146 0.5668913
000070 0a 79 ac 3e 91 15 00 bf e2 f0 21 bf 25 b0 0a bf
       0.33686095 -0.5003291 -0.63258183 -0.54175025
000080 b0 00 c3 be 6f 8b 24 3f d5 1f fb be 22 d4 41 3f
       -0.38086462 0.6427526 -0.49047723 0.75714314
000090 80 37 e8 3e 4b f1 0d 3f ef 20 ce 3e 84 89 eb be
       0.45354843 0.5544631 0.402595 -0.46003354
0000a0 33 21 b3 be f6 a7 37 bf a8 b1 43 bf df d8 7e 3e
       -0.34986266 -0.71740663 -0.76442957 0.24887417
0000b0 f3 0f de bd 70 84 6d 3f 8a 02 1c 3f c1 ee 5c 3f
       -0.10842886 0.9278021 0.60941374 0.8630181
0000c0 16 a3 97 3e a2 7b 9e be
       0.29616612 -0.309537

lin.bias f4 [5]
000000 c3 0b 79 3e 19 c2 e3 bb ea 77 c2 ba 83 25 03 bd
       0.24320893 -0.0069506285 -0.0014836763 -0.032018196
000010 f7 0a fc bd
       -0.12306779
