models/101-seed-100train_treated-40/itr-0-decoder_Y.pth.pth (torch, 1831 bytes, 2 tensors)

lin.weight f4 [5, 40]
-0.17707491 0.084504865 -0.15319932 -0.23885794 0.13155912 -0.12223098 0.23393375 -0.16757973
-0.30174017 -0.23452763 0.099502884 0.14956479 0.17131303 -0.075092174 0.16511354 0.29157507
-0.2700231 0.17736256 0.36811927 0.10994225 -0.00254246 0.30106768 0.19545737 0.093033224
0.28067008 0.025907151 -0.12693812 0.16539139 0.033800844 -0.28770342 0.13147938 -0.21234389
0.04005325 0.010967163 -0.20663033 0.30792448 0.21279176 -0.28543326 0.025503965 -0.34784955
-0.2355375 -0.047745235 0.012193489 -0.19678287 0.17973466 -0.22152334 0.18518281 -0.19630858
-0.34142467 -0.24067283 0.24674274 0.22904521 0.18607678 -0.0791287 0.2812024 0.28634176
-0.23174314 0.25305107 0.3613534 0.065778695 0.0008634067 0.15554762 0.31899863 0.04016952
0.2067492 0.17756467 -0.013336022 0.11774702 0.20670372 -0.27960968 -0.016262105 -0.09997096
0.2574792 0.14939594 -0.22213008 0.26817176 0.12830587 -0.1498071 0.014166273 -0.06250601
-0.2751896 -0.039114695 0.017464545 -0.09454182 0.028773995 -0.12301281 0.08166915 -0.0702516
-0.28518 -0.078239396 0.047339555 0.20264791 0.21930707 -0.13005435 0.18975922 0.28043216
-0.26418376 0.07485088 0.118292466 0.117627576 0.2315755 0.18705992 0.09521896 0.18797953
0.26144448 0.30220884 -0.17431988 0.20803995 0.23876746 -0.08306259 0.17080161 -0.13182174
0.20807643 0.027561389 -0.27247554 0.2666884 0.30926853 -0.20959294 -0.16380589 -0.2869528
-0.14215657 0.0008543862 -0.20537134 -0.23460145 0.114269555 -0.16587013 0.11506431 0.013552908
-0.055937808 -0.10880213 0.25518367 0.16486602 0.18169777 -0.22620901 0.19553994 0.2316115
-0.18210335 0.2055898 0.14041148 0.16080399 0.22964758 0.16621754 0.33384576 0.161581
0.28964925 0.13937208 -0.16269504 0.10120771 0.3372638 -0.06230391 0.24209239 -0.121025585
0.29446578 0.13610983 -0.0927881 0.03539639 0.15597554 -0.21264562 -0.07979866 -0.17467792
-0.14481904 -0.010306975 -0.24875847 -0.30695862 0.1427829 -0.17915398 0.12223181 -0.17274322
-0.0098258 -0.04347469 0.26776928 0.14807937 -0.048302315 -0.107537165 0.28601217 0.35546622
-0.18474491 0.13996114 0.23424007 0.045043696 0.24053665 0.085708946 0.068162374 0.27503842
0.15186448 0.2719494 -0.2502561 0.1773015 0.21581954 -0.30962092 0.09624836 -0.078066796
0.12783962 0.24997973 -0.07713923 0.037363436 0.2798345 -0.31654656 -0.2054953 -0.095598936
00000000: 2053 35be e310 ad3d 48e0 1cbe 2d97 74be
00000010: 6fb7 063e 3c54 fabd 548c 6f3e 059a 2bbe
00000020: b07d 9abe 0328 70be 2bc8 cb3d 8327 193e
00000030: af6c 2f3e edc9 99bd 8613 293e 5449 953e
00000040: 7840 8abe 889e 353e 217a bc3e 6729 e13d
00000050: 679f 26bb 8b25 9a3e fa25 483e 3488 be3d
00000060: fdb3 8f3e 3c3b d43c 11fc 01be 5c5c 293e
00000070: c172 0a3d dd4d 93be 88a2 063e ad70 59be
00000080: e00e 243d 9eaf 333c e796 53be 47a8 9d3e
00000090: 15e6 593e 4f24 92be b1ed d03c 5619 b2be
000000a0: be30 71be 8290 43bd 33c7 473c 7381 49be
000000b0: 5d0c 383e 04d7 62be 90a0 3d3e 1e05 49be
000000c0: 37cf aebe f072 76be 21aa 7c3e d48a 6a3e
000000d0: e98a 3e3e 3a0e a2bd c3f9 8f3e 639b 923e
000000e0: 134e 6dbe e98f 813e 5003 b93e fbb6 863d
000000f0: 3e56 623a e047 1f3e ca53 a33e cb88 243d
00000100: 10b6 533e 83d3 353e 557f 5abc 5a25 f13d
00000110: 24aa 533e 0029 8fbe 1b38 85bc 93bd ccbd
00000120: 50d4 833e 40fb 183e 1176 63be cf4d 893e
00000130: 9d62 033e 0867 19be a819 683c 2703 80bd
00000140: a7e5 8cbe bb36 20bd ce11 8f3c 249f c1bd
00000150: 71b7 eb3c 24ee fbbd 2842 a73d 12e0 8fbd
00000160: 1d03 92be fa3b a0bd 1fe7 413d ef82 4f3e
00000170: 0892 603e f82c 05be 3e50 423e ce94 8f3e
00000180: 1843 87be 6b4b 993d 5243 f23d bae6 f03d
00000190: 2122 6d3e a38c 3f3e 2802 c33d b57d 403e
000001a0: 0ddc 853e 1ebb 9a3e e980 32be 6d08 553e
000001b0: 757f 743e b81c aabd 9ee6 2e3e 47fc 06be
000001c0: fd11 553e 6cc8 e13c ea81 8bbe 628b 883e
000001d0: 7258 9e3e 889f 56be bbbc 27be 7aeb 92be
000001e0: 7e91 11be e3f8 5f3a dd4c 52be 5d3b 70be
000001f0: 2806 ea3d dcd9 29be d6a6 eb3d 040d 5e3c
00000200: 0b1f 65bd a7d3 debd 6fa7 823e a3d2 283e
00000210: fb0e 3a3e 56a3 67be 9f3b 483e 912b 6d3e
00000220: 4d79 3abe 2286 523e 07c8 0f3e cda9 243e
00000230: bc28 6b3e ee34 2a3e d5ed aa3e 7d75 253e
00000240: e84c 943e 8eb7 0e3e 8799 26be fd45 cf3d
00000250: d7ad ac3e 6232 7fbd 11e7 773e 43dc f7bd
00000260: 38c4 963e 6060 0b3e b007 bebd cefb 103d
00000270: 0db8 1f3e c6bf 59be 7b6d a3bd c5de 32be
00000280: 714b 14be 96de 28bc 8aba 7ebe ae29 9dbe
00000290: ae35 123e 2474 37be ac54 fa3d 99e3 30be
000002a0: 64fc 20bc 8412 32bd 0e19 893e 1ea2 173e
000002b0: a6d8 45bd 723c dcbd 3070 923e abff b53e
000002c0: c52d 3dbe f951 0f3e a1dc 6f3e bd7f 383d
000002d0: 3d4f 763e 2c88 af3d b798 8b3d d6d1 8c3e
000002e0: 5d82 1b3e f43c 8b3e 9121 80be 868e 353e
000002f0: ccff 5c3e a286 9ebe dc1d c53d 7ce1 9fbd
00000300: 64e8 023e b0fa 7f3e 2cfb 9dbd 670a 193d
00000310: 7846 8f3e 6412 a2be 5c6d 52be 60c9 c3bd

lin.bias f4 [5]
-0.14687547 0.07543341 0.04438648 0.009329485 0.02530117
00000000: 8666 16be d57c 9a3d 99ce 353d b2da 183c
00000010: 6644 cf3c
