models/105-seed-100-synctwin_lss_yes_lasso/itr-0-nsc.pth.pth (torch, 399405 bytes, 20 tensors)

B f4 [400, 200]
1e-04 1e-04 1e-04 1e-04 1e-04 1e-04 1e-04 1e-04
1e-04 1e-04 1e-04 1e-04 1e-04 1e-04 1e-04 1e-04
1e-04 1e-04 1e-04 1e-04 1e-04 1e-04 1e-04 1e-04
1e-04 1e-04 1e-04 1e-04 1e-04 1e-04 1e-04 1e-04
1e-04 1e-04 1e-04 1e-04 1e-04 1e-04 1e-04 1e-04
1e-04 1e-04 1e-04 1e-04 1e-04 1e-04 1e-04 1e-04
1e-04 1e-04 1e-04 1e-04 1e-04 1e-04 1e-04 1e-04
1e-04 1e-04 1e-04 1e-04 1e-04 1e-04 1e-04 1e-04
1e-04 1e-04 1e-04 1e-04 1e-04 1e-04 1e-04 1e-04
1e-04 1e-04 1e-04 1e-04 1e-04 1e-04 1e-04 1e-04
1e-04 1e-04 1e-04 1e-04 1e-04 1e-04 1e-04 1e-04
1e-04 1e-04 1e-04 1e-04 1e-04 1e-04 1e-04 1e-04
1e-04 1e-04 1e-04 1e-04 1e-04 1e-04 1e-04 1e-04
1e-04 1e-04 1e-04 1e-04 1e-04 1e-04 1e-04 1e-04
1e-04 1e-04 1e-04 1e-04 1e-04 1e-04 1e-04 1e-04
1e-04 1e-04 1e-04 1e-04 1e-04 1e-04 1e-04 1e-04
1e-04 1e-04 1e-04 1e-04 1e-04 1e-04 1e-04 1e-04
1e-04 1e-04 1e-04 1e-04 1e-04 1e-04 1e-04 1e-04
1e-04 1e-04 1e-04 1e-04 1e-04 1e-04 1e-04 1e-04
1e-04 1e-04 1e-04 1e-04 1e-04 1e-04 1e-04 1e-04
1e-04 1e-04 1e-04 1e-04 1e-04 1e-04 1e-04 1e-04
1e-04 1e-04 1e-04 1e-04 1e-04 1e-04 1e-04 1e-04
1e-04 1e-04 1e-04 1e-04 1e-04 1e-04 1e-04 1e-04
1e-04 1e-04 1e-04 1e-04 1e-04 1e-04 1e-04 1e-04
1e-04 1e-04 1e-04 1e-04 1e-04 1e-04 1e-04 1e-04
1e-04 1e-04 1e-04 1e-04 1e-04 1e-04 1e-04 1e-04
1e-04 1e-04 1e-04 1e-04 1e-04 1e-04 1e-04 1e-04
1e-04 1e-04 1e-04 1e-04 1e-04 1e-04 1e-04 1e-04
1e-04 1e-04 1e-04 1e-04 1e-04 1e-04 1e-04 1e-04
1e-04 1e-04 1e-04 1e-04 1e-04 1e-04 1e-04 1e-04
1e-04 1e-04 1e-04 1e-04 1e-04 1e-04 1e-04 1e-04
1e-04 1e-04 1e-04 1e-04 1e-04 1e-04 1e-04 1e-04
00000000: 17b7 d138 17b7 d138 17b7 d138 17b7 d138
00000010: 17b7 d138 17b7 d138 17b7 d138 17b7 d138
00000020: 17b7 d138 17b7 d138 17b7 d138 17b7 d138
00000030: 17b7 d138 17b7 d138 17b7 d138 17b7 d138
00000040: 17b7 d138 17b7 d138 17b7 d138 17b7 d138
00000050: 17b7 d138 17b7 d138 17b7 d138 17b7 d138
00000060: 17b7 d138 17b7 d138 17b7 d138 17b7 d138
00000070: 17b7 d138 17b7 d138 17b7 d138 17b7 d138
00000080: 17b7 d138 17b7 d138 17b7 d138 17b7 d138
00000090: 17b7 d138 17b7 d138 17b7 d138 17b7 d138
000000a0: 17b7 d138 17b7 d138 17b7 d138 17b7 d138
000000b0: 17b7 d138 17b7 d138 17b7 d138 17b7 d138
000000c0: 17b7 d138 17b7 d138 17b7 d138 17b7 d138
000000d0: 17b7 d138 17b7 d138 17b7 d138 17b7 d138
000000e0: 17b7 d138 17b7 d138 17b7 d138 17b7 d138
000000f0: 17b7 d138 17b7 d138 17b7 d138 17b7 d138
00000100: 17b7 d138 17b7 d138 17b7 d138 17b7 d138
00000110: 17b7 d138 17b7 d138 17b7 d138 17b7 d138
00000120: 17b7 d138 17b7 d138 17b7 d138 17b7 d138
00000130: 17b7 d138 17b7 d138 17b7 d138 17b7 d138
00000140: 17b7 d138 17b7 d138 17b7 d138 17b7 d138
00000150: 17b7 d138 17b7 d138 17b7 d138 17b7 d138
00000160: 17b7 d138 17b7 d138 17b7 d138 17b7 d138
00000170: 17b7 d138 17b7 d138 17b7 d138 17b7 d138
00000180: 17b7 d138 17b7 d138 17b7 d138 17b7 d138
00000190: 17b7 d138 17b7 d138 17b7 d138 17b7 d138
000001a0: 17b7 d138 17b7 d138 17b7 d138 17b7 d138
000001b0: 17b7 d138 17b7 d138 17b7 d138 17b7 d138
000001c0: 17b7 d138 17b7 d138 17b7 d138 17b7 d138
000001d0: 17b7 d138 17b7 d138 17b7 d138 17b7 d138
000001e0: 17b7 d138 17b7 d138 17b7 d138 17b7 d138
000001f0: 17b7 d138 17b7 d138 17b7 d138 17b7 d138
00000200: 17b7 d138 17b7 d138 17b7 d138 17b7 d138
00000210: 17b7 d138 17b7 d138 17b7 d138 17b7 d138
00000220: 17b7 d138 17b7 d138 17b7 d138 17b7 d138
00000230: 17b7 d138 17b7 d138 17b7 d138 17b7 d138
00000240: 17b7 d138 17b7 d138 17b7 d138 17b7 d138
00000250: 17b7 d138 17b7 d138 17b7 d138 17b7 d138
00000260: 17b7 d138 17b7 d138 17b7 d138 17b7 d138
00000270: 17b7 d138 17b7 d138 17b7 d138 17b7 d138
00000280: 17b7 d138 17b7 d138 17b7 d138 17b7 d138
00000290: 17b7 d138 17b7 d138 17b7 d138 17b7 d138
000002a0: 17b7 d138 17b7 d138 17b7 d138 17b7 d138
000002b0: 17b7 d138 17b7 d138 17b7 d138 17b7 d138
000002c0: 17b7 d138 17b7 d138 17b7 d138 17b7 d138
000002d0: 17b7 d138 17b7 d138 17b7 d138 17b7 d138
000002e0: 17b7 d138 17b7 d138 17b7 d138 17b7 d138
000002f0: 17b7 d138 17b7 d138 17b7 d138 17b7 d138
00000300: 17b7 d138 17b7 d138 17b7 d138 17b7 d138
00000310: 17b7 d138 17b7 d138 17b7 d138 17b7 d138
00000320: 17b7 d138 17b7 d138 17b7 d138 17b7 d138
00000330: 17b7 d138 17b7 d138 17b7 d138 17b7 d138
00000340: 17b7 d138 17b7 d138 17b7 d138 17b7 d138
00000350: 17b7 d138 17b7 d138 17b7 d138 17b7 d138
00000360: 17b7 d138 17b7 d138 17b7 d138 17b7 d138
00000370: 17b7 d138 17b7 d138 17b7 d138 17b7 d138
00000380: 17b7 d138 17b7 d138 17b7 d138 17b7 d138
00000390: 17b7 d138 17b7 d138 17b7 d138 17b7 d138
000003a0: 17b7 d138 17b7 d138 17b7 d138 17b7 d138
000003b0: 17b7 d138 17b7 d138 17b7 d138 17b7 d138
000003c0: 17b7 d138 17b7 d138 17b7 d138 17b7 d138
000003d0: 17b7 d138 17b7 d138 17b7 d138 17b7 d138
000003e0: 17b7 d138 17b7 d138 17b7 d138 17b7 d138
000003f0: 17b7 d138 17b7 d138 17b7 d138 17b7 d138

encoder.attn_v f4 [40]
0.99849856 1.0787817 1.1474026 0.7138353 0.9753071 1.1438551 1.0315574 1.1024957
0.9306232 0.96875465 0.8896377 1.073814 0.7917263 1.0068575 1.1278753 0.9885219
1.4115905 1.0839738 1.0715234 1.0541606 0.904172 0.78646725 1.7795217 0.86117923
1.0416834 1.5302515 1.1832803 1.1971257 1.1909832 1.188904 0.93131185 1.4567071
0.77805376 1.072947 1.226645 0.75619423 1.1093472 0.8504721 1.1235337 0.6285265
00000000: 9a9d 7f3f 8515 8a3f 17de 923f e9bd 363f
00000010: baad 793f d869 923f 130a 843f 941e 8d3f
00000020: 523d 6e3f 4e00 783f 4cbf 633f bd72 893f
00000030: 93ae 4a3f b5e0 803f 385e 903f c50f 7d3f
00000040: ffae b43f a7bf 8a3f ae27 893f bcee 863f
00000050: d177 673f eb55 493f 5ec7 e33f 3e76 5c3f
00000060: e255 853f 48df c33f bb75 973f 6a3b 993f
00000070: 2372 983f 022e 983f 746a 6e3f 6175 ba3f
00000080: 882e 473f 5456 893f b402 9d3f f295 413f
00000090: 17ff 8d3f 8ab8 593f f4cf 8f3f 1de7 203f

encoder.lstm.weight_ih_l0 f4 [80, 2]
0.0063534924 0.27706447 -0.1408043 0.049314916 0.0005282012 0.33296755 -0.14310598 -0.08951884
-0.0014836894 -0.06580802 -0.18740799 0.08515675 0.16937566 0.15166867 0.1252682 0.327459
0.119420834 0.05666274 -0.0009203379 0.053601258 -0.052790925 0.17445952 0.1902381 0.32060584
-0.076392956 0.2674175 0.35413194 0.121955395 -0.25126687 0.0058348086 0.07716443 0.053538315
0.060044333 -0.005169966 -0.1744451 -0.002103438 0.12588373 -0.008227881 -0.029857267 0.33056226
0.03923011 -0.10535846 -0.076117694 0.11430941 -0.13902006 0.14402896 -0.3051648 -0.004572361
0.30936626 0.16688082 -0.051397573 0.14729695 0.0585792 0.018729426 0.26563406 0.19647849
-0.0117739905 -0.05259806 0.34940273 0.31713316 -0.10588058 0.20386203 0.061007604 0.40263125
0.1251125 0.11854785 0.3795212 0.1918334 -0.25145102 -0.23597993 -0.24500902 0.019471295
-0.21579863 0.15970603 -0.056967434 -0.049880005 0.23958129 0.019155398 0.16208975 0.16965073
-0.089360885 0.2569388 -0.18612677 -0.38420656 0.08623205 -0.2604914 -0.0019402874 0.24503055
0.14260551 -0.1136682 -0.20042722 -0.22908606 -0.020578966 -0.29581273 -0.2714334 -0.14115769
-0.14332637 0.2206911 -0.2825617 -0.1169677 -0.043850448 -0.06393015 -0.1043467 -0.03137535
-0.15864006 0.22361228 -0.25104132 -0.008568968 0.14241108 0.12191601 -0.2198029 -0.011483914
0.14150634 0.16293457 0.12341443 0.19209087 0.09823514 0.28889307 0.027914973 -0.035792552
-0.0093485955 0.3549933 -0.030168656 0.09099586 -0.37457773 -0.030685421 -0.0688833 0.093650214
-0.045682743 0.3260446 -0.23199537 -0.07460002 -0.11164671 0.054948755 0.13600901 0.44408664
0.3374329 0.1141817 0.2588915 0.49477416 0.18778168 0.30473727 -0.17935881 0.06586448
-0.013691025 -0.09175495 0.1146672 0.1732324 0.12818608 -0.21812358 -0.3126605 0.03414425
-0.157607 0.065073565 -0.14956316 -0.07318656 0.11861446 -0.013913222 0.09342097 0.26015738
00000000: f530 d03b 65db 8d3e 012f 10be 70fe 493d
00000010: fc76 0a3a b97a aa3e 608a 12be a755 b7bd
00000020: 5b78 c2ba 5bc6 86bd e1e7 3fbe aa66 ae3d
00000030: d070 2d3e 084f 1b3e 4f46 003e b5a8 a73e
00000040: e992 f43d 3017 683d d542 71ba fe8c 5b3d
00000050: 4c3b 58bd 84a5 323e c7cd 423e 7326 a43e
00000060: e973 9cbd f2ea 883e c850 b53e c0c3 f93d
00000070: 0da6 80be ec31 bf3b 6208 9e3d fe4a 5b3d
00000080: 0cf1 753d d168 a9bb bca1 32be d5d9 09bb
00000090: aae7 003e 3cce 06bc 3a97 f4bc 753f a93e
000000a0: c0af 203d 2dc6 d7bd 98e3 9bbd 0d1b ea3d
000000b0: 465b 0ebe 547c 133e 903e 9cbe bed3 95bb
000000c0: 4165 9e3e cee2 2a3e 4386 52bd 03d5 163e
000000d0: bef0 6f3d 746e 993c 3001 883e a831 493e
000000e0: b2e7 40bc 1071 57bd eae4 b23e 475f a23e
000000f0: ebd7 d8bd 35c1 503e 1ce3 793d af25 ce3e
00000100: 7e1d 003e 37c9 f23d 9a50 c23e fa6f 443e
00000110: 30be 80be b9a4 71be a5e3 7abe 4482 9f3c
00000120: 51fa 5cbe fa89 233e af56 69bd fa4e 4cbd
00000130: cc54 753e c8eb 9c3c dbfa 253e ecb8 2d3e
00000140: d702 b7bd 7b8d 833e 0498 3ebe b9b6 c4be
00000150: 6e9a b03d 215f 85be 3e51 feba 4ae9 7a3e
00000160: 2e07 123e e0ca e8bd cb3c 4dbe 8995 6abe
00000170: 3895 a8bc c474 97be 52f9 8abe a48b 10be
00000180: 26c4 12be d9fc 613e edab 90be c38c efbd
00000190: 879c 33bd cfed 82bd b9b3 d5bd 7083 00bd
000001a0: 8a72 22be 9efa 643e 7d88 80be db64 0cbc
000001b0: 36d4 113e 1aaf f93d 0314 61be 0727 3cbc
000001c0: 0ae7 103e 52d8 263e b4c0 fc3d 78b3 443e
000001d0: 812f c93d cbe9 933e f1ad e43c 369b 12bd
000001e0: da2a 19bc afc1 b53e 4224 f7bc 0a5c ba3d
000001f0: a7c8 bfbe fe5f fbbc b012 8dbd afcb bf3d
00000200: d41d 3bbd 51ef a63e 3290 6dbe e5c7 98bd
00000210: 08a7 e4bd f211 613d f245 0b3e 535f e33e
00000220: 01c4 ac3e 18d8 e93d 6d8d 843e 0a53 fd3e
00000230: d749 403e 8606 9c3e d6a9 37be f5e3 863d
00000240: 5250 60bc 05ea bbbd a3d6 ea3d d663 313e
00000250: 3643 033e ca5b 5fbe 0915 a0be d7da 0b3d
00000260: bb63 21be 4a45 853d 1627 19be d6e2 95bd
00000270: 23ec f23d 48f4 63bc 7e53 bf3d 5933 853e

encoder.lstm.weight_hh_l0 f4 [80, 20]
0.055385534 0.03215947 -0.014832815 -0.013929634 -0.08841892 -0.1352391 0.16011366 -0.32659
-0.08268675 -0.39131105 0.14193335 0.03349047 -0.06398268 0.15038636 -0.15559927 -0.1584931
-0.0016756773 0.16741695 -0.0037772378 -0.032080676 -0.15019771 -0.07554116 -0.022601604 -0.32232243
0.118944496 0.14756271 -0.35537997 -0.024074098 0.6675658 -0.1872102 -0.083353356 -0.38915262
0.06447073 -0.14939064 0.051841334 0.3803441 -0.5661687 0.18352994 -0.00040872244 0.120140985
-0.1947886 -0.08722064 -0.024477245 -0.26286212 0.0032210597 0.042703476 -0.3168738 0.2667649
0.21549286 0.010658259 -0.42398375 -0.09345393 -0.16683249 0.19085531 0.26018798 -0.058230642
-0.020485578 0.3402745 0.24335174 0.14841706 0.30718577 -0.24979232 -0.33524662 -0.037642628
0.17102191 0.10764186 -0.32681274 0.100451395 -0.06311428 -0.12337307 -0.27777672 -0.31328982
0.0022451761 -0.13984102 0.012970641 0.05449399 0.0807804 -0.06986183 0.0008833684 0.06455283
-0.26398394 -0.06473091 -0.060509227 -0.01786768 0.12902889 0.20230913 -0.12874989 0.095120504
-0.1607105 0.06499005 0.13532838 -0.20584133 -0.23904939 0.1566493 0.1644155 0.18146843
-0.11501495 -0.009402855 0.29175502 -0.064244166 -0.20060165 -0.13990305 -0.18858436 -0.31211975
0.09159479 0.17349097 0.09985732 -0.29535508 -0.15399957 -0.42156368 -0.14218096 -0.05222006
-0.21109475 -0.08418661 -0.0587037 -0.13226335 -0.16831654 -0.036450926 -0.17051056 -0.04410226
-0.2891352 0.15240282 -0.20894961 -0.13811225 -0.030107757 -0.32437405 -0.29732084 -0.050067462
0.22241518 0.051216412 0.006793342 -0.42865884 0.24811675 0.16240653 0.100709945 0.27296573
-0.20153499 0.077735394 -0.04356225 0.37779495 -0.013727368 0.017319253 -0.25799263 -0.20247307
0.0925915 -0.310965 -0.17673454 -0.266129 0.21296792 0.0471113 -0.28267553 -0.003447541
0.17139146 -0.19332962 -0.03686415 0.10999 -0.34301227 0.009974748 0.05950293 -0.010669839
0.092529505 -0.08948974 0.012704001 -0.21870197 0.20156093 0.25332916 -0.12438339 -0.2566422
0.09042373 0.15433314 -0.18614268 0.0021427236 -0.28633738 -0.11556956 0.06527575 -0.054943107
0.028176425 0.19315821 -0.2607888 -0.013735839 -0.20977196 -0.0764415 -0.25902852 -0.29815435
0.3434188 0.0430902 -0.055943362 -0.1137641 0.070830666 0.005451684 -0.3212585 -0.33933425
-0.072360694 0.19049942 0.4841252 0.17018324 -0.3092743 0.20245923 0.2711257 0.28606793
-0.21849084 -0.10138857 -0.14834468 -0.06986704 -0.07176675 0.12921558 -0.14411502 -0.16687289
-0.066415876 -0.0886405 -0.19460668 0.07109414 -0.5074748 -0.21241188 0.0928926 0.084738284
-0.122562535 -0.12855026 0.12685378 0.35746884 -0.16397105 -0.44997728 0.12601094 -0.042134747
-0.119654946 0.13931115 -0.09069565 -0.3023072 -0.15240532 -0.14470153 -0.010378708 -0.015245256
0.015066559 -0.24450324 -0.2240933 -0.23742105 0.009797868 -0.03947259 0.1654721 -0.08262885
0.34950653 -0.22676662 -0.30601948 -0.1939483 0.24785484 0.13998413 0.07918148 0.04902778
0.24690525 0.023324603 0.09261617 0.11355343 -0.10633522 -0.23372717 -0.13806327 0.043234657
00000000: f1db 623d a6b9 033d 5605 73bc 1f39 64bc
00000010: fb14 b5bd 1e7c 0abe d6f4 233e ce36 a7be
00000020: ac57 a9bd ec59 c8be fa56 113e 4e2d 093d
00000030: 5a09 83bd e2fe 193e 6a55 1fbe 044c 22be
00000040: 66a2 dbba 596f 2b3e 898b 77bb 0767 03bd
00000050: 6ecd 19be 53b5 9abd 0027 b9bc 7207 a5be
00000060: 2c99 f33d ae1a 173e 5df4 b5be 0b37 c5bc
00000070: 98e5 2a3f 08b4 3fbe 2ab5 aabd 033f c7be
00000080: 3b09 843d dcf9 18be 9457 543d 76bc c23e
00000090: 6ff0 10bf 46ef 3b3e cc49 d6b9 7a0c f63d
000000a0: aa76 47be bca0 b2bd 8184 c8bc dd95 86be
000000b0: 6a18 533b d7e9 2e3d 483d a2be 6995 883e
000000c0: 29aa 5c3e fa9f 2e3c 6614 d9be c664 bfbd
000000d0: 23d6 2abe 936f 433e 5c37 853e 4183 6ebd
000000e0: 5fd1 a7bc 7638 ae3e 3331 793e a4fa 173e
000000f0: 7447 9d3e 8fc9 7fbe 72a5 abbe 282f 1abd
00000100: 5e20 2f3e 5673 dc3d 0054 a7be 76b9 cd3d
00000110: 0f42 81bd 05ab fcbd c038 8ebe 8667 a0be
00000120: ce23 133b 7c32 0fbe d082 543c 1735 5f3d
00000130: 3270 a53d b813 8fbd da91 673a 4634 843d
00000140: e728 87be a491 84bd 86d8 77bd 3e5f 92bc
00000150: 2620 043e 202a 4f3e 03d7 03be 8ace c23d
00000160: 4b91 24be 8119 853d 8693 0a3e 12c8 52be
00000170: 5dc9 74be ad68 203e 895c 283e dcd2 393e
00000180: f58c ebbd 6f0e 1abc ea60 953e 7292 83bd
00000190: 856a 4dbe bf42 0fbe 421c 41be 29ce 9fbe
000001a0: 0d96 bb3d 9ea7 313e ff81 cc3d c838 97be
000001b0: 10b2 1dbe 32d7 d7be e397 11be b4e4 55bd
000001c0: 3929 58be 086a acbd 4a73 70bd 0b70 07be
000001d0: 2c5b 2cbe 914d 15bd 529a 2ebe 92a4 34bd
000001e0: 8709 94be 7c0f 1c3e e3f6 55be 4c6d 0dbe
000001f0: 8ba4 f6bc 5b14 a6be 703a 98be 8a13 4dbd
00000200: cec0 633e 4dc8 513d af9a de3b 2c79 dbbe
00000210: 5112 7e3e e64d 263e 0441 ce3d 2ac2 8b3e
00000220: 305f 4ebe bc33 9f3d 546e 32bd 576e c13e
00000230: c1e8 60bc 1be1 8d3c 9c17 84be 1a55 4fbe
00000240: 9da0 bd3d ce36 9fbe e6f9 34be 0f42 88be
00000250: 4314 5a3e c7f7 403d d9ba 90be 24f0 61bb
00000260: 3e81 2f3e 33f8 45be ddfe 16bd 7042 e13d
00000270: 4e9f afbe 206d 233c 58b9 733d 8cd0 2ebc
00000280: 1c80 bd3d 6646 b7bd 7124 503c 69f3 5fbe
00000290: fd65 4e3e 5cb4 813e b8bc febd 9b66 83be
000002a0: 1430 b93d 8209 1e3e 309c 3ebe f06c 0c3b
000002b0: d09a 92be bcaf ecbd 4baf 853d 060c 61bd
000002c0: 3fd2 e63c 44cb 453e 1c86 85be 490c 61bc
000002d0: 76ce 56be 5c8d 9cbd 639f 84be b0a7 98be
000002e0: 97d4 af3e 597f 303d de24 65bd 27fd e8bd
000002f0: ab0f 913d 0aa4 b23b fe7b a4be 38bd adbe
00000300: d831 94bd 4812 433e 42df f73e 8444 2e3e
00000310: 3359 9ebe 7951 4f3e fdd0 8a3e 7f77 923e
00000320: 10bc 5fbe d0a4 cfbd abe7 17be 7316 8fbd
00000330: 72fa 92bd 1751 043e e392 13be bae0 2abe
00000340: 0c05 88bd 2789 b5bd f946 47be ce99 913d
00000350: dee9 01bf 8082 59be 7a3e be3d 448b ad3d
00000360: 1102 fbbd aea2 03be f5e5 013e 2806 b73e
00000370: 07e8 27be 6c63 e6be 0309 013e 7c95 2cbd
00000380: a70d f5bd 95a7 0e3e a4be b9bd 02c8 9abe
00000390: 2410 1cbe a32c 14be 750b 2abc 3dc7 79bc
000003a0: bbd9 763c 0f5f 7abe b778 65be 811e 73be
000003b0: 3d87 203c 03ae 21bd 8571 293e 5139 a9bd
000003c0: 85f2 b23e 8235 68be 96ae 9cbe 629a 46be
000003d0: a9cd 7d3e 0058 0f3e e629 a23d 5ad1 483d
000003e0: bbd4 7c3e 3d13 bf3c 8cad bd3d b38e e83d
000003f0: 48c6 d9bd 2d56 6fbe 7560 0dbe d316 313d

encoder.lstm.bias_ih_l0 f4 [80]
0.094014965 0.04333943 0.21915793 0.084391646 0.14511992 0.13872406 0.25911108 0.23490107
0.17078714 0.12891546 0.19210759 0.04560014 -0.038567524 0.0994273 0.11354084 0.23772109
0.036495462 -0.1122815 0.105128095 -0.037687752 0.24671222 0.38334686 0.19505692 0.117515646
-0.11299429 0.37018877 0.36618447 0.12318407 0.059630197 0.0455765 0.38390976 0.24808815
0.43932816 0.120397046 0.28664905 0.2155996 0.18771069 -0.0020124188 0.16632257 0.2662725
-0.27268532 0.14838037 0.17295566 -0.23956306 -0.095121734 -0.05017025 -0.24402964 -0.03611322
0.13813832 -0.06278185 -0.20372751 0.03559413 -0.11893719 -0.11314793 0.009443138 0.020587385
-0.2236031 0.19004437 -0.00034414005 0.1861394 0.22072352 0.18500865 0.3759499 0.35749188
-0.088603035 0.25259548 0.11986823 0.27508318 0.34205484 0.3018525 0.32977223 0.41570908
0.4451429 0.32214165 0.24695791 0.07873706 0.021992598 0.104229376 0.33656096 0.23607007
00000000: eb8a c03d b084 313d f06a 603e 87d5 ac3d
00000010: 519a 143e ae0d 0e3e 35aa 843e e889 703e
00000020: d3e2 2e3e 6a02 043e dab7 443e 36c7 3a3d
00000030: fbf8 1dbd 8aa0 cb3d 1a88 e83d 286d 733e
00000040: 447c 153d d8f3 e5bd 664d d73d 795e 1abd
00000050: 21a2 7c3e 0a46 c43e 00bd 473e 0bac f03d
00000060: 8d69 e7bd 6289 bd3e 887c bb3e ee47 fc3d
00000070: cb3e 743d 6dae 3a3d d28f c43e d20a 7e3e
00000080: 9fef e03e ba92 f63d aac3 923e 24c6 5c3e
00000090: 3b37 403e c9e2 03bb 7750 2a3e de54 883e
000000a0: 699d 8bbe 06f1 173e 4a1b 313e 0550 75be
000000b0: 2fcf c2bd 527f 4dbd e8e2 79be 75eb 13bd
000000c0: 2274 0d3e c593 80bd f29d 50be 27cb 113d
000000d0: 5795 f3bd 1aba e7bd 64b7 1a3c e0a6 a83c
000000e0: 36f8 64be fe9a 423e b26d b4b9 549b 3e3e
000000f0: 5905 623e e872 3d3e 817c c03e 2d09 b73e
00000100: 8275 b5bd 3254 813e 797d f53d b4d7 8c3e
00000110: d021 af3e 698c 9a3e e8d7 a83e d2d7 d43e
00000120: c5e9 e33e c0ef a43e 89e2 7c3e e540 a13d
00000130: d229 b43c 3676 d53d b851 ac3e 5abc 713e

encoder.lstm.bias_hh_l0 f4 [80]
-0.029892491 0.05505694 -0.042274635 -0.012460864 0.21568324 0.3602513 0.089926094 0.014223444
0.20317768 0.34641656 0.049515907 0.07686414 0.20116116 0.051237106 0.2777897 0.11888792
0.06174582 -0.10401848 -0.00050798437 -0.1387707 -0.002937299 0.0177619 -0.020678526 0.15820871
-0.14806333 0.22874333 0.2726866 -0.08016033 0.33307588 0.20745213 0.30995816 0.34628034
0.35360572 0.26254237 0.09940312 -0.14591472 -0.054380648 0.15262623 0.23764834 -0.067089036
0.039507627 -0.120020196 0.009807042 -0.09954605 0.014813136 0.051731847 -0.20376235 -0.06953087
-0.09134968 -0.1725146 -0.07537439 -0.09746242 0.085648276 -0.17216687 0.18356016 0.051011577
-0.11197438 0.24584807 -0.18471491 -0.058186326 0.023347203 0.21301088 0.36717188 0.24249338
-0.018496647 0.16428164 0.0723897 0.0402922 0.28905305 0.04090683 0.41414225 0.14091279
0.46029532 0.15021062 0.05494144 0.31713623 0.20322265 0.2696671 0.19335236 -0.04610818
00000000: 19e1 f4bc 6383 613d 2b28 2dbd a728 4cbc
00000010: 11dc 5c3e dc72 b83e 2c2b b83d 7309 693c
00000020: cf0d 503e 835d b13e 31d1 4a3d f26a 9d3d
00000030: 31fd 4d3e 00de 513d 743a 8e3e 837b f33d
00000040: 2fe9 7c3d a407 d5bd 412a 05ba e819 0ebe
00000050: b37f 40bb 6781 913c 0366 a9bc 7701 223e
00000060: ea9d 17be b13b 6a3e 949d 8b3e 192b a4bd
00000070: ec88 aa3e 556e 543e d6b2 9e3e a84b b13e
00000080: cf0b b53e f46b 863e dd93 cb3d ab6a 15be
00000090: 3ebe 5ebd 0d4a 1c3e 165a 733e fa65 89bd
000000a0: c0d2 213d 26cd f5bd b7ad 203c cdde cbbd
000000b0: ccb2 723c c6e4 533d 14a7 50be 3366 8ebd
000000c0: 8b15 bbbd aba7 30be e35d 9abd 619a c7bd
000000d0: 5d68 af3d 834c 30be 32f7 3b3e 84f1 503d
000000e0: d352 e5bd 99bf 7b3e e825 3dbe c954 6ebd
000000f0: a242 bf3c 861f 5a3e f4fd bb3e 2f50 783e
00000100: 4886 97bc 7239 283e 0d41 943d 6f09 253d
00000110: c3fe 933e ec8d 273d 740a d43e 714b 103e
00000120: d4ab eb3e d0d0 193e 460a 613d ae5f a23e
00000130: 9919 503e ce11 8a3e 29fe 453e eedb 3cbd

encoder.lstm.weight_ih_l0_reverse f4 [80, 2]
0.32260334 -0.029953105 -0.37525162 0.04916393 -0.12212557 -0.15694924 -0.06513586 0.08807827
0.23973063 0.053788316 -0.053513348 0.0020783693 -0.30622172 -0.14600763 0.33364812 0.4010749
-0.006130285 0.04422763 -0.33154568 0.06909962 0.12153037 0.10970271 0.0839339 -0.2894199
-0.10874214 0.0073096775 0.14293295 -0.1151861 -0.30686602 0.3015039 -0.056403615 0.07379005
0.06315905 0.03975656 -0.039918058 -0.010273251 -0.44287667 -0.28002512 -0.35292897 -0.18642814
-0.2904611 -0.02723343 0.0050279293 0.29359126 -0.12721947 0.16404314 0.114176884 -0.005823914
0.18310124 0.13361551 -0.058542956 0.10932729 -0.10597775 -0.15398897 0.37199163 0.12884599
0.03634652 0.26885673 0.18230574 0.08526122 0.07549074 -0.066396885 -0.07000384 -0.34103426
-0.72889435 -0.21206976 -0.4589474 0.1636998 0.1690387 0.48227555 -0.31135157 -0.13256525
0.042675212 0.19595663 -0.0002759567 -0.15978517 -0.34463087 0.032170173 -0.58242476 -0.27442324
-0.20161787 -0.24358858 0.12883648 -0.062191892 -0.6695187 0.106458806 0.3608082 -0.07038717
-0.24739023 -0.13730825 -0.07086162 -0.05849033 -0.2882799 -0.060241282 -0.0011909497 0.36307287
0.028809758 0.3987813 0.20256604 0.09726613 -0.2628858 -0.23301554 -0.17829014 -0.053503074
-0.20891142 0.20304403 0.31010413 0.15430136 -0.23728374 0.13090251 0.36956835 0.34288272
-0.023351118 0.18538289 0.23230012 0.30393505 -0.09088122 -0.23820649 0.057951197 -0.17142479
-0.11929379 -0.111770764 -0.04087516 0.10001561 0.030286225 -0.06515884 -0.103179745 0.15998848
0.29891583 0.0057255416 -0.14919208 0.21288887 -0.24584469 0.12525554 0.2994513 0.20018163
0.04222874 0.23415978 0.08760957 0.23803422 0.088232234 0.19258441 0.088654675 -0.052253447
-0.08587733 0.11185894 -0.14706911 -0.013508104 -0.14200614 -0.11222962 0.09988419 0.14853744
0.13208501 0.11516939 0.28070274 0.29776022 -0.72171724 -0.0799339 -0.4324656 -0.11302162
00000000: 442c a53e 3760 f5bc fb20 c0be 1e60 493d
00000010: f91c fabd 4db7 20be f365 85bd 6162 b43d
00000020: f27b 753e 2351 5c3d d030 5bbd 4035 083b
00000030: 18c9 9cbe 0683 15be edd3 aa3e b059 cd3e
00000040: 8fe0 c8bb 0828 353d 5bc0 a9be 1a84 8d3d
00000050: eae4 f83d d0ab e03d 89e5 ab3d d82e 94be
00000060: 33b4 debd 0586 ef3b 045d 123e b1e6 ebbd
00000070: 8b1d 9dbe b85e 9a3e 7a07 67bd 3d1f 973d
00000080: 8859 813d c6d7 223d 1e81 23bd 2351 28bc
00000090: bbc0 e2be 745f 8fbe 1bb3 b4be 05e7 3ebe
000000a0: 51b7 94be a418 dfbc 54c1 a43b 9851 963e
000000b0: d245 02be edfa 273e 92d5 e93d 88d6 bebb
000000c0: e47e 3b3e 81d2 083e bdca 6fbd fce6 df3d
000000d0: dd0a d9bd 49af 1dbe b075 be3e 34f0 033e
000000e0: 17e0 143d 97a7 893e 5bae 3a3e 6f9d ae3d
000000f0: e49a 9a3d 17fb 87bd 2c5e 8fbd 0b9c aebe
00000100: d298 3abf d128 59be 27fb eabe eca0 273e
00000110: 7b18 2d3e d2ec f63e 7969 9fbe 2fbf 07be
00000120: 34cc 2e3d dba8 483e 48ae 90b9 b99e 23be
00000130: 7573 b0be dfc4 033d ca19 15bf 3481 8cbe
00000140: ea74 4ebe 496f 79be b6ed 033e edbc 7ebd
00000150: 9465 2bbf 1307 da3d dabb b83e 2627 90bd
00000160: dd53 7dbe 899a 0cbe e61f 91bd 8e93 6fbd
00000170: 6c99 93be 90bf 76bd a419 9cba b0e4 b93e
00000180: 7102 ec3c 102d cc3e 796d 4f3e 7733 c73d
00000190: f898 86be a09b 6ebe b191 36be 0a26 5bbd
000001a0: e0ec 55be c6ea 4f3e f8c5 9e3e 2d01 1e3e
000001b0: 82fa 72be 4f0b 063e 1038 bd3e 538e af3e
000001c0: d84a bfbc 03d5 3d3e 15e0 6d3e 609d 9b3e
000001d0: ef1f babd 67ec 73be 3c5e 6d3d fb89 2fbe
000001e0: 4d50 f4bd 12e8 e4bd b66c 27bd fcd4 cc3d
000001f0: d11a f83c ff71 85bd e74f d3bd 05d4 233e
00000200: 7f0b 993e 539d bb3b cfc5 18be 8aff 593e
00000210: b6be 7bbe fd42 003e ae51 993e 6afc 4c3e
00000220: 0bf8 2c3d 95c7 6f3e a56c b33d 3ebf 733e
00000230: 1ab3 b43d d934 453e 9590 b53d b607 56bd
00000240: 74e0 afbd 4d16 e53d 4999 16be 1851 5dbc
00000250: 0f6a 11be a5d8 e5bd 1590 cc3d 331a 183e
00000260: 4b41 073e eedd eb3d 45b8 8f3e 0774 983e
00000270: 76c2 38bf 62b4 a3bd 226c ddbe e177 e7bd

encoder.lstm.weight_hh_l0_reverse f4 [80, 20]
0.39687264 -0.566989 -0.013029262 -0.45538405 -0.36209103 0.08290656 0.38325894 -0.16421397
-0.5196435 -0.37144613 0.13907227 -0.008995851 -0.2704055 -0.11905436 0.13775055 -0.4081828
-0.4745825 -0.33533266 -0.14442 0.32484448 0.32576883 -0.09507282 0.22053747 -0.4548102
0.13089381 0.059719395 0.24963869 -0.04985126 0.069999166 0.113223106 -0.031603005 0.2398015
-0.07161228 -0.017381813 0.4552104 -0.2059016 -0.069138326 -0.5843149 0.59487075 0.21342537
0.08717369 -0.06764808 0.29358435 0.00042780224 -0.12770493 0.33151892 0.15508471 0.3975739
0.17957483 0.3029803 -0.38273856 0.44359872 -0.07186953 -0.23734848 0.3386363 -0.04001403
0.26618302 -0.2125459 0.18553576 -0.20192814 0.2926879 -0.200096 0.3901201 -0.013586011
0.042384703 -0.04869064 -0.19808859 0.14420377 0.35409445 -0.026401589 -0.3431017 0.06497064
0.11565116 -0.009017685 -0.061931606 0.27597547 -0.043236457 -0.13417307 0.0850055 -0.05207554
0.31909144 -0.071025915 0.13916522 0.22036456 -0.07448058 -0.08988764 0.24864687 -0.012308293
-0.09552507 0.050933603 0.069451146 0.25216958 -0.2552924 -0.43463632 0.083142415 -0.11119329
0.19280663 0.21670844 -0.025134742 -0.15349774 -0.05554823 -0.24309683 0.20808898 -0.31538197
-0.22395776 0.28673917 0.37543076 0.49285015 0.06848767 0.100621685 0.086458065 0.3250736
-0.15824097 -0.29755408 0.19025679 -0.033588886 0.030375717 -0.07721407 0.124047935 0.25992474
0.3787071 -0.060017996 -0.054491352 0.20308697 -0.2764613 -0.19795176 0.3188379 0.09711101
0.09951137 -0.04382139 -0.25162742 -0.17117478 0.041237902 0.116315775 -0.0089155855 0.28275803
0.15612821 0.49431005 0.07166315 0.5463717 -0.32842964 -0.08794017 -0.015606903 0.14020853
0.15513095 -0.02679168 -0.090347916 -0.0024336842 0.023151841 0.23708157 -0.03404265 0.19837752
-0.090372756 -0.05932747 -0.05832336 0.1295179 -0.06259036 -0.16256472 -0.0051014624 0.04488709
0.10245434 -0.123733416 0.4425296 -0.033726808 -0.12114927 0.25175613 0.017501475 -0.023211341
-0.017832935 -0.114028536 -0.2971025 0.008756469 -0.4692658 -0.29310405 0.2399311 0.0015787826
0.29496378 0.1288843 0.25146636 -0.11280759 0.25458536 -0.23841532 0.47485587 -0.2760284
-0.17261985 0.35066992 0.19286858 0.12822197 0.12176449 0.09704913 -0.23428321 0.3715005
-0.5631047 -0.36131403 0.040803153 -0.045885473 -0.012170467 -0.278419 0.1157306 -0.022787597
0.20431374 -0.03510821 0.013703015 -0.15951851 0.2282206 -0.20036069 0.008339387 -0.08543361
0.075161666 0.13037445 -0.17802177 -0.14529991 0.046019312 -0.49550068 -0.19574426 0.21968232
-0.18708827 0.15625915 0.13454974 0.10725699 0.24884994 -0.17907213 0.10359335 0.08295198
-0.46812516 0.096112095 -0.12564133 0.03242849 -0.24662259 0.112689056 -0.2374338 0.13686253
0.10219837 0.12297037 0.14248112 -0.20256813 0.016420279 -0.34899873 0.63384414 0.09589589
0.39641562 -0.117237724 0.051275723 0.07168272 -0.17418192 0.040042747 0.027589086 -0.13960885
0.14539282 0.084756374 -0.47221023 0.04342961 -0.011166805 -0.27413952 -0.09001331 0.2948225
00000000: e432 cb3e 3126 11bf b078 55bc 1928 e9be
00000010: ff63 b9be eaca a93d 843a c43e b527 28be
00000020: 5b07 05bf 302e bebe f668 0e3e 5563 13bc
00000030: 9772 8abe c6d2 f3bd 7b0e 0d3e 56fd d0be
00000040: 7afc f2be b9b0 abbe d6e2 13be 0452 a63e
00000050: 2ccb a63e 8ab5 c2bd 93d4 613e e2dc e8be
00000060: 0709 063e 539c 743d 49a1 7f3e d630 4cbd
00000070: b95b 8f3d 84e1 e73d 2772 01bd 868e 753e
00000080: 76a9 92bd 4e64 8ebc 5611 e93e ded7 52be
00000090: 6598 8dbd a995 15bf 7349 183f 2e8c 5a3e
000000a0: 1f88 b23d 148b 8abd b050 963e a54a e039
000000b0: 15c5 02be d9bc a93e 87ce 1e3e ce8e cb3e
000000c0: 77e2 373e 3c20 9b3e 4ff6 c3be 5f1f e33e
000000d0: 5530 93bd 7b0b 73be bd61 ad3e c0e5 23bd
000000e0: 2449 883e a2a5 59be 16fd 3d3e 40c6 4ebe
000000f0: 30db 953e f7e5 4cbe d2bd c73e dc97 5ebc
00000100: 959b 2d3d d66f 47bd bcd7 4abe 27aa 133e
00000110: de4b b53e 2548 d8bc 07ab afbe 540f 853d
00000120: 84da ec3d eabe 13bc ffab 7dbd a84c 8d3e
00000130: b618 31bd aa64 09be 5d17 ae3d 294d 55bd
00000140: f45f a33e 0976 91bd 5481 0e3e 3fa7 613e
00000150: 4689 98bd 0317 b8bd 499d 7e3e b9a8 49bc
00000160: a6a2 c3bd c19f 503d 673c 8e3d 5f1c 813e
00000170: afb5 82be a788 debe 9246 aa3d 4fb9 e3bd
00000180: 1a6f 453e d1e8 5d3e 60e7 cdbc 832e 1dbe
00000190: 8a86 63bd 60ee 78be 4715 553e bf79 a1be
000001a0: 2f55 65be 7acf 923e 7638 c03e db56 fc3e
000001b0: 4343 8c3d be12 ce3d ed10 b13d 0c70 a63e
000001c0: ec09 22be 0259 98be add2 423e 8094 09bd
000001d0: 7fd6 f83c 6922 9ebd d80c fe3d db14 853e
000001e0: e6e5 c13e 6ed5 75bd 5332 5fbd 08f6 4f3e
000001f0: 568c 8dbe deb3 4abe b93e a33e 23e2 c63d
00000200: 9ecc cb3d 0f7e 33bd 4fd5 80be 7148 2fbe
00000210: 13e9 283d f736 ee3d ad12 12bc a9c5 903e
00000220: 13e0 1f3e 3516 fd3e 21c4 923d 04df 0b3f
00000230: ee27 a8be fa19 b4bd 18b4 7fbc d392 0f3e
00000240: a6da 1e3e 3a7a dbbc 5408 b9bd 727e 1fbb
00000250: eea8 bd3c 83c5 723e 4e70 0bbd 7a23 4b3e
00000260: 5a15 b9bd 5c01 73bd 7ae4 6ebd 57a0 043e
00000270: 602f 80bd 5e77 26be 2b2a a7bb 86db 373d
00000280: 95d3 d13d f267 fdbd 3d93 e23e 1f25 0abd
00000290: 1c1d f8bd 2ee6 803e 415f 8f3c b625 bebc
000002a0: 6016 92bc cb87 e9bd d21d 98be 4b77 0f3c
000002b0: 9b43 f0be bc11 96be 80b0 753e 27ef ce3a
000002c0: 7e05 973e 3ffa 033e 33c0 803e aa07 e7bd
000002d0: 0359 823e 2523 74be 4f20 f33e 9853 8dbe
000002e0: 42c3 30be 028b b33e 577f 453e 9f4c 033e
000002f0: a95f f93d b2c1 c63d f0e7 6fbe 5035 be3e
00000300: a127 10bf 27fe b8be 3521 273d 68f2 3bbd
00000310: a366 47bc ef8c 8ebe 2a04 ed3d 0ead babc
00000320: 9f37 513e a0cd 0fbd 9c82 603c d258 23be
00000330: a9b2 693e 5a2b 4dbe eda1 083c d1f7 aebd
00000340: 5cee 993d e180 053e 574b 36be 80c9 14be
00000350: bf7e 3c3d 44b2 fdbe 2f71 48be 67f4 603e
00000360: 1194 3fbe 6602 203e 68c7 093e 8ea9 db3d
00000370: 85d2 7e3e af5e 37be c028 d43d bae2 a93d
00000380: 1aae efbe 6bd6 c43d 1fa8 00be bdd3 043d
00000390: a28a 7cbe 85c9 e63d d921 73be b125 0c3e
000003a0: 614d d13d e4d7 fb3d 92e6 113e 056e 4fbe
000003b0: d283 863c f6af b2be 9c43 223f 1065 c43d
000003c0: fdf6 ca3e 551a f0bd 7e06 523d 64ce 923d
000003d0: bf5c 32be dd03 243d 8202 e23c 9ff5 0ebe
000003e0: dbe1 143e c094 ad3d 8ac5 f1be 3fe3 313d
000003f0: faf4 36bc 045c 8cbe e658 b8bd faf2 963e

encoder.lstm.bias_ih_l0_reverse f4 [80]
0.050313193 0.048598807 0.6430738 0.08555164 0.113475464 0.025139533 0.17643216 -0.108824104
0.3197787 0.19327417 0.14465664 0.39074022 0.097433 0.36649677 0.4036265 0.19678003
0.3509555 0.09201743 0.21707281 0.26710907 0.31233343 0.006336048 0.29459 0.10135204
-0.13557164 0.11340041 0.09112801 0.04612288 0.06544541 0.0759138 0.00525965 0.042152666
0.32099393 0.045460373 0.49794984 0.05425981 0.40513763 0.32599792 0.31229517 0.09643459
0.16046777 -0.21571118 0.035949912 -0.19334963 -0.13971832 0.25421196 0.06579111 0.033235375
0.00781335 -0.02008997 -0.28610384 0.11015813 -0.3017217 -0.20883591 0.032137334 0.009884913
-0.09209003 -0.1488884 0.049903173 0.034600444 0.2741412 0.08338306 0.7066113 0.27675936
0.3580933 0.10110064 0.39279634 0.37226176 0.08704674 0.12912227 -0.033224862 0.10831089
0.17162435 0.091146074 0.5790177 0.12422532 0.33901992 0.216197 0.38750917 0.20911397
00000000: 3515 4e3d 8b0f 473d 7ca0 243f b335 af3d
00000010: d365 e83d 6cf1 cd3c a2aa 343e 2cdf debd
00000020: 09ba a33e aae9 453e df20 143e 1a0f c83e
00000030: f48a c73d 77a5 bb3e 22a8 ce3e b480 493e
00000040: 70b0 b33e a273 bc3d 5648 5e3e 85c2 883e
00000050: 2bea 9f3e 9f9e cf3b 80d4 963e a991 cf3d
00000060: 4bd3 0abe 793e e83d 52a1 ba3d 58eb 3c3d
00000070: 3e08 863d b278 9b3d 2459 ac3b 46a8 2c3d
00000080: 5159 a43e a834 3a3d 48f3 fe3e 893f 5e3d
00000090: 336e cf3e 33e9 a63e 27e5 9f3e 807f c53d
000000a0: aa51 243e 64e3 5cbe 3740 133d 72fd 45be
000000b0: 5212 0fbe 1228 823e 7dbd 863d d121 083d
000000c0: 9103 003c b993 a4bc 347c 92be 969a e13d
000000d0: 447b 9abe 15d9 55be 70a2 033d 55f4 213c
000000e0: b399 bcbd 3376 18be 4567 4c3d 32b9 0d3d
000000f0: 3c5c 8c3e bdc4 aa3d 7ae4 343f 67b3 8d3e
00000100: 0158 b73e da0d cf3d 9a1c c93e 1899 be3e
00000110: 9045 b23d a138 043e cb16 08bd 1ad2 dd3d
00000120: 4bbe 2f3e cbaa ba3d 813a 143f d869 fe3d
00000130: 0594 ad3e bf62 5d3e 9a67 c63e f921 563e

encoder.lstm.bias_hh_l0_reverse f4 [80]
0.0037311031 0.11365124 0.76758534 0.4914787 0.026755352 0.29251054 0.20263137 0.0052247723
0.10228125 -0.039531954 -0.02911752 0.11322467 0.28109273 0.3806959 0.25128892 0.0696726
0.34844655 0.3336659 0.36651272 -0.008161719 0.27212146 0.048383117 0.46091408 0.3866706
-0.05301311 0.093573 0.30209234 -0.0810973 -0.009467982 0.06957433 0.04881442 0.14668062
0.42487004 0.3258615 0.13945767 0.22239774 0.21823251 0.19041839 0.2890703 0.21975668
0.061484195 -0.16275494 0.04535955 -0.10242853 -0.17486428 -0.011516493 -0.1525943 -0.0049804198
0.0822148 0.11366723 -0.21640714 0.0048907893 -0.42527506 -0.3432529 0.10424045 0.047982227
0.06541027 -0.07226099 0.06708454 -0.15704453 0.32048705 0.35784543 0.44287115 0.42425954
0.098675005 0.21893421 0.03583407 -0.020887429 0.14420716 0.24314174 0.21671274 0.08933464
0.23007339 0.34756374 0.51899284 0.17498448 0.10285077 0.42234132 0.41329223 0.34067398
00000000: 8685 743b fbc1 e83d 7980 443f 19a3 fb3e
00000010: 0a2e db3c f1c3 953e 997e 4f3e 9134 ab3b
00000020: d578 d13d 42ec 21bd de87 eebc 56e2 e73d
00000030: 63eb 8f3e 93ea c23e f1a8 803e 82b0 8e3d
00000040: 9667 b23e 42d6 aa3e 8ea7 bb3e bbb8 05bc
00000050: 8153 8b3e 602d 463d eefc eb3e b0f9 c53e
00000060: 4624 59bd 33a3 bf3d d9ab 9a3e 5716 a6bd
00000070: 981f 1bbc fc7c 8e3d a1f1 473d 7233 163e
00000080: 9188 d93e 52d7 a63e fecd 0e3e 3cbc 633e
00000090: 5878 5f3e 0afd 423e 0601 943e e507 613e
000000a0: dad6 7b3d 3ba9 26be efca 393d 0dc6 d1bd
000000b0: 9f0f 33be acaf 3cbc ae41 1cbe ca32 a3bb
000000c0: 3c60 a83d 5dca e83d d599 5dbe ea42 a03b
000000d0: a7bd d9be d8be afbe 047c d53d 0389 443d
000000e0: d2f5 853d 92fd 93bd 9f63 893d 48d0 20be
000000f0: e116 a43e 8437 b73e 02c0 e23e 8c38 d93e
00000100: 1f16 ca3d 4a30 603e bfc6 123d 1d1c abbc
00000110: 0bab 133e 26fa 783e f2e9 5d3e 14f5 b63d
00000120: 5c98 6b3e e0f3 b13e b7dc 043f 222f 333e
00000130: 6da3 d23d 1f3d d83e 0a9b d33e d26c ae3e

decoder.lstm.weight_ih_l0 f4 [160, 40]
-0.052416295 -0.09961003 0.05000509 -0.17167301 -0.06630638 0.21747275 0.2635165 -0.073564455
-0.13225883 -0.1524398 -0.037501704 0.19708477 -0.03078313 -0.39761564 -0.44485793 0.15458722
-0.21682358 -0.023047982 -0.08191614 0.28058973 0.08421704 0.18962494 0.29845876 -0.018832406
0.088013 -0.06988592 -0.11920099 0.14417951 -0.058745854 -0.0238164 -0.20524426 0.017908385
-0.072822124 -0.28413734 -0.17235518 0.036488865 0.0028633217 0.14857575 -0.07207225 -0.36937845
-0.17955498 0.050051995 -0.124599285 -0.0005893619 0.082954414 0.16156712 0.015532684 0.040386073
-0.050401013 0.040880024 -0.07350076 0.07322854 0.12782416 0.14062819 -0.17871997 0.14533259
-0.0075100423 -0.12292102 -0.036367998 -0.05543636 0.17544924 -0.15184525 0.1718765 -0.16064805
0.08981898 0.1954002 0.20866448 0.087453604 -0.0385029 -0.05992702 0.077925965 0.042470187
-0.20423174 -0.15060116 -0.03941169 -0.21470585 -0.24292053 0.033620033 -0.017554468 0.12862569
-0.11010201 -0.14177762 0.14881997 -0.033911902 0.013384936 -0.124980524 -0.063040026 0.0073409304
0.082788415 -0.17459327 -0.05074253 -0.0830626 0.023917655 0.14180894 -0.11410734 0.060399197
0.048240084 -0.11473237 -0.11958807 -0.100719936 -0.21965753 -0.044772584 0.13344392 0.019049944
0.11842028 0.16923918 -0.12013438 0.006850491 -0.08377221 0.018665198 -0.07145297 0.08538659
-0.19039623 0.16739595 -0.035268333 0.05411783 -0.06614151 -0.095426336 0.107692055 -0.19232611
0.1613984 0.12196896 0.0022151857 -0.21830922 0.07429117 -0.129046 0.0382287 -0.18134077
-0.049295504 0.07037631 0.059850443 -0.1450743 0.092937484 0.006832802 0.082031004 0.19140318
-0.05424344 0.084157325 0.08928724 -0.008077885 0.027993772 -0.15791102 0.13668033 -0.009420783
-0.16740851 -0.043049093 0.03908386 0.24736448 -0.0029665742 -0.08306233 -0.15494141 0.0046259044
0.09428999 -0.15162636 0.10768614 0.06328305 -0.09165131 -0.2535204 0.030717842 0.15122919
0.17603774 -0.061956715 0.053584475 0.16080041 -0.005587162 -0.142351 -0.10505777 -0.31563112
0.2500875 -0.16683772 -0.04913734 -0.1259737 0.25405908 -0.04081177 -0.08885552 0.11282214
0.24580345 0.061866343 0.04334589 -0.027233645 0.0047039264 -0.12868719 -0.051846854 -0.19194242
-0.08519556 0.24493271 0.19118273 0.15549263 0.017260313 -0.08220065 -0.01455135 -0.08061808
-0.18572839 -0.25190082 -0.06848763 -0.024800852 -0.062838 0.21914071 -0.14218654 0.28552538
0.10542344 -0.008664432 0.059539057 0.030340482 0.22053434 0.10043478 -0.021541748 -0.11152268
0.03210578 -0.04829129 -0.13063718 -0.07715272 -0.14398552 -0.36591285 0.02259946 0.21249165
-0.10982519 -0.06457367 0.098869994 0.0356041 0.020021996 -0.034215808 0.12035957 0.17226064
0.026429774 -0.01981053 -0.0055335443 0.048570834 -0.025570648 -0.06279815 -0.17062126 -0.053197358
0.105386496 -0.20236059 -0.065747075 0.17737296 -0.11427802 0.086774275 -0.1786636 0.04244009
0.12487387 0.066856764 -0.1274282 -0.09190833 -0.08375832 0.18842441 0.11178103 -0.040850602
-0.033084396 -0.034804787 0.060732987 0.062629625 0.07350139 0.11342175 -0.10206878 0.09775995
00000000: 78b2 56bd 5800 ccbd 23d2 4c3d 0dcb 2fbe
00000010: a4cb 87bd 2db1 5e3e a2eb 863e f6a8 96bd
00000020: dc6e 07be 2e19 1cbe 639b 19bd 97d0 493e
00000030: e72c fcbc 4794 cbbe 6bc4 e3be 1d4c 1e3e
00000040: 0007 5ebe 1fcf bcbc a6c3 a7bd 75a9 8f3e
00000050: fc79 ac3d 0a2d 423e 96cf 983e 6b46 9abc
00000060: 2940 b43d 5920 8fbd a61f f4bd cba3 133e
00000070: 7e9f 70bd 9c1a c3bc 8d2b 52be 9bb4 923c
00000080: c423 95bd 737a 91be e07d 30be 5975 153d
00000090: 91a6 3b3b 3e24 183e 9e9a 93bd 2c1f bdbe
000000a0: 43dd 37be 5203 4d3d e92d ffbd 687f 1aba
000000b0: 01e4 a93d da71 253e cc7c 7e3c de6b 253d
000000c0: 4b71 4ebd d071 273d 9187 96bd d8f8 953d
000000d0: 56e4 023e d600 103e 5e02 37be 11d2 143e
000000e0: cd16 f6bb 04be fbbd 9cf6 14bd 3d11 63bd
000000f0: f7a8 333e 527d 1bbe 6500 303e ec80 24be
00000100: 03f3 b73d fd16 483e 24ac 553e e01a b33d
00000110: 38b5 1dbd 0976 75bd a697 9f3d 38f5 2d3d
00000120: 2022 51be 3137 1abe 276e 21bd dadb 5bbe
00000130: 29c0 78be 29b5 093d 63ce 8fbc 74b6 033e
00000140: 2a7d e1bd 272e 11be 4364 183e 35e7 0abd
00000150: 7e4c 5b3c caf5 ffbd 211b 81bd 308c f03b
00000160: f98c a93d 94c8 32be 66d7 4fbd b91c aabd
00000170: f5ee c33c 5d36 113e 1cb1 e9bd 2665 773d
00000180: 6597 453d cef8 eabd 97ea f4bd 4146 cebd
00000190: e7ed 60be 7563 37bd 86a5 083e a10e 9c3c
000001a0: 5586 f23d 094d 2d3e 0409 f6bd 157a e03b
000001b0: c490 abbd c2e7 983c ef55 92bd 2adf ae3d
000001c0: 3bf7 42be d869 2b3e 8775 10bd a8aa 5d3d
000001d0: 3375 87bd e26e c3bd a78d dc3d 23f1 44be
000001e0: 9f45 253e ddca f93d a62c 113b 748c 5fbe
000001f0: f825 983d a224 04be b395 1c3d 65b1 39be
00000200: 15ea 49bd 7421 903d bd25 753d 5b8e 14be
00000210: 0256 be3d b3e5 df3b dfff a73d 32ff 433e
00000220: 5f2e 5ebd ad5a ac3d 3adc b63d 1b59 04bc
00000230: 3253 e53c 6db3 21be eef5 0b3e a159 1abc
00000240: 236d 2bbe 3f54 30bd 6616 203d 1d4d 7d3e
00000250: db6a 42bb 951c aabd f6a8 1ebe e694 973b
00000260: 1c1b c13d f143 1bbe 8d8a dc3d 8b9a 813d
00000270: afb3 bbbd 6dcd 81be fca3 fb3c d3db 1a3e
00000280: 3d43 343e 53c6 7dbd 657b 5b3d dda8 243e
00000290: 8314 b7bb 76c4 11be 8728 d7bd 679a a1be
000002a0: 780b 803e 82d7 2abe 3c44 49bd 40ff 00be
000002b0: 0814 823e 3e2a 27bd e2f9 b5bd 4b0f e73d
000002c0: e6b3 7b3e 9067 7d3d 768b 313d 1819 dfbc
000002d0: 6523 9a3b 93c6 03be 5e5d 54bd 8e8c 44be
000002e0: 027b aebd a4cf 7a3e 68c5 433e 7639 1f3e
000002f0: 8065 8d3c d058 a8bd c968 6ebc 181b a5bd
00000300: 952f 3ebe 25f9 80be 3e43 8cbd 282b cbbc
00000310: 36b1 80bd 6c66 603e 5999 11be 6230 923e
00000320: 3fe8 d73d 43f5 0dbc 3adf 733d 9a8c f83c
00000330: c1d3 613e c0b0 cd3d 5278 b0bc 0166 e4bd
00000340: 5a81 033d 16cd 45bd c1c5 05be 3f02 9ebd
00000350: f170 13be ee58 bbbe 8122 b93c 6997 593e
00000360: 07ec e0bd 333f 84bd 5a7c ca3d 9bd5 113d
00000370: 2b05 a43c e025 0cbd 147f f63d 1865 303e
00000380: 4183 d83c b149 a2bc bc52 b5bb 36f2 463d
00000390: 8979 d1bc 519c 80bd 57b7 2ebe 79e5 59bd
000003a0: e0d4 d73d 9d37 4fbe 67a6 86bd 42a1 353e
000003b0: 980a eabd b6b6 b13d 97f3 36be a9d5 2d3d
000003c0: dfbd ff3d 33ec 883d 8a7c 02be 6f3a bcbd
000003d0: 7b89 abbd 54f2 403e 74ed e43d f652 27bd
000003e0: 8183 07bd 778f 0ebd 27c3 783d f643 803d
000003f0: e687 963d aa49 e83d 7009 d1bd 5e36 c83d

decoder.lstm.weight_hh_l0 f4 [160, 40]
0.25821984 -0.28740948 -0.090888664 -0.20666246 -0.23094413 -0.20944406 -0.040429097 0.11742873
0.0700333 0.2404023 0.06254928 -0.12783092 -0.013099508 0.15176824 -0.0810524 -0.021073144
0.013225877 0.06425574 -0.17376153 -0.12431532 0.02430111 0.12671582 -0.3431059 -0.1584721
0.28771037 -0.060553208 -0.023639742 -0.12596725 0.2988552 0.04417266 0.0325302 0.18425111
0.08779786 0.2177269 0.16620505 0.005965531 -0.30545133 0.00081101747 -0.0027324518 -0.047987122
-0.09155885 -0.114536785 -0.10133957 0.21495676 0.028684158 0.043119274 -0.106749594 -0.0061629335
0.20446266 0.023733262 0.09185712 0.054060012 -0.11164978 0.030413777 -0.0707046 -0.09777426
-0.06572699 0.13847445 0.056244925 0.025445698 0.4151908 0.03165667 -0.12554292 0.013611325
0.12614289 0.012232262 0.12413525 0.13890912 0.05816233 0.048217356 0.2129961 -0.055287596
-0.124720484 0.31172553 -0.074885845 -0.06024048 0.119125575 -0.11445013 0.047615707 0.057183962
-0.15998182 0.08877253 0.22269575 -0.13167599 -0.12579483 0.3182736 0.06337273 0.041095342
-0.14309739 -0.14109561 0.08522823 0.13328132 -0.14972475 0.17216243 0.1452219 -0.031513713
-0.023180451 0.2456774 0.15552002 -0.032143097 0.13284066 0.058642652 -0.016449621 -0.18695696
0.030042997 0.02263563 0.022387326 0.11196396 -0.10075999 -0.14693098 0.060117915 -0.04081057
-0.20069785 -0.021557735 -0.070987076 -0.10153237 0.066477224 -0.069837645 -0.009075485 0.15687603
0.08785686 0.077429414 0.0948298 0.11371536 0.07586519 0.017540423 -0.07517671 -0.08957384
-0.15365392 0.112757124 -0.08776529 0.089915805 -0.19692251 0.050130963 -0.023157265 0.16995232
0.09067102 -0.027860953 -0.14763485 0.20309463 -0.049223557 -0.11692712 0.18595201 0.037186634
0.076332614 0.20981807 0.20513834 0.06997336 -0.16456401 0.12522453 0.16422103 -0.1151902
-0.03684281 0.10880322 -0.06686761 -0.25142452 0.06286084 0.09874495 0.026856437 0.048668377
0.103061326 -0.042471804 -0.017175656 -0.111844644 0.069890454 0.036235236 0.03514819 0.13604388
0.010408959 0.2510825 -0.10287537 0.0878217 -0.10233189 0.14390212 -0.1769021 0.17412168
0.022613361 0.013388111 -0.10473196 0.07938637 0.10851504 -0.092672594 -0.23808235 0.2614186
-0.061158087 0.28690004 -0.067317314 -0.24902137 0.076305345 -0.02394368 0.07586045 -0.11360547
0.07906706 0.07443053 0.099562146 0.035232577 0.07957155 0.039160427 0.23590237 -0.022254232
-0.1106955 -0.011421222 -0.09625728 -0.053617407 -0.29142842 0.1325062 -0.1435835 0.10083027
0.024420997 -0.12621993 0.06846944 -0.025547286 -0.13749929 -0.048470054 -0.032132037 0.17656785
0.03263396 0.079521805 0.10229373 -0.09474058 0.03959694 0.12506704 0.0073578525 -0.012347783
-0.006590076 0.14399403 0.092741475 0.12770657 -0.16316731 0.114871144 -0.020923292 -0.039915234
-0.09694137 0.24545601 0.02172339 -0.18464844 0.09451105 0.07219466 0.01328632 0.065600105
0.11508921 -0.056426488 0.10742812 -0.07931201 0.008765466 -0.032915473 0.03880154 -0.090678826
0.07000607 -0.057614684 0.0034397664 -0.06024184 -0.11300987 -0.033674378 -0.13385089 -0.07266346
00000000: 6435 843e 5627 93be d623 babd 539f 53be
00000010: 9e7c 6cbe 8178 56be fb98 25bd 797e f03d
00000020: 9e6d 8f3d 052c 763e d619 803d 1ce6 02be
00000030: 529f 56bc 2269 1b3e cdfe a5bd 96a1 acbc
00000040: 59b1 583c 8398 833d 8bee 31be 0899 febd
00000050: 1f13 c73c cbc1 013e 94ab afbe 8346 22be
00000060: c64e 933e a406 78bd 22a8 c1bc 8ffd 00be
00000070: 8c03 993e 64ee 343d 633e 053d 53ac 3c3e
00000080: 5dcf b33d cdf3 5e3e a831 2a3e 807a c33b
00000090: 1e64 9cbe 769a 543a ef12 33bb 258e 44bd
000000a0: 3583 bbbd 4392 eabd 1f8b cfbd a01d 5c3e
000000b0: 0afb ea3c d69d 303d 889f dabd 6ff2 c9bb
000000c0: a95e 513e 426c c23c 961f bc3d 086e 5d3d
000000d0: a4a8 e4bd 5026 f93c 93cd 90bd df3d c8bd
000000e0: df9b 86bd 3fcc 0d3e 1461 663d 7f73 d03c
000000f0: e393 d43e 6daa 013d 538e 00be 0902 5f3c
00000100: 9a2b 013e d369 483c 9f3a fe3d 313e 0e3e
00000110: a03b 6e3d 907f 453d a61b 5a3e 3f75 62bd
00000120: 746d ffbd 7d9a 9f3e c05d 99bd b9be 76bd
00000130: 1cf8 f33d d464 eabd b008 433d bb39 6a3d
00000140: 46d2 23be 5fce b53d 5b0a 643e 12d6 06be
00000150: 5cd0 00be c2f4 a23e 90c9 813d 9753 283d
00000160: 1f88 12be 5e7b 10be 238c ae3d e67a 083e
00000170: 7251 19be 594b 303e 0db5 143e 8614 01bd
00000180: eee4 bdbc db92 7b3e a440 1f3e 7ba8 03bd
00000190: 6207 083e 4733 703d 5bc1 86bc a571 3fbe
000001a0: bb1c f63c 5b6e b93c a065 b73c 5c4d e53d
000001b0: 415b cebd 1375 16be 343e 763d fc28 27bd
000001c0: bd83 4dbe d999 b0bc ac61 91bd 34f0 cfbd
000001d0: 3625 883d 0a07 8fbd 58b1 14bc 1ca4 203e
000001e0: 4cee b33d 5093 9e3d 2036 c23d 99e3 e83d
000001f0: 355f 9b3d efb0 8f3c 3ff6 99bd 7d72 b7bd
00000200: 7457 1dbe 35ed e63d 4abe b3bd c725 b83d
00000210: 0ea6 49be 2056 4d3d 4eb4 bdbc fb07 2e3e
00000220: bab1 b93d a73c e4bc 972d 17be 0af8 4f3e
00000230: a49e 49bd 7c77 efbd 346a 3e3e 0351 183d
00000240: 4654 9c3d 8cda 563e c90f 523e 314e 8f3d
00000250: 7883 28be dc3a 003e 8f29 283e d7e8 ebbd
00000260: 7de8 16bd 39d4 de3d e3f1 88bd b7ba 80be
00000270: 2fbd 803d cb3a ca3d 0802 dc3c 7e58 473d
00000280: d111 d33d eaf6 2dbd f6b3 8cbc ce0e e5bd
00000290: ba22 8f3d 666b 143d 8cf7 0f3d 164f 0b3e
000002a0: 578a 2a3c e38d 803e 52b0 d2bd dddb b33d
000002b0: 6293 d1bd 145b 133e d325 35be f44c 323e
000002c0: a83f b93c cf59 5b3c b67d d6bd 5295 a23d
000002d0: 223d de3d 21cb bdbd dccb 73be a9d8 853e
000002e0: e780 7abd 90e4 923e a9dd 89bd 75ff 7ebe
000002f0: fa45 9c3d 8925 c4bc b95c 9b3d fca9 e8bd
00000300: e9ed a13d 096f 983d 3de7 cb3d 0950 103d
00000310: 69f6 a23d af66 203d 6490 713e 824e b6bc
00000320: 53b4 e2bd 1420 3bbc 8922 c5bd ed9d 5bbd
00000330: 1b36 95be b5af 073e 8e07 13be 1a80 ce3d
00000340: 8b0e c83c cc3f 01be b539 8c3d 8b48 d1bc
00000350: 9dcc 0cbe 8988 46bd e29c 03bd 34ce 343e
00000360: 30ab 053d 54dc a23d 607f d13d 5907 c2bd
00000370: 6730 223d 9311 003e 241a f13b 5b4e 4abc
00000380: 90f1 d7bb 2c73 133e 3eef bd3d 83c5 023e
00000390: 5515 27be 9041 eb3d 5367 abbc 287e 23bd
000003a0: 3289 c6bd d258 7b3e 40f5 b13c 7b14 3dbe
000003b0: 028f c13d cbda 933d ddae 593c 5959 863d
000003c0: e4b3 eb3d 761f 67bd 4603 dc3d 566e a2bd
000003d0: 079d 0f3c 60d2 06bd 5dee 1e3d d2b5 b9bd
000003e0: 585f 8f3d 60fd 6bbd b46d 613b 26c0 76bd
000003f0: b871 e7bd 25ee 09bd 3510 09be 95d0 94bd

decoder.lstm.bias_ih_l0 f4 [160]
0.32240716 -0.11850121 0.21694395 -0.09530442 -0.035114102 0.16313337 0.01303528 0.055604737
0.1363876 0.22562416 -0.068477124 0.1627524 -0.14762071 0.16545714 0.21226072 0.023575144
0.10874861 0.38618568 0.1933326 0.15600784 -0.059351012 0.4309166 0.053042658 -0.12621723
-0.024572363 -0.063002884 0.25021556 -0.123122424 0.12365041 0.24558221 0.24571116 0.04324254
0.18258762 0.0031093643 0.08194212 -0.13689849 0.09880077 -0.030236602 0.06541833 0.06900135
0.13481098 -0.045125812 0.27395558 0.23231302 0.058331415 0.0124914795 0.036788795 0.06677841
0.22694464 0.21037726 -0.018442556 0.19080082 0.15652956 0.08176915 0.16550961 0.22412208
0.023854464 -0.027535234 0.13469318 0.029400352 0.098990396 0.057567127 -0.026199974 0.13583206
0.07839644 -0.004354869 0.07065861 0.2516103 0.17277902 -0.018257523 0.026521403 0.19907597
0.068280354 -0.10807026 -0.022358965 -0.028217116 0.07266438 0.07103964 -0.10632294 0.19614576
-0.03361662 0.03344578 0.15662548 -0.05844378 -0.06758762 0.052458983 0.07703121 0.07810179
-0.119725674 -0.051836718 0.06408007 0.16117114 -0.10661508 0.052936643 -0.025355255 0.12677966
-0.13112181 0.02010312 -0.033228066 0.07763287 -0.03236404 0.11578088 0.13125396 0.084406234
0.022448566 0.09038944 -0.032214697 0.06073162 0.033370156 -0.13213421 -0.044496987 -0.09916806
-0.1397069 0.13485901 0.048454735 -0.13593546 0.08634947 0.023650276 -0.07979893 0.07802007
0.1084188 0.22951706 0.08254957 0.09126954 -0.041435514 -0.06649916 0.02515542 -0.021844022
-0.054721933 0.10998911 0.13128833 0.12094214 0.118243605 0.020217182 -0.010916923 0.12653957
0.13598953 0.4807501 0.08804873 0.13194081 0.25283912 0.111293726 0.02860227 -0.06502048
-0.027688151 0.2142466 0.06019237 0.01648605 0.13340151 0.32786936 0.28698835 0.14984302
0.093056396 0.14548966 0.016969552 0.07200866 0.19119357 0.22671266 -0.09088947 0.07061772
00000000: 8d12 a53e c3b0 f2bd 8e26 5e3e f72e c3bd
00000010: ced3 0fbd 6f0c 273e ed91 553c cbc1 633d
00000020: 31a9 0b3e 050a 673e bc3d 8cbd 91a8 263e
00000030: e229 17be 996d 293e e05a 593e a920 c13c
00000040: 97b7 de3d 21ba c53e fbf8 453e 85c0 1f3e
00000050: 0c1a 73bd 1aa1 dc3e 4243 593d 173f 01be
00000060: fb4b c9bc a807 81bd 411c 803e 9c27 fcbd
00000070: 6d3c fd3d e779 7b3e b59b 7b3e 171f 313d
00000080: 40f8 3a3e 7ac6 4b3b 45d1 a73d 1e2f 0cbe
00000090: 0f58 ca3d c0b2 f7bc 0cfa 853d 9450 8d3d
000000a0: e40b 0a3e d8d5 38bd e843 8c3e 77e3 6d3e
000000b0: ecec 6e3d 10a9 4c3c d9af 163d 1ec3 883d
000000c0: 2d64 683e 236d 573e d814 97bc 4a61 433e
000000d0: 4949 203e 9676 a73d 5a7b 293e 4280 653e
000000e0: 706a c33c 9291 e1bc 02ed 093e 02d9 f03c
000000f0: 7abb ca3d 82cb 6b3d 54a1 d6bc 8f17 0b3e
00000100: 508e a03d 4ab3 8ebb 76b5 903d 11d3 803e
00000110: fcec 303e cd90 95bc 6a43 d93c 92da 4b3e
00000120: 92d6 8b3d f153 ddbd 262a b7bc 9527 e7bc
00000130: 10d1 943d 3b7d 913d d7bf d9bd 6fda 483e
00000140: 95b1 09bd 71fe 083d 6e62 203e bf62 6fbd
00000150: 616b 8abd 3bdf 563d 8ac2 9d3d d5f3 9f3d
00000160: bc32 f5bd bd52 54bd 693c 833d 0c0a 253e
00000170: 0259 dabd 18d4 583d d3b5 cfbc 87d2 013e
00000180: cc44 06be 4caf a43c 271a 08bd fbfd 9e3d
00000190: 2890 04bd 871e ed3d 7067 063e 2ddd ac3d
000001a0: 0ee6 b73c 191e b93d 8ff3 03bd b8c1 783d
000001b0: 25af 083d 314e 07be 7942 36bd a018 cbbd
000001c0: 530f 0fbe 7b18 0a3e 7978 463d aa32 0bbe
000001d0: fed7 b03d 39be c13c 9f6d a3bd fdc8 9f3d
000001e0: ad0a de3d 8506 6b3e c00f a93d 86eb ba3d
000001f0: 49b8 29bd b630 88bd bd12 ce3c 3cf2 b2bc
00000200: 1b24 60bd f841 e13d 7370 063e 83b0 f73d
00000210: b429 f23d 819e a53c e5dc 32bc 9793 013e
00000220: d740 0b3e e124 f63e e452 b43d 7e1b 073e
00000230: 2174 813e f7ed e33d 4f4f ea3c 7529 85bd
00000240: 43d2 e2bc 7663 5b3e 468c 763d c10d 873c
00000250: 689a 083e 7ede a73e 23f0 923e 7370 193e
00000260: 5a94 be3d 3efb 143e bb03 8b3c 4779 933d
00000270: 3fc8 433e 5d27 683e 4224 babd 06a0 903d
