models/103-seed-100-synctwin_ls_yes_lasso/itr-0-nsc.pth-testing.pth (torch, 399581 bytes, 20 tensors)

B f4 [400, 200]
00000000: 17b7 d138 17b7 d138 17b7 d138 17b7 d138
00000010: 17b7 d138 17b7 d138 17b7 d138 17b7 d138
00000020: 17b7 d138 17b7 d138 17b7 d138 17b7 d138
00000030: 17b7 d138 17b7 d138 17b7 d138 17b7 d138
00000040: 17b7 d138 17b7 d138 17b7 d138 17b7 d138
00000050: 17b7 d138 17b7 d138 17b7 d138 17b7 d138
00000060: 17b7 d138 17b7 d138 17b7 d138 17b7 d138
00000070: 17b7 d138 17b7 d138 17b7 d138 17b7 d138
00000080: 17b7 d138 17b7 d138 17b7 d138 17b7 d138
00000090: 17b7 d138 17b7 d138 17b7 d138 17b7 d138
000000a0: 17b7 d138 17b7 d138 17b7 d138 17b7 d138
000000b0: 17b7 d138 17b7 d138 17b7 d138 17b7 d138
000000c0: 17b7 d138 17b7 d138 17b7 d138 17b7 d138
000000d0: 17b7 d138 17b7 d138 17b7 d138 17b7 d138
000000e0: 17b7 d138 17b7 d138 17b7 d138 17b7 d138
000000f0: 17b7 d138 17b7 d138 17b7 d138 17b7 d138
00000100: 17b7 d138 17b7 d138 17b7 d138 17b7 d138
00000110: 17b7 d138 17b7 d138 17b7 d138 17b7 d138
00000120: 17b7 d138 17b7 d138 17b7 d138 17b7 d138
00000130: 17b7 d138 17b7 d138 17b7 d138 17b7 d138
00000140: 17b7 d138 17b7 d138 17b7 d138 17b7 d138
00000150: 17b7 d138 17b7 d138 17b7 d138 17b7 d138
00000160: 17b7 d138 17b7 d138 17b7 d138 17b7 d138
00000170: 17b7 d138 17b7 d138 17b7 d138 17b7 d138
00000180: 17b7 d138 17b7 d138 17b7 d138 17b7 d138
00000190: 17b7 d138 17b7 d138 17b7 d138 17b7 d138
000001a0: 17b7 d138 17b7 d138 17b7 d138 17b7 d138
000001b0: 17b7 d138 17b7 d138 17b7 d138 17b7 d138
000001c0: 17b7 d138 17b7 d138 17b7 d138 17b7 d138
000001d0: 17b7 d138 17b7 d138 17b7 d138 17b7 d138
000001e0: 17b7 d138 17b7 d138 17b7 d138 17b7 d138
000001f0: 17b7 d138 17b7 d138 17b7 d138 17b7 d138
00000200: 17b7 d138 17b7 d138 17b7 d138 17b7 d138
00000210: 17b7 d138 17b7 d138 17b7 d138 17b7 d138
00000220: 17b7 d138 17b7 d138 17b7 d138 17b7 d138
00000230: 17b7 d138 17b7 d138 17b7 d138 17b7 d138
00000240: 17b7 d138 17b7 d138 17b7 d138 17b7 d138
00000250: 17b7 d138 17b7 d138 17b7 d138 17b7 d138
00000260: 17b7 d138 17b7 d138 17b7 d138 17b7 d138
00000270: 17b7 d138 17b7 d138 17b7 d138 17b7 d138
00000280: 17b7 d138 17b7 d138 17b7 d138 17b7 d138
00000290: 17b7 d138 17b7 d138 17b7 d138 17b7 d138
000002a0: 17b7 d138 17b7 d138 17b7 d138 17b7 d138
000002b0: 17b7 d138 17b7 d138 17b7 d138 17b7 d138
000002c0: 17b7 d138 17b7 d138 17b7 d138 17b7 d138
000002d0: 17b7 d138 17b7 d138 17b7 d138 17b7 d138
000002e0: 17b7 d138 17b7 d138 17b7 d138 17b7 d138
000002f0: 17b7 d138 17b7 d138 17b7 d138 17b7 d138
00000300: 17b7 d138 17b7 d138 17b7 d138 17b7 d138
00000310: 17b7 d138 17b7 d138 17b7 d138 17b7 d138
00000320: 17b7 d138 17b7 d138 17b7 d138 17b7 d138
00000330: 17b7 d138 17b7 d138 17b7 d138 17b7 d138
00000340: 17b7 d138 17b7 d138 17b7 d138 17b7 d138
00000350: 17b7 d138 17b7 d138 17b7 d138 17b7 d138
00000360: 17b7 d138 17b7 d138 17b7 d138 17b7 d138
00000370: 17b7 d138 17b7 d138 17b7 d138 17b7 d138
00000380: 17b7 d138 17b7 d138 17b7 d138 17b7 d138
00000390: 17b7 d138 17b7 d138 17b7 d138 17b7 d138
000003a0: 17b7 d138 17b7 d138 17b7 d138 17b7 d138
000003b0: 17b7 d138 17b7 d138 17b7 d138 17b7 d138
000003c0: 17b7 d138 17b7 d138 17b7 d138 17b7 d138
000003d0: 17b7 d138 17b7 d138 17b7 d138 17b7 d138
000003e0: 17b7 d138 17b7 d138 17b7 d138 17b7 d138
000003f0: 17b7 d138 17b7 d138 17b7 d138 17b7 d138
1e-04 1e-04 1e-04 1e-04 1e-04 1e-04 1e-04 1e-04
1e-04 1e-04 1e-04 1e-04 1e-04 1e-04 1e-04 1e-04
1e-04 1e-04 1e-04 1e-04 1e-04 1e-04 1e-04 1e-04
1e-04 1e-04 1e-04 1e-04 1e-04 1e-04 1e-04 1e-04
1e-04 1e-04 1e-04 1e-04 1e-04 1e-04 1e-04 1e-04
1e-04 1e-04 1e-04 1e-04 1e-04 1e-04 1e-04 1e-04
1e-04 1e-04 1e-04 1e-04 1e-04 1e-04 1e-04 1e-04
1e-04 1e-04 1e-04 1e-04 1e-04 1e-04 1e-04 1e-04
1e-04 1e-04 1e-04 1e-04 1e-04 1e-04 1e-04 1e-04
1e-04 1e-04 1e-04 1e-04 1e-04 1e-04 1e-04 1e-04
1e-04 1e-04 1e-04 1e-04 1e-04 1e-04 1e-04 1e-04
1e-04 1e-04 1e-04 1e-04 1e-04 1e-04 1e-04 1e-04
1e-04 1e-04 1e-04 1e-04 1e-04 1e-04 1e-04 1e-04
1e-04 1e-04 1e-04 1e-04 1e-04 1e-04 1e-04 1e-04
1e-04 1e-04 1e-04 1e-04 1e-04 1e-04 1e-04 1e-04
1e-04 1e-04 1e-04 1e-04 1e-04 1e-04 1e-04 1e-04
1e-04 1e-04 1e-04 1e-04 1e-04 1e-04 1e-04 1e-04
1e-04 1e-04 1e-04 1e-04 1e-04 1e-04 1e-04 1e-04
1e-04 1e-04 1e-04 1e-04 1e-04 1e-04 1e-04 1e-04
1e-04 1e-04 1e-04 1e-04 1e-04 1e-04 1e-04 1e-04
1e-04 1e-04 1e-04 1e-04 1e-04 1e-04 1e-04 1e-04
1e-04 1e-04 1e-04 1e-04 1e-04 1e-04 1e-04 1e-04
1e-04 1e-04 1e-04 1e-04 1e-04 1e-04 1e-04 1e-04
1e-04 1e-04 1e-04 1e-04 1e-04 1e-04 1e-04 1e-04
1e-04 1e-04 1e-04 1e-04 1e-04 1e-04 1e-04 1e-04
1e-04 1e-04 1e-04 1e-04 1e-04 1e-04 1e-04 1e-04
1e-04 1e-04 1e-04 1e-04 1e-04 1e-04 1e-04 1e-04
1e-04 1e-04 1e-04 1e-04 1e-04 1e-04 1e-04 1e-04
1e-04 1e-04 1e-04 1e-04 1e-04 1e-04 1e-04 1e-04
1e-04 1e-04 1e-04 1e-04 1e-04 1e-04 1e-04 1e-04
1e-04 1e-04 1e-04 1e-04 1e-04 1e-04 1e-04 1e-04
1e-04 1e-04 1e-04 1e-04 1e-04 1e-04 1e-04 1e-04

encoder.attn_v f4 [40]
00000000: 4f72 893f bb8b 983f b566 833f eeb4 8c3f
00000010: a8cf 603f d25f 8b3f 64bf 9c3f d41d 9c3f
00000020: 5694 a23f 3d7f ad3f e171 973f d40c a43f
00000030: fd14 913f b5ed 9d3f b9bd 663f 0e07 8e3f
00000040: 0eb5 af3f 8cde 5b3f 2985 a63f d82a 7a3f
00000050: 6854 393f e791 4d3f 60ac 893f b896 643f
00000060: a5bb 813f 3b2e ac3f d700 8b3f 96f0 853f
00000070: 091c 9e3f 0348 9e3f 05f2 773f 1317 503f
00000080: b1e6 5b3f 36aa 923f 2748 933f e78a 813f
00000090: 684b a73f 386f 833f e267 643f 0946 1b3f
1.0738009 1.1917642 1.0265719 1.0992715 0.8781686 1.0888617 1.2245908 1.2196603
1.2701519 1.3554455 1.1831628 1.2816415 1.133453 1.2338167 0.90133244 1.1095903
1.3727129 0.85886455 1.3009387 0.97721624 0.7239442 0.80300754 1.075573 0.8929248
1.013539 1.3451608 1.0859631 1.0464046 1.2352306 1.2365726 0.9685367 0.8128521
0.8589888 1.1458194 1.1506394 1.0120515 1.3069887 1.0268316 0.8922101 0.6065374

encoder.lstm.weight_ih_l0 f4 [80, 2]
00000000: ab4c e93d 7544 9b3e 167f 29be c3b7 31bd
00000010: ba33 92bd 36be 0c3e c97e 16be 844d 5abe
00000020: 0837 453d c470 603c 7d16 20be d771 373e
00000030: 37b6 013e 5e8e 043c f03e 443e 994e b93e
00000040: 2e9b 033e ab71 573d 7705 1e3e c4a9 9d3e
00000050: 458a 8fbe bc14 2f3e 6302 853e 3293 dc3e
00000060: 5979 28be 23b4 933d 015d 813e 8638 403d
00000070: 8144 4fbe 97d0 ef3d 147d 06bd 22e2 053d
00000080: 789d d5bc 4f14 a9bd 0574 3dbe 2584 35bd
00000090: 29b1 223e 9848 a53d 15a6 d3bd b41a 813e
000000a0: 4bf5 043d 5e5b 0ebe 44fe 6cbd ce53 fc3d
000000b0: c280 65be 6bcc 663d 4389 aabe e910 a7bd
000000c0: 72ad cf3e 4dd9 653e 7c4e 3abd 95a2 593e
000000d0: 40e9 28be 0bfa b4bd 6600 9c3e ff05 753e
000000e0: 4ce7 75bc 3f68 b9bc cbd6 e93e c52a 083f
000000f0: 090a 3fbe 1309 8f3d e28e 7abd 9363 d83e
00000100: 8e19 f13d c827 553d f94a 9d3e 84ae 543e
00000110: 67d7 ddbb 1715 f1bd b114 8ebd 7f5d f63d
00000120: 9d19 56be 0e8a 373e ccdd b9bb c7ff 57bd
00000130: 2001 683e 7fba 043e d4e8 c83d 8158 003e
00000140: 6e7e 33be 7f53 6e3e 89d0 2fbe 24c5 c2be
00000150: dbdb 963d 1102 5bbe 91ac 75bd 2703 6e3e
00000160: 6d30 4f3e 9a3b b2bd 57f4 02be 0b5a 6fbe
00000170: 718a 503d 6a3b 63be c7bc 7fbe aad1 d9bd
00000180: f7e7 38be bcd3 673e 8b3f 82be 597c e7bd
00000190: d085 143e 4e55 d23d c0b0 f43d c55c 26bd
000001a0: 4a11 a0bd 3d74 813e 142c 3fbe a037 7d3b
000001b0: 867d 2b3e b617 f33d 670b 6ebe f65e 003d
000001c0: 51cd 053e b551 313e f901 c33d 543e 1e3e
000001d0: 9fc8 5b3d a713 9e3e d51d 2dbd 6ba5 98bd
000001e0: 3a16 3dbc aaf2 b33e 12a6 efbc 21e3 24ba
000001f0: 3ffb 07bf 5893 72be be40 2fbe 2910 96bd
00000200: 487a 353e 2d04 0b3f 9540 83be 8f20 b2bd
00000210: c2bd fbbd 4d3d 77bc cd88 a83e 67d7 023f
00000220: eea7 523e 4f4a 093e d4f4 973e 1bd4 0d3f
00000230: f560 46bd e7f8 e83d 8df2 d8bd cce4 3d3e
00000240: 040e 3dbe fe41 bdbd f31f 0f3e ba59 403e
00000250: 8609 803e b16d 0dbe c89a bebe 2cd2 7f3d
00000260: 38bd 0c3e 4309 2c3e a12f 2abe bd43 bebd
00000270: 46d2 c03d 9389 ce3d ef7c d43d 194a 903e
0.113915764 0.30325666 -0.16552386 -0.04338814 -0.07138772 0.13744435 -0.14696802 -0.21318632
0.048148185 0.01369876 -0.15633579 0.1791452 0.12667166 0.008090584 0.19164634 0.36192778
0.12852165 0.052598637 0.15431772 0.30793583 -0.2803518 0.17097753 0.25978383 0.4308105
-0.1645254 0.07212093 0.2526627 0.046928905 -0.20240976 0.11709707 -0.032834128 0.03268636
-0.026076064 -0.08255827 -0.18501289 -0.044315476 0.15887894 0.08070487 -0.10334412 0.25215685
0.032460492 -0.13902041 -0.057859674 0.12320672 -0.22412398 0.056347292 -0.33307847 -0.08157522
0.40562016 0.22446175 -0.045485005 0.21253426 -0.16495228 -0.088367544 0.30469054 0.23928069
-0.015008759 -0.022632716 0.45671687 0.5319026 -0.18656172 0.06984153 -0.06117142 0.4226347
0.11772452 0.05203989 0.30721262 0.20769697 -0.0067700627 -0.11771601 -0.0693754 0.12029552
-0.20908208 0.17923757 -0.005672192 -0.052734163 0.22656679 0.12961768 0.098100334 0.12533762
-0.17528698 0.23274039 -0.17169394 -0.3804103 0.07366153 -0.21387507 -0.059979025 0.2324339
0.20233317 -0.08702774 -0.12788521 -0.23374192 0.050913278 -0.22190633 -0.24974357 -0.10635693
-0.18057238 0.22639364 -0.25439104 -0.11303014 0.1450417 0.10270177 0.11947775 -0.040615816
-0.078157976 0.25283995 -0.18669158 0.0038637891 0.16747102 0.11869757 -0.23246537 0.03134056
0.13066603 0.17316325 0.09521861 0.15453464 0.053658124 0.3087437 -0.04226478 -0.07453426
-0.011540944 0.35146075 -0.029253993 -0.00062899484 -0.53117746 -0.2368902 -0.17114541 -0.07327301
0.17722428 0.54303247 -0.2563521 -0.08697616 -0.12292053 -0.015090299 0.3291687 0.5110993
0.20571873 0.13407253 0.29678977 0.5540177 -0.04843231 0.11375599 -0.10593138 0.1854431
-0.18462378 -0.09241103 0.13977031 0.18784228 0.25007266 -0.13811375 -0.37227464 0.062456295
0.13744056 0.16800408 -0.16619731 -0.09290264 0.094151065 0.10084834 0.10375392 0.28181532

encoder.lstm.weight_hh_l0 f4 [80, 20]
00000000: 9674 a33b 2213 b7bc 9d3e cd3d 80ed cebd
00000010: fcf2 c83c 3afd 8ebd 22ef fd3d 7740 88be
00000020: 7ace b5bd 0818 6bbe b559 ee3d acab 84bd
00000030: 9f7f 63bd 6312 d53d 0768 9abd e2d2 79be
00000040: 42e1 883d bd9e 3b3e f2af bc3d 15a9 8bbc
00000050: 49ae 98bc 4003 26be 116a bdbc a47c 30be
00000060: 4dd7 c8bd 0581 b73c b3a7 a2be 1e98 aa3c
00000070: 0468 073f 2c90 edbe 5db7 cd3d 4e1a 1abf
00000080: 0df5 443e 6a30 0abe 33ea c9bd 5f15 773e
00000090: afd0 cbbe 9af1 0f3e 65d1 f73c b2ae 6d3e
000000a0: 099b 8fbd 3563 25be 354c f9bc e8dd 54be
000000b0: 66e5 5a3e 53dd 423e 1890 88be 5c2c 62bd
000000c0: fca9 0b3e 58f7 14be 0657 d0be f627 7fbc
000000d0: 67f0 01be f8d0 8ebc 75a1 7cbd f261 febd
000000e0: 6231 e23e c522 803e 6e11 803e ffbc d13d
000000f0: 7aff aa3e 3766 56be cf73 30be 5cc7 75bc
00000100: c0ec 993e ebf8 163e 9b28 84be f689 22ba
00000110: 76a3 d7bd f7bb 8cbd 3a04 62be 183c e4be
00000120: 0af2 eb3d a1e7 3fbe 5293 14bd ce71 a2bd
00000130: 2756 b13e c288 14be 4d44 83bd 60d2 513c
00000140: 6971 2cbe 36bc afbd ed43 0bbe 012f 5e3d
00000150: a657 243d ecbf 1c3e 9da6 3ebe fe35 f8bd
00000160: d8b6 22be 1254 11be 5f81 193e 0d2d 95be
00000170: 3fd7 3d3d 30ae 963d f053 533e 874e 2a3e
00000180: 739e fabd 7624 8c3d 0d49 923e 2991 d63c
00000190: 9a10 a5be 5aa4 42be b7a0 c2be 049d d1be
000001a0: 8f59 643e 50b9 1d3e aaa8 f53d f8f4 55be
000001b0: ab7c fabd 9be6 07bf e4b8 1abe 6979 85be
000001c0: 80a5 12be a32f 12bd f9a6 b3bd f69a 993d
000001d0: a4a4 fdbd 5c5d 853c 40ab d2bd 6730 e53d
000001e0: 2f68 c7bc ed93 763e 0ef8 3ebe 09a4 2bbb
000001f0: d0e1 093e b9f9 91be b8d9 cabc 9e97 35be
00000200: 7f49 2c3e 32ce 0abd 638f f53d 9412 86be
00000210: 9d3d d03e 0275 d4b9 6be7 56be 543f aebd
00000220: 09ee 7d3e ae24 38bc 8cfe acbe 0320 973e
00000230: 0ab5 e8bd d9a0 973d acfc e6bd 2622 27be
00000240: a246 b3bd cd5e 4ebe c5fe e4bd 08be a6be
00000250: feab b13d 633c 51be bffe 47be 05c0 943d
00000260: 361f 563e 6e35 51be 5a4f 0cbe 70c1 93bd
00000270: 8ba0 37be 4e1f 88bd 63cd 3ebe f219 9abd
00000280: e209 a83d 72de a3bd f438 893c 7ceb 84be
00000290: e9ae 323e bf33 5c3e 01bb 5cbe f6de 77bd
000002a0: 8eff 373e da2b 713e 28ae 23be d915 e3bd
000002b0: ffb9 7abe 5de1 f5bd 4636 123e e096 263e
000002c0: 6a88 01be 9a0e 8f3e 1644 e6bd 91f5 503d
000002d0: eeb2 d5be 62ce cfbe a9c4 3dbe 8b4b 99be
000002e0: 5add 463e fb7e 2a3e 7ade e2bd 4147 79be
000002f0: 9864 a6bd 6741 8fbd 8966 98be 3cd3 5abe
00000300: 0d0c d53c 34b2 0d3d 2d96 fd3e 318c 9ebd
00000310: ef9a 4bbe ab5a 423e a3a4 cc3e 8e01 d33e
00000320: 9433 70be 94b1 11be b152 4abe b89d 34be
00000330: 7505 7e3d 91c3 c2bb ffb5 b2be 9ab7 64be
00000340: 4bcb 913e 9cc3 91be bb6d 47be 6164 4fbe
00000350: 5489 0abe 60ff aabe ab34 493e b20e c83e
00000360: 6e2a 12be 6427 d33d bb26 c63e 878e 203f
00000370: d280 c0be 6e4c 0dbf 6003 2f3e 86b6 00be
00000380: d48b 2ebe 73fc 023e e614 1ebe b45b 5dbe
00000390: 0432 46bd 6f7a 763e 18a4 d1bd 3a14 e9bd
000003a0: 90ce 4c3d 0515 dcbc ad4a 8cbe a697 95be
000003b0: bd68 643d fce7 b83a f431 ba3e ddaf d9bd
000003c0: 501b 633e 2648 25bd 62f6 babd e4e1 a1be
000003d0: 77fe d83e 6401 633e fc41 1c3e d0ed e23d
000003e0: 69f0 483e 90dd 7b3e c77d d2bc 4de4 843c
000003f0: 95e7 a9be ccf3 3ebe 6af9 38be 2005 153e
0.0049882634 -0.02234799 0.10021708 -0.10103893 0.024529926 -0.06981893 0.123991266 -0.26611683
-0.08877273 -0.22958386 0.11638204 -0.06478056 -0.05554163 0.104038976 -0.07539373 -0.24396852
0.066835895 0.18322273 0.092132464 -0.017048398 -0.018637793 -0.16212177 -0.023121865 -0.17235047
-0.0980669 0.022400388 -0.3176857 0.020824488 0.5289309 -0.46399057 0.100447394 -0.6019639
0.19234104 -0.13495031 -0.09859123 0.24129246 -0.3980765 0.14057007 0.030251214 0.23211172
-0.070119925 -0.16151126 -0.030431846 -0.20787776 0.21376571 0.19029741 -0.26672435 -0.055218086
0.13639063 -0.14547479 -0.40691394 -0.015573492 -0.12689362 -0.017433628 -0.061677415 -0.12421025
0.441783 0.25026527 0.25013298 0.10241126 0.33398038 -0.2093743 -0.17231677 -0.015001144
0.30063438 0.14743392 -0.2581223 -0.00062003674 -0.105292246 -0.06871789 -0.22071925 -0.44577098
0.11520775 -0.18740703 -0.036273308 -0.07931863 0.34636042 -0.14505294 -0.06409512 0.012806505
-0.16840138 -0.0858082 -0.1360013 0.054244045 0.04012265 0.15307587 -0.18618245 -0.12119673
-0.15890062 -0.14192227 0.14990757 -0.29135934 0.046347853 0.073574424 0.20637488 0.16631518
-0.12237253 0.06842892 0.28571358 0.026192265 -0.32239228 -0.19008008 -0.3801324 -0.40940106
0.22299789 0.15402722 0.11995061 -0.2089423 -0.1223081 -0.5308625 -0.15109593 -0.2606919
-0.14320946 -0.03568996 -0.08772082 0.075002596 -0.12384918 0.016279869 -0.102865696 0.11190873
-0.02434167 0.24079867 -0.18649313 -0.0026190302 0.13465047 -0.28510836 -0.02476202 -0.17733619
0.16824912 -0.03388805 0.119902395 -0.2618605 0.40672007 -0.0004052297 -0.20986716 -0.08508173
0.24797834 -0.011239214 -0.33787954 0.2951661 -0.113626555 0.07403726 -0.11278662 -0.1632162
-0.087537065 -0.20153351 -0.11181406 -0.32566857 0.08675383 -0.20433192 -0.19530772 0.07263187
0.20910344 -0.20430538 -0.13702145 -0.0721463 -0.17932336 -0.06646596 -0.18633036 -0.0752448
0.0820501 -0.080014125 0.01675079 -0.2596091 0.17449535 0.21504115 -0.21555711 -0.060515366
0.1796858 0.23551884 -0.15984404 -0.110881515 -0.24485014 -0.12005875 0.14278516 0.16268492
-0.12649694 0.27940828 -0.11243455 0.05101544 -0.41738075 -0.40587145 -0.18532051 -0.29940447
0.19420376 0.16650002 -0.1107759 -0.24343587 -0.081246555 -0.069948964 -0.29765728 -0.21369642
0.026006723 0.034593776 0.49528638 -0.07741583 -0.19883321 0.189799 0.39969358 0.41212124
-0.23457175 -0.14227897 -0.19758107 -0.1763829 0.062016923 -0.0059437235 -0.34904477 -0.22335663
0.28475413 -0.2846955 -0.19475453 -0.20253135 -0.13528949 -0.3339796 0.19648997 0.39073712
-0.14273998 0.103102475 0.38701424 0.6271748 -0.37598282 -0.5519475 0.17091131 -0.12569627
-0.17045528 0.12791614 -0.1543766 -0.21617013 -0.048387542 0.24070142 -0.102363765 -0.11380811
0.05000168 -0.026865492 -0.27400723 -0.2921726 0.05576395 0.0014107223 0.36366236 -0.106292464
0.22178388 -0.04035201 -0.09129025 -0.31617653 0.4238164 0.22168499 0.15259546 0.110805154
0.19622959 0.24596238 -0.025694741 0.016222144 -0.33184496 -0.18647689 -0.18063894 0.14552736

encoder.lstm.bias_ih_l0 f4 [80]
00000000: a787 043e 3326 aa3d 7ec5 583e ceb6 353d
00000010: 72ba 263e 01ad 913d 74ac 493e 128e 803e
00000020: c03b 3a3e 2c48 4a3e 6675 853e 513e 873d
00000030: 4fad 6c3d d1b3 c23d 3e51 9c3c 6fee 233e
00000040: 063c b8bc fcd2 d9bd 05fd 1d3e ea89 c2bd
00000050: 0689 903e a20e d73e d5a0 8b3e 9e86 cb3d
00000060: ee7a 08be b9c8 c33e 8543 063f c399 163e
00000070: 4562 923d a9e7 b23d 07c2 db3e a95d 293e
00000080: 2fbb 073f 284d 043e b34d 443e 8d58 9a3e
00000090: b088 443e 7a08 a4bc cba9 c63d c055 743e
000000a0: ba31 93be 49be 873d c72e 473e 75d6 77be
000000b0: 2868 b8bd 4568 05bd 0604 63be d072 1bbc
000000c0: 4d50 c33d 6e80 18bd 149d 92be c855 c53d
000000d0: 4273 24bd 8a02 c5bd 197b e0bd 0a50 a9bd
000000e0: 2ab8 44be 6072 6c3e c687 5dbd 6586 263e
000000f0: 5a4f 863e 6e1c 133e c7ee bb3e 1a3b b93e
00000100: d49c e9bd cc85 a93e 62ef 553e ecf7 2e3e
00000110: 93ae c53e 8271 9f3e 576b e73e 5908 e83e
00000120: d10b ee3e ccf7 843e aa85 6c3e ecbe 873d
00000130: f3c0 193d ec40 a83d 25c4 ed3e 6a57 4b3e
0.12942372 0.08308067 0.21169087 0.04436379 0.1628206 0.07113076 0.19694692 0.2510839
0.18186855 0.19754094 0.2606613 0.06603683 0.057782467 0.095069535 0.019081708 0.16008924
-0.022489559 -0.10635945 0.1542855 -0.09498961 0.2822954 0.4200335 0.27271143 0.099377856
-0.13328144 0.38239077 0.52446777 0.14707093 0.0714765 0.08735592 0.4292147 0.16539635
0.53019994 0.12920058 0.19170265 0.30145684 0.19192767 -0.020023573 0.09700354 0.23860836
-0.28748876 0.06628091 0.19451438 -0.24202903 -0.09004241 -0.032570142 -0.22169504 -0.009487823
0.095368005 -0.037231855 -0.28635466 0.09635502 -0.04014898 -0.09619625 -0.10960979 -0.08267219
-0.19210878 0.23090506 -0.05408456 0.16262205 0.26232415 0.14366314 0.3670561 0.36177903
-0.11406866 0.3310989 0.20892099 0.17086762 0.38609752 0.31141287 0.4519908 0.4531887
0.4649339 0.25970304 0.23097864 0.06628212 0.037537526 0.08215508 0.4643871 0.19857565

encoder.lstm.bias_hh_l0 f4 [80]
00000000: 95c5 b43b 9125 c23d b8bd 4bbd 97fe 56bd
00000010: 23fc 6e3e 41d7 953e 666c e33c 1e17 f93c
00000020: bc66 5b3e 4680 d43e 82ce f13d aa45 c73d
00000030: 5053 983e 7404 403d 33bb 3b3e 98fb 283d
00000040: e1f0 343b c2e6 c8bd a544 473d 38c7 48be
00000050: c1b7 053d 3105 5f3d 985e 693d c76e 0f3e
00000060: 1364 2cbe 22ba 763e 30a8 dc3e 007f 66bd
00000070: 8499 b03e 6f36 7f3e 09e5 b53e 4ff5 863e
00000080: 8492 e33e e0ed 8a3e 1107 923b fdfe 75bd
00000090: 6479 4dbd 57d8 093e a35e 2c3e f90d c2bd
000000a0: 9462 ca3c 54f8 4ebe e079 003d 87eb d0bd
000000b0: 00f6 a23c 09fe 8d3d 40c8 39be eebd 2fbd
000000c0: c956 09be b97d 16be 25cb 21be 5f54 16bd
000000d0: 1762 283e b9f0 1ebe 781c 843d 1502 56bd
000000e0: 6bd2 a4bd 65cb 923e 912d 74be 2354 a7bd
000000f0: d403 853d 1dc9 2f3e 3770 b73e cab3 7c3e
00000100: b911 34bd 7a9c 783e 4351 253e 2eea 82bd
00000110: 828b aa3e 23b8 4e3d fc4e 093f 77ac 363e
00000120: decd f53e 9ec1 b33d 8d96 1f3d 45ff 9b3e
00000130: a204 603e eb88 7d3e 9c71 a43e e437 abbd
0.0055167177 0.094798215 -0.049741477 -0.05248889 0.2333837 0.29265788 0.02776165 0.030406531
0.21425909 0.41504115 0.11806966 0.09730084 0.29751062 0.046879247 0.1833313 0.041255563
0.0027609395 -0.098096386 0.04864945 -0.19607246 0.032645945 0.05444831 0.056974977 0.14007102
-0.1683505 0.24094442 0.43097067 -0.05627346 0.34492123 0.24923109 0.35526302 0.2635903
0.4444772 0.2713461 0.004456409 -0.06005763 -0.050164595 0.13461433 0.16832976 -0.09475321
0.024705209 -0.20211917 0.03136623 -0.10201173 0.019892693 0.06933219 -0.18142796 -0.04290574
-0.13412012 -0.14696397 -0.1580015 -0.036701556 0.16443668 -0.15521516 0.064507425 -0.05224808
-0.080479465 0.28670803 -0.23845507 -0.08170345 0.06494871 0.17166562 0.358278 0.24677959
-0.043962214 0.24278441 0.1614428 -0.063923225 0.3330956 0.050468575 0.53636146 0.17839228
0.48008627 0.08777164 0.038961936 0.30468193 0.21876767 0.24759261 0.32117927 -0.0836027

encoder.lstm.weight_ih_l0_reverse f4 [80, 2]
00000000: 54fc af3e 39b3 2ebd 31e2 89be fe8e 86be
00000010: cf4a a2be 8390 8ebe 856c d03d 62f9 183e
00000020: bdd3 703e 18e6 fcbb b0c3 fcbd e437 2ebe
00000030: d30e eebe 7d27 13be 21fe 4d3e b567 7b3e
00000040: c24d 10be 27ca 82bd f6f2 efbe 6ab2 c73c
00000050: a036 1f3e 190e 293e 1848 31bf 2c4b cbbe
00000060: 3008 8bbd 994d 85bd 844f 803d 0a22 20be
00000070: 1506 8dbe 3160 5c3e 28a5 c2bc 550a b93d
00000080: e8cf 063d a34d dd3a 4510 e9bd 5aba d23c
00000090: e0ee a0be d953 f2be 6d57 0abf 2b18 4abd
000000a0: d404 aabe a9a1 23be c6bf 50be 74e5 0a3e
000000b0: 22a4 adbe fbb2 c33d 1b09 843e 4bba cd3d
000000c0: dbdc e43d 2b90 0c3e d14f 47be 5033 abbc
000000d0: 691e dfbd 196b f9bc 1183 003d 03e6 84bb
000000e0: 93e4 53bd d1b6 0a3e 43cc d9bc a6b7 0d3e
000000f0: 53f1 183e 3537 c93a a368 d8be 1eb0 0e3d
00000100: 8df1 24bf 88b0 35be 9f59 a0be 6e62 9b3d
00000110: 172e 083e b602 f63e 7e25 9fbe 1cd3 1abe
00000120: df0b 373a 4d09 2c3e 5976 80bd 6cf9 0a3d
00000130: fd9e 73be 5c02 b9be 8c91 d8be 3679 6fbe
00000140: d529 46be 0163 5fbe a1e2 e43e bcaf a1bd
00000150: 541e c9be badc b03d 2fe8 013f 0adc 9dbe
00000160: de6b 5bbe 682f a6bd 369f 2abe 5c11 a5bd
00000170: daa2 8abe 526b 543d 5f61 623d 826c cf3e
00000180: 9059 a03d a6a7 a53e 6d92 af3e 2ff0 05bc
00000190: 23d4 c6be 29dc 04be f8af 2fbe dd9a 5d3c
000001a0: 32b7 a0be 84f7 7e3e d52f bd3d bb99 bd3d
000001b0: b172 d0be fe71 c33d 1526 ba3e 8401 553e
000001c0: 368e 9bbc 9aae 2f3e 2311 f93d 0ac8 383e
000001d0: 90fe 95bd a9fe 7abe ec4b 913c fce4 5bbe
000001e0: a7dd 72be 205b 4abe 4f94 2dbc a491 d7bd
000001f0: 2c2b 70be a5e7 74bb d2f9 2fbd 3599 813e
00000200: 9f87 a53e b226 c43c 4cd8 99be b515 1dbd
00000210: b2b0 a1be cd35 3b3e 3ba3 0f3e 8775 163e
00000220: f586 9fbd 4e36 253e 7165 0ebe a081 5d3e
00000230: 5167 f33d ea32 533e 9e40 9abe 0adf 2fbc
00000240: 94bd 24bd ed47 723d 31e2 e4bc 41b9 03be
00000250: d6f6 a9bd 3820 58bd 564b d03d 8108 dd3d
00000260: 2d41 323d a56f be3d 0cb7 643d 2802 f63d
00000270: 855c 05bf dbca 94be d5e8 adbe 0a2c 37bd
0.343722 -0.04265139 -0.26930383 -0.2628097 -0.316977 -0.2784463 0.101769485 0.14938882
0.23518272 -0.007717859 -0.12342012 -0.17013508 -0.46495685 -0.14370532 0.20116474 0.2455128
-0.14092162 -0.06386214 -0.46865052 0.024377067 0.15548182 0.16509284 -0.6925063 -0.3970579
-0.06788671 -0.06508941 0.062651664 -0.15637985 -0.27543703 0.21521069 -0.023760393 0.09035174
0.03291312 0.00168841 -0.11380056 0.025723625 -0.31432247 -0.47329596 -0.5403965 -0.049339455
-0.3320681 -0.15979637 -0.20385656 0.13564092 -0.33914286 0.09555622 0.25788197 0.10045298
0.11174937 0.1372687 -0.19464041 -0.020898491 -0.10894472 -0.030446576 0.031374995 -0.00405574
-0.051731657 0.13546301 -0.026586657 0.13839588 0.14935808 0.0015351536 -0.4226733 0.034835927
-0.6443108 -0.17743123 -0.31318375 0.07587133 0.13298832 0.48048943 -0.31083292 -0.15119594
0.0006982665 0.16800423 -0.06272573 0.033929273 -0.23791118 -0.36134613 -0.42298543 -0.23386082
-0.19351895 -0.2181511 0.44704154 -0.07894847 -0.3928095 0.0863585 0.5074491 -0.3083194
-0.21427867 -0.08114511 -0.16662297 -0.08059952 -0.2707737 0.05186016 0.05526864 0.40512472
0.07829583 0.32354468 0.34291402 -0.00817494 -0.38833722 -0.1297461 -0.1715697 0.013525692
-0.31389767 0.24899107 0.09237639 0.092578374 -0.40712503 0.09543227 0.3635718 0.2080136
-0.01898871 0.17156449 0.12161472 0.18045059 -0.073239446 -0.24511208 0.017736398 -0.2147407
-0.23717366 -0.19761324 -0.010594442 -0.105258256 -0.23453969 -0.0037369516 -0.042962857 0.253122
0.32330033 0.023944233 -0.30047834 -0.03835078 -0.3158012 0.18282242 0.14027111 0.1469327
-0.07789413 0.16133997 -0.13905884 0.2163148 0.118849404 0.20624891 -0.30127424 -0.010734329
-0.04021986 0.059150625 -0.027939888 -0.12863638 -0.08299033 -0.0527651 0.10170619 0.107926376
0.043519188 0.09298638 0.05583863 0.1201213 -0.520943 -0.29061016 -0.339667 -0.044719733

encoder.lstm.weight_hh_l0_reverse f4 [80, 20]
00000000: 7a2f a73e b20f f1be 7d65 2dbe 0647 19be
00000010: c0cc e5bd 0119 753e c0fe 4d3e ab3e 3f3d
00000020: 6b91 2ebe 91b3 8d3d 0ee1 293d 531b 7ebe
00000030: 24ea d7be f57c aebd 8327 443d 6d3e 01bf
00000040: 567c a33d 33b0 f2be a7a3 84be c6c7 ac3d
00000050: b7ef bf3e 58b7 973c f1b7 e63e 2a8a a1be
00000060: 84d5 383e 7016 12be d91f 053e 70bb 91be
00000070: fddf 5ebd 91a5 0cbe 12f0 323d bd85 bd3e
00000080: 6279 55ba a1fd 29be 6033 a23d c8d1 89bd
00000090: 0e05 36be 04dc a8be 4290 df3e 5cab ae3e
000000a0: b61c 833e 90b3 f43d 06a6 7ebb e202 a23e
000000b0: 125b 80be 7490 8d3c 0d49 f73d 1443 133f
000000c0: 0eb1 4fbd fc7c 583e 1996 e9be c9db 393e
000000d0: 4477 4e3e f0ab fcbc 4895 eb3d 0abd 283e
000000e0: 40ea 083e c732 3b3d daf6 073e d64c cabc
000000f0: b6fb 083e aec1 6bbd 99c5 b73e 7344 14bc
00000100: 3a0a 6d3d 331e 9abe a5f0 0e3e 0605 8f3d
00000110: 69cb aa3d 9cc7 89be f496 34be 43e6 d03e
00000120: f44b c13e 13d0 9abd 87da 0cbe 3f7d 5d3e
00000130: 1d09 31be d429 11bd bf10 b73d c8d4 bd3e
00000140: 18e5 6d3e 4a82 0dbe 8cec 783d 33bd 863e
00000150: ea76 80bd 0b9f 23be 11b5 6b3e 6d21 40bd
00000160: fc0b 27be 267c 34b9 3ebf cb3d 5eab 133e
00000170: 03c7 d2bd a49d 97be 26b5 193e 5df5 97bd
00000180: 974f 5d3e 62da 673e ea56 873d 8513 d33a
00000190: f8d8 ca3b dc06 f4be 45fd 2a3e fb9a 9dbe
000001a0: f6cd 9fbd ebfa e53e 3ad7 7e3e 777d bebc
000001b0: f89e 023e 319a 4c3e 86c2 2e3c 5587 9d3e
000001c0: 8412 bcbe 56a3 d0be 825c 263e 5f97 1a3b
000001d0: 9735 5b3e e870 87bd 19e1 873e dd37 443d
000001e0: 1c20 983e a65f 0bbe d6ea aa3e 9644 993e
000001f0: c185 8fbe fef7 08bd 074c ca3e b442 7b3e
00000200: c34d b63d 1a48 143e 4a8e aebe 94c6 a83e
00000210: a42c 8bbd 4be7 b43c ff78 a23d 96be 283e
00000220: ae1b 943e fa80 7f3e 4e90 2e3e 8a32 fc3e
00000230: 1c90 dfbe 3241 edbb 5bad 033c 14e8 bb3e
00000240: c1dc 0c3e f5dc 0bbe 9aea 97be bf67 9ebd
00000250: b7c0 0e3d 9af7 833e d3f6 a9bd d89b b63e
00000260: d3c4 8d3c d374 5c3e f15e b5be 01f1 513e
00000270: c08b 8ebd 03ef efbd aed1 3b3a 4361 aa3d
00000280: b156 ee3d 36ae 97be 2731 653e a64f 293e
00000290: 973d 11be e4b7 bf3e 8106 423d 7cb4 afbc
000002a0: ea0b 36bd f2b7 cfbd 479b 97be 6562 80bd
000002b0: 4068 13bf 5373 77bd 07e6 903e c147 12bc
000002c0: 2b8f a03e f880 733d 7abf 923e 4f4e a9bd
000002d0: 3a3f 1f3f d0b1 98be 75bb e93e 7277 0bbe
000002e0: 7271 4ebe 114d c83e 2a5f 863e 208b 4b3e
000002f0: 30a5 c13d 84ea 723d 2036 53be f5c6 423e
00000300: 3314 f2be dd43 f6bd fc3b 0e3e 02b8 afbd
00000310: 60b0 82bb c5ae 64be 7854 953e 408a 773d
00000320: 126c 883d 519f 7cbc 2d08 103e b46f 773d
00000330: 78f6 193e 19e1 39be 0793 be3d 33b3 ca3d
00000340: 4321 253d b200 473e f86b 59be f739 8a3d
00000350: f572 173e f1f0 6fbe ff4e 38be d958 c63d
00000360: 374c c7bd f980 c93d 1def 963e a00e 963e
00000370: d531 bf3e 65d0 273e edd0 a03e a990 103e
00000380: c180 a23e 3108 363c f282 4d3d 3c09 fb3c
00000390: 6a45 10bf bb40 08bd 43e8 67bd 77f9 1b3e
000003a0: ad4d 483e 2583 19be 96e9 563d ae46 82be
000003b0: 8b5c 7bbe a50a 4fbe 5b38 603d 852d b63d
000003c0: da53 853e 8e2b 6abe 09f2 b6bc f02a c03e
000003d0: d39b 93be 7228 173e f782 293c 857a 0a3c
000003e0: 5287 1e3e 65ae 7a3e 84e0 fabe 2a77 fcbd
000003f0: fada 2ebd 2edf 6fbe e394 babd cd7a bf3d
0.3265341 -0.47082287 -0.16933246 -0.149685 -0.112206936 0.2393532 0.2011671 0.046690624
-0.1704766 0.06919015 0.041474395 -0.24815111 -0.42170823 -0.085199274 0.047889244 -0.5048588
0.079826996 -0.47400054 -0.25906107 0.08436541 0.37487575 0.018520042 0.4506221 -0.31550723
0.180502 -0.14266372 0.1300043 -0.28463316 -0.05441283 -0.13735034 0.04368598 0.37016097
-0.00081433926 -0.16600658 0.07919955 -0.06729466 -0.17775366 -0.3298036 0.43664747 0.34115112
0.25607842 0.11948311 -0.0038856282 0.31642824 -0.2506948 0.017280795 0.1207448 0.5752423
-0.050705962 0.21141428 -0.45622328 0.18150248 0.20162684 -0.030843705 0.115030825 0.16478363
0.1337061 0.045702722 0.1327776 -0.024694841 0.1337727 -0.057557754 0.35892943 -0.009049523
0.05787108 -0.30101165 0.13958986 0.0698338 0.08339579 -0.26910102 -0.17635709 0.40800676
0.3775326 -0.07559218 -0.13755237 0.21629809 -0.17288633 -0.03544028 0.08938741 0.37076402
0.23231924 -0.13819233 0.060772464 0.26316223 -0.06272681 -0.15978639 0.2301829 -0.046906877
-0.16313165 -0.00017212387 0.09948586 0.1442084 -0.10291865 -0.29612458 0.15010509 -0.07419846
0.21612392 0.226419 0.066083744 0.001610384 0.0061904155 -0.47661483 0.16698177 -0.30782303
-0.07802956 0.44917998 0.2488679 -0.023253186 0.12755954 0.19980694 0.010666495 0.30767313
-0.36732876 -0.40749615 0.16246226 0.002358876 0.21407162 -0.06613332 0.26538923 0.047904838
0.29711998 -0.13610706 0.3338229 0.2993514 -0.28031734 -0.03343963 0.3951113 0.24537164
0.089015506 0.1448063 -0.34092933 0.32964003 -0.06795624 0.022082945 0.079332344 0.16478953
0.28927368 0.24951544 0.17047235 0.49257308 -0.43664634 -0.007240438 0.008036937 0.367005
0.13756086 -0.13658507 -0.29671174 -0.07734632 0.034851756 0.25774843 -0.08299031 0.35665774
0.017305767 0.2152894 -0.35423997 0.20502092 -0.06960249 -0.1171551 0.00071647286 0.083193325
0.11637629 -0.296251 0.22382031 0.1653429 -0.14183651 0.37444985 0.047369484 -0.021448366
-0.044444956 -0.10142507 -0.29610655 -0.06268767 -0.5758095 -0.060412716 0.28300497 -0.00892824
0.31359228 0.059449166 0.2866171 -0.08266889 0.6220585 -0.2982316 0.4565083 -0.13619784
-0.20160463 0.39121297 0.2624448 0.1987729 0.09455335 0.059305683 -0.20626116 0.19021209
-0.47281036 -0.12024663 0.1389007 -0.085800186 -0.0039883107 -0.22332294 0.29166007 0.06043458
0.06661238 -0.015418843 0.14065619 0.060409263 0.15035427 -0.18152274 0.09305387 0.09897461
0.040314924 0.19433859 -0.21232593 0.06749337 0.14789946 -0.23431756 -0.17998885 0.09684915
-0.09731334 0.09839053 0.29479304 0.29308033 0.37342706 0.1638809 0.31409398 0.14117683
0.31738856 0.011110351 0.050173707 0.030644052 -0.5635592 -0.033264857 -0.056617986 0.15231882
0.19560881 -0.14991434 0.05246886 -0.2544455 -0.24547021 -0.20218904 0.054741245 0.08895401
0.26040536 -0.22868177 -0.022332208 0.3753276 -0.28829822 0.14761522 0.010346166 0.0084520625
0.15481308 0.24480589 -0.48999417 -0.12327416 -0.0426893 -0.2342498 -0.09110429 0.09349594

encoder.lstm.bias_ih_l0_reverse f4 [80]
00000000: 5088 193d 1bed ae3d 9ca4 1f3e 982b 263e
00000010: 7bd9 be3d ace9 fb3d 08bc a73e 9eba aebd
00000020: bf40 ba3e 6dc1 843e 8a14 4e3e dbb7 9c3e
00000030: 469e f13d c0b4 de3e 499c f23e b468 043e
00000040: 22b5 973e 1827 ff3a 780c a53d ca87 f53d
00000050: 2b18 c53e 9ad6 493d 4fa2 173e 1f85 743e
00000060: 8726 1bbe e87a a53e 7c5d 213e 103a f03d
00000070: aa21 d83d b6a2 f73d b617 283d c233 b9bd
00000080: 5918 fb3e 6b65 0e3e 2be3 023f 2c82 083e
00000090: 4e8a 893e 577d 8c3e cecd 2d3e 32da 313d
000000a0: a76f bc3d 90f6 74be 9e28 aabd 9456 32bd
000000b0: 8924 36be 6f62 a93e 50a8 933d 8acb a73d
000000c0: 5010 e23d cc35 6d3d d04a 2abe 016a b0ba
000000d0: d743 5abe 07a7 ebbd 2ae4 a53d 34fb 883c
000000e0: 3401 11bc 247f b3bd 46b6 d43c f69b 7b3d
000000f0: faf4 593e 2d41 283e 4d93 fe3e 0cd1 8f3e
00000100: 61e4 ab3e 43b5 3c3e 7a1b df3e bde1 c33e
00000110: 659b 163e 7c08 0f3e 64ef 3cbb 8934 693a
00000120: 0374 583e 924e ba3d f018 2f3f 0a37 063e
00000130: 09f1 ab3e d3f4 0c3e d2e6 7d3e 8d66 4b3e
0.037483513 0.08541318 0.15590137 0.16227567 0.09318825 0.12300429 0.32760644 -0.08531688
0.36377522 0.25928822 0.20125023 0.3060902 0.117977664 0.43497276 0.4738486 0.12930566
0.2963038 0.0019466607 0.08059019 0.1198879 0.38495 0.049276926 0.1480801 0.23878907
-0.15151416 0.32320333 0.15758318 0.117298245 0.10553296 0.120915815 0.041038238 -0.09043075
0.49042013 0.13905875 0.5112788 0.13330907 0.2686333 0.27439377 0.1697304 0.043420978
0.092009835 -0.23922181 -0.08308528 -0.0435396 -0.17787375 0.3308291 0.072098374 0.08193119
0.110382676 0.057912633 -0.16630101 -0.0013459326 -0.21314941 -0.11506467 0.081001595 0.016721345
-0.0088503845 -0.087644845 0.025965821 0.061428033 0.21284857 0.16431113 0.49721757 0.28089178
0.33572677 0.18428521 0.4357565 0.38258162 0.14707716 0.1396808 -0.0028829211 0.0008896073
0.21138005 0.09097017 0.68397427 0.13106933 0.33582333 0.13765268 0.24795082 0.19863339

encoder.lstm.bias_hh_l0_reverse f4 [80]
00000000: 5311 15bc aa13 1a3e 3d92 8f3e c175 113f
00000010: 51f0 d33b 61df c73e fe25 b53e 835f eb3c
00000020: f3c9 153e 05f1 d83c 7416 e13c 7717 ea3c
00000030: 2b70 9a3e e3f9 e53e 019d a43e 7710 103b
00000040: 466c 963e 2771 793e fb8c 6b3e 041d 1fbe
00000050: 8981 b03e f607 bb3d 9df9 a03e fe2b 063f
00000060: 5d38 8dbd 1854 9b3e 36b2 bc3e 0290 22bc
00000070: acd5 fa3c 03a7 ea3d 243f ad3d 38f9 663c
00000080: be23 183f 6ec3 d63e 4f74 1c3e 3757 9a3e
00000090: 5960 a73d ea24 0e3e 8b05 163e afbe 2a3e
000000a0: a986 e4bb 66bc 3ebe 44e3 96bd 6813 423d
000000b0: d221 5abe 5d53 853d 58cc 15be eb0e 333d
000000c0: 1d38 3d3e 3645 443e e2d8 c5bd 0258 dabd
000000d0: 5c64 acbe 2878 7fbe 6ec7 1c3e b189 603d
000000e0: b537 183e 4b82 34bc 32bb 303d 7a57 05be
000000f0: 2bb5 843e e7a6 e03e 3f14 6f3e 3056 db3e
00000100: e547 9c3d 3eaf 9a3e f05e a13d a127 2dbc
00000110: bd23 513e 17e5 813e ddfb 7c3e 662a 94bc
00000120: 0927 8a3e d9dc b13e 29bb 1f3f 3431 3a3e
00000130: d617 cc3d 1706 b03e d726 8c3e 2d0f a93e
-0.009098369 0.15046564 0.28041258 0.56820303 0.006467857 0.39037612 0.35380548 0.028732067
0.14627819 0.026482115 0.027476527 0.028575642 0.30163702 0.4491721 0.32151034 0.002198247
0.2937948 0.2435957 0.23002999 -0.15538412 0.34473827 0.09132378 0.3144044 0.52410877
-0.06895516 0.30337596 0.36854714 -0.009922029 0.030619465 0.11457636 0.08459309 0.014097504
0.5942954 0.41945976 0.15278743 0.30144665 0.08172674 0.13881269 0.14650552 0.16674303
-0.0069740606 -0.18626556 -0.07367566 0.04738179 -0.21301964 0.06510041 -0.14628732 0.0437154
0.18478437 0.19167027 -0.09660508 -0.106613174 -0.33670318 -0.2494818 0.15310451 0.054818813
0.14865 -0.011017392 0.043147273 -0.13021651 0.2591947 0.43877336 0.23347567 0.42839193
0.076309 0.30211824 0.07879436 -0.01056853 0.2042379 0.25370094 0.24705453 -0.018086623
0.26982906 0.34738806 0.6239496 0.18182832 0.09965484 0.34379646 0.27373382 0.3301939

decoder.lstm.weight_ih_l0 f4 [160, 40]
00000000: 52a0 3e3d 016f 8b3e 3472 943e 469a 54be
00000010: b144 c0bd 95e8 8e3e d4ec 903e 9de7 33be
00000020: 4a0e 16be 177a cf3d b471 d1bd 0cf3 963e
00000030: ed98 b4be b481 223d cd2f e3be c65b ba3d
00000040: c7d8 76bd 748c b53c d4fe 6ebe da0e 553e
00000050: 0fd2 213f 2a2c 853c 58c5 313e 6d5c a83d
00000060: 4c1e 0e3e 5d3d cebc d28b b7bd d63c c93d
00000070: 6e2a 463d c11d c1bd bef2 83be 2c7d a4be
00000080: b052 bfbd 661a 4fbe a7b0 2cbe bc6c a43d
00000090: 0240 abbd f243 ab3d aa49 aebd 8586 5bbe
000000a0: 557c f5bd bfef 9e3d 1a74 fbbd 88eb fd3d
000000b0: a46c 8c3c 0caa 1c3e e7ab 823c 267b 943c
000000c0: 3a80 b23c 86a5 e2bd dff1 5ebd fa74 303d
000000d0: 0f50 c73d f2f0 f43d 0ffa 08be a410 233e
000000e0: 282c ed3d 4d8d e8bd bea3 663d 48f8 9bbc
000000f0: d6f7 a03d 54ae 1ebe 42e8 b43d d578 04be
00000100: 8a59 793d efae 3c3e fac1 443e 750a b53d
00000110: a489 113c ea88 8a3b d0b0 d63c 0c00 fd3d
00000120: 8d8c 0fbe 8ef2 a93d e059 08bc f6c8 37be
00000130: 8919 fcbd 23a6 833d 501a 6c3e 46f8 2f3e
00000140: e493 643d 06df cfbd ede7 083e 3223 053e
00000150: eb1b 133e ed9c 36be 4b8f 10bd fe93 47be
00000160: 4e98 b63d 467b 56be e266 81ba 2550 24bd
00000170: 5a37 823d 806d 283d 5795 0dbe bf0c b03d
00000180: edf8 a23e b994 1dbe 4b1e debc ede9 e4bd
00000190: c755 d4bc e067 ffbd 62e6 823e 3bc0 173d
000001a0: 6f4a 0e3e 23b0 dc3d 0470 c33b a070 cb3b
000001b0: 8692 09be 3a33 aabd d036 763c 14f4 4c3d
000001c0: 93ec 38be 46a8 d2bd e324 5c3d 44ff 4fbd
000001d0: 9aad 3cbe e9f5 2abd 1c74 073e 0c6f 83bd
000001e0: 091d ef3d 4e7e 123d bf9b 3c3d e3a2 23be
000001f0: d107 093d 3329 2bbe f68b 083d 0bd6 13be
00000200: 3d80 a0bc fe29 493d fc8a 373e ad19 39be
00000210: 2795 f53d f8bd b6bd e0d1 1d3e 4348 0f3e
00000220: 2b4b 4f3d e004 2f3d ee11 433e 836d cdbc
00000230: d547 1f3e 5889 e2bd dd79 453e 9cc2 d23d
00000240: fdf3 4fbe d700 09be 1978 843d f68f 893e
00000250: a00b 013d 7ccd f6bd f2be 41be ea55 9bbb
00000260: 2d63 e93d b2d6 91be 593f c3bc a3b9 d03d
00000270: 5312 c5bd 098a 2bbe 034d 01be eb75 573e
00000280: b520 173e bfb3 45be 0aea 723d 1a56 023e
00000290: 6b4d 7d3d fb33 1ebe 7050 bbbe 7e21 40be
000002a0: 1ce9 9d3e 1f66 0ebd 4dab b0bc 4375 dcbd
000002b0: 7a79 6b3e fcb9 11be c6d4 b83d 4bac 1d3e
000002c0: e744 643e 5961 2c3e 5912 fb3d 697e c53c
000002d0: 80d1 81bd 80ec 1fbe 8191 73bd 304e 14be
000002e0: 69f3 98bd b2bd 933e 0b9c de3b b70f c83d
000002f0: 8512 f43d d87a 993c 6776 bfbd dfee 53bd
00000300: 04c2 6cbe f002 52be d5b5 f2bd 4032 a23d
00000310: 5c6d 6c3c a49d 413e c141 59be aac7 643e
00000320: 574c cdbd 6779 363c 07fd 373e 7885 1bbe
00000330: 768b 973d 31df 493e c2ee 003d f907 e73d
00000340: b309 e4bc f714 cf3d 7e76 e3bd b33b eebd
00000350: 1c8a 25be d644 15be 381b 0dbe 55c7 bb3d
00000360: 4de8 ddbd 8979 89bd e830 633b 40a5 f13c
00000370: 1c00 ddbc 9a6a f2bc 0299 903d bf8e 5c3e
00000380: 43cf cbbd 7993 2b3c a173 cebd 599a 623e
00000390: 52e1 7d3c a13b 1d3d 8a6d 89be ec86 4dbd
000003a0: 05a9 993d d02f f3bd dc9b 493b 5a17 263e
000003b0: 65ef 6bbd 7da6 303d cb2e bebd a636 2cbd
000003c0: 1fe5 0d3e 678e ed3d 151a c1bd 6d5a d2bd
000003d0: 92ac 83bd d645 683e d20c 6a3e 28bf e2ba
000003e0: 83c4 9bbd 7b21 2a3d 28e4 14bb 87ae c83d
000003f0: fb79 96bd b7ae de3d dd78 14be c7cb b83d
0.046539612 0.27233127 0.2899338 -0.20761976 -0.09388102 0.2791182 0.28305686 -0.17568822
-0.14653888 0.10130709 -0.10226765 0.29482305 -0.35272923 0.039674476 -0.44372407 0.09099536
-0.06026533 0.0221617 -0.23339397 0.20806447 0.6321115 0.01625641 0.17360437 0.08220754
0.13878745 -0.025175745 -0.089622155 0.09826057 0.048380308 -0.09429503 -0.25771135 -0.3212675
-0.09341943 -0.20224914 -0.16864263 0.08028552 -0.08361818 0.08362569 -0.08510144 -0.21438034
-0.11986605 0.07760572 -0.12278004 0.1239844 0.017141648 0.15299243 0.01595111 0.018125128
0.021789659 -0.11066727 -0.054429885 0.043080308 0.09732067 0.11960019 -0.1337664 0.15924317
0.11580688 -0.11355076 0.0563085 -0.019039288 0.07859771 -0.15496188 0.08833362 -0.12936719
0.060876407 0.18426107 0.19214621 0.08839885 0.008882914 0.004227747 0.026207358 0.123535246
-0.1401846 0.08298217 -0.008322209 -0.17947754 -0.12309558 0.064281724 0.23056912 0.17184553
0.055805102 -0.1014996 0.13369723 0.13001707 0.14366119 -0.178333 -0.035292905 -0.19490048
0.089157686 -0.20945463 -0.000987258 -0.040115494 0.06358214 0.041120052 -0.138265 0.08596181
0.3183054 -0.15388764 -0.027114054 -0.1117743 -0.025919808 -0.124709845 0.25566393 0.03704856
0.13895582 0.10775783 0.005964281 0.0062084943 -0.134348 -0.08310552 0.015027717 0.05003746
-0.18058996 -0.10286002 0.053746115 -0.05078055 -0.18425599 -0.041738424 0.13227886 -0.06417665
0.1167546 0.035764985 0.04604697 -0.15980105 0.03345472 -0.16714935 0.033336602 -0.1443712
-0.019592399 0.049112312 0.17924112 -0.18076201 0.11991339 -0.089229524 0.15412092 0.1399241
0.050608795 0.04272926 0.19049808 -0.025076633 0.15554745 -0.110613525 0.19284768 0.10291025
-0.20307918 -0.13379227 0.06468219 0.26867646 0.031505227 -0.12050912 -0.18920496 -0.0047404664
0.113958694 -0.28484112 -0.023833917 0.101916574 -0.09622636 -0.16751875 -0.12627034 0.21041076
0.1475857 -0.19306849 0.05930523 0.12728158 0.06184141 -0.15449516 -0.36584806 -0.18762776
0.3084191 -0.03476536 -0.021566058 -0.107645534 0.22995558 -0.14231104 0.09024958 0.15397756
0.22291909 0.1683401 0.12259359 0.024108129 -0.06338787 -0.15617561 -0.059464935 -0.14482951
-0.07468302 0.28855664 0.006793504 0.09768622 0.11917595 0.018735334 -0.09348755 -0.051741477
-0.23120886 -0.20508933 -0.11851088 0.07919741 0.01443037 0.18907791 -0.2121649 0.22341791
-0.10024326 0.011137343 0.17967616 -0.15187633 0.07399647 0.19714047 0.031477697 0.112808175
-0.027836656 0.101114206 -0.11106585 -0.116324805 -0.16165966 -0.1457704 -0.13779914 0.09168879
-0.108353235 -0.06712634 0.0034666602 0.029497743 -0.026977591 -0.029591847 0.07060434 0.21538828
-0.099516414 0.010472172 -0.10080648 0.22129191 0.015495615 0.038386945 -0.26841384 -0.0501775
0.07502941 -0.11874354 0.0030763065 0.16219845 -0.05760135 0.043127526 -0.09286269 -0.042044304
0.13856934 0.11599427 -0.09428803 -0.102711536 -0.064293995 0.2268289 0.22856453 -0.0017299401
-0.07605841 0.041535836 -0.0022719 0.097989134 -0.07347485 0.10873168 -0.1449923 0.090232424

decoder.lstm.weight_hh_l0 f4 [160, 40]
00000000: 44ed b5bd 479b ae3c d495 88bd 5750 a9bd
00000010: f31c 1fbe a07b 02be 9b02 0e3e c89a ff3d
00000020: 23d8 47bc 84de 37be 3d7a 8b3e f199 4bbd
00000030: 0dbc 8c3a 186b 053e 2a87 bf3d ba9d c0ba
00000040: 4d55 e1bd c997 c53d 8793 17be 252b 61be
00000050: 73cb a23d 31f8 033e c01e 1f3e 530b 393e
00000060: 1fac 283e 6eca 0b3e b0f4 babd 8a4e e83c
00000070: fe8b 0a3e 2b0f 9ebe 200a ff3d 6219 663d
00000080: af1c 7dbd 466a a33e ac15 823d 707e 54be
00000090: 4127 22be 9eac 6fbd 88c8 a8bd 94e7 aabd
000000a0: 33ac 1bbe cf95 57bd f030 b4bc f240 e83d
000000b0: f065 31bc e540 fbbc 52fb debd 0699 893c
000000c0: 2352 143d 82b3 fa3d 03f4 c9bb 6d31 ba3d
000000d0: 7edc 0abe 0b49 d03d 1ac4 a1bc c341 e7bd
000000e0: 80fd 78bd 0bf3 783e f19b 333e a49c 913c
000000f0: fce8 6b3e 04de 433d ddfa 49be a3d5 3bbd
00000100: 97b9 313e c287 0f3d 6077 6a3d a4db 343d
00000110: 00af b23d 0ca9 7c3c f26f 7e3e 47c3 b6bd
00000120: 026a d6bd c17a a03e f37c 89be 5277 eabd
00000130: 12d5 ce3d b17b e6bd fab7 3abb 0491 ab3d
00000140: c606 8fbe e756 653d b56c 383e ba8b 31bc
00000150: 44c7 4abe 8ca0 ec3e f53e 9a3c 5c9d edbd
00000160: 3668 82bd a144 44be dfc3 183e c714 d6bb
00000170: 447c 28be e6c6 c73c 1332 0f3d 7dea 0dbd
00000180: ca83 1ebe 1f06 123e 0ce3 dd3d acb5 083d
00000190: 46eb 043e 4d1b 353e 0e41 7bbd 19df 26be
000001a0: f485 a8bd 67a4 75bd 0833 033e d87a 193e
000001b0: f6b1 10be eed4 48be 370e 1e3d 4c4b acbc
000001c0: 1a12 e0bd 6084 963e d682 9fbd 61ce 48be
000001d0: f72e b23d 958d 16be c78f eb3d 0d64 4b3c
000001e0: 9f92 4c3d 7607 423d fc28 143d 1ca2 d53d
000001f0: 701e 293e 4266 623d 6a94 07be df60 90bd
00000200: dcea 3abe e620 efbd c8a1 b0bd d408 8c3d
00000210: d829 11be 9141 e33c d5e3 24bd ed8d 843d
00000220: e50c b73d 5f66 453d 339a 0bbe 17b2 5e3e
00000230: b16e 82bd da1b e8bd 26ed 403e eca5 f6bb
00000240: 606b d6bb bca1 253e f52d 923e 6399 e43d
00000250: 3134 0abd 1834 323e fada da3d f8d7 96bd
00000260: 0b90 dbbc f107 ef3d 216b cbbc 58c5 75be
00000270: f1fb f03c 0aad 1f3e 82ba ae3c 7330 98bd
00000280: 3f83 473c a7b1 fdbc 0f00 133d e18c 10be
00000290: 8d22 333e 4488 e63d c8c8 423d 54b4 2d3e
000002a0: eed9 b9bc fd1b cb3d 1720 1dbe a1f0 d73d
000002b0: 81e3 0abe 4f8f e83d 09e4 49bd 5545 fa3c
000002c0: 871c a0bc cbf0 e03d c3b3 88bd b608 60bb
000002d0: 985b 2d3e fe4b 00be 3a4b fa3d 6748 433e
000002e0: a102 8bbd f098 403e d6ff 413d 9258 39be
000002f0: 4b9e 753d 29cd cebd a1bb 0f3d c5c1 15be
00000300: 1553 ad3d 5abc 793d 05cf 2b3e e83b 8fbd
00000310: ca18 da3d fda7 213e 3617 91bb 560e bbbd
00000320: 3876 b7bd cfe2 2dbd 1a68 88be d011 7abd
00000330: 328b 33bd 1a6e 3e3e d3f4 d3bd 4580 293d
00000340: 3f6a 5fbb 7274 19be 887d f63d 682e 8d3c
00000350: e962 35bd 91a5 e7bd 5fe2 133d 9bb8 a93d
00000360: 1740 a53d ac38 0fbe d7a1 0f3e 1f6f 53be
00000370: 1334 2fbe d504 253e 4a7f ae3e 46d4 d6bd
00000380: 4685 963d acbb 08bd 6116 a03b e8a6 913d
00000390: 3b1e d93d 5874 373e 3a92 c7bc 6b89 15bd
000003a0: 8ed4 c0bd 9043 6f3e e8ff 953d 1420 8fbe
000003b0: e031 953c 5bef fc3d 4a1b 36bd 3f6b 1b3d
000003c0: b929 9f3d e263 91bc 2847 093e fc14 9bbd
000003d0: 6b6a c13d bb64 84bd 02a2 443d 129e f8bd
000003e0: de99 dd3d f850 0bbe ee15 10bd 888b c4bd
000003f0: 2b9d bdbd 6e19 1ebd 862c f2bd b9d0 68be
-0.088831455 0.021314276 -0.066692024 -0.08267277 -0.15538387 -0.12742472 0.13868181 0.12480694
-0.012197527 -0.17955977 0.27241698 -0.049707357 0.0010737196 0.13029134 0.093519524 -0.0014695444
-0.11002598 0.09648091 -0.14802371 -0.21989115 0.07948961 0.12887646 0.15539074 0.18070726
0.16471909 0.1365144 -0.09128702 0.028357763 0.13529965 -0.30870947 0.12453103 0.05617655
-0.061794933 0.31917018 0.0635179 -0.20751357 -0.15835287 -0.05851423 -0.08241373 -0.08344951
-0.15202408 -0.052633103 -0.021995991 0.11340512 -0.010827526 -0.030670593 -0.10887779 0.0167966
0.036211144 0.1224127 -0.0061631217 0.090914585 -0.13560674 0.10170182 -0.019746829 -0.1129184
-0.06078863 0.24311464 0.17539956 0.017774887 0.23038095 0.047819152 -0.19724603 -0.045858037
0.17355953 0.035041578 0.05724275 0.044154778 0.08724785 0.015421163 0.24847391 -0.08923965
-0.10469438 0.31343654 -0.2685314 -0.1144854 0.10099234 -0.11254061 -0.0028491006 0.08377269
-0.27934855 0.05599108 0.18010218 -0.010836536 -0.19802576 0.46216238 0.018828848 -0.116022795
-0.06367533 -0.19166805 0.14918469 -0.0065332386 -0.16453654 0.024386834 0.034959864 -0.034647454
-0.15479961 0.14260148 0.108343214 0.03337638 0.12980375 0.17686196 -0.061341338 -0.16296043
-0.082286745 -0.05997124 0.12812436 0.14988267 -0.14130387 -0.19612476 0.038587775 -0.021031998
-0.109409526 0.2939787 -0.07788627 -0.19609977 0.08700364 -0.14702447 0.11502033 0.012413991
0.049944516 0.047370397 0.0361719 0.104313105 0.16515517 0.055273302 -0.13240209 -0.07049727
-0.18253654 -0.11676197 -0.08624607 0.06837621 -0.14176118 0.027741225 -0.04025634 0.06472383
0.08938006 0.04819333 -0.13633041 0.21747623 -0.06368769 -0.11333437 0.18840465 -0.0075271036
-0.006543562 0.16174978 0.28550687 0.11162069 -0.03374118 0.17402685 0.10686298 -0.073654115
-0.026802083 0.116714366 -0.024831356 -0.24001062 0.02941701 0.15593353 0.021329168 -0.07431116
0.012177288 -0.0309685 0.035888728 -0.14116241 0.17493649 0.11256459 0.04755476 0.16963321
-0.022686925 0.09917448 -0.15344273 0.10543943 -0.13563348 0.11355459 -0.049289737 0.030550638
-0.019544853 0.109834276 -0.06674912 -0.003418488 0.16929471 -0.12528989 0.122213796 0.19070588
-0.06787611 0.18808341 0.047363125 -0.18100193 0.059965413 -0.10097725 0.035091046 -0.14624698
0.08463112 0.06097064 0.1677819 -0.06993848 0.106492594 0.15786739 -0.004427816 -0.09133594
-0.08958095 -0.04245263 -0.26641923 -0.061052144 -0.04383392 0.18596688 -0.10349431 0.041382093
-0.0034090427 -0.14985827 0.12035662 0.017234042 -0.04428378 -0.11310876 0.036104556 0.08287164
0.08068865 -0.13986462 0.14026581 -0.20647858 -0.17109708 0.16115125 0.3408149 -0.10489707
0.07349639 -0.033382103 0.0048854803 0.07111913 0.10601469 0.17915475 -0.024361718 -0.036508005
-0.094155416 0.23365617 0.07324201 -0.2795416 0.018212259 0.12350341 -0.04445962 0.037944075
0.0777163 -0.017747823 0.1340605 -0.07572362 0.09444126 -0.06464525 0.048006065 -0.121395245
0.108203635 -0.13605106 -0.035177164 -0.09596926 -0.09258493 -0.03859847 -0.118248984 -0.22735871

decoder.lstm.bias_ih_l0 f4 [160]
00000000: 08fd af3e 83e7 fbbd 56e2 183e a8b6 e7bd
00000010: d259 063d 4798 513e b68c b43c 6a99 863d
00000020: a29b 823d 73fd cd3e 57af ff3c 2951 173e
00000030: 9c16 f1bd 9d93 343e 174a 663e a9cc 3cbe
00000040: 7ee5 833d 6c40 9a3d dad7 533e 475c 033e
00000050: 2cd5 9cbd 2bbd a83e cd6d 733e 3e4f e8bd
00000060: a168 913d bb18 62bd d998 953e 1be1 a4bd
00000070: cfad e23d fcc2 733e 1bba 0f3e 06d2 663d
00000080: 4f5e 6c3e b827 2dbd e91d b93d c93f 8bbd
00000090: 7985 db3d 2736 483c 7ae0 d23d 6a6d 963d
000000a0: cbe9 1d3e 7e8d 8a3c c045 783e 1acf 813e
000000b0: e27d 813d a6bd 30bc 37c5 733c cc2d 873d
000000c0: 4ab9 2a3e 3239 263e 6dde 103c baef 2b3e
000000d0: 03b6 2f3e ea37 cd3b 1ab4 f43d 75b7 433e
000000e0: 0563 073d 7e06 0e3d dd6c d13d 73dc 403d
000000f0: ce0e 023e f125 ac3c 466d 3ebd 4132 333e
00000100: e698 ee3d a9e3 a33c a23c 853d 1101 413e
00000110: faec 4a3e 85e1 e1bd 3824 c0bc 28e4 393e
00000120: 4454 883d 0a97 8fbd 09b9 bfbc c3c6 43bd
00000130: 2652 f23c 375d 033d 4331 efbd 8bde 373e
00000140: 169d 5a3c 3b3f 5e3d 79c4 0f3e 74c7 08bd
00000150: dc30 6bbd 5e52 64bc 855f 6e3d 4087 603d
00000160: 24d9 15be 2b8a 54bd 2b55 9e3d 7c81 383e
00000170: 9685 c7bd 796c 7b3d 339b 34bd 0988 8c3d
00000180: 9305 01be 34d3 febb dbc3 b73b e4e8 443d
00000190: d96e 9cbd 0b41 d93d ee53 c63d 35ab 5f3d
000001a0: 312e 793d d0e3 f33d 12e2 0bbd d516 a03d
000001b0: 8ab7 0c3d ff53 a0bd a794 1bbd 52da fbbd
000001c0: e9d0 17be 9684 e83d df1d 153d f974 23be
000001d0: 5e97 913d 18dd 4c3d 5ed7 c7bd 1535 763d
000001e0: 142d 963d b085 7a3e 1148 e83d 4a3b d73d
000001f0: c8da 53bc c3db 94bd f8fa 483d c976 37bd
00000200: 1ecb c5bd 6e49 5d3e 24b6 453e a8c1 143e
00000210: 1c26 0d3e 7c82 18bd f76c 67bc 3da9 aebd
00000220: a57b 063e beec 8c3e 220e c93d bfc9 dc3d
00000230: d160 853e 6557 ec3d 1b1d db3d db79 8bbd
00000240: d527 b8bc b677 563e 9da6 9a3d d6b3 0ebd
00000250: 2ccb 383e a6c8 cb3e 6c1d 263e 22ba 183e
00000260: 928e 103e 6d43 323e fe45 663d 9a55 b03d
00000270: 0337 463e 2cf8 313e c75f bebd 09be 833d
0.34372735 -0.12300017 0.1493009 -0.11314136 0.032800503 0.20468245 0.022039752 0.0657223
0.06377341 0.4023243 0.031211538 0.14777054 -0.117718905 0.17634435 0.224892 -0.18437447
0.064402565 0.07531819 0.2068781 0.1282817 -0.07657847 0.32956824 0.23772354 -0.11343239
0.071000345 -0.055199366 0.29218176 -0.08050748 0.110683076 0.2380485 0.14035837 0.056352638
0.23082851 -0.042274207 0.09038908 -0.067992754 0.10718817 0.012219942 0.10296722 0.07345088
0.15421216 0.016913172 0.24245358 0.25353318 0.06322838 -0.010787403 0.014878563 0.06600532
0.16672245 0.16232756 0.008842093 0.16790667 0.17159276 0.006262769 0.11948414 0.19112952
0.033053417 0.03467416 0.10225842 0.047085237 0.1270096 0.021014186 -0.04649093 0.17499639
0.11650257 0.020006018 0.065057054 0.18848063 0.19816962 -0.110293426 -0.02345477 0.18153441
0.066566974 -0.0701123 -0.023403661 -0.047796976 0.029580187 0.03207132 -0.11679318 0.17955987
0.013343116 0.05425952 0.14039792 -0.03339334 -0.057419643 -0.0139356535 0.058196563 0.054816484
-0.14633614 -0.05188958 0.07731088 0.18018144 -0.09742276 0.061382744 -0.044093322 0.06861884
-0.12599783 -0.007776642 0.0056080646 0.048073664 -0.0763833 0.10608109 0.09683977 0.054606635
0.060835067 0.11908686 -0.034151144 0.07816855 0.034354724 -0.07828521 -0.037983563 -0.12297501
-0.14825787 0.11353414 0.03640544 -0.1596259 0.07108949 0.05001554 -0.09757875 0.060109217
0.07332817 0.2446506 0.113418706 0.10509355 -0.0129305795 -0.07268479 0.049067467 -0.044791017
-0.09657882 0.21610042 0.19307762 0.14526999 0.13784069 -0.037233815 -0.0141251 -0.085283734
0.13133104 0.2752437 0.09817149 0.107806675 0.26050428 0.11540107 0.10698911 -0.068103515
-0.02247993 0.20944104 0.0755131 -0.034839474 0.18046254 0.3980152 0.16222161 0.14914754
0.14116886 0.17408533 0.056219094 0.08610077 0.19356923 0.17379826 -0.09295612 0.06432731
