models/103-seed-100-synctwin_lss_yes_lasso/itr-0-nsc.pth.pth (torch, 399405 bytes, 20 tensors)

B f4 [400, 200]
000000 17 b7 d1 38 17 b7 d1 38 17 b7 d1 38 17 b7 d1 38
       1e-04 1e-04 1e-04 1e-04
000010 17 b7 d1 38 17 b7 d1 38 17 b7 d1 38 17 b7 d1 38
       1e-04 1e-04 1e-04 1e-04
000020 17 b7 d1 38 17 b7 d1 38 17 b7 d1 38 17 b7 d1 38
       1e-04 1e-04 1e-04 1e-04
000030 17 b7 d1 38 17 b7 d1 38 17 b7 d1 38 17 b7 d1 38
       1e-04 1e-04 1e-04 1e-04
000040 17 b7 d1 38 17 b7 d1 38 17 b7 d1 38 17 b7 d1 38
       1e-04 1e-04 1e-04 1e-04
000050 17 b7 d1 38 17 b7 d1 38 17 b7 d1 38 17 b7 d1 38
       1e-04 1e-04 1e-04 1e-04
000060 17 b7 d1 38 17 b7 d1 38 17 b7 d1 38 17 b7 d1 38
       1e-04 1e-04 1e-04 1e-04
000070 17 b7 d1 38 17 b7 d1 38 17 b7 d1 38 17 b7 d1 38
       1e-04 1e-04 1e-04 1e-04
000080 17 b7 d1 38 17 b7 d1 38 17 b7 d1 38 17 b7 d1 38
       1e-04 1e-04 1e-04 1e-04
000090 17 b7 d1 38 17 b7 d1 38 17 b7 d1 38 17 b7 d1 38
       1e-04 1e-04 1e-04 1e-04
0000a0 17 b7 d1 38 17 b7 d1 38 17 b7 d1 38 17 b7 d1 38
       1e-04 1e-04 1e-04 1e-04
0000b0 17 b7 d1 38 17 b7 d1 38 17 b7 d1 38 17 b7 d1 38
       1e-04 1e-04 1e-04 1e-04
0000c0 17 b7 d1 38 17 b7 d1 38 17 b7 d1 38 17 b7 d1 38
       1e-04 1e-04 1e-04 1e-04
0000d0 17 b7 d1 38 17 b7 d1 38 17 b7 d1 38 17 b7 d1 38
       1e-04 1e-04 1e-04 1e-04
0000e0 17 b7 d1 38 17 b7 d1 38 17 b7 d1 38 17 b7 d1 38
       1e-04 1e-04 1e-04 1e-04
0000f0 17 b7 d1 38 17 b7 d1 38 17 b7 d1 38 17 b7 d1 38
       1e-04 1e-04 1e-04 1e-04
000100 17 b7 d1 38 17 b7 d1 38 17 b7 d1 38 17 b7 d1 38
       1e-04 1e-04 1e-04 1e-04
000110 17 b7 d1 38 17 b7 d1 38 17 b7 d1 38 17 b7 d1 38
       1e-04 1e-04 1e-04 1e-04
000120 17 b7 d1 38 17 b7 d1 38 17 b7 d1 38 17 b7 d1 38
       1e-04 1e-04 1e-04 1e-04
000130 17 b7 d1 38 17 b7 d1 38 17 b7 d1 38 17 b7 d1 38
       1e-04 1e-04 1e-04 1e-04
000140 17 b7 d1 38 17 b7 d1 38 17 b7 d1 38 17 b7 d1 38
       1e-04 1e-04 1e-04 1e-04
000150 17 b7 d1 38 17 b7 d1 38 17 b7 d1 38 17 b7 d1 38
       1e-04 1e-04 1e-04 1e-04
000160 17 b7 d1 38 17 b7 d1 38 17 b7 d1 38 17 b7 d1 38
       1e-04 1e-04 1e-04 1e-04
000170 17 b7 d1 38 17 b7 d1 38 17 b7 d1 38 17 b7 d1 38
       1e-04 1e-04 1e-04 1e-04
000180 17 b7 d1 38 17 b7 d1 38 17 b7 d1 38 17 b7 d1 38
       1e-04 1e-04 1e-04 1e-04
000190 17 b7 d1 38 17 b7 d1 38 17 b7 d1 38 17 b7 d1 38
       1e-04 1e-04 1e-04 1e-04
0001a0 17 b7 d1 38 17 b7 d1 38 17 b7 d1 38 17 b7 d1 38
       1e-04 1e-04 1e-04 1e-04
0001b0 17 b7 d1 38 17 b7 d1 38 17 b7 d1 38 17 b7 d1 38
       1e-04 1e-04 1e-04 1e-04
0001c0 17 b7 d1 38 17 b7 d1 38 17 b7 d1 38 17 b7 d1 38
       1e-04 1e-04 1e-04 1e-04
0001d0 17 b7 d1 38 17 b7 d1 38 17 b7 d1 38 17 b7 d1 38
       1e-04 1e-04 1e-04 1e-04
0001e0 17 b7 d1 38 17 b7 d1 38 17 b7 d1 38 17 b7 d1 38
       1e-04 1e-04 1e-04 1e-04
0001f0 17 b7 d1 38 17 b7 d1 38 17 b7 d1 38 17 b7 d1 38
       1e-04 1e-04 1e-04 1e-04
000200 17 b7 d1 38 17 b7 d1 38 17 b7 d1 38 17 b7 d1 38
       1e-04 1e-04 1e-04 1e-04
000210 17 b7 d1 38 17 b7 d1 38 17 b7 d1 38 17 b7 d1 38
       1e-04 1e-04 1e-04 1e-04
000220 17 b7 d1 38 17 b7 d1 38 17 b7 d1 38 17 b7 d1 38
       1e-04 1e-04 1e-04 1e-04
000230 17 b7 d1 38 17 b7 d1 38 17 b7 d1 38 17 b7 d1 38
       1e-04 1e-04 1e-04 1e-04
000240 17 b7 d1 38 17 b7 d1 38 17 b7 d1 38 17 b7 d1 38
       1e-04 1e-04 1e-04 1e-04
000250 17 b7 d1 38 17 b7 d1 38 17 b7 d1 38 17 b7 d1 38
       1e-04 1e-04 1e-04 1e-04
000260 17 b7 d1 38 17 b7 d1 38 17 b7 d1 38 17 b7 d1 38
       1e-04 1e-04 1e-04 1e-04
000270 17 b7 d1 38 17 b7 d1 38 17 b7 d1 38 17 b7 d1 38
       1e-04 1e-04 1e-04 1e-04
000280 17 b7 d1 38 17 b7 d1 38 17 b7 d1 38 17 b7 d1 38
       1e-04 1e-04 1e-04 1e-04
000290 17 b7 d1 38 17 b7 d1 38 17 b7 d1 38 17 b7 d1 38
       1e-04 1e-04 1e-04 1e-04
0002a0 17 b7 d1 38 17 b7 d1 38 17 b7 d1 38 17 b7 d1 38
       1e-04 1e-04 1e-04 1e-04
0002b0 17 b7 d1 38 17 b7 d1 38 17 b7 d1 38 17 b7 d1 38
       1e-04 1e-04 1e-04 1e-04
0002c0 17 b7 d1 38 17 b7 d1 38 17 b7 d1 38 17 b7 d1 38
       1e-04 1e-04 1e-04 1e-04
0002d0 17 b7 d1 38 17 b7 d1 38 17 b7 d1 38 17 b7 d1 38
       1e-04 1e-04 1e-04 1e-04
0002e0 17 b7 d1 38 17 b7 d1 38 17 b7 d1 38 17 b7 d1 38
       1e-04 1e-04 1e-04 1e-04
0002f0 17 b7 d1 38 17 b7 d1 38 17 b7 d1 38 17 b7 d1 38
       1e-04 1e-04 1e-04 1e-04
000300 17 b7 d1 38 17 b7 d1 38 17 b7 d1 38 17 b7 d1 38
       1e-04 1e-04 1e-04 1e-04
000310 17 b7 d1 38 17 b7 d1 38 17 b7 d1 38 17 b7 d1 38
       1e-04 1e-04 1e-04 1e-04
000320 17 b7 d1 38 17 b7 d1 38 17 b7 d1 38 17 b7 d1 38
       1e-04 1e-04 1e-04 1e-04
000330 17 b7 d1 38 17 b7 d1 38 17 b7 d1 38 17 b7 d1 38
       1e-04 1e-04 1e-04 1e-04
000340 17 b7 d1 38 17 b7 d1 38 17 b7 d1 38 17 b7 d1 38
       1e-04 1e-04 1e-04 1e-04
000350 17 b7 d1 38 17 b7 d1 38 17 b7 d1 38 17 b7 d1 38
       1e-04 1e-04 1e-04 1e-04
000360 17 b7 d1 38 17 b7 d1 38 17 b7 d1 38 17 b7 d1 38
       1e-04 1e-04 1e-04 1e-04
000370 17 b7 d1 38 17 b7 d1 38 17 b7 d1 38 17 b7 d1 38
       1e-04 1e-04 1e-04 1e-04
000380 17 b7 d1 38 17 b7 d1 38 17 b7 d1 38 17 b7 d1 38
       1e-04 1e-04 1e-04 1e-04
000390 17 b7 d1 38 17 b7 d1 38 17 b7 d1 38 17 b7 d1 38
       1e-04 1e-04 1e-04 1e-04
0003a0 17 b7 d1 38 17 b7 d1 38 17 b7 d1 38 17 b7 d1 38
       1e-04 1e-04 1e-04 1e-04
0003b0 17 b7 d1 38 17 b7 d1 38 17 b7 d1 38 17 b7 d1 38
       1e-04 1e-04 1e-04 1e-04
0003c0 17 b7 d1 38 17 b7 d1 38 17 b7 d1 38 17 b7 d1 38
       1e-04 1e-04 1e-04 1e-04
0003d0 17 b7 d1 38 17 b7 d1 38 17 b7 d1 38 17 b7 d1 38
       1e-04 1e-04 1e-04 1e-04
0003e0 17 b7 d1 38 17 b7 d1 38 17 b7 d1 38 17 b7 d1 38
       1e-04 1e-04 1e-04 1e-04
0003f0 17 b7 d1 38 17 b7 d1 38 17 b7 d1 38 17 b7 d1 38
       1e-04 1e-04 1e-04 1e-04

encoder.attn_v f4 [40]
000000 43 fc 81 3f 07 fa 9c 3f f8 98 8c 3f 14 1c 92 3f
       1.0155109 1.2263802 1.0984182 1.1414819
000010 fb 99 4e 3f d9 ff 91 3f c5 09 9e 3f e1 67 a8 3f
       0.80703706 1.1406204 1.2346731 1.3156701
000020 60 26 a6 3f f5 8c af 3f ce 21 a5 3f 76 c0 b1 3f
       1.2980461 1.3714892 1.2900941 1.388686
000030 27 08 8c 3f 97 a5 a4 3f 9f 59 65 3f 58 65 82 3f
       1.0939988 1.2863034 0.89589876 1.0187178
000040 1b 54 a5 3f c2 e9 53 3f cf 37 ac 3f 38 c6 7c 3f
       1.2916292 0.8277856 1.3454531 0.9873996
000050 48 6e 31 3f 51 d7 47 3f bc 92 89 3f 1f c2 55 3f
       0.693089 0.7806292 1.0747905 0.8349933
000060 7e bb 85 3f dc 0d b3 3f f6 cc 87 3f a8 d2 82 3f
       1.0447843 1.3988605 1.0609424 1.0220537
000070 9b 84 9f 3f 1c 90 a3 3f ae d1 7e 3f 98 3e 58 3f
       1.2462343 1.2778354 0.99538696 0.8447051
000080 00 ed 74 3f 78 74 a2 3f 33 8c 9d 3f a2 79 84 3f
       0.95674133 1.2691793 1.230841 1.0349619
000090 39 4a af 3f ac 89 82 3f 3a 53 88 3f 7a 3c 21 3f
       1.3694526 1.0198264 1.0650399 0.62982905

encoder.lstm.weight_ih_l0 f4 [80, 2]
000000 e8 62 ca 3d a0 70 88 3e e2 af 5b be 64 1d d9 bd
       0.09882146 0.26648426 -0.21453813 -0.10601309
000010 d2 2d 70 bd 58 d0 1a 3e ad 82 22 be c7 d8 53 be
       -0.058637448 0.1511854 -0.15870161 -0.20688163
000020 d1 0e 81 3d 29 12 b8 3c c5 47 ed bd 36 35 6c 3e
       0.06301654 0.022469597 -0.115859546 0.23067173
000030 3d 24 45 3e 09 d3 fd 3c 04 ad 66 3e 67 08 c2 3e
       0.19252105 0.030984418 0.22526938 0.37897035
000040 b0 bb 1d 3e 0d fc 7f 3d 88 01 2c 3e 1d d7 ad 3e
       0.15403628 0.062496234 0.16797459 0.3395318
000050 9e 22 8c be 9b a1 58 3e 75 3b bd 3e 44 52 fe 3e
       -0.2737016 0.21155398 0.36959425 0.4967214
000060 4b fd c3 bd 05 8a fa 3d 8c e4 9e 3e e5 39 c6 3d
       -0.09569796 0.122333564 0.31033742 0.09679011
000070 7b 1c 55 be 30 31 03 3e 71 19 e2 3c b5 19 af 3d
       -0.20811646 0.12811732 0.027600022 0.08549825
000080 3f 23 de bc 60 1e 38 bd 01 b4 44 be 9d 2b 20 bd
       -0.027116416 -0.044950843 -0.19209291 -0.039104093
000090 12 49 33 3e c6 a6 de 3d 14 8a e3 bd bd 52 7d 3e
       0.17508343 0.10871653 -0.11110321 0.24738593
0000a0 5b de 39 bb 5a 64 33 be bb 36 71 bd da 93 0c 3e
       -0.0028361294 -0.1751875 -0.058890086 0.13728276
0000b0 dc 40 67 be 2a f7 6c 3d cd 69 b6 be 87 f9 ce bd
       -0.22583336 0.0578529 -0.35627595 -0.10106187
0000c0 e6 1f d4 3e fe 47 67 3e 7e a2 1f 3d 91 0e 85 3e
       0.41430587 0.22586057 0.038973324 0.25987676
0000d0 0c 9b 5c be 67 01 c7 bd 2a 9f 9d 3e c3 b9 75 3e
       -0.2154352 -0.09717064 0.30785495 0.23996644
0000e0 94 bf c2 bc 9c e9 12 bd 32 e3 02 3f 0c 83 0c 3f
       -0.023772992 -0.03586732 0.5112792 0.5488746
0000f0 ab cf 12 be d4 53 03 3e 40 a0 5a bd f2 25 d5 3e
       -0.14337032 0.12824947 -0.053375483 0.41630512
000100 6f a6 3e 3e b1 ae cb 3d 2f 3a ab 3e ba e6 63 3e
       0.18618177 0.09945429 0.33442828 0.22255984
000110 f5 f4 9e 3c 5d ad de bd 41 49 5d bd 18 56 00 3e
       0.019403914 -0.1087291 -0.05402494 0.12532842
000120 81 fd 56 be ba d5 5d 3e e8 e7 18 bc 44 f8 3a bd
       -0.20995142 0.21663561 -0.0093326345 -0.04564692
000130 67 85 6e 3e 5a 39 13 3e 5c 2b ad 3d 29 40 e6 3d
       0.23293076 0.14377347 0.08455536 0.11242706
000140 fd 02 30 be b6 9d 76 3e 2c 95 32 be 70 6d c5 be
       -0.1718864 0.240836 -0.17439717 -0.38560057
000150 a0 5b 91 3d 78 9d 67 be 96 1e 6b bd d4 cc 73 3e
       0.07097554 -0.22618663 -0.057402216 0.23808604
000160 51 ec 52 3e 6a 55 ae bd c7 c5 0a be dd 5c 6c be
       0.2059796 -0.08512385 -0.13552009 -0.230823
000170 75 c8 9e 3d f7 d8 31 be 2c ce 83 be c6 9b de bd
       0.07753078 -0.17367922 -0.25743234 -0.10869555
000180 fa 97 4e be 19 31 6c 3e 39 12 84 be 35 b0 d6 bd
       -0.20175162 0.23065604 -0.25795153 -0.104828276
000190 58 a0 45 3e f6 4f eb 3d b3 83 19 3e 6a cd 08 bd
       0.19299448 0.11489861 0.14991646 -0.033399023
0001a0 5c 9b 99 bd f1 d7 87 3e a0 d2 51 be d5 86 d7 ba
       -0.075003356 0.26531938 -0.20490503 -0.0016443381
0001b0 04 42 2b 3e e3 ec eb 3d 21 25 8a be d6 09 e0 3c
       0.16724402 0.11519792 -0.26981452 0.02734844
0001c0 67 42 08 3e 80 d2 31 3e 5b 58 9f 3d 0f cd 19 3e
       0.1330658 0.17365456 0.07780524 0.1501963
0001d0 49 53 83 3d 94 f5 a3 3e a7 84 58 bd 4f 9e 9a bd
       0.0641237 0.320233 -0.052860882 -0.07549726
0001e0 c0 66 c2 bc 84 3d a6 3e a7 38 02 bd b5 f8 35 3a
       -0.023730636 0.32468808 -0.03179231 0.0006941662
0001f0 f7 d6 03 bf b4 d8 69 be 77 6d 3b be 97 58 92 bd
       -0.51499885 -0.22836572 -0.18303476 -0.071458034
000200 5a c2 55 3e d8 e7 0e 3f d9 0b 3a be 08 28 56 bd
       0.2087492 0.55822515 -0.18168582 -0.05228427
000210 7c 6c f7 bd d3 70 a3 bc 12 2c c3 3e 48 a7 06 3f
       -0.120812386 -0.01995126 0.3811956 0.52599
000220 b6 5d 6b 3e 57 d9 08 3e d1 2c 95 3e 2d 5a ef 3e
       0.22984967 0.13364159 0.29135755 0.46748486
000230 d5 ce 97 bc 94 3d 07 3e e6 8f 6f bd 44 e4 45 3e
       -0.018531242 0.13207084 -0.05848684 0.19325358
000240 f2 85 e6 bd 97 01 66 bd 5d 2b 04 3e 78 10 52 3e
       -0.11256017 -0.05615386 0.12907167 0.20514095
000250 c0 4a 8a 3e 88 6a f6 bd 36 a9 a5 be 0c 00 d4 3d
       0.27010155 -0.12032038 -0.3235566 0.103515714
000260 26 33 46 3e 92 67 53 3e 8d 61 32 be 21 39 bc bd
       0.19355449 0.20644978 -0.17420025 -0.09190584
000270 f4 2e e8 3d 7b ed 01 3e 1f 23 e6 3d 30 ab 92 3e
       0.113370806 0.12688248 0.112371676 0.2864623

encoder.lstm.weight_hh_l0 f4 [80, 20]
000000 c4 24 c1 bb 48 6d e5 ba ae 8d 10 3e a2 0b e7 bd
       -0.0058942754 -0.0017503882 0.14116547 -0.11281516
000010 e9 66 f0 3b d7 ee 9b bc bc 19 0d 3e 9b af a0 be
       0.0073364866 -0.019034786 0.13779348 -0.31383976
000020 4a b4 49 be 71 48 5d be dc f3 fe 3d f1 78 53 bd
       -0.19697681 -0.21609665 0.12448856 -0.05162901
000030 88 10 a1 bd ab 3f df 3d 64 68 05 be 53 cb a2 be
       -0.07864481 0.109008156 -0.13028103 -0.3179575
000040 45 d8 f6 3d cc a9 1f 3e 26 7e 06 3d cc 5f 80 bd
       0.12052969 0.15592116 0.03283515 -0.06268272
000050 a5 e8 7e 3c 38 2c f8 bd c4 f9 61 bd c6 09 3c be
       0.0155583965 -0.12117809 -0.055169836 -0.18363103
000060 ee cc d7 bd 1a 53 70 3d 24 de 99 be 01 84 8d 3d
       -0.10537134 0.058673 -0.30052292 0.06909943
000070 ae 90 13 3f da b3 f6 be ea d6 9f 3d 0f fc 31 bf
       0.5764264 -0.4818409 0.078046635 -0.69525236
000080 59 56 5c 3e 78 54 fb bd 6d 0e 0d be eb 5b b3 3e
       0.21517314 -0.122719705 -0.13775034 0.35031065
000090 23 8a f3 be 8b 03 29 3e bb b2 6a bd c1 77 bd 3e
       -0.47566327 0.16505258 -0.057299357 0.37005427
0000a0 83 be aa bd 91 7c 5d be f9 34 97 bc 10 8a 7c be
       -0.083371185 -0.2162955 -0.018457877 -0.24662042
0000b0 1c f2 70 3e ea 13 4e 3e 1e 14 96 be b2 0c fa bc
       0.23529857 0.20124784 -0.29312223 -0.030523632
0000c0 77 32 03 3e 4e 0c b7 bd 9b 19 eb be c4 bd 2c bd
       0.1281222 -0.08937894 -0.45917973 -0.042173162
0000d0 02 8e 08 be de 63 ae 3b 5e 71 bd bd 95 51 06 be
       -0.13335422 0.0053219637 -0.09250139 -0.13117059
0000e0 c1 7c fe 3e e4 bf 80 3e ec db 7c 3e 6a 97 a3 3d
       0.49704555 0.251464 0.24693269 0.07987864
0000f0 45 f1 a6 3e f2 01 6d be 82 08 25 be bf 4b 1b bd
       0.3260595 -0.23145273 -0.16116527 -0.037914034
000100 fa 49 97 3e 54 12 20 3e 2d f1 92 be e4 cc 4e 3d
       0.29548627 0.15631992 -0.28699628 0.050488368
000110 28 a7 a3 bd 1e f4 5a bd e6 31 72 be fc a0 fa be
       -0.07990867 -0.053455465 -0.23651847 -0.48950946
000120 99 d1 0b 3e 7e d1 45 be 6a c9 33 bd 21 e9 8b bd
       0.13654174 -0.19318196 -0.043893255 -0.06831575
000130 80 07 bb 3e 9b 72 03 be 2a 5f 31 bd 64 16 ba 3c
       0.3652916 -0.12836687 -0.043303646 0.022715755
000140 24 c1 54 be 6a 30 06 bd 5d 24 c9 bd d0 21 21 3d
       -0.20776802 -0.032761015 -0.09821389 0.039338887
000150 9e 6e 08 3d cc 26 d8 3d f5 f2 50 be e5 37 03 be
       0.033308618 0.10554275 -0.20405181 -0.12814291
000160 7b e3 13 be 47 1c 07 be 80 88 04 3e f1 7e 8e be
       -0.14442246 -0.1319438 0.12942696 -0.27831224
000170 74 11 ea 3d d0 d1 94 3d fc 45 3e 3e 80 36 19 3e
       0.1142911 0.07266581 0.18581384 0.14962196
000180 63 5c f7 bd 52 21 ce 3d 38 c2 8c 3e d1 bb 89 3c
       -0.12078168 0.10064949 0.27491927 0.01681319
000190 96 eb b0 be 3e 2e 8e be c3 3c b3 be 66 cf e2 be
       -0.34554738 -0.27769655 -0.35007295 -0.44298857
0001a0 76 82 41 3e 75 d7 14 3e dd 32 ba 3d 92 d4 1e be
       0.18897423 0.14535315 0.09091733 -0.15510777
0001b0 c7 95 fe bd bc 99 ea be 38 e2 3d be 73 36 85 be
       -0.124309115 -0.45820415 -0.18543327 -0.26018104
0001c0 2a 95 2c be c6 b8 74 bc 52 ae f9 bd 6c 88 4c 3d
       -0.16853777 -0.014936632 -0.12191452 0.04993479
0001d0 26 87 01 be 01 43 d4 3c 29 7b 82 bd c5 a4 c1 3d
       -0.12649211 0.025910856 -0.06371147 0.094552554
0001e0 f6 15 62 bd 38 0e 24 3e fd 53 52 be 6c 74 fa 3c
       -0.055196725 0.16021049 -0.20539851 0.030573092
0001f0 1c ae 43 3e e3 62 9e be 6b c2 5c bd 97 8a 39 be
       0.19109386 -0.3093482 -0.05389635 -0.18119274
000200 03 de 51 3e 19 76 bd bd 61 2e db 3d 90 36 94 be
       0.20494847 -0.09251041 0.107022054 -0.28947878
000210 f9 02 d1 3e ae 8d a8 bd 90 3f 0f be 96 ef ad bd
       0.4082258 -0.08230148 -0.13989091 -0.08492963
000220 db 0d a3 3e dd be 84 bd 2e 45 74 be 10 67 80 3e
       0.31846508 -0.06481717 -0.23854515 0.2507863
000230 56 b1 3d be b5 8d a7 3d de ea b7 bd 02 b4 6d be
       -0.1852468 0.08181325 -0.08980344 -0.23213199
000240 d8 a1 07 be 3e e4 64 be 4c f2 09 be d3 0e a2 be
       -0.13245332 -0.22352692 -0.13471335 -0.31651935
000250 21 8f a1 3d f5 fe a1 be 54 fa 46 be 67 b1 8b 3d
       0.07888628 -0.3163983 -0.1943143 0.06820946
000260 54 3a 93 3e 4f c0 45 be 20 4e 4d be 63 43 bd bd
       0.28755438 -0.19311641 -0.20049334 -0.092413686
000270 d3 95 65 be cd 27 17 bd a8 31 86 be f3 56 94 bd
       -0.22420435 -0.03690319 -0.2620976 -0.07243147
000280 03 eb 89 3d 6c 22 c6 bd 09 34 87 bb 8f 16 87 be
       0.06734278 -0.09674534 -0.004126076 -0.26384398
000290 5e 1e 4d 3e 0a 9a 47 3e 1c bc 77 be 10 19 b3 bd
       0.20031115 0.19492355 -0.24192852 -0.08745015
0002a0 90 8b 41 3e 74 8c 5d 3e e2 29 2f be 52 f8 0c be
       0.18900895 0.2163561 -0.17105821 -0.13766602
0002b0 76 e9 80 be 00 94 1b be ff fb 10 3e 1f 66 70 3e
       -0.25178117 -0.15193176 0.14158629 0.23476456
0002c0 bb 92 27 be 7a f6 9b 3e 49 4d f9 bd f3 89 91 3d
       -0.16364567 0.30461484 -0.12172944 0.0710639
0002d0 d7 0b f6 be 6b 99 dd be a8 42 1c be d4 b5 c2 be
       -0.48055908 -0.4328111 -0.15259802 -0.3802935
0002e0 5d bb 43 3e cd 69 4f 3e 35 7d fb bd b8 0e 75 be
       0.19114442 0.20255204 -0.12279741 -0.23931396
0002f0 22 93 16 be 76 f1 db bd 95 f3 b9 be 62 49 86 be
       -0.14704564 -0.107394144 -0.3631865 -0.26227862
000300 c0 eb 9a 3d 73 e9 86 3c a8 7c dc 3e 43 6f d2 bd
       0.07564497 0.01646874 0.43063855 -0.10275128
000310 04 1a 80 be 54 53 6f 3e 4d 25 89 3e 88 ab d7 3e
       -0.25019848 0.23371631 0.2678627 0.42123055
000320 e6 49 88 be 0f ef 4c be f1 8d 36 be 07 e8 4f be
       -0.2661888 -0.20013069 -0.17827584 -0.20303355
000330 55 86 43 bd c4 5a 96 3c d3 e6 bb be f8 cc 2d be
       -0.04773553 0.018353827 -0.36699542 -0.1697272
000340 14 bf a8 3e 39 a1 a4 be 17 e2 5b be 2e 3e 6c be
       0.3295828 -0.32154253 -0.21472965 -0.23070595
000350 71 e5 19 be ef d8 a0 be 68 8b 4a 3e 47 75 cc 3e
       -0.15028931 -0.31415507 0.19779742 0.39933226
000360 c3 5d 4f be 00 71 14 3e eb 3f de 3e a0 3c 35 3f
       -0.20250611 0.14496231 0.4340814 0.7079563
000370 91 f6 0f bf 44 aa 33 bf 15 4f 31 3e 13 16 30 be
       -0.56235605 -0.7018168 0.17315324 -0.1719592
000380 04 0a 2f be 3a 96 e8 3d 09 ff 73 be 3f c2 53 be
       -0.17093664 0.113567784 -0.23827757 -0.20679568
000390 8a 06 01 be 90 6b 3e 3e ea 2b 16 be f8 24 15 be
       -0.1260015 0.1859572 -0.1466519 -0.14564884
0003a0 66 9f ec 3d d1 3b 4d bc 5d 43 98 be 84 c0 b1 be
       0.1155384 -0.012526468 -0.29738894 -0.3471719
0003b0 92 67 84 3d ac 19 74 3d b3 0e af 3e f1 d5 d1 bd
       0.06465067 0.059594795 0.34190902 -0.10245884
0003c0 02 a8 5f 3e b5 d9 7c bd ac 82 b2 bd e6 bc ab be
       0.21841434 -0.06173106 -0.0871633 -0.33542556
0003d0 87 43 d4 3e 7a 9e 54 3e 28 c1 01 3e 26 eb 14 3e
       0.4145777 0.20763579 0.1267134 0.14542827
0003e0 09 df 47 3e 81 7f 8f 3e 6d 2d 2e bd 8c 46 7e 3d
       0.19518675 0.28026965 -0.04252379 0.062078997
0003f0 d0 31 b2 be aa fd 29 be 4e 40 3f be db c3 13 3e
       -0.3480363 -0.16600671 -0.18676874 0.14430182

encoder.lstm.bias_ih_l0 f4 [80]
000000 a8 40 fa 3d 3f 90 78 3d c0 3f 47 3e 52 5f 29 3d
       0.122193635 0.06068444 0.19457912 0.04135067
000010 4e 73 45 3e c7 02 af 3d b6 f3 37 3e ed cd aa 3e
       0.19282266 0.085454516 0.17964062 0.33360234
000020 2e 26 56 3e 69 6c 6e 3e f5 0f 8a 3e 15 1b fa 3d
       0.20913002 0.23283543 0.269653 0.12212197
000030 16 bc 8b 3d 48 3a 38 3e 89 ec 94 3b 3b fe 31 3e
       0.06822984 0.17990983 0.0045447988 0.17382137
000040 14 2f 93 bc 00 18 d3 bd 95 8f 11 3e 47 97 cb bd
       -0.017966785 -0.10307312 0.14214928 -0.09940963
000050 db 9c 90 3e dc ad d4 3e 7c 0f 8c 3e f8 32 cf 3d
       0.2824467 0.41538894 0.27355564 0.101171434
000060 0e 2f f8 bd 6f 3f cb 3e 2e 8d 0e 3f 18 80 4d 3e
       -0.1211835 0.39696833 0.55684173 0.20068395
000070 22 37 e1 3d eb 03 be 3d 1e 1e eb 3e 37 02 19 3e
       0.10996844 0.09278091 0.45921415 0.14942251
000080 1a 6f 0a 3f 82 66 2d 3e f0 af 4e 3e 54 f9 90 3e
       0.5407578 0.16933635 0.20184302 0.28315222
000090 1e af 5a 3e b0 3d 41 b6 cf 64 46 3d 48 05 75 3e
       0.21355864 -2.8795148e-06 0.048435982 0.23927796
0000a0 ac 95 8f be f9 07 a5 3d f0 99 3c 3e fb 31 67 be
       -0.28043878 0.08058161 0.18418097 -0.2257766
0000b0 43 ac a4 bd 11 92 03 bd 77 92 5f be e2 d8 a4 bc
       -0.08040669 -0.03212172 -0.21833216 -0.020122949
0000c0 b5 c9 e3 3d 6a 3f 36 bd ce 7a 92 be 54 85 bb 3d
       0.11122457 -0.04449407 -0.28609318 0.0915629
0000d0 14 d8 f6 bc 46 7b cb bd 0a cd d7 bd 6c 9c 97 bd
       -0.030132331 -0.09935622 -0.10537155 -0.07402882
0000e0 14 e1 45 be b1 e8 5f 3e ad 56 4b bd c2 c8 26 3e
       -0.19324142 0.21866108 -0.049643207 0.1628752
0000f0 43 18 88 3e 5d 2b 1c 3e f7 6e c8 3e 12 2b c1 3e
       0.2658101 0.15250917 0.3914716 0.37728173
000100 72 89 b1 bd cb d6 b1 3e d9 0c 80 3e 64 16 4d 3e
       -0.08668794 0.34734187 0.25009802 0.20028073
000110 e2 1a db 3e 48 42 8f 3e 39 23 f1 3e 21 73 f0 3e
       0.42793947 0.27980256 0.47097185 0.46962836
000120 c7 48 01 3f 7a 8d b2 3e f7 e7 7f 3e c1 af bb 3d
       0.50501674 0.34873563 0.24990831 0.09164382
000130 2e 8f 5d 3d ae 84 c9 3d 70 72 f4 3e f3 ff 4c 3e
       0.054091625 0.0983976 0.4774356 0.20019512

encoder.lstm.bias_hh_l0 f4 [80]
000000 1a 8f e0 ba 87 47 94 3d 65 ea 88 bd 08 56 63 bd
       -0.0017132491 0.07240205 -0.06685332 -0.055501968
000010 84 da 86 3e b6 2c 9d 3e 14 4d 2b 3c 3a 45 e7 3d
       0.2633859 0.30698174 0.010455389 0.11292501
000020 28 51 77 3e 67 92 e6 3e 37 1c 02 3e 27 11 1d 3e
       0.24152052 0.4503357 0.12706076 0.15338574
000030 d5 ac 9d 3e 75 e1 06 3e 5b d8 2c 3e 0d 3b 61 3d
       0.30795923 0.13171943 0.16879408 0.054987956
000040 1d ac ee 3b c2 2b c2 bd e1 8e 15 3d d8 4d 4d be
       0.007283701 -0.094810024 0.036513213 -0.20049226
000050 8b 55 06 3d 24 ff 4b 3d 5c d5 6c 3d 02 45 11 3e
       0.032796424 0.049803868 0.057820663 0.1418648
000060 b7 00 20 be 8d d3 82 3e 46 3b ed 3e af 56 2e bb
       -0.15625273 0.25552025 0.46334285 -0.002660196
000070 c3 4e c4 3e 58 62 82 3e 1c 41 c5 3e 21 8f 7d 3e
       0.3834134 0.25465655 0.38526237 0.2476163
000080 66 fa e8 3e 8f 7a 9f 3e 98 27 6f 3c 24 7c a0 bd
       0.4550354 0.31148192 0.014596842 -0.07836178
000090 6a bf e9 bc c6 58 1e 3e 75 45 f5 3d b9 ae c0 bd
       -0.028533656 0.15463552 0.119761385 -0.09408326
0000a0 55 11 02 3d 88 53 40 be bc 4c ac 3c 7b a2 af bd
       0.03175481 -0.18781865 0.021032684 -0.085759126
0000b0 5e e5 f1 3c 0a e9 8e 3d bb 56 36 be 5c 4d 5b bd
       0.029528316 0.069780424 -0.17806523 -0.053540573
0000c0 9f 33 f2 bd 84 ed 1d be 41 86 21 be 3d f5 29 bd
       -0.11826252 -0.15422636 -0.1577387 -0.041493643
0000d0 bd a3 32 3e 0d 2d 22 be 73 ca 8c 3d f6 9a 32 bd
       0.17445274 -0.15837498 0.068745516 -0.043604814
0000e0 6a 24 a7 bd c1 86 8c 3e 6e a1 6f be d9 cf a6 bd
       -0.08161242 0.2744656 -0.23401424 -0.081451125
0000f0 fd 26 8c 3d 07 d8 38 3e 65 f0 c3 3e 07 4a 86 3e
       0.06843374 0.18051158 0.38269344 0.26228353
000100 1a d6 87 bc 2a 9f 84 3e 8a 7b 4f 3e 7c 5b 0d bd
       -0.016581584 0.25902683 0.2026197 -0.034511074
000110 c8 f7 bf 3e 24 7a 9a 3c ec 2a 0e 3f d9 81 47 3e
       0.3749373 0.01885707 0.55534244 0.19483127
000120 cb 29 05 3f 38 0c 35 3e ed 1f 6d 3d 85 fb a8 3e
       0.52016896 0.17680442 0.057891775 0.33004394
000130 07 f8 70 3e 63 15 87 3e db 1f ab 3e 9d e6 a7 bd
       0.23532115 0.26383504 0.3342274 -0.08198283

encoder.lstm.weight_ih_l0_reverse f4 [80, 2]
000000 75 43 02 3f a8 1e 2b 3c 7f 17 9c be ae 4c 8c be
       0.5088418 0.010444321 -0.30486676 -0.27402252
000010 a4 84 ab be 90 50 80 be f0 b6 ad 3d 29 82 00 3e
       -0.33499634 -0.25061464 0.08482158 0.12549652
000020 c7 09 82 3e 03 0d 7d 3c f9 db 4a be 69 6e 34 be
       0.25398085 0.015444997 -0.19810475 -0.17620243
000030 0b 4a e2 be 64 56 b3 bd d6 2d 58 3e 9f aa 8a 3e
       -0.44197115 -0.08756712 0.21111235 0.270833
000040 ef 65 01 be 21 49 7e bd 17 ea ec be 44 ba ae 3b
       -0.12636541 -0.06208146 -0.46272346 0.005332263
000050 0b fe 03 3e 82 5a 18 3e 16 3d 43 bf 1d b4 b9 be
       0.12889878 0.14878276 -0.76265085 -0.36270228
000060 a0 dd b1 bd da 8f 95 bd 98 d3 ee 3d 6d 23 0e be
       -0.0868485 -0.07302828 0.11661452 -0.13880701
000070 1a f8 89 be 02 5f 81 3e 0f 96 25 bd bb e1 b2 3d
       -0.269471 0.25267798 -0.04042631 0.08734461
000080 58 e3 9d 3d cc 27 0d 3d de e3 2a be 31 9e 0c 3c
       0.07709378 0.03446178 -0.16688487 0.008582638
000090 09 6f a7 be da 1e f5 be 0f bb 1a bf ba 6d 0c be
       -0.327019 -0.478751 -0.6044168 -0.13713732
0000a0 59 85 a3 be 96 74 27 be fb 47 78 be 3d 58 c2 3d
       -0.31937674 -0.16353068 -0.24246208 0.09489486
0000b0 9c 2e aa be 2d 3a 06 3e bf 28 70 3e 04 5d 45 3d
       -0.33238685 0.1310813 0.23453043 0.04818441
0000c0 2e f6 02 3e a7 f0 21 3e c9 7c 7b be 13 51 55 bd
       0.12789223 0.15814458 -0.2455932 -0.05207927
0000d0 08 1e 66 bd f0 0f 8e 3c 3d 4e d3 bc ae f4 1b bd
       -0.056180984 0.017341584 -0.025794143 -0.03807514
0000e0 24 e9 d8 bd 0b ed 15 3e 24 17 b6 3c 7b 5a 35 3e
       -0.10591343 0.14641206 0.022227831 0.17710297
0000f0 48 4f cf 3d ec d3 9d 3c 6f a1 ee be 45 1e d5 3c
       0.101225436 0.019266091 -0.4660754 0.02601541
000100 30 2f 42 bf 34 0a 42 be 39 a5 8c be d2 2e 0c 3e
       -0.7585325 -0.18949205 -0.27469805 0.13689736
000110 bd 2f f4 3d 7a 38 07 3f ab 1b a5 be 1f ce 13 be
       0.11923168 0.5282055 -0.3224767 -0.14434098
000120 78 6d dd bc 03 2b 27 3e 66 8f 9c bd e7 17 6c 3d
       -0.027029738 0.16325001 -0.076445386 0.057639983
000130 90 1b 83 be 37 63 bb be d4 0f f3 be 90 7f 97 be
       -0.25606966 -0.36599132 -0.47473013 -0.2958951
000140 56 8c 40 be 87 d0 65 be 4b 4d e9 3e 04 4f c3 bd
       -0.18803534 -0.22442828 0.45566782 -0.095365554
000150 93 9a d0 be 6f bb 8e 3d 3a 2c f5 3e 47 06 bc be
       -0.4074293 0.06969344 0.47885305 -0.3672354
000160 69 34 43 be 21 40 9a bd b1 d1 52 be 28 5c c4 bd
       -0.19062962 -0.07531763 -0.20587803 -0.0958789
000170 27 01 81 be f1 55 3b 3d 31 0c 74 3c 17 a9 e0 3e
       -0.25196192 0.045736257 0.014895485 0.43879005
000180 8c f1 9a 3d 01 30 b0 3e ea db a4 3e d6 de 01 bc
       0.07565603 0.34411624 0.3219903 -0.007926663
000190 b3 4c cb be 03 38 36 be da be 32 be 99 d0 f2 3c
       -0.39706954 -0.17794804 -0.17455617 0.029640483
0001a0 3d 11 af be a5 fb 8f 3e 71 82 aa 3d 79 ce 9c 3d
       -0.3419284 0.28121677 0.08325661 0.07656569
0001b0 57 55 bc be b3 97 6b 3e 66 bb b0 3e 65 23 4c 3e
       -0.3678386 0.23007087 0.34517974 0.19935377
0001c0 3b 8b 36 bd 37 41 26 3e 08 3c 00 3e 23 f5 38 3e
       -0.044566374 0.16235815 0.125229 0.18062262
0001d0 86 17 7f bd 77 d8 71 be 93 9d b1 3c 0d 5c 60 be
       -0.062278293 -0.23617731 0.021681583 -0.21910115
0001e0 f6 27 6b be 63 e7 32 be f7 5c be bc bb 78 d9 bd
       -0.22964463 -0.1747108 -0.023237688 -0.10618731
0001f0 5c c6 83 be 72 34 d1 3b 99 cf c1 3b e2 82 92 3e
       -0.25737274 0.006384426 0.00591464 0.2861548
000200 65 13 b0 3e 97 ce 1c 3d 97 aa a7 be 4a c7 b0 bc
       0.34389797 0.038282957 -0.32747337 -0.021579403
000210 19 c7 96 be 59 e2 7b 3e 04 74 4b 3e b9 cc 4d 3e
       -0.29448774 0.24598064 0.19868475 0.20097627
000220 3f 53 cb bd 66 3f 1d 3e 33 e8 04 be 3a 14 6c 3e
       -0.09927987 0.15356216 -0.12979202 0.23054591
000230 11 c2 fc 3d eb fa 60 3e 96 c2 91 be 7e 6b af 3c
       0.12341703 0.21970718 -0.2846877 0.021413561
000240 a8 94 7e bd 6c 12 55 3d 25 cf a4 3c c8 90 d8 bd
       -0.06215349 0.05201952 0.020118305 -0.1057449
000250 85 f1 1b bd e7 eb ee 3c ea 52 c6 3d 1a ee dc 3d
       -0.038072128 0.029165221 0.09683783 0.10787602
000260 28 0b 75 3d d0 cd e3 3d ad 8b 2c 3d 4c e5 06 3e
       0.059825093 0.1112324 0.042125393 0.13173407
000270 93 5e 0a bf be be 95 be b0 30 be be c7 4a b1 bd
       -0.5405056 -0.29247087 -0.3714652 -0.08656841

encoder.lstm.weight_hh_l0_reverse f4 [80, 20]
000000 ea e9 97 3e e2 e0 07 bf d6 eb 37 be 45 29 c7 bd
       0.2967065 -0.5307752 -0.17961058 -0.097246684
000010 84 4b 98 bd 5c a0 a2 3e bc d6 31 3e 7b a9 4a bd
       -0.074362785 0.3176297 0.17367071 -0.049478035
000020 dc 3e cc bd 68 20 f7 3d 17 e8 ea bb ab c9 b8 be
       -0.09972927 0.12066728 -0.0071687805 -0.3609136
000030 fb 57 05 bf 73 b3 3d 3d 7e da 61 3d a2 3c 01 bf
       -0.5208737 0.046313714 0.05514001 -0.50483143
000040 f6 d7 12 3e b9 98 06 bf a2 00 a9 be 69 26 93 bc
       0.14340195 -0.52576786 -0.33008295 -0.017962651
000050 52 3c bc 3e 9d 33 31 bc bf cd 19 3f ad 99 d0 be
       0.3676477 -0.010815528 0.6007957 -0.40742245
000060 b6 aa 6e 3e 17 86 eb bd e3 91 55 3e 27 1a ad be
       0.23307309 -0.11500185 0.20856433 -0.33809015
000070 44 fb 97 bd c3 bb 04 be e3 7d a7 3d be 1b bb 3e
       -0.07420972 -0.1296225 0.08178308 0.36544603
000080 5c 61 49 bc 3c df 3e be 05 4f e6 3d 09 35 b6 bd
       -0.012291279 -0.18639845 0.112455405 -0.088968344
000090 c8 81 2a be f2 18 b7 be 7a 24 e0 3e 4c 56 a4 3e
       -0.1665107 -0.3576122 0.4377783 0.3209709
0000a0 c0 a3 90 3e e2 44 1a 3e ea c6 ec bc ca 21 b7 3e
       0.2824993 0.15065339 -0.028903443 0.35767967
0000b0 c0 57 8f be a6 e9 be bb d0 d6 02 bd 45 7c 16 3f
       -0.27996635 -0.005826193 -0.031943142 0.5878337
0000c0 a9 37 0b bd 2c 9e 7e 3e 9d a3 ea be 64 4c 9a 3d
       -0.03398863 0.24865025 -0.45827952 0.075341016
0000d0 84 47 43 3e a7 0e 69 bd 13 58 8f 3d bb 48 0c 3e
       0.1907025 -0.05689874 0.06999221 0.1369962
0000e0 50 fb df 3d 8e 7d 93 3d 40 69 85 3d 60 3a b3 bd
       0.10936606 0.07201682 0.065142155 -0.087513685
0000f0 07 0e 52 3e 2d 51 2d bd 96 a5 c6 3e b2 72 20 3d
       0.20513164 -0.042313743 0.38798207 0.039171882
000100 22 ca db 3d 72 e5 9c be 28 47 26 3e 4a 0d 38 3c
       0.10731913 -0.30643803 0.16238081 0.011233637
000110 be 0f a5 3c c0 96 a6 be 06 f8 27 be d3 47 f2 3e
       0.020149108 -0.32536888 -0.16403207 0.47320423
000120 f8 1a c4 3e 29 25 28 be dc db 3c be f9 77 16 3e
       0.38301826 -0.16420425 -0.18443245 0.14694203
000130 0f f7 80 be 3e a6 7e bd 11 19 03 3e 38 60 d2 3e
       -0.2518849 -0.06217026 0.12802531 0.41089034
000140 0e a9 6b 3e 19 8b e3 bd b5 53 85 3d cf e9 99 3e
       0.23013708 -0.11110515 0.065101065 0.30061194
000150 02 8b 83 bd 57 7e 27 be 1d 1a 33 3e 27 fe 41 bd
       -0.06422998 -0.16356789 0.1749043 -0.04736152
000160 3c 4d 29 be 74 57 2f 3c 59 44 ba 3d 97 10 b3 3d
       -0.16533369 0.010702003 0.090950675 0.08743399
000170 32 8c 24 be 54 31 9b be 63 8c c8 3d 21 0d 85 bd
       -0.16069105 -0.30311072 0.09792402 -0.06496645
000180 73 94 5f 3e 34 4f 7f 3e 18 19 7a 3d 54 ef a0 b9
       0.21833973 0.24932557 0.061059088 -0.00030695891
000190 cb 39 8f 3d 64 de fc be 90 e5 49 3e b3 90 96 be
       0.06993445 -0.4938842 0.19716477 -0.29407272
0001a0 8c d0 95 bd 2d 46 dc 3e a2 d6 81 3e 50 f3 29 bd
       -0.07315168 0.4302229 0.25359064 -0.041491807
0001b0 25 3b f4 3d 5d 45 39 3e e0 81 c5 3c 30 b0 9e 3e
       0.119253434 0.18092866 0.02410978 0.30993795
0001c0 7a ed bf be 4e ef e6 be 25 ab 1e 3e e4 6f 08 bd
       -0.37485868 -0.4510445 0.15494974 -0.033309832
0001d0 dd d1 2a 3e 78 be 3e bd bd 87 8b 3e 22 65 75 ba
       0.16681619 -0.046568364 0.27251998 -0.0009361078
0001e0 fe 6a 61 3e 9a 6a 3a be 76 ee af 3e 6b b6 54 3e
       0.2201347 -0.18204728 0.3436162 0.20772712
0001f0 70 56 a9 be 1f 6a bf 3c 0c b1 fb 3e 34 f7 ac 3e
       -0.3307376 0.023366032 0.49158514 0.3378235
000200 06 f7 31 3e 64 fa 04 3e 63 66 a7 be ab de b4 3e
       0.17379388 0.12986141 -0.32695302 0.35326132
000210 5d fa 99 bd ed 3a 39 3d c1 1e 26 3e 57 9a 85 3e
       -0.07518456 0.04522221 0.16222669 0.26094314
000220 a5 e6 a9 3e 93 09 56 3e e3 fb 34 3d 70 b1 e9 3e
       0.3318378 0.2090209 0.04418553 0.45643187
000230 1b 7f ed be c6 62 a8 3a 3e 1b 99 3d 62 5f c3 3e
       -0.46386036 0.001284682 0.07475899 0.3815871
000240 cd b3 30 3e 4b 1e da bd ce 8c 93 be 9f b3 eb bd
       0.17256089 -0.10650309 -0.28818363 -0.115088694
000250 45 07 bd 3d 9f 28 86 3e 2e c4 aa bd 9a 40 ad 3e
       0.09229902 0.26202866 -0.083381996 0.3383835
000260 b8 60 8f bc 42 2b 89 3e 25 f2 b5 be f6 49 8b 3e
       -0.017502174 0.26790816 -0.35536304 0.27204865
000270 76 41 5b bd 02 08 f7 bd 01 f6 81 3c c1 f2 87 3d
       -0.053529225 -0.12062074 0.015864374 0.066380985
000280 15 28 1b 3e 58 7d b1 be f8 48 7a 3e ab 7b 2c 3e
       0.15152009 -0.34665942 0.24441898 0.1684405
000290 24 61 21 be 14 d6 cc 3e 35 7e 0e 3d 56 ef b7 bc
       -0.15759712 0.4000708 0.03478833 -0.022452991
0002a0 09 e3 26 bd 23 eb db bd 14 52 9b be a9 28 ec bd
       -0.04074386 -0.10738208 -0.30336058 -0.11531193
0002b0 ab 35 22 bf c4 ec 10 bd fc be 92 3e 01 d3 6e bc
       -0.6336314 -0.035382047 0.28661335 -0.014576674
0002c0 0d 66 a9 3e 20 ff 56 3d ca f2 a5 3e 5e a5 9c bd
       0.3308567 0.0524894 0.32411796 -0.07648729
0002d0 ef 91 2f 3f 7b 7c 95 be 78 35 f7 3e c7 28 be bd
       0.6858205 -0.29196534 0.4828298 -0.092851214
0002e0 76 f3 42 be 85 c8 c0 3e ce 19 78 3e 59 00 36 3e
       -0.19038185 0.37652984 0.24228594 0.1777357
0002f0 ef c3 87 3d 44 07 40 3d 49 a4 4d be 3a 91 21 3e
       0.06629168 0.04688193 -0.20082201 0.15778056
000300 a0 fe 05 bf f6 80 22 be 49 16 df 3d 7f 4c 9e bd
       -0.5234165 -0.15869507 0.108929224 -0.07729434
000310 31 4c f6 bc 1f 18 61 be c3 ed 9b 3e b4 2c 99 3d
       -0.030065628 -0.21981858 0.30454835 0.074792296
000320 e1 62 8c 3d dc df 77 bc 16 d5 dc 3d e5 fd 9d 3d
       0.06854797 -0.015129056 0.107828304 0.07714442
000330 19 fd 2b 3e e6 e7 29 be 06 2a 8e bb 17 87 40 3d
       0.16795768 -0.16592368 -0.0043385057 0.04700383
000340 07 3d 89 3d ad a8 69 3e f3 16 58 be 3f 98 c9 3b
       0.06701093 0.22818251 -0.21102504 0.0061521824
000350 c8 fa 01 3e 18 29 53 be 7b 53 64 be 23 9a e6 3d
       0.12693322 -0.20621145 -0.2229747 0.11259868
000360 97 39 65 bd 3a 15 9d 3d f1 7d a0 3e 3f b8 93 3e
       -0.055963125 0.07670064 0.31346086 0.28851506
000370 f8 77 c3 3e 26 21 d8 3d cf 89 dc 3e b0 0f f6 3c
       0.38177466 0.105531976 0.4307389 0.030036777
000380 0f 1f 22 3e 2a ae 8a 3d b9 98 a1 3d bc 81 6a 3e
       0.1583216 0.067715004 0.07890458 0.22901052
000390 09 a8 12 bf 7c 31 50 3d eb 4c 57 bd 48 32 a9 3e
       -0.5728765 0.050828442 -0.05256359 0.33046174
0003a0 66 2e 09 3e ff aa 81 be a4 cc 07 3e 92 5c 7c be
       0.13396606 -0.25325772 0.13261658 -0.24644688
0003b0 5b 95 67 be 04 b3 7a be 14 0d 31 bd d9 11 2a 3d
       -0.22615568 -0.24482352 -0.043225363 0.041520927
0003c0 9f 60 a3 3e f3 23 87 be 75 96 03 be 2b ef fd 3e
       0.31909654 -0.26394615 -0.12850364 0.49596533
0003d0 35 14 0c bf 83 21 17 3e 29 f0 96 3c ce df 45 3e
       -0.54718333 0.14758877 0.018425064 0.19323656
0003e0 a6 9f 73 3e f6 7e 94 3e de 2c 1c bf e6 2c 66 bd
       0.2379137 0.29003114 -0.6100596 -0.056195162
0003f0 ad 64 a6 bd 4e 88 a1 be c6 1f c4 bd a0 5a 45 3e
       -0.08124671 -0.31549305 -0.09576373 0.19272852

encoder.lstm.bias_ih_l0_reverse f4 [80]
000000 f2 d8 ac 3c 30 42 eb 3d 95 cb 25 3e 5b bd 33 3e
       0.021099541 0.11487234 0.16190942 0.17552702
000010 74 b6 c3 3d 8b a2 09 3e 0e b6 bb 3e 1b 4b a2 bd
       0.095562845 0.13440911 0.36662334 -0.079244815
000020 d5 37 c2 3e 12 ff 73 3e 80 7c 56 3e c0 7e ce 3e
       0.3793322 0.2382777 0.2094593 0.40331078
000030 ac be 35 3e 99 15 f4 3e 24 ef 09 3f 1d 8a 0b 3e
       0.17748517 0.47672728 0.53880525 0.13626905
000040 86 74 9e 3e 00 0d a4 3c 73 8a a9 3d 1f 86 0f 3e
       0.30948275 0.02002573 0.0827836 0.14016007
000050 cf ca c5 3e 7a aa a7 3d 01 7f 2a 3e 9e f3 81 3e
       0.38631293 0.08186813 0.1665001 0.25381178
000060 db 26 1c be e3 ab 97 3e 86 91 57 3e a2 64 ee 3d
       -0.15249197 0.29623327 0.21051607 0.11640288
000070 25 2d 15 3e cb 4d ce 3d 9b 27 80 3d c6 6e 08 bd
       0.14568003 0.100734316 0.06257554 -0.033308767
000080 a4 e9 11 3f 93 1f 14 3e 32 11 0b 3f 03 e8 26 3e
       0.5699713 0.1446517 0.5432311 0.16299443
000090 91 f6 99 3e 91 a8 a1 3e 75 43 33 3e 30 11 83 3d
       0.30070928 0.31573918 0.17506202 0.06399763
0000a0 19 b5 c2 3d 49 c0 7e be 60 93 91 bd 48 96 78 bd
       0.09507198 -0.24878038 -0.07108188 -0.060690194
0000b0 51 26 41 be 51 17 a4 3e 5c 60 ac 3d 79 a4 9d 3d
       -0.18862273 0.3204904 0.084168166 0.07697386
0000c0 cf 5c ec 3d c1 d1 87 3d aa b9 27 be 4d 36 08 3c
       0.11541139 0.06631804 -0.16379419 0.008313728
0000d0 eb c7 43 be fa 90 09 be 27 1f 01 3e 56 df 20 3d
       -0.19119231 -0.1343421 0.1260954 0.03927549
0000e0 d2 eb 3b 3c 9d e6 be bd 77 32 1c 3c 23 24 89 3d
       0.011469798 -0.0932133 0.009533516 0.06696346
0000f0 d8 f0 5b 3e 06 aa 3e 3e 91 b3 08 3f 81 cd a1 3e
       0.21478593 0.18619546 0.53398997 0.316021
000100 c4 7a ad 3e ae 29 47 3e fe 6b f8 3e 01 5c c2 3e
       0.33882725 0.19449493 0.48519892 0.37960818
000110 ec fa 2b 3e c1 bf 0d 3e e3 80 16 bc 89 2e ed 3c
       0.16794938 0.1384268 -0.009186002 0.028952854
000120 b2 57 85 3e 09 8f 14 3e ff c7 46 3f ab 0b 22 3e
       0.2604347 0.14507689 0.7764892 0.15824763
000130 5e a1 b5 3e 55 9c 1c 3e 97 2a 8f 3e cb 8b 60 3e
       0.35474676 0.15294011 0.2796218 0.21928327

encoder.lstm.bias_hh_l0_reverse f4 [80]
000000 58 c0 d0 bc 3f 3e 38 3e ba a5 92 3e 43 da 14 3f
       -0.025482342 0.17992495 0.28642064 0.5814554
000010 c6 df 10 3c 23 b6 cd 3e 18 20 c9 3e b4 8e 0e 3d
       0.008842414 0.40178022 0.39282298 0.03480406
000020 f6 b7 25 3e b4 48 b3 3b 73 2a 12 3d 8d d0 00 3e
       0.16183457 0.0054713134 0.035685014 0.12579556
000030 12 e8 b8 3e bb 5a fb 3e 42 df c5 3e aa 1a 16 3c
       0.36114556 0.4909266 0.38646895 0.009161631
000040 ab 2b 9d 3e 21 fa 85 3e 26 cc 6d 3e b3 5a 0a be
       0.3069738 0.26167396 0.23222408 -0.13511162
000050 2b 34 b1 3e 2e c7 fd 3d ef 67 aa 3e 87 04 0a 3f
       0.34610114 0.12391506 0.3328242 0.5391316
000060 62 39 8f bd 13 85 8d 3e 25 cc d7 3e b7 3b 31 bc
       -0.06993367 0.2764059 0.42147937 -0.01081746
000070 f8 ed 90 3d 0e 52 c1 3d b9 5a d9 3d 7e db 91 3d
       0.07076639 0.09439479 0.10613007 0.07121943
000080 3e 81 2c 3f 71 a0 d9 3e 47 2c 3d 3e 27 8a a9 3e
       0.6738471 0.4250522 0.18473922 0.33113214
000090 be 11 e9 3d 95 7b 38 3e 42 7b 1b 3e aa d0 3f 3e
       0.11380337 0.18015893 0.15183738 0.18731943
0000a0 42 2e 80 bb 1b 86 48 be 18 9c 7c bd 5c a7 f7 3c
       -0.0039117644 -0.19582407 -0.0616723 0.03023117
0000b0 9d 23 65 be eb 4d 60 3d 63 70 09 be dd c0 1e 3d
       -0.22376867 0.05476181 -0.13421778 0.038758148
0000c0 3f 5e 42 3e ac e0 4c 3e 27 b7 c0 bd 9a 8f c6 bd
       0.18981265 0.2000758 -0.094099335 -0.096953586
0000d0 6d 26 a1 be c9 9a 89 be 67 f4 4a 3e b3 75 9e 3d
       -0.3147463 -0.26875904 0.19819795 0.07737293
0000e0 87 06 2d 3e 61 df 87 bc 92 d9 da 3c f8 58 ff bd
       0.16897021 -0.016586008 0.026715074 -0.12468141
0000f0 21 b3 85 3e 27 db eb 3e 19 5e 8a 3e b3 52 ed 3e
       0.26113227 0.46065637 0.27024916 0.46352157
000100 71 a0 a2 3d 84 e9 9f 3e 9a 50 03 3e 92 dd 5d bc
       0.07940758 0.31232846 0.12823716 -0.013541596
000110 4c 83 66 3e b5 40 81 3e 88 87 76 3e db 73 23 3c
       0.22511023 0.2524468 0.24075139 0.009976353
000120 b4 44 a3 3e e3 90 cd 3e 3d 6a 37 3f ee 05 56 3e
       0.31888354 0.40149602 0.7164648 0.209007
000130 01 d9 f2 3d cd d9 b7 3e 22 5e 9c 3e 95 a1 b3 3e
       0.118577965 0.35908356 0.30540568 0.35084215

decoder.lstm.weight_ih_l0 f4 [160, 40]
000000 40 4f 93 3d fa 10 ca 3e 02 f9 bd 3e 5d 5b 1c be
       0.0719285 0.39466077 0.3710404 -0.15269227
000010 47 d1 87 be ff b3 a8 3e 23 7c c2 3e 67 a1 62 be
       -0.26526853 0.32949826 0.37985334 -0.22131883
000020 98 8a 09 be 29 a2 f6 3d 97 98 a9 bd 67 64 01 3f
       -0.13431776 0.12042648 -0.08281057 0.50543827
000030 03 33 f1 be 21 a0 84 3e 3f d7 08 bf af 3e 55 3d
       -0.4710923 0.2590342 -0.5345344 0.052061733
000040 a7 21 69 bd 29 ab 82 bc 03 97 5d be 60 cf 3d 3e
       -0.05691686 -0.015950756 -0.21639638 0.18536139
000050 d7 2f 3e 3f 3b 4c 8b 3c 72 62 38 3e c1 27 98 3d
       0.7429175 0.017004123 0.18006304 0.074294575
000060 d5 d1 13 3e 9e 66 e9 bc 7c 8b bf bd 18 93 94 3d
       0.14435513 -0.028491315 -0.093527764 0.072546184
000070 7d 28 3d 3d bc 43 ca bd 35 ca 8a be d3 70 96 be
       0.04618119 -0.098762006 -0.27107397 -0.29382953
000080 48 45 40 bd c4 94 60 be c4 69 14 be 2b c9 c9 3d
       -0.04694107 -0.2193175 -0.14493471 0.09852823
000090 a6 14 ac bd 02 f6 6f 3d 34 e7 98 3d 42 8c 5c be
       -0.08402376 0.05858422 0.074659735 -0.21537879
0000a0 db b9 c0 bd c1 17 45 3d dd 2d 10 be 6a 31 15 3e
       -0.09410449 0.048118357 -0.14079995 0.14569631
0000b0 d2 c9 e5 3d 49 3c 09 3e b2 c8 3e bb e0 06 2d bd
       0.11220135 0.13401903 -0.0029111323 -0.042242885
0000c0 e3 77 83 3d a2 86 19 be 3c c8 4f bd 72 d9 15 3d
       0.06419351 -0.14992765 -0.050728068 0.036584325
0000d0 a5 16 eb 3d 3b ea b9 3b ec 1c 7a bd 1d a3 3c 3e
       0.114789285 0.0056736744 -0.06106274 0.18421598
0000e0 26 7a d7 3d ba 70 a8 bd b9 fa bc 3d ac 2d 01 3c
       0.10521345 -0.08224626 0.09227509 0.007884424
0000f0 5b 7b 73 3d 4f f0 29 be 43 e3 9b 3d d7 3d e5 bd
       0.059443813 -0.16595577 0.07611706 -0.11193436
000100 21 79 2e 3d b3 6e 45 3e 2e d6 31 3e d3 d3 f0 3d
       0.042595986 0.1928051 0.1736686 0.11759152
000110 cf 57 88 3c 1d 52 73 3c 30 ef 7d 3c bb cf df 3d
       0.016643433 0.01485112 0.015498921 0.10928293
000120 92 73 0e be 27 51 c8 3d f2 2e 02 bd 8e 8a 35 be
       -0.13911274 0.097811036 -0.03178305 -0.17728636
000130 f9 80 e4 bd c4 1c 72 3d 77 8f 3e 3e 0d 09 32 3e
       -0.11157412 0.059109464 0.18609415 0.17386265
000140 2c 8c 14 3d a4 40 c2 bd d2 ab f8 3d ff 29 d7 3d
       0.03626649 -0.094849855 0.12142147 0.10506057
000150 8b c6 10 3e bd ef 2b be 4f 1c f6 bc 14 e5 4d be
       0.14138238 -0.16790672 -0.030042795 -0.20106918
000160 2c 5f 9a 3d 25 14 81 be 38 43 aa bb 23 82 46 bd
       0.07537684 -0.25210682 -0.0051960014 -0.04846395
000170 e9 57 67 3d d6 ed ed 3c 59 eb 1d be cd 6d d3 3d
       0.056480322 0.029044073 -0.1542181 0.10323677
000180 95 39 a7 3e 66 b4 27 be af f7 9b bd c1 c1 d7 bd
       0.3266112 -0.1637741 -0.07615601 -0.105350025
000190 f9 ab f5 bc be 5a 03 be 33 55 91 3e c7 8d 4b 3d
       -0.02998923 -0.12827584 0.28385314 0.049695756
0001a0 a6 00 16 3e 97 ec c5 3d 89 99 80 3c ff 51 ec bb
       0.14648685 0.096642666 0.015698211 -0.007211923
0001b0 17 d5 07 be 52 76 bf bd fc f4 14 3d d0 ee a5 3d
       -0.13264881 -0.0934874 0.036366448 0.081021905
0001c0 c3 9a 48 be f4 cb f2 bd 8f e4 36 3c 0b 76 8e bd
       -0.19590287 -0.11855307 0.011162891 -0.06956109
0001d0 61 11 47 be 6b 00 9b bd 36 9b 06 3e 3b 55 7b bd
       -0.19440223 -0.07568439 0.13145146 -0.06136058
0001e0 62 17 f5 3d 7d 1e 47 3d 8f be b6 3d ac 0a 21 be
       0.119673505 0.04861306 0.08923065 -0.15726727
0001f0 5e d7 d0 3d 82 8f 18 be b3 b9 26 3d 24 b1 20 be
       0.10197328 -0.14898494 0.04070444 -0.15692574
000200 6d de 68 bc 1b 8e 8b 3d c1 11 36 3e 31 9c 2f be
       -0.014213187 0.06814214 0.1778021 -0.17149426
000210 ff 16 bb 3d 8e e0 2b be 8a 3c 18 3e 9e 18 d9 3d
       0.091352455 -0.1678488 0.14866844 0.106003985
000220 00 fa 8c 3d 3e 39 02 3d 8b 2b 0f 3e 5c 9f 2d bd
       0.06883621 0.03179287 0.13981454 -0.042388305
000230 be 0d 63 3e 57 e4 da bd 14 c7 2b 3e 16 5d e0 3d
       0.22173211 -0.106880836 0.16775161 0.10955255
000240 e1 ce 4b be 58 57 0d be 9a 08 80 3d 07 cf 7d 3e
       -0.19903137 -0.1380285 0.062516406 0.24786006
000250 c0 1b 3c 3d 01 21 00 be 46 57 3f be 74 14 f4 bc
       0.045924902 -0.1251259 -0.18685636 -0.029794909
000260 6f 6b f2 3d 30 4f 89 be e9 ad 34 bd eb 31 c5 3d
       0.118368976 -0.26818228 -0.044111166 0.09628662
000270 9f f0 cc bd 88 e8 24 be dd 71 d6 bd e6 f1 3c 3e
       -0.10006832 -0.16104329 -0.104709364 0.18451652
000280 f4 56 27 3e 95 43 29 be 8e 50 4a 3d 13 aa 0d 3e
       0.16341764 -0.16529687 0.04939323 0.1383441
000290 ec 8e a0 3d 5f 6a 2c be d0 df ae be 07 79 50 be
       0.0783976 -0.16837452 -0.3415513 -0.20358668
0002a0 89 72 aa 3e 1c 38 8b bd 9f 81 48 bc cc bb 09 be
       0.33290508 -0.067978114 -0.012237935 -0.13450545
0002b0 01 47 7e 3e 47 9d 06 be 4d da ca 3d 82 0d 39 3e
       0.24831773 -0.13145934 0.09904919 0.18071559
0002c0 39 b6 53 3e 12 19 36 3e 46 15 e9 3d c9 e9 8a 3d
       0.20674981 0.17783001 0.11381011 0.06782872
0002d0 17 e3 d2 3b 5b 96 26 be f5 d8 00 bd 74 23 1d be
       0.0064357626 -0.16268294 -0.031456906 -0.15345556
0002e0 70 88 7e bd e2 5a 98 3e 20 ea c1 3b 4a d0 b7 3d
       -0.062141836 0.29756838 0.0059178025 0.08975275
0002f0 6b aa cd 3d 45 60 e1 bb 61 fe 9a bd 47 58 64 bd
       0.1004227 -0.0068779313 -0.0756805 -0.05574825
000300 e6 e6 81 be f6 f3 67 be f7 9c d5 bd 48 7e 37 3d
       -0.25371474 -0.22651657 -0.10430329 0.044798166
000310 16 04 05 bd 16 97 23 3e ee 28 49 be e1 44 7e 3e
       -0.0324746 0.15975603 -0.1964452 0.24830963
000320 98 fa e4 bd a0 16 da bc 09 eb 22 3e 97 1d 26 be
       -0.111806095 -0.026622117 0.15909971 -0.16222225
000330 22 f4 01 bd a5 3f 48 3e 6b ad 91 3d 49 4b 34 3e
       -0.031726964 0.19555528 0.07113155 0.17606844
000340 fe b6 78 bb 83 df 4f 3d 3f 67 df bd 17 6f d1 bd
       -0.0037950869 0.050750267 -0.109083645 -0.10226267
000350 eb 39 24 be 46 48 9b bd 41 a8 24 be af ab 13 3e
       -0.16037719 -0.075821444 -0.16079809 0.14420961
000360 4d e0 21 be 82 a7 83 bd 93 2b 92 3c 4c 95 86 3d
       -0.1580822 -0.06428434 0.017843043 0.06571445
000370 b5 27 77 3c d2 84 52 bd e2 87 81 3c 11 97 50 3e
       0.0150851505 -0.0513962 0.015811864 0.20370127
000380 ba 87 ef bd de 19 57 3c 66 ce a5 bd bf 28 3d 3e
       -0.1169581 0.013128726 -0.08096008 0.18472575
000390 6f 69 67 3d 2a 91 42 3d bd 7f 8c be 23 2b 04 be
       0.056497034 0.04750172 -0.27441207 -0.1290708
0003a0 18 ed c1 3d 56 1e ae bd ed 71 bd 3c 1f 8d 60 3e
       0.0946905 -0.0850188 0.023125613 0.21928833
0003b0 e1 48 2f bd 63 19 a3 3d b5 91 1c be 85 14 bd bd
       -0.042794112 0.079638265 -0.15289958 -0.092324294
0003c0 83 d3 12 3e a0 8f 0a 3e d2 1f ad bd d9 4d c5 bd
       0.14338498 0.13531351 -0.08453335 -0.09633989
0003d0 46 78 99 bd b8 8c 68 3e 65 e8 74 3e b4 e7 a5 bb
       -0.074936435 0.2270993 0.23916776 -0.0050630216
0003e0 00 55 b3 bd 9c 29 eb 3c 51 97 15 3c 37 9a 05 3e
       -0.08756447 0.028706364 0.009130315 0.1304711
0003f0 e5 a8 8d bd 18 c8 0c 3e 4d 37 22 be 43 f3 80 3d
       -0.0691698 0.13748205 -0.15841408 0.062963985
