models/103-seed-100-synctwin_lh_no_lasso/itr-0-decoder_Y.pth.pth (torch, 1943 bytes, 2 tensors)

lin.weight f4 [5, 40]
000000 e8 26 aa 3e 38 47 95 be 93 fa 4d be a9 70 39 3e
       0.33232808 -0.29155898 -0.20115118 0.18109383
000010 bc a4 a8 3e 9f 69 d7 be 76 23 af be af bd a6 be
       0.32938182 -0.4207277 -0.34206742 -0.32566592
000020 19 25 a7 3e 8e 88 c4 bc df c3 a0 3e 43 ad 2b be
       0.3264549 -0.023990896 0.31399438 -0.16765313
000030 f6 36 8f 3e 62 51 2a be 3b a5 1d 3f 2f c8 7b 3e
       0.2797162 -0.16632608 0.61580247 0.24588083
000040 35 14 87 be 54 65 ca 3e 2e 00 e3 3e 47 84 aa 3e
       -0.26382604 0.39530432 0.44336075 0.33304045
000050 52 c4 e9 be e7 2b ae 3e c4 7e 8a be 42 6a cb 3e
       -0.45657593 0.3401787 -0.2704984 0.39729506
000060 5d 96 c2 3e a9 21 cc bc 51 ad 2f bf 65 10 10 bf
       0.38005343 -0.024918394 -0.68623835 -0.56275016
000070 93 73 85 be 7f eb b7 3e 5f 1a 52 be 7b e4 4e bd
       -0.2606474 0.35921857 -0.20517872 -0.050510865
000080 31 4e 95 bd 5e d9 cf 3d 3b 5d 9d be 4c b8 f5 3e
       -0.072903045 0.101488814 -0.30735192 0.4799217
000090 0a 8c ed 3e d4 39 a3 be d3 2a 02 bf 1c 92 39 3d
       0.46395904 -0.31880057 -0.50846595 0.045305356
0000a0 91 8f c0 3e 38 f4 1e be ae f9 2b be cd d1 c2 3e
       0.37609532 -0.1552285 -0.16794464 0.3805069
0000b0 f2 71 04 3f 16 b6 87 be c8 8e ac be 54 de 63 be
       0.51736367 -0.26506108 -0.33702683 -0.2225278
0000c0 00 e7 9b 3e 72 6c fa bd bd 35 61 3e 00 e2 8d be
       0.30449677 -0.122277156 0.21993156 -0.27711487
0000d0 28 46 90 3e 20 8a 95 be 13 71 0a 3f f5 4b a8 3e
       0.28178525 -0.29206944 0.5407879 0.3287045
0000e0 bf 16 ca be c2 27 dc 3e 1f 12 e6 3e 10 fd ac 3e
       -0.3947048 0.42999083 0.449357 0.3378682
0000f0 2f 93 4b be af 0e fb 3e 32 bf 89 be 81 04 fd 3e
       -0.19880365 0.4903464 -0.26903683 0.494175
000100 e1 0b ad 3e a0 7c 6f bc dd 42 3c bf cb 4a 09 bf
       0.33798125 -0.014617115 -0.73539525 -0.5362975
000110 2c c0 7b be c5 26 8b 3e 55 68 a7 be 14 19 33 be
       -0.24585027 0.27178016 -0.32696787 -0.17490035
000120 d0 7c ea bd 84 1b 82 3e df 95 b6 be 14 fc a4 3e
       -0.11449587 0.25411618 -0.35661218 0.3222357
000130 e7 75 d9 3e 2a 7c 94 be 50 c9 cf be f3 51 85 3e
       0.42472765 -0.2900098 -0.40583277 0.26039085
000140 13 2b a4 3e a7 cc 44 be 5e e2 8c be f4 f5 ab 3e
       0.32064113 -0.19218694 -0.27516454 0.33586085
000150 f1 b6 f7 3e e8 78 e3 be 1f 09 5e be d8 c6 d3 be
       0.4838176 -0.44428182 -0.21683167 -0.41362643
000160 d7 0a 2d 3e d2 4a 66 bd c5 2f 3e 3e 56 8a b2 be
       0.16898666 -0.056223698 0.1857291 -0.34871167
000170 69 6c 65 3e 24 93 60 be cb de d5 3e fb 0d c2 3e
       0.22404636 -0.2193113 0.4177154 0.3790129
000180 67 67 f7 be 97 f2 12 3f d3 c7 9e 3e 83 5d 5c 3e
       -0.48321077 0.5740141 0.3101183 0.21520047
000190 86 23 5a be b3 d5 b4 3e b4 a9 77 be 39 aa 41 3f
       -0.21302614 0.3531929 -0.2418583 0.75650364
0001a0 ad a7 bd 3e 77 08 c1 3d 17 ca fc be 9d 4c cf be
       0.3704199 0.09425443 -0.49372932 -0.4048814
0001b0 06 37 d5 be 8b 17 c1 3e c9 ac ba be d8 8c 77 be
       -0.41643542 0.37713274 -0.3645995 -0.24174821
0001c0 c1 3e 3b bd a2 bf c9 3e bf 7a 0b bf 58 9a d4 3e
       -0.045714144 0.39404017 -0.5448417 0.41524005
0001d0 46 19 8b 3e 2a 03 8a be 0a 6f b5 be ab 1a c8 3e
       0.2716772 -0.2695554 -0.3543628 0.39082846
0001e0 a3 1d a7 3e b0 bf c6 be 61 8f 65 be 70 77 fa 3e
       0.326398 -0.3881812 -0.22417976 0.4891925
0001f0 6a 3f a5 3e 63 f3 3f be d3 70 b8 be e7 50 5e be
       0.32274944 -0.18745188 -0.36023578 -0.2171055
000200 c7 e1 d0 3e 62 4a 3f be 52 55 53 bd 01 43 7a be
       0.40797254 -0.18680719 -0.05159504 -0.24439622
000210 ee 50 99 3e b7 19 2c be 0a b4 00 3f d1 df f9 3e
       0.29944557 -0.16806684 0.5027472 0.4880357
000220 ee bf 44 be 6f e9 a9 3e ad de 34 3e 7e 4e 82 3e
       -0.1921384 0.33185908 0.17663069 0.2545051
000230 3b 39 76 be f3 7d f1 3e b9 b1 e1 be a8 81 3b 3f
       -0.24045269 0.47166404 -0.44080904 0.73244715
000240 78 36 b9 3e a3 57 67 3e 05 56 1f bf 31 85 9e be
       0.3617437 0.22592025 -0.6224063 -0.30960992
000250 c4 74 e8 be 31 78 63 3e 02 8b af be f4 81 77 be
       -0.45401585 0.22213818 -0.34285742 -0.24170667
000260 0b 94 73 be a9 60 ee 3e 73 4e 14 bf fc 76 ed 3e
       -0.23786943 0.4655812 -0.57932204 0.4637984
000270 24 12 e7 3e 93 05 ad be 7c e8 c4 be eb 01 16 3f
       0.45131028 -0.33793315 -0.38458622 0.58596677
000280 1d 6d 25 3e ae ec a8 be 5b 89 e4 3c 06 70 ce 3e
       0.16154905 -0.32993072 0.027897527 0.40319842
000290 21 2d 0a 3f c4 08 b9 be f8 e9 ae be 01 6f 8e be
       0.5397511 -0.361395 -0.3416288 -0.27819064
0002a0 4b 03 99 3e f4 2f 3e be e4 9b 39 3e ce 62 9a be
       0.29885325 -0.1857298 0.18125874 -0.30153507
0002b0 9e 5b ab 3e b9 d7 3d bd 74 54 c5 3e b9 2e d7 3e
       0.33468336 -0.046348307 0.38540995 0.42027834
0002c0 61 23 77 be 08 16 ae 3e 28 93 d6 3e 64 88 b8 3d
       -0.2413459 0.34001184 0.41909146 0.090103894
0002d0 46 d1 d6 be b7 86 9c 3e c0 37 22 bf 21 70 0e 3f
       -0.41956538 0.3057153 -0.6336632 0.55639845
0002e0 b5 8b d1 3e 42 1e 25 3f 94 8f 19 bf 87 ea e0 be
       0.409269 0.64499295 -0.5998471 -0.4392893
0002f0 53 33 2c bd 4f 22 89 3e 94 fc 16 bf f5 e4 f6 be
       -0.042041134 0.26783988 -0.58979154 -0.48221555
000300 d1 9b 4e be 54 73 10 3f 5a af ed be 5b 6d d3 3e
       -0.20176627 0.56425977 -0.46422845 0.4129437
000310 2f 5c a0 3e 61 3b bc be e6 fe d8 be 36 8d 47 3f
       0.3132033 -0.36764053 -0.42381972 0.77949846

lin.bias f4 [5]
000000 f0 02 f4 3d 10 89 a0 bb 6f 50 17 3e 98 2d f1 3d
       0.11914623 -0.0048991516 0.14776777 0.117762744
000010 7e 65 e5 3d
       0.11200999
