models/102-seed-100-helper/itr-0-encoder.pth.pth (torch, 17995 bytes, 9 tensors)

attn_v f4 [40]
0	0x3f89d75f	1.0768851
1	0x3f8ff21b	1.124576
2	0x3f716c09	0.94305474
3	0x3f74d0d4	0.95631146
4	0x3f8554e2	1.0416529
5	0x3f8b0e86	1.0863807
6	0x3f7c1e50	0.98483753
7	0x3f8876e9	1.0661288
8	0x3f87cda1	1.0609628
9	0x3f798c1b	0.9747941
10	0x3f8b5b5f	1.0887259
11	0x3f777287	0.9665913
12	0x3f88b52d	1.068029
13	0x3f8ee85a	1.1164658
14	0x3f83605a	1.0263779
15	0x3f83008f	1.0234545
16	0x3f75cb19	0.9601303
17	0x3f68b6c0	0.90903854
18	0x3f8e165e	1.1100576
19	0x3f7a2322	0.9770986
20	0x3f879539	1.0592414
21	0x3f43c17a	0.76467097
22	0x3f9aa352	1.2081091
23	0x3f538e1a	0.82638705
24	0x3fa93a06	1.3220832
25	0x3f97fd6c	1.1874213
26	0x3f998f54	1.1996865
27	0x3fa2fa06	1.2732551
28	0x3f6820aa	0.9067484
29	0x3f6e62de	0.9311961
30	0x3f8de935	1.1086794
31	0x3f8d3bcf	1.1033877
32	0x3f458848	0.77161074
33	0x3f4fb767	0.81139225
34	0x3f99d22b	1.2017263
35	0x3f3d415e	0.7392787
36	0x3f4d71df	0.8025188
37	0x3f5cbd91	0.86226755
38	0x3f8ee329	1.1163074
39	0x3f99184d	1.1960541

lstm.weight_ih_l0 f4 [80, 2]
0	0xbdb82b2b	-0.08992609
1	0x3e3a2a02	0.18180087
2	0x3d1f85cc	0.038945958
3	0x3d3d9793	0.04628713
4	0x3d16372f	0.03667372
5	0x3de6ca88	0.112690985
6	0xbe683017	-0.22674595
7	0xbe84ae02	-0.25914007
8	0xbe0db54a	-0.13838688
9	0xbe263237	-0.16230093
10	0xbe524f68	-0.20538104
11	0x3d5f4b7f	0.054515358
12	0x3d65e7a3	0.05612911
13	0x3dc71113	0.097200535
14	0x3d38323c	0.044969782
15	0x3e760c6b	0.24028175
16	0x3da6ed7f	0.081507675
17	0xbbf31d93	-0.007419297
18	0x3df0ffb6	0.11767523
19	0x3dd71b14	0.105032116
20	0xbe4cf2fd	-0.20014568
21	0x3dae20bd	0.08502338
22	0xbda7cf0c	-0.08193788
23	0x3dc643bc	0.09680888
24	0xbe961dd6	-0.29319638
25	0x3ca58cad	0.020208681
26	0x3e4e8956	0.20169577
27	0x3dba0068	0.09082109
28	0xbe1ff5d2	-0.15621117
29	0x3d9f3198	0.07773131
30	0xbc84b494	-0.016199388
31	0xbe204825	-0.15652521
32	0xbe444cea	-0.19169965
33	0xbe563eca	-0.2092239
34	0xbe5424e4	-0.20717198
35	0xbdc7efcf	-0.09762537
36	0x3c4418e4	0.011968825
37	0xbd820a7c	-0.06349656
38	0xbe2c628a	-0.16834465
39	0x3e1c4fae	0.1526477
40	0x3d1bee71	0.038069192
41	0xbe202c61	-0.15641929
42	0x3e741774	0.23837072
43	0xbd5f5ccf	-0.05453187
44	0x3cb47805	0.022029886
45	0x3e18a4cd	0.14906617
46	0xbe839ceb	-0.25705656
47	0xbe2f06ec	-0.17092484
48	0x3e9a0724	0.30083573
49	0x3e140c0e	0.14457723
50	0xbd90455f	-0.070444815
51	0x3cec32e8	0.028832868
52	0x3d961d8c	0.07329854
53	0x3d210c8a	0.0393186
54	0x3e3d4545	0.18483455
55	0x3e4aff4a	0.19823948
56	0x3e2e64ef	0.1703069
57	0xbb96cfe6	-0.00460242
58	0x3ead94b7	0.33902523
59	0x3e904232	0.28175503
60	0xbce48b0e	-0.027898338
61	0x3dcf6e54	0.10128465
62	0x3da643ad	0.08118377
63	0x3e80ce0b	0.25157198
64	0x3cf530a7	0.029930426
65	0xbda578e1	-0.080796964
66	0x3e487ab9	0.19578065
67	0x3dcc9458	0.09989232
68	0xbd25dc02	-0.04049302
69	0xbe2d001d	-0.16894574
70	0x3e3c4193	0.1838439
71	0x3e11cfea	0.14239469
72	0xbe8a4268	-0.2700379
73	0xbe0bbf9d	-0.13647313
74	0xbc873f75	-0.01650975
75	0xbdfa1865	-0.12211684
76	0x3e7fc585	0.24977691
77	0x3c3c351e	0.0114872735
78	0x3e0e1089	0.13873495
79	0x3dccdb36	0.10002749
80	0xbe889219	-0.26673964
81	0x3e04b88e	0.12961027
82	0xbe7c0aae	-0.24613449
83	0xbe9691ac	-0.29408014
84	0x3e89597e	0.2682609
85	0x3c28aaa2	0.010294588
86	0xbc1d384e	-0.009595944
87	0x3e6b599d	0.22983404
88	0x3e669e03	0.22521214
89	0xbd7c91a8	-0.061662346
90	0xbde17bf1	-0.11009968
91	0xbe4ebaf2	-0.20188501
92	0x3d91923b	0.071079694
93	0xbe98e5ea	-0.2986291
94	0xbe2004c4	-0.15626818
95	0xbe0e41d8	-0.13892305
96	0xbde706f7	-0.11280625
97	0x3e6a716a	0.22894827
98	0xbe87c060	-0.26513958
99	0xbe16b9b3	-0.14719276
100	0x3e1e4bbf	0.15458582
101	0x3db1c164	0.086794645
102	0xbd6f00a8	-0.058350235
103	0xbe02ba7c	-0.1276645
104	0xbcb9781f	-0.022640286
105	0x3e5a0eee	0.21294758
106	0xbe556b3b	-0.20841686
107	0xbcfb6d02	-0.030691627
108	0x3e588e0f	0.21147941
109	0x3e167f61	0.14697029
110	0xbe17b53a	-0.14815226
111	0x3d024aaa	0.031809486
112	0x3e015b25	0.12632425
113	0x3decba68	0.11558992
114	0x3e264468	0.16237032
115	0x3e0b9639	0.13631524
116	0x3cd7578c	0.026286863
117	0x3e86e444	0.26346028
118	0xbc4d3b70	-0.012526378
119	0xbd7c26ec	-0.061560556
120	0xbcbfd39a	-0.02341633
121	0x3e8f5803	0.27996835
122	0x3dde5a57	0.10857075
123	0xbc4aacfe	-0.012370346
124	0xbd559d23	-0.05215181
125	0xbcda1d2a	-0.026625235
126	0xbe2ee1c9	-0.17078318
127	0xbe23c251	-0.15992095
128	0xbe21e145	-0.1580859
129	0x3e7ed9cf	0.24887775
130	0xbde6a98a	-0.11262806
131	0xbd97bb47	-0.07408767
132	0xbd1d28f5	-0.038369138
133	0x3e1ce0d5	0.15320142
134	0xbd1be9a3	-0.03806461
135	0x3e9874dd	0.2977666
136	0x3e5d97fa	0.21640006
137	0x3cde14d2	0.027109537
138	0x3e03bc88	0.12864888
139	0x3ec67d2f	0.38767383
140	0xbd2ad422	-0.041706212
141	0xbcdf8a12	-0.027287517
142	0xbdda3d46	-0.10656218
143	0x3dc63cda	0.09679575
144	0xbe9a9862	-0.30194384
145	0xbea645e8	-0.3247521
146	0x3da7eb49	0.08199174
147	0x3e0445b7	0.12917219
148	0x3e63c197	0.22241817
149	0xbe4fd09c	-0.20294422
150	0xbd8eb0a5	-0.06967286
151	0x3dfa2c76	0.122155115
152	0xbecfdbda	-0.4059742
153	0xbe9f3b98	-0.31100154
154	0xbe116a82	-0.14200786
155	0xbe0acb48	-0.13554108
156	0x3ccc15ef	0.024912803
157	0xbd5f22fb	-0.05447672
158	0x3e2b81a0	0.16748667
159	0x3e6e231b	0.23255579

lstm.weight_hh_l0 f4 [80, 20]
0	0xbe4330c9	-0.19061579
1	0xbcb4efff	-0.022087095
2	0x3e266b02	0.16251758
3	0xbdbe5cb4	-0.092950255
4	0xbd660ed6	-0.056166492
5	0xbddb59a9	-0.10710461
6	0x3e1fc902	0.15604022
7	0xbe5f25a3	-0.21791701
8	0xbde9d753	-0.11418023
9	0xbea739ee	-0.32661384
10	0x3e8c79e3	0.27436742
11	0x3d02fb22	0.03197778
12	0xbecdff79	-0.40233973
13	0x3dd0498e	0.101702794
14	0xbda9bc8a	-0.08287914
15	0xbeb786e5	-0.35845104
16	0xbecbb9e5	-0.39790264
17	0x3e354ea1	0.17705776
18	0xbcac40fd	-0.021027083
19	0xbd50a594	-0.050939158
20	0xbea182ce	-0.3154511
21	0xbed9d203	-0.4254304
22	0x3f11c092	0.56934464
23	0xbe82f76d	-0.25579396
24	0x3e8e47e7	0.27789232
25	0x3e11f4c4	0.14253527
26	0xbf0e7a94	-0.5565579
27	0xbecb2e0f	-0.39683577
28	0x3ee01eb6	0.4377343
29	0xbdb59baa	-0.08867581
30	0xbe87543d	-0.26431456
31	0xbee42cba	-0.44565374
32	0xbe91b93c	-0.28461635
33	0xbea61ad3	-0.3244234
34	0xbcd27985	-0.02569271
35	0x3e789cc8	0.24278557
36	0xbeae9ac1	-0.34102443
37	0x3ead097e	0.33796304
38	0x3e5e11f3	0.21686535
39	0x3ec6102d	0.38684216
40	0xbe0e5501	-0.13899614
41	0x3dbb385a	0.091416076
42	0x3d485499	0.048908804
43	0xbeba4ada	-0.36385232
44	0xbdc12fea	-0.09432967
45	0x3e2b8ebc	0.16753668
46	0xbe3f4db0	-0.18681979
47	0x3e1fbbd3	0.15598993
48	0x3dd954fe	0.10611914
49	0xbe3f6174	-0.18689519
50	0x3b68b532	0.0035508391
51	0x3d065254	0.032793358
52	0xbeae01b1	-0.33985665
53	0x3e4564d8	0.1927675
54	0xbd07bc3f	-0.03313851
55	0xbe449168	-0.19196093
56	0x3be5f2fe	0.0070174923
57	0x3d669681	0.056295875
58	0x3dcafd0a	0.099115446
59	0x3be19bd8	0.006885033
60	0xbc32638e	-0.0108879935
61	0x3d3a7aaa	0.045527138
62	0xbd05efbc	-0.03269933
63	0x3d7991ca	0.06093005
64	0x3e09d437	0.1345986
65	0xbcc1b056	-0.023643654
66	0xbe9ff739	-0.31243303
67	0xbd74c483	-0.05975772
68	0xbdf80807	-0.12110906
69	0xbe11a90f	-0.14224647
70	0xbca6ee09	-0.020377176
71	0xbeb049f4	-0.34431422
72	0x3e0d1bc5	0.13780124
73	0xbe1c47eb	-0.1526181
74	0x3da34cfd	0.07973669
75	0x3d5bb87b	0.05364273
76	0x3e195c4c	0.14976615
77	0xbe0949d1	-0.13407065
78	0xbd53165d	-0.051535
79	0x3d0bba0d	0.03411298
80	0xbe71c730	-0.2361114
81	0x3d6c8978	0.057748288
82	0xbd1782f6	-0.03699013
83	0xbe3ac203	-0.18238072
84	0x3dd8d46a	0.1058739
85	0x3e2c7155	0.16840108
86	0xbdb8d78d	-0.09025488
87	0xbdc7761a	-0.09739323
88	0xbe2c6a64	-0.1683746
89	0xbe7b8eba	-0.24566165
90	0x3ea59879	0.3234289
91	0xbe3a7dee	-0.18212101
92	0xbead389c	-0.33832252
93	0x3e0d4ae4	0.137981
94	0x3de2fe99	0.11083717
95	0x3d76e788	0.0602794
96	0xbead75ba	-0.3387888
97	0xbcc113a6	-0.02356894
98	0x3e8051eb	0.25062498
99	0xbe049ae4	-0.12949711
100	0xbe7ac984	-0.24490935
101	0xbe306d40	-0.17229176
102	0xbe18aaae	-0.14908859
103	0xbe87d6d8	-0.265311
104	0x3d8bdcab	0.068291984
105	0x3e099468	0.13435519
106	0x3dbf024a	0.093266085
107	0xbe33e40e	-0.17567465
108	0xbde345cd	-0.11097298
109	0xbecab475	-0.39590803
110	0xbca6d920	-0.020367205
111	0xbdabe161	-0.08392597
112	0xbed1927a	-0.40932065
113	0x3da14d2d	0.07876048
114	0xbc6cf314	-0.014462251
115	0xbe1f00f2	-0.15527704
116	0xbee00ede	-0.43761343
117	0xbda065d7	-0.078319244
118	0xbe124494	-0.14283973
119	0xbd8796b9	-0.06620545
120	0xbe709e90	-0.23497987
121	0x3e41b3ce	0.18916246
122	0xbdfccab6	-0.123433515
123	0xbe05b7af	-0.13058351
124	0xbe0011ac	-0.12506741
125	0xbd76e2fb	-0.06027506
126	0xbdfb3d22	-0.122675195
127	0xbde07863	-0.10960462
128	0xbc554672	-0.013017284
129	0xbe000e33	-0.12505417
130	0x3e2bf41f	0.16792344
131	0x3df20627	0.1181758
132	0xbe045e6e	-0.12926647
133	0x3e167496	0.14692912
134	0xbe40ed9d	-0.18840642
135	0xbe5f3ba0	-0.21800089
136	0xbd8a58ec	-0.06755242
137	0xbe233d8a	-0.15941444
138	0xbe622437	-0.22084127
139	0x3e83de4e	0.25755543
140	0xbdfcff37	-0.12353366
141	0x3e04764f	0.12935756
142	0xbd372b4d	-0.04471903
143	0xbe2dd027	-0.16973935
144	0xbd21f44b	-0.039539617
145	0xbe707004	-0.2348023
146	0xbdf3462f	-0.11878621
147	0xbeb81b16	-0.35958165
148	0x3e1a37fe	0.15060422
149	0xbdccf98d	-0.100085355
150	0x3bb07d76	0.00538605
151	0x3db27919	0.08714504
152	0xbcf7bcbc	-0.030241363
153	0xbe1d1861	-0.15341331
154	0xbe1a310c	-0.15057772
155	0xbd25b842	-0.040458925
156	0xbeb9432e	-0.36184067
157	0xbe305ccd	-0.172229
158	0xbda2ae1a	-0.079433635
159	0xbdd771c0	-0.10519743
160	0xbdd8bb8a	-0.10582645
161	0x3dc0e520	0.09418702
162	0xbc3fc679	-0.011705034
163	0xbedcb7f3	-0.43109092
164	0x3e4bd26f	0.19904493
165	0x3e6a7d4c	0.2289936
166	0xbe364070	-0.17798018
167	0xbe37930c	-0.17927188
168	0x3de30390	0.11084664
169	0x3df196a6	0.11796312
170	0xbe53824a	-0.2065517
171	0xbda8752a	-0.08225472
172	0xbea82c66	-0.32846373
173	0xbd3d7419	-0.046253297
174	0x3d62ef48	0.055403978
175	0xbd2b5623	-0.041830193
176	0xbe310f98	-0.17291105
177	0x3e842377	0.25808308
178	0xbe82a7b0	-0.2551856
179	0x3c837b17	0.016049905
180	0xbed6bdd5	-0.41941705
181	0xbe3b2fe1	-0.18279983
182	0x3d0b6d86	0.034039997
183	0xbe926911	-0.28595784
184	0x3eb17493	0.34659252
185	0x3dbd6662	0.092480436
186	0x3d10417c	0.0352187
187	0xbec69b74	-0.38790476
188	0xbd1f794a	-0.03893403
189	0xbe35f629	-0.17769684
190	0xbe137205	-0.14398964
191	0xbe461cd7	-0.19346939
192	0xbe4b248d	-0.19838162
193	0xbd51719c	-0.051133737
194	0x3eb8c4c5	0.36087623
195	0x3cdd21ef	0.02699372
196	0xbd0268f1	-0.03183836
197	0x3d40aacd	0.04703789
198	0x3e744318	0.23853719
199	0x3e8a0fd7	0.2696521
200	0xbea92c6c	-0.33041704
201	0xbcf06bdd	-0.029348308
202	0xbd6c11fe	-0.057634346
203	0xbe2e99c1	-0.1705084
204	0xbd66d90e	-0.056359343
205	0x3d93bb50	0.072134614
206	0xbe620434	-0.22071916
207	0xbe24d95f	-0.16098545
208	0x3dd04cb6	0.101708815
209	0xbd89622d	-0.06708179
210	0xbe1c5c21	-0.1526952
211	0x3cd9f6ca	0.026606936
212	0xbee9b8b4	-0.4564873
213	0xbeb5ff3f	-0.355463
214	0x3df755fb	0.12076946
215	0x3e964e75	0.29356733
216	0xbedbf8cb	-0.4296325
217	0xbce3d431	-0.027811142
218	0x3e39c0d5	0.18139966
219	0x3ec8ae00	0.3919525
220	0xbd6d9b6e	-0.058009557
221	0xbe351787	-0.17684756
222	0x3d3da5e4	0.046300784
223	0xbe354194	-0.17700797
224	0xbe38aff5	-0.18035872
225	0x3e4a04ab	0.19728343
226	0xbdfbb199	-0.122897334
227	0xbe2c66c1	-0.16836073
228	0xbc003376	-0.007824769
229	0xbdd577ed	-0.10423265
230	0xbceaec37	-0.02867709
231	0xbdad4906	-0.08461194
232	0xbe499b92	-0.19688252
233	0x3da9d7f2	0.082931414
234	0xbe9957f8	-0.29949927
235	0xbe33e103	-0.17566304
236	0xbe90036d	-0.28127614
237	0xbd70dd22	-0.05880464
238	0x3e115769	0.141935
239	0xbe35dae3	-0.1775928
240	0xbdac8815	-0.08424393
241	0x3e599596	0.21248469
242	0xbddb6bcc	-0.1071392
243	0xbeb29c29	-0.34884766
244	0x3e484013	0.19555692
245	0xbd32efea	-0.04368583
246	0xbd47958a	-0.048726596
247	0x3d7d2b34	0.06180878
248	0x3e817f2f	0.25292346
249	0xbe27214a	-0.16321293
250	0x3ec84892	0.39117867
251	0xbdb0d84c	-0.08635005
252	0xbe62f509	-0.22163786
253	0xbe30807c	-0.17236513
254	0xbd4ab089	-0.049484763
255	0x3ddc969d	0.10770915

lstm.bias_ih_l0 f4 [80]
0	0x3e34c538	0.17653358
1	0x3e9818b2	0.2970634
2	0x3dbc0108	0.09179884
3	0x3d998b4d	0.07497273
4	0x3e4a0e2b	0.19731967
5	0x3db25e95	0.08709446
6	0x3e4322ba	0.19056216
7	0x3e027711	0.12740733
8	0x3e60c0e8	0.21948588
9	0x3e4b3b31	0.19846798
10	0x3eb257e3	0.34832677
11	0x3cc1d824	0.023662634
12	0xbcc2cb23	-0.023778504
13	0x3e25d10a	0.16193023
14	0x3d8eaa84	0.06966117
15	0x3dbaedd7	0.091273956
16	0xbcf0428f	-0.029328613
17	0xbdf1fd77	-0.11815923
18	0x3dec53b2	0.11539401
19	0xbda415ba	-0.080119565
20	0x3e956339	0.29177263
21	0x3ec1819d	0.377942
22	0x3e2d0789	0.16897406
23	0x3d64dfe8	0.055877596
24	0xbdd70119	-0.10498256
25	0x3ea88793	0.32915935
26	0x3e91e368	0.2849381
27	0x3d9b4a2a	0.07582505
28	0x3d6ad054	0.057327583
29	0x3984e6b6	0.00025348895
30	0x3ee7c22b	0.45265326
31	0x3e3d911d	0.18512388
32	0x3eda126a	0.42592174
33	0x3d333365	0.043750186
34	0x3e10ae05	0.14128883
35	0x3e426306	0.18983087
36	0x3e7f6327	0.24940167
37	0xbd055526	-0.032551907
38	0x3e0dc079	0.13842954
39	0x3e63b23a	0.22235957
40	0xbe0cf703	-0.13766102
41	0x3c94bf38	0.018157586
42	0x3dea1faf	0.114318244
43	0xbe49544e	-0.19661066
44	0xbc50644f	-0.012719228
45	0xbc9f6227	-0.019455982
46	0xbd66acf9	-0.056317303
47	0xbcd3e66a	-0.025866706
48	0x3dfc6b80	0.123251915
49	0xbb29a92d	-0.002588819
50	0xbea80afc	-0.3282088
51	0x3d9995cf	0.07499277
52	0xbd4f057e	-0.050542347
53	0xbde1247b	-0.10993286
54	0xbd0f67cc	-0.035011098
55	0xbd0af554	-0.03392537
56	0xbd6e3448	-0.058155328
57	0x3e8631ba	0.26209813
58	0x3d3154bd	0.043293703
59	0x3e8886b2	0.26665264
60	0x3eab0350	0.33400965
61	0x3ea5a064	0.3234893
62	0x3e9d006d	0.30664387
63	0x3ebfb2ee	0.374412
64	0xba95ced9	-0.0011429443
65	0x3ea2b446	0.31778163
66	0x3d953584	0.07285598
67	0x3e275211	0.163399
68	0x3ebc5115	0.3678061
69	0x3e65644e	0.22401544
70	0x3ee97e5f	0.45604226
71	0x3ec066ac	0.37578332
72	0x3ee2b688	0.44279885
73	0x3e6772c5	0.22602375
74	0x3e509a6f	0.20371412
75	0x3cfcd048	0.030861035
76	0x3df9655f	0.12177538
77	0x3da91d71	0.08257569
78	0x3ec5a0f8	0.38599372
79	0x3e2fac13	0.17155485

lstm.bias_hh_l0 f4 [80]
0	0x3d578ec1	0.052626375
1	0x3e9e1882	0.30878073
2	0xbe2db470	-0.16963363
3	0xbcb33d8b	-0.021879932
4	0x3e8927d5	0.26788202
5	0x3e9e03b8	0.30862212
6	0x3caf1d64	0.02137632
7	0xbdbf0482	-0.09327032
8	0x3e80f5fa	0.25187665
9	0x3ed4f9d2	0.41596848
10	0x3e52ac72	0.20573595
11	0x3d60faa9	0.05492655
12	0x3e5d2227	0.2159506
13	0x3de8f068	0.11373979
14	0x3e6f8642	0.23391059
15	0xbce1c4e1	-0.0275597
16	0xbb85a2c4	-0.004078241
17	0xbde1113c	-0.10989615
18	0x3c1fdf9d	0.009757903
19	0xbe398d1c	-0.18120235
20	0x3d2c890e	0.042122893
21	0x3c4a73f7	0.01235675
22	0xbd3f88e3	-0.046761405
23	0x3dc5c6cc	0.09657058
24	0xbe0f69d4	-0.14005214
25	0x3e4037b1	0.18771245
26	0x3e4408e2	0.19144014
27	0xbe02945b	-0.12751906
28	0x3ea95b04	0.33077252
29	0x3e260501	0.16212846
30	0x3ec1e52a	0.3787015
31	0x3e910ee6	0.2833168
32	0x3eae2ea2	0.34019953
33	0x3e3e5b88	0.18589604
34	0xbd3c3d6e	-0.04595702
35	0xbe2fcdc9	-0.17168345
36	0x3bef878b	0.007309859
37	0x3dfa0841	0.122086056
38	0x3e56ca0c	0.20975512
39	0xbde3552e	-0.11100231
40	0x3e32b889	0.17453207
41	0xbe801fca	-0.25024253
42	0xbd4801e9	-0.048829947
43	0xbd67ce0c	-0.056592986
44	0x3dc7192a	0.097215965
45	0x3da8d97f	0.08244609
46	0xbc837c0e	-0.016050365
47	0xbd72d46c	-0.059284613
48	0xbdd9923e	-0.106235966
49	0xbde608a6	-0.11232118
50	0xbe4ca6b5	-0.19985469
51	0xbd6dd45b	-0.058063846
52	0x3e1dbd80	0.1540432
53	0xbe2d01b6	-0.16895184
54	0x3e0e71d8	0.13910615
55	0xbb65749c	-0.0035012132
56	0x3d5b0744	0.053473726
57	0x3ea2c40e	0.31790203
58	0xbe10768d	-0.14107724
59	0x3cb6e672	0.022326682
60	0x3e0be991	0.13663317
61	0x3eb3f6b4	0.35149157
62	0x3e9881e3	0.29786596
63	0x3e84d1e0	0.25941372
64	0x3d8d3ca1	0.0689633
65	0x3e6af97d	0.22946735
66	0x3ccfe521	0.025377812
67	0xbd923638	-0.07139248
68	0x3ea12dff	0.31480405
69	0xbd174386	-0.03692963
70	0x3f0a5876	0.5404123
71	0x3dced241	0.100986965
72	0x3eea789a	0.45795137
73	0x3d5d901d	0.054092515
74	0x3c3fa90d	0.01169802
75	0x3e89dc80	0.2692604
76	0x3e9b2389	0.3030055
77	0x3e7df729	0.24801315
78	0x3e789cad	0.24278517
79	0xbde28e9c	-0.11062357

lstm.weight_ih_l0_reverse f4 [80, 2]
0	0x3d396dff	0.045270916
1	0xbdc398c7	-0.09550624
2	0xbe689120	-0.22711611
3	0xbe8733e1	-0.26406768
4	0xbd5c7618	-0.05382356
5	0xbe86d44d	-0.26333848
6	0x3d3d6236	0.04623624
7	0x3e4313c8	0.19050515
8	0x3e8888c5	0.26666847
9	0xbcb6ed54	-0.022329964
10	0x3d706149	0.05868653
11	0xbc909ae8	-0.01765199
12	0xbda95fc0	-0.08270216
13	0xbd5fe5a2	-0.054662354
14	0xbd802957	-0.06257885
15	0xbd0b78e1	-0.034050826
16	0xbd06d908	-0.03292182
17	0x3c012506	0.007882362
18	0xbe375678	-0.17904079
19	0x3e6bc4c3	0.23024277
20	0x3e61bec0	0.22045422
21	0x3e08f332	0.13374022
22	0x3cc7a49d	0.024370486
23	0xbe636d27	-0.22209607
24	0xbe38a0db	-0.18030111
25	0x3d3c848f	0.046024855
26	0xbe1b7c77	-0.15184198
27	0xbe67c934	-0.22635347
28	0xbcd11725	-0.025523731
29	0x3e240c73	0.16020374
30	0x3d6e48fa	0.058175065
31	0x3df6930b	0.12039765
32	0x3d169a51	0.03676826
33	0x3d7551f0	0.059892595
34	0x3dd5872c	0.104261726
35	0xbd775fdd	-0.060394157
36	0x3df4ce73	0.119534396
37	0xbea4afb0	-0.3216529
38	0xbe845b46	-0.25850886
39	0x3d09d2b4	0.033648208
40	0xbe5bd410	-0.21467614
41	0xbdc6b940	-0.097033024
42	0xbeb89227	-0.36049005
43	0xbba5eed4	-0.005063871
44	0xbe87c27e	-0.26515573
45	0xbb64b3c5	-0.003489719
46	0x3e854ff3	0.2603756
47	0x3e4ef898	0.20212018
48	0x3e269355	0.1626714
49	0x3de51ba2	0.11186911
50	0xbe2e36d2	-0.170131
51	0x3e5feb51	0.2186711
52	0x3c936a5d	0.017995054
53	0xbe23f4dd	-0.16011377
54	0xbd147090	-0.03624016
55	0xbe3dcd74	-0.18535405
56	0x3ceaa5e2	0.028643552
57	0x3e27bfee	0.16381809
58	0x3e563f22	0.20922521
59	0x3e4c5d1d	0.19957395
60	0x3e9b20d7	0.30298492
61	0xbd69e9ce	-0.05710774
62	0xbdcd73a7	-0.100318246
63	0xbe322c48	-0.17399704
64	0xbeaaf849	-0.33392552
65	0xbe174d70	-0.14775634
66	0xbec0519d	-0.37562266
67	0x3c60e007	0.013725287
68	0xbd95251c	-0.07282469
69	0x3ddb5a92	0.10710634
70	0xbde91d4c	-0.11382541
71	0x3b2806e4	0.0025638873
72	0x3e324a82	0.17411235
73	0x3e8424de	0.25809377
74	0x3d5693ae	0.052386932
75	0xbe047ae7	-0.12937509
76	0xbdbf8b1e	-0.093527064
77	0xbea67426	-0.3251049
78	0xbe59b0e2	-0.21258882
79	0xbe605f1c	-0.21911281
80	0xbe18da1b	-0.1492695
81	0xbe616e33	-0.22014694
82	0x3e9b5054	0.30334723
83	0xbdf58544	-0.11988309
84	0xbe7c71e3	-0.2465282
85	0xbcfc9197	-0.030831141
86	0x3e87703b	0.26452813
87	0xbdd390f3	-0.10330381
88	0xbe7c1173	-0.24616031
89	0xbc06435c	-0.008194771
90	0xbd0061d4	-0.031343296
91	0x3c48f6fc	0.012265917
92	0xbe73bc09	-0.23802198
93	0xbda00c16	-0.07814805
94	0xbe8de0de	-0.27710623
95	0x3e165d39	0.14683999
96	0xbc5ceb86	-0.013483888
97	0x3e8df32d	0.2772459
98	0x3e83ba0d	0.25727883
99	0x3cf6986d	0.03010198
100	0xbe57b29b	-0.21064226
101	0xbe815b9c	-0.25265205
102	0xbdb67b50	-0.08910239
103	0xbdd42cf6	-0.10360138
104	0x3b847ce5	0.004043209
105	0x3de50a97	0.111836605
106	0x3e45356e	0.19258663
107	0x3e4fca63	0.20292048
108	0xbe830d38	-0.25596023
109	0xbcf74d7d	-0.030188316
110	0x3e0cb6fd	0.1374168
111	0x3e20b208	0.15692914
112	0x3daffc49	0.085930414
113	0x3e2f6f1d	0.1713223
114	0x3dfd0f3b	0.123564206
115	0x3ea11cfa	0.3146742
116	0xbcc89f4f	-0.024490027
117	0xbe57c3b0	-0.21070743
118	0x3d9c975e	0.076460585
119	0xbe700465	-0.23439176
120	0xbe2c7577	-0.16841684
121	0xbe4dcd45	-0.20097835
122	0xbdbd5dda	-0.092464164
123	0xbde1f643	-0.11033299
124	0xbdb548c8	-0.088517725
125	0x3cf9424d	0.030427122
126	0xbd6646d3	-0.056219887
127	0x3e42a77b	0.19009201
128	0x3ea3352e	0.3187651
129	0x3bcc4a21	0.006234423
130	0xbe94731c	-0.2899407
131	0x3d9259fb	0.07146069
132	0xbdd781ef	-0.1052283
133	0x3def791a	0.1169302
134	0xbe4c389e	-0.19943473
135	0xbe8eb20c	-0.27870214
136	0xbd7b141d	-0.06129848
137	0x3de9bcca	0.11412962
138	0x3db972a2	0.090550676
139	0x3e9240e6	0.2856514
140	0x3e3828f2	0.1798437
141	0x3e4eff6f	0.20214628
142	0xbc55c6fa	-0.013047928
143	0xbd9df7b9	-0.07713265
144	0xbaaf5ce4	-0.0013379124
145	0x3d4958f8	0.049157113
146	0xbe46b79e	-0.19405982
147	0xbe77aed6	-0.24187788
148	0xbd819429	-0.063270874
149	0xbe4bd9d7	-0.19907318
150	0x3e445827	0.19174252
151	0x3dd9e4e3	0.1063936
152	0x3d8fa778	0.07014364
153	0x3deb6a67	0.11494904
154	0x3d9a9115	0.075472035
155	0xbdb21554	-0.08695474
156	0xbe9ee39d	-0.3103303
157	0xbe554589	-0.20827307
158	0xbe1f99dd	-0.15586038
159	0xbde6ccbb	-0.11269518

lstm.weight_hh_l0_reverse f4 [80, 20]
0	0x3ee03a93	0.4379469
1	0xbe407c7f	-0.18797491
2	0x3ddf0924	0.10890415
3	0xbc1b6020	-0.009483367
4	0x3da62645	0.08112768
5	0xbd4d3b9d	-0.05010568
6	0x3e3e76b6	0.18599972
7	0x3df9805b	0.12182685
8	0xbeb74e36	-0.35801858
9	0xbe40d1da	-0.18830052
10	0xbd81f46b	-0.06345447
11	0x3e311ba5	0.17295702
12	0xbd7aa6ee	-0.061194353
13	0x3d32ac9a	0.043621637
14	0xbdbe9531	-0.093058
15	0xbe9b8fe4	-0.30383217
16	0xbe076c75	-0.13224967
17	0xbe63bc55	-0.22239812
18	0xbd1f64e5	-0.03891458
19	0x3ed28a21	0.4112101
20	0x3e816cfd	0.25278464
21	0xbcec6375	-0.028856019
22	0x3e329bec	0.17442292
23	0xbca33a3b	-0.019925227
24	0x3d86774a	0.06565721
25	0xbdb4eac1	-0.08833838
26	0xbd5e58ef	-0.054284032
27	0xbc5448b8	-0.012956791
28	0x3dde99d0	0.10869181
29	0x3df09e76	0.11748974
30	0xbdb43be6	-0.08800487
31	0xbd64bdcf	-0.055845078
32	0xbd9d643c	-0.07685134
33	0x3c4c2470	0.012459859
34	0xbab801ba	-0.00140386
35	0xbdb11cb0	-0.0864805
36	0xbc69872f	-0.014253422
37	0xbe984c14	-0.29745543
38	0x3e97e6fa	0.2966841
39	0x3e0f3671	0.13985611
40	0x3e5d77b1	0.2162769
41	0x3dcc8398	0.09986037
42	0xbb48b66f	-0.0030626317
43	0x3ed3e2a7	0.4138386
44	0xbeb346b3	-0.35014877
45	0x3e241123	0.16022162
46	0xbd1bdc2d	-0.038051773
47	0x3e477623	0.1947866
48	0x3d7d4d40	0.06184125
49	0x3ec54d86	0.38535708
50	0xbf00d449	-0.5032392
51	0x3ea761e8	0.32691884
52	0x3d1f31b2	0.038865753
53	0xbdeecb2b	-0.11659845
54	0x3e047334	0.12934572
55	0x3e75626f	0.2396333
56	0x3e73ff93	0.23827963
57	0xbd17cc55	-0.0370601
58	0x3e6eb52a	0.23311296
59	0x3c30c5d7	0.010789356
60	0xbca306de	-0.019900735
61	0xbe965beb	-0.29367003
62	0x3ea5a996	0.32355946
63	0x3da2d17f	0.079501145
64	0x3e04a588	0.1295377
65	0x3dedf9ff	0.116199486
66	0xbd75015e	-0.059815757
67	0x3d04444b	0.03229169
68	0x3e321199	0.17389525
69	0xbd47b153	-0.048753094
70	0xbe2207a0	-0.15823221
71	0xbc13ec84	-0.009028558
72	0x3d446cb4	0.04795523
73	0x3d949a31	0.07255972
74	0xbdebbb3a	-0.1151032
75	0x3dfe31c6	0.12411837
76	0xbd69a1a0	-0.057038903
77	0xbe4a5406	-0.19758615
78	0xbc439292	-0.011936801
79	0xbd9faf9b	-0.07797166
80	0x3e8d436b	0.27590498
81	0xbea3456d	-0.31888905
82	0x3db5e194	0.08880916
83	0x3e9d681c	0.30743492
84	0xbdc90552	-0.09815468
85	0xbd0b062f	-0.033941444
86	0x3e95dd4e	0.29270405
87	0x3dc20b48	0.09474808
88	0xbe1c90fb	-0.1528968
89	0x3c829e31	0.015944572
90	0x3d9e6d5a	0.07735701
91	0x3e9002f8	0.28127265
92	0xbe0d4702	-0.13796619
93	0xbe31e4dd	-0.1737246
94	0x3e53d2c4	0.2068587
95	0xbdad3590	-0.08457482
96	0x3e74b851	0.23898436
97	0x3e1d1e15	0.15343507
98	0x3e569e25	0.20958765
99	0x3d785962	0.060632117
100	0xbde2ab11	-0.110677846
101	0xbe9896dc	-0.29802597
102	0x3e19b33b	0.15009777
103	0x3d39eca6	0.0453917
104	0xbe530b49	-0.20609774
105	0x3e2a52f8	0.16633213
106	0x3e1d0bf1	0.15336587
107	0x3eaac832	0.33355862
108	0x3bca4eb4	0.006173933
109	0x3e2f5814	0.17123443
110	0xbdd61a91	-0.10454286
111	0x3edb4985	0.42829528
112	0xbdbe05ca	-0.09278448
113	0xbe90549f	-0.2818956
114	0xbae6d80a	-0.0017611992
115	0x3e35e1f8	0.17761981
116	0x3e2ec2e0	0.17066526
117	0x3e0fe189	0.14050879
118	0x3e9e5665	0.3092529
119	0x3e844215	0.25831667
120	0x3dba886a	0.0910805
121	0xbe3ff403	-0.18745427
122	0x3e8f1b23	0.2795039
123	0x3eb042d6	0.34425992
124	0xbeba1a92	-0.36348397
125	0x3d431286	0.047625087
126	0x3e9b5390	0.3033719
127	0x3e1b7999	0.15183105
128	0x3e417b3c	0.18894666
129	0x3e7b19c3	0.24521546
130	0xbec956e9	-0.3932412
131	0x3dbc59af	0.09196793
132	0xbe178336	-0.14796147
133	0x3df804ff	0.12110328
134	0x3dd5c538	0.10438007
135	0x3e0b1ad9	0.1358446
136	0x3eb0b795	0.34515062
137	0x3e2de01e	0.16980025
138	0xbc8ca693	-0.017169273
139	0x3ea4fa60	0.3222227
140	0xbdea7346	-0.11447768
141	0xbddb35b7	-0.10703605
142	0x3d981044	0.074249774
143	0x3e8f2441	0.27957347
144	0x3e394c53	0.18095522
145	0xbe3ea900	-0.18619156
146	0x3b8336d8	0.0040043406
147	0xbc3fbf1e	-0.011703281
148	0xbe139744	-0.14413172
149	0x3e2de4a9	0.16981758
150	0xbcfdd2fa	-0.03098439
151	0x3ebb056f	0.36527583
152	0x3d8c3791	0.06846536
153	0x3da20f97	0.0791313
154	0xbda1ace0	-0.078943014
155	0x3cc867c4	0.024463542
156	0xbe2e3223	-0.17011313
157	0xbe73b386	-0.23798952
158	0x3e59bff1	0.21264626
159	0x3e99c6ef	0.30034587
160	0x3e1e9a8a	0.1548864
161	0xbe77fab8	-0.24216735
162	0x3e3d2800	0.1847229
163	0x3e656025	0.22399957
164	0xbe0f9389	-0.14021124
165	0x3ebe5105	0.37171188
166	0x3d74c897	0.05976161
167	0x3e6bf355	0.23042043
168	0xbd8d68cf	-0.06904756
169	0xbe05766c	-0.13033456
170	0xbe9d5608	-0.307297
171	0x3db27dc9	0.08715398
172	0xbeebeaa7	-0.46077463
173	0xbd77ba19	-0.06048021
174	0x3e7bcf0e	0.24590704
175	0x3d2df924	0.042473927
176	0x3e85cd7f	0.26133344
177	0x3db7d44e	0.08976041
178	0x3eb725f1	0.35771134
179	0x3de15ddf	0.110042326
180	0x3e05d2f6	0.13068756
181	0xbe4762e6	-0.1947132
182	0x3e9870d2	0.29773575
183	0xbd894f4b	-0.06704577
184	0xbe2f3a99	-0.17112197
185	0x3ebb5fb2	0.36596447
186	0x3e869507	0.26285574
187	0x3e8c2ced	0.27378026
188	0x3da05244	0.07828191
189	0x3d3f0c19	0.046642397
190	0xbe0d6a78	-0.13810146
191	0x3e4478de	0.19186732
192	0xbe878781	-0.2647057
193	0xbbb57fcc	-0.005538916
194	0x3de5527d	0.11197374
195	0xbd641beb	-0.055690687
196	0x3d01ed2f	0.031720337
197	0xbe2b2a58	-0.16715372
198	0x3e5036e2	0.20333436
199	0x3e1fc4d9	0.15602435
200	0xbd97c0db	-0.07409831
201	0xbe588f2c	-0.21148366
202	0x3df1f24e	0.11813794
203	0x3ce175c5	0.027521977
204	0x3e04489f	0.12918328
205	0x3d87d85f	0.066330664
206	0x3e1aefda	0.15130559
207	0x3e50d43e	0.20393464
208	0x3dd436fe	0.103620514
209	0x3e506959	0.20352687
210	0xbe0d5dfe	-0.13805386
211	0xbbe70542	-0.0070501873
212	0x3d0855d9	0.033284996
213	0xbe3f759b	-0.18697207
214	0xbd219068	-0.039444357
215	0xbcdb202b	-0.026748737
216	0xbe107278	-0.14106166
217	0xbcf06349	-0.029344218
218	0x3dea392a	0.114366844
219	0x3dfcf889	0.12352092
220	0x3e7f67c6	0.2494193
221	0x3e26d60f	0.16292594
222	0x3e1624f7	0.14662538
223	0x3e132466	0.14369354
224	0xbddd8c28	-0.10817748
225	0x3e028f99	0.1275009
226	0xbdfec42e	-0.12439762
227	0xbc7c2666	-0.015390014
228	0xbecc4df1	-0.39903215
229	0x3dd7728d	0.10519896
230	0xbdfe2d45	-0.12410978
231	0x3e277c38	0.1635598
232	0x3dd38cae	0.10329567
233	0xbdbdd1db	-0.092685424
234	0x3d0d7fd4	0.034545735
235	0xbe58d87b	-0.21176331
236	0xbe5f6c4e	-0.21818659
237	0xbe7bd9b0	-0.2459476
238	0x3e3bdcf2	0.18346003
239	0x3dd67d02	0.10473062
240	0x3e6d1f5d	0.23156495
241	0xbe8e9d44	-0.2785436
242	0x3eae112c	0.33997476
243	0xbd39f5a2	-0.04540027
244	0x3dd913af	0.105994575
245	0x3d813ae1	0.063100584
246	0x3ed7a4bf	0.4211788
247	0x3e380e1a	0.1797413
248	0xbd857a33	-0.06517448
249	0xbdae6411	-0.0851518
250	0xbd92fae7	-0.07176762
251	0x3ea463c2	0.3210736
252	0x3e335f9e	0.17516944
253	0xbe183fc6	-0.14868078
254	0x3e014b91	0.12626483
255	0xbcb12670	-0.021624774

lstm.bias_ih_l0_reverse f4 [80]
0	0xbdb843b5	-0.08997289
1	0x3c88f0f9	0.016716467
2	0x3a841018	0.0010075597
3	0xbde8bedc	-0.113645285
4	0x3dad3247	0.08456855
5	0x3cb2f8a7	0.021847082
6	0x3da61217	0.08108919
7	0xbe0ee26a	-0.13953558
8	0x3ea8fcdb	0.33005413
9	0x3deafb71	0.1147374
10	0x3dbb0861	0.091324575
11	0x3de7bc48	0.11315209
12	0xbde015b8	-0.109416425
13	0x3e836108	0.25659966
14	0x3e7f125f	0.24909352
15	0x3cc81072	0.024421904
16	0x3e86d62f	0.26335284
17	0x3d03bf68	0.03216496
18	0xbbaa4c64	-0.0051970948
19	0x3e6678d5	0.22507031
20	0x3e377e05	0.17919166
21	0x3dc609c4	0.096698314
22	0x3cf79962	0.030224506
23	0x3bb1a50a	0.0054212855
24	0xbdf105c9	-0.117686816
25	0x3e374f51	0.1790135
26	0xbd73850d	-0.05945306
27	0x3d651472	0.0559277
28	0x3d8732f0	0.066015124
29	0xbd14cf70	-0.03633064
30	0xbd23774a	-0.039908685
31	0xbe596aea	-0.2123219
32	0x3d2dac75	0.042400796
33	0xbd127d89	-0.03576425
34	0x3eb0fe61	0.34569076
35	0xbc1f90b4	-0.00973909
36	0x3e562b91	0.20915057
37	0x3e9f5442	0.3111897
38	0x3d06f5c3	0.03294922
39	0x3c45efbb	0.012081082
40	0x3de4d070	0.11172569
41	0xbd69c4d8	-0.05707249
42	0xbdf821b2	-0.12115802
43	0xbdc8871f	-0.09791397
44	0xbd37bb62	-0.044856437
45	0x3e934b1c	0.2876824
46	0x3dcd7d84	0.10033706
47	0x3cfdb1e5	0.030968616
48	0x3d85edd1	0.065395005
49	0xbdc2949c	-0.09501001
50	0xbe11acee	-0.14226124
51	0xbb94370c	-0.0045231637
52	0xbe588a10	-0.21146417
53	0xbdc6abd5	-0.09700743
54	0x3c4cdcbb	0.012503798
55	0x3bfa2b08	0.0076345243
56	0xbe26eaa7	-0.1630045
57	0xbced879d	-0.02899533
58	0x3cdf100b	0.02722933
59	0x3bc8710a	0.006116991
60	0x3d350cef	0.044201788
61	0x3dae73e2	0.08518197
62	0x3e994b0c	0.2994007
63	0x3e0b792a	0.13620439
64	0x3eb740c7	0.3579161
65	0x3da43409	0.080177374
66	0x3e9f0cf0	0.31064558
67	0x3e976100	0.29566193
68	0x3e2302d1	0.15919043
69	0x3d34a852	0.044105835
70	0xbd98029b	-0.07422372
71	0xbe29303c	-0.16522306
72	0x3b741535	0.0037244086
73	0xbd3626a1	-0.044470433
74	0x3eca81ac	0.39552057
75	0x3d4a7ad8	0.04943356
76	0x3eacb1d7	0.3372943
77	0x3e022154	0.12708026
78	0x3e3aabbd	0.18229575
79	0x3e33f3ae	0.17573425

lstm.bias_hh_l0_reverse f4 [80]
0	0xbe0bd508	-0.13655484
1	0x3da77675	0.08176891
2	0x3e00880f	0.12551902
3	0x3e95a5f2	0.2922817
4	0xbb0d07ab	-0.0021519463
5	0x3e941466	0.28921813
6	0x3ddbba23	0.10728862
7	0xbcd0c954	-0.025486626
8	0x3de68498	0.11255759
9	0xbdf1ce11	-0.11806882
10	0xbda8db49	-0.0824495
11	0xbe284edb	-0.16436331
12	0x3d980cd5	0.074243225
13	0x3e8aa61e	0.27079862
14	0x3dc62811	0.09675611
15	0xbdd24cb6	-0.10268538
16	0x3e858d5d	0.26084414
17	0x3e8c3144	0.27381337
18	0x3e13b454	0.14424258
19	0xbd4d9fd3	-0.05020125
20	0x3e0e50be	0.13897988
21	0x3e0e1334	0.13874513
22	0x3e494412	0.19654873
23	0x3e94dbe8	0.29074025
24	0xbd0fe228	-0.03512779
25	0x3e2301b4	0.15918618
26	0x3e1b259f	0.1515107
27	0xbd9201f1	-0.071292765
28	0xbc11ca20	-0.008898288
29	0xbd2ec6e2	-0.04267014
30	0x3b6ef6ea	0.003646309
31	0xbddcc2da	-0.107793525
32	0x3e15c9a0	0.14627695
33	0x3e7a8205	0.24463661
34	0xbc51b7a3	-0.01280013
35	0x3e22334c	0.1583988
36	0x3cb63a3c	0.022244565
37	0x3e33d2dd	0.17560907
38	0x3c1f5311	0.009724394
39	0x3e0aa713	0.13540296
40	0x3c50c410	0.012742057
41	0xbb86e1ac	-0.0041162577
42	0xbde4dc5e	-0.11174844
43	0xbbe52299	-0.0069926498
44	0xbda3d845	-0.080002345
45	0x3cb3d7e1	0.021953525
46	0xbdf1c370	-0.11804855
47	0xbbed7b5e	-0.0072473725
48	0x3e0f26e6	0.13979682
49	0x3d1eb5a9	0.038747463
50	0xbd949d06	-0.07256512
51	0xbde0d9b8	-0.109790266
52	0xbeab876d	-0.3350176
53	0xbe6cfa86	-0.23142442
54	0x3dad465f	0.08460688
55	0x3d3b516a	0.04573194
56	0xbbb45b83	-0.005504073
57	0x3d4319dc	0.047632083
58	0x3d35e81d	0.044410814
59	0xbe3dfb0f	-0.18552803
60	0x3db97125	0.09054784
61	0x3eb82338	0.3596437
62	0x3d120f3d	0.035659064
63	0x3e9141bb	0.2837046
64	0x3dc9b91a	0.098497584
65	0x3e4ac344	0.1980105
66	0xbd3db56a	-0.046315588
67	0xbdc7a74e	-0.09748708
68	0x3e5d8b36	0.21635136
69	0x3e21ebb7	0.15812574
70	0x3e33ee55	0.17571385
71	0xbe3c9ebd	-0.18419929
72	0x3d7ea9c2	0.062173612
73	0x3e5908c6	0.21194753
74	0x3eabc61c	0.33549583
75	0x3dcd3202	0.10019304
76	0x3dcf1af1	0.101125605
77	0x3eaa9c4e	0.33322376
78	0x3e55129d	0.20807882
79	0x3e9d558e	0.30729336
