models/200-seed-100-interptwin/best-nsc.pth.pth (torch, 349911 bytes, 20 tensors)

B f4 [400, 200]
00000000: 17b7 d138 17b7 d138 17b7 d138 17b7 d138
00000010: 17b7 d138 17b7 d138 17b7 d138 17b7 d138
00000020: 17b7 d138 17b7 d138 17b7 d138 17b7 d138
00000030: 17b7 d138 17b7 d138 17b7 d138 17b7 d138
00000040: 17b7 d138 17b7 d138 17b7 d138 17b7 d138
00000050: 17b7 d138 17b7 d138 17b7 d138 17b7 d138
00000060: 17b7 d138 17b7 d138 17b7 d138 17b7 d138
00000070: 17b7 d138 17b7 d138 17b7 d138 17b7 d138
00000080: 17b7 d138 17b7 d138 17b7 d138 17b7 d138
00000090: 17b7 d138 17b7 d138 17b7 d138 17b7 d138
000000a0: 17b7 d138 17b7 d138 17b7 d138 17b7 d138
000000b0: 17b7 d138 17b7 d138 17b7 d138 17b7 d138
000000c0: 17b7 d138 17b7 d138 17b7 d138 17b7 d138
000000d0: 17b7 d138 17b7 d138 17b7 d138 17b7 d138
000000e0: 17b7 d138 17b7 d138 17b7 d138 17b7 d138
000000f0: 17b7 d138 17b7 d138 17b7 d138 17b7 d138
00000100: 17b7 d138 17b7 d138 17b7 d138 17b7 d138
00000110: 17b7 d138 17b7 d138 17b7 d138 17b7 d138
00000120: 17b7 d138 17b7 d138 17b7 d138 17b7 d138
00000130: 17b7 d138 17b7 d138 17b7 d138 17b7 d138
00000140: 17b7 d138 17b7 d138 17b7 d138 17b7 d138
00000150: 17b7 d138 17b7 d138 17b7 d138 17b7 d138
00000160: 17b7 d138 17b7 d138 17b7 d138 17b7 d138
00000170: 17b7 d138 17b7 d138 17b7 d138 17b7 d138
00000180: 17b7 d138 17b7 d138 17b7 d138 17b7 d138
00000190: 17b7 d138 17b7 d138 17b7 d138 17b7 d138
000001a0: 17b7 d138 17b7 d138 17b7 d138 17b7 d138
000001b0: 17b7 d138 17b7 d138 17b7 d138 17b7 d138
000001c0: 17b7 d138 17b7 d138 17b7 d138 17b7 d138
000001d0: 17b7 d138 17b7 d138 17b7 d138 17b7 d138
000001e0: 17b7 d138 17b7 d138 17b7 d138 17b7 d138
000001f0: 17b7 d138 17b7 d138 17b7 d138 17b7 d138
00000200: 17b7 d138 17b7 d138 17b7 d138 17b7 d138
00000210: 17b7 d138 17b7 d138 17b7 d138 17b7 d138
00000220: 17b7 d138 17b7 d138 17b7 d138 17b7 d138
00000230: 17b7 d138 17b7 d138 17b7 d138 17b7 d138
00000240: 17b7 d138 17b7 d138 17b7 d138 17b7 d138
00000250: 17b7 d138 17b7 d138 17b7 d138 17b7 d138
00000260: 17b7 d138 17b7 d138 17b7 d138 17b7 d138
00000270: 17b7 d138 17b7 d138 17b7 d138 17b7 d138
00000280: 17b7 d138 17b7 d138 17b7 d138 17b7 d138
00000290: 17b7 d138 17b7 d138 17b7 d138 17b7 d138
000002a0: 17b7 d138 17b7 d138 17b7 d138 17b7 d138
000002b0: 17b7 d138 17b7 d138 17b7 d138 17b7 d138
000002c0: 17b7 d138 17b7 d138 17b7 d138 17b7 d138
000002d0: 17b7 d138 17b7 d138 17b7 d138 17b7 d138
000002e0: 17b7 d138 17b7 d138 17b7 d138 17b7 d138
000002f0: 17b7 d138 17b7 d138 17b7 d138 17b7 d138
00000300: 17b7 d138 17b7 d138 17b7 d138 17b7 d138
00000310: 17b7 d138 17b7 d138 17b7 d138 17b7 d138
00000320: 17b7 d138 17b7 d138 17b7 d138 17b7 d138
00000330: 17b7 d138 17b7 d138 17b7 d138 17b7 d138
00000340: 17b7 d138 17b7 d138 17b7 d138 17b7 d138
00000350: 17b7 d138 17b7 d138 17b7 d138 17b7 d138
00000360: 17b7 d138 17b7 d138 17b7 d138 17b7 d138
00000370: 17b7 d138 17b7 d138 17b7 d138 17b7 d138
00000380: 17b7 d138 17b7 d138 17b7 d138 17b7 d138
00000390: 17b7 d138 17b7 d138 17b7 d138 17b7 d138
000003a0: 17b7 d138 17b7 d138 17b7 d138 17b7 d138
000003b0: 17b7 d138 17b7 d138 17b7 d138 17b7 d138
000003c0: 17b7 d138 17b7 d138 17b7 d138 17b7 d138
000003d0: 17b7 d138 17b7 d138 17b7 d138 17b7 d138
000003e0: 17b7 d138 17b7 d138 17b7 d138 17b7 d138
000003f0: 17b7 d138 17b7 d138 17b7 d138 17b7 d138
1e-04 1e-04 1e-04 1e-04 1e-04 1e-04 1e-04 1e-04
1e-04 1e-04 1e-04 1e-04 1e-04 1e-04 1e-04 1e-04
1e-04 1e-04 1e-04 1e-04 1e-04 1e-04 1e-04 1e-04
1e-04 1e-04 1e-04 1e-04 1e-04 1e-04 1e-04 1e-04
1e-04 1e-04 1e-04 1e-04 1e-04 1e-04 1e-04 1e-04
1e-04 1e-04 1e-04 1e-04 1e-04 1e-04 1e-04 1e-04
1e-04 1e-04 1e-04 1e-04 1e-04 1e-04 1e-04 1e-04
1e-04 1e-04 1e-04 1e-04 1e-04 1e-04 1e-04 1e-04
1e-04 1e-04 1e-04 1e-04 1e-04 1e-04 1e-04 1e-04
1e-04 1e-04 1e-04 1e-04 1e-04 1e-04 1e-04 1e-04
1e-04 1e-04 1e-04 1e-04 1e-04 1e-04 1e-04 1e-04
1e-04 1e-04 1e-04 1e-04 1e-04 1e-04 1e-04 1e-04
1e-04 1e-04 1e-04 1e-04 1e-04 1e-04 1e-04 1e-04
1e-04 1e-04 1e-04 1e-04 1e-04 1e-04 1e-04 1e-04
1e-04 1e-04 1e-04 1e-04 1e-04 1e-04 1e-04 1e-04
1e-04 1e-04 1e-04 1e-04 1e-04 1e-04 1e-04 1e-04
1e-04 1e-04 1e-04 1e-04 1e-04 1e-04 1e-04 1e-04
1e-04 1e-04 1e-04 1e-04 1e-04 1e-04 1e-04 1e-04
1e-04 1e-04 1e-04 1e-04 1e-04 1e-04 1e-04 1e-04
1e-04 1e-04 1e-04 1e-04 1e-04 1e-04 1e-04 1e-04
1e-04 1e-04 1e-04 1e-04 1e-04 1e-04 1e-04 1e-04
1e-04 1e-04 1e-04 1e-04 1e-04 1e-04 1e-04 1e-04
1e-04 1e-04 1e-04 1e-04 1e-04 1e-04 1e-04 1e-04
1e-04 1e-04 1e-04 1e-04 1e-04 1e-04 1e-04 1e-04
1e-04 1e-04 1e-04 1e-04 1e-04 1e-04 1e-04 1e-04
1e-04 1e-04 1e-04 1e-04 1e-04 1e-04 1e-04 1e-04
1e-04 1e-04 1e-04 1e-04 1e-04 1e-04 1e-04 1e-04
1e-04 1e-04 1e-04 1e-04 1e-04 1e-04 1e-04 1e-04
1e-04 1e-04 1e-04 1e-04 1e-04 1e-04 1e-04 1e-04
1e-04 1e-04 1e-04 1e-04 1e-04 1e-04 1e-04 1e-04
1e-04 1e-04 1e-04 1e-04 1e-04 1e-04 1e-04 1e-04
1e-04 1e-04 1e-04 1e-04 1e-04 1e-04 1e-04 1e-04

encoder.attn_v f4 [20]
00000000: 95da cf3e 743d d63f 6c23 d13f 1c67 cb3e
00000010: e3c1 bf3e 274b b83e eb7d d13e d647 ce3e
00000020: 9376 b33e b670 a83e 0357 d53e 9d6e c23f
00000030: 0567 d93e 5ab7 ce3f 7b8c d63f f6f4 cf3f
00000040: 33c4 cc3f f99c ce3f 63bb cf3e 86c4 d63f
0.40596452 1.6737504 1.6338935 0.39727104 0.3745261 0.35994837 0.4091638 0.4028918
0.35051402 0.32898492 0.41667947 1.5190006 0.4246141 1.6149704 1.6761621 1.6246631
1.5997375 1.6141654 0.40572652 1.6778724

encoder.lstm.weight_ih_l0 f4 [40, 10]
00000000: 2d5b 72bb 42e8 da3e fcb0 9f3d 0ed2 683e
00000010: 65c5 b33e b9b6 be3e 6576 ca3d 0a5d 9abd
00000020: f4dd 2f3d a769 e5ba d0f8 c3bd 9dd5 9c3e
00000030: ffa4 8d3e da70 b23e b37e d73d 6c57 ca3e
00000040: 1e66 f83e fefe a23e 9fdb 47bc 26a6 fe3c
00000050: b74e 5bbd d86b b73e d0c6 403e dbcf e63e
00000060: d0f0 f33d cb6b de3e 5fa0 9e3e 144c 153e
00000070: 08ac aabb 1f98 8d3e 5c65 8c3e 3960 cb3d
00000080: d2c2 e43e c223 5e3e 4ac5 23bd defa a33d
00000090: cec6 0d3f aba9 c13e b7da 403d 21e6 013f
000000a0: 35b5 6b3e 45ef 55bd 06d9 a33e 380d 113e
000000b0: da62 f73d 1bf4 843e 4474 76bd f613 6c3e
000000c0: 1739 f33e a770 973e 8a06 463e 2edb bb3e
000000d0: 4c80 463e c38e 043e 5d66 9a3e b84d 853e
000000e0: fddb ad3e 5581 0b3e 2d84 f83e 0464 df3e
000000f0: 5cb0 333e 1a62 d33e 3e35 b13e d7ba 113f
00000100: f928 0f3f 044c ed3e c194 f43e 9310 bc3e
00000110: 1a91 4a3e 54a3 023e 4ac3 033f e093 bf3e
00000120: 4c2a a93a 1174 b13e 62a9 133e f43c 49bd
00000130: d99b 083f 6a87 883e 1d3b b53e b063 753e
00000140: 85cc 20bc 4cba 083f a986 1b3e c8d7 6fbd
00000150: 8101 0b3f 8dad f23d bf6e ae3d 371b 013f
00000160: 0fce d73e 3f92 193d 1910 383e b454 5a3d
00000170: 060e f03e bd13 66bd 7931 193d 0777 e53d
00000180: a49e c63c 9720 003f d60d 7a3d 177b 203e
00000190: 78b9 5b3e 0a92 d03d 5fce 273e 1352 ca3d
000001a0: 38bb 11be e4d3 d33e d255 f43c d70c 6e3e
000001b0: 7e82 b63e 22f7 7f3e b4fc 13be e2bd db3d
000001c0: 7b2a 2d3e b1fa 853e c986 ab3e 57bc bf3e
000001d0: dd4b d53d ebe4 c93e 8626 3a3d a124 30bd
000001e0: 21b6 473d 48aa ea3e 542f a43e 4191 883e
000001f0: b3fa 443c 11e8 c3bb c4fe 263e ce92 513e
00000200: a460 e9bd 28ec d13e c64c 2abc 154c 003d
00000210: be5d 85bd 424a 2a3e 2e3a 58bc b535 d73e
00000220: a330 dd3e f356 443e 4376 773c d04a d23e
00000230: 0d79 aa3e 8f66 d43e cf63 08be 33f8 c83d
00000240: dced 9b3d 4158 223d 5b06 a63d 5716 173e
00000250: bacd d83e a523 50be 4a8d c8bd 1929 233e
00000260: d44a 7fbc d9e4 0e3e eb66 7dbd de24 06be
00000270: 825f 543e 2f6f 943d 6f70 863e d218 aa3e
00000280: 2f4c 4fbc 2ead a13e 3475 7d3e d349 923d
00000290: 147b 3fbd 483f f43c fe32 ed3e bec8 cbbc
000002a0: 6774 9abd 617b 54bd a2b1 ba3e 36cf 5f3e
000002b0: 5eb6 b2bd e59b d63e b3d7 0cbe 1ebb 4bbe
000002c0: ce29 f1bd b0bb 903e f850 49bc 6d93 b6bc
000002d0: 1c55 993d 6858 60bc 3089 f13e 9c71 2d3e
000002e0: ad3f b13d 1a8b ef3e 12b5 f1bd 9173 503d
000002f0: b2df f43e 6dc8 7abd dcdf 9c3e f2ac adbc
00000300: 4cf6 8dbd 9085 943d 8c06 40bd 9a4d c63d
00000310: 7b12 ab3c 3179 613d d5b4 c53d db58 583d
00000320: 28db bbbe d57d 5dbe 0c08 2abe 1e5b 94be
00000330: 3fc9 babe 6e3e 0e3d db5f e7be 497f 383d
00000340: da6f 0ebe a60b 99be 09bb 15be e285 3f3e
00000350: 191c 0abe d1dd a63e 4372 003e df74 19be
00000360: 3d00 db3e 4ef4 353e f1ea 703e ccb9 e43d
00000370: 1367 c33e cea0 34bd 9721 e4bd d4eb 933e
00000380: 9ee6 693d a6fb 233e 59b3 0bbe 2755 763e
00000390: 199a 4abe 8ca1 a93d ff1c a1be ff8c f2be
000003a0: af0f d2bd 8841 8abe f800 09be 921b e9be
000003b0: 22d3 913d b988 fabe a876 bcbe c662 c5be
000003c0: c36a cebe 73bf 8cbd 64b4 87be abe8 bcbc
000003d0: 81de 71bd 2d19 093e cb6e 73be 3b4a 7bbe
000003e0: 58f5 ddbe 91b3 42be 9ce7 1b3e 8e8a b9be
000003f0: 49b4 c4be 5a1e e53c 49d2 f2bc 448d a63d
-0.0036980615 0.42755324 0.07797429 0.2273638 0.35111538 0.3724878 0.09885863 -0.07537277
0.04293628 -0.00175028 -0.095689416 0.30631724 0.27664945 0.34851724 0.10522213 0.39519823
0.4851541 0.3183517 -0.012198358 0.031085085 -0.053541865 0.35824466 0.18825841 0.45080456
0.11911166 0.43441615 0.30981728 0.14579803 -0.005208496 0.27655122 0.2742108 0.099304624
0.44679886 0.21693328 -0.03998307 0.080068335 0.55381477 0.3782476 0.047083583 0.50741774
0.23018344 -0.05223014 0.32001513 0.14165199 0.12079401 0.25967488 -0.060169473 0.2305449
0.47504494 0.29578134 0.19338432 0.36690658 0.19384879 0.12945084 0.30156222 0.26035857
0.339569 0.13623555 0.48538342 0.43630993 0.17547745 0.41285783 0.34610933 0.5692572
0.55921894 0.46347058 0.4776974 0.36731395 0.19781914 0.12757617 0.5146986 0.37417507
0.0012906282 0.34658864 0.14420083 -0.049130395 0.53362805 0.26665813 0.35396662 0.23963809
-0.009814386 0.53409266 0.15188088 -0.058555394 0.5429917 0.118495084 0.08517217 0.5043215
0.42149398 0.037492987 0.17974891 0.053303435 0.468857 -0.056171168 0.037400696 0.11204343
0.024245568 0.5004973 0.06104835 0.15671955 0.2145747 0.10184105 0.16387318 0.09878936
-0.14231575 0.41372597 0.029826079 0.23247086 0.35646433 0.24996617 -0.14451867 0.10729577
0.16910736 0.26167825 0.3350127 0.3744838 0.104148604 0.39432463 0.045446895 -0.043003682
0.048757676 0.4583304 0.32067358 0.2667332 0.012022662 -0.005978592 0.16308123 0.20466158
-0.11395386 0.41000485 -0.010394281 0.031322557 -0.065120205 0.1662989 -0.013197465 0.42033163
0.4320117 0.19173793 0.015103879 0.41072702 0.3329548 0.41484496 -0.13319324 0.09812965
0.076137275 0.039634947 0.08106681 0.14754616 0.42344457 -0.20326097 -0.09792574 0.15933646
-0.015581805 0.13954486 -0.06186573 -0.13100001 0.20739558 0.07247769 0.26257655 0.3322206
-0.012652441 0.31577438 0.2475174 0.07142987 -0.046748236 0.029815331 0.46327966 -0.024875995
-0.07541733 -0.051875476 0.36463648 0.21856388 -0.0872619 0.41915813 -0.13754158 -0.19895598
-0.11775552 0.28268194 -0.012287371 -0.022287095 0.074869365 -0.013692953 0.47174978 0.1693787
0.08654723 0.46785814 -0.118021145 0.050891463 0.47826916 -0.061226297 0.3063954 -0.02120063
-0.06931743 0.072520375 -0.046881244 0.0968277 0.020882836 0.055047218 0.096536316 0.052819114
-0.3669064 -0.21630032 -0.16604632 -0.28975767 -0.36481664 0.034727506 -0.4519032 0.045043264
-0.13909855 -0.298917 -0.1462213 0.18703416 -0.13487281 0.32591107 0.12543587 -0.14985989
0.4277362 0.17768976 0.23527123 0.111682504 0.38164577 -0.044098668 -0.11139219 0.2889086
0.0571047 0.16013965 -0.13642634 0.2405592 -0.19785346 0.08282766 -0.31467435 -0.47373196
-0.10256898 -0.2700312 -0.13379276 -0.45528847 0.071203485 -0.48932436 -0.36809278 -0.3855192
-0.40315828 -0.068724535 -0.26504815 -0.023060163 -0.059050087 0.1338851 -0.23772733 -0.24540035
-0.43351245 -0.19013812 0.1522507 -0.3623852 -0.38418797 0.027968574 -0.029641287 0.08132413

encoder.lstm.weight_hh_l0 f4 [40, 10]
00000000: bb6f 9cbd 944f 113e ff8b c6bd eb1b adbe
00000010: e8eb c5bb 995a 49be 5092 9bbd d7e4 083e
00000020: 6fa3 40bd 87b9 c5bd d524 e4bd 07fd 683e
00000030: ab79 95bc 19e4 9ebe 51a1 3f3d caac 8bbe
00000040: 747a eabe 1156 53be 97ad 1cbf ce77 0bbf
00000050: 0135 ddbd aee6 773d 3403 3d3e 7ea9 f3be
00000060: 48bb 89be 3596 8dbd fc3b 36be 9976 32be
00000070: 4c55 b1be a693 fabe 81dd 3ebe 0043 613e
00000080: 6201 b93e e4ae eebe fede 433d 8cc9 8b3d
00000090: a0e9 ecbe 4be1 fbbc 81ff 0bbe 7f2b e2bd
000000a0: 532c 88be f625 9d3e cb08 b73e f461 c8be
000000b0: 794f d9be 0ecd 99be 6947 a1bd b4a8 03bd
000000c0: d34d 17bc 7034 88be cc10 86be 72ee b5bd
000000d0: b231 823c ea14 5bbc 9728 f3be f8d4 94be
000000e0: 265d b8be 85e3 f0be 57d5 58be aa8f 45be
000000f0: 9bc9 0ebf e475 9cbd f994 b73d cc8f 40be
00000100: 99e5 7fbe 2843 fb3d 77b8 abbe 7fd2 a8be
00000110: 987e 6bbe 586a aabd b039 b6be edb1 143e
00000120: 78f6 9fbd 8bf9 52be c345 8d3d ed0f 27bd
00000130: 1b27 1fbe b579 9fbd f539 90be a9b2 8cbe
00000140: 58c4 b2be b8e3 ad3e 8b72 8a3e fcab 7c3d
00000150: ee17 a4be ab3d babe 1df2 e1bc bc43 053d
00000160: f084 90be c931 edbe 40b9 1bbe f734 783d
00000170: dee0 233b d22c bdbe bed4 92bc 81fb 063d
00000180: 9668 d7be cd13 bebe 1b4d b1be 07d3 d3ba
00000190: 39da 6d3c 2a54 ca3e 95cc 17bd 12d0 d73d
000001a0: 1e9e a9be 317e bb3d 766c 5abe f6f1 ee3d
000001b0: 9e8e 79be 49f4 28be 9a79 18bf 9f51 0ebe
000001c0: 984f 673e 597c 5cbe 795e 46be 3079 a7bd
000001d0: e615 dbbc b08e c6bd 7f79 27be e95c 66be
000001e0: a4d4 8abd 1a54 623d 7bf4 b53e 3946 8abe
000001f0: 142d 04be aa64 4d3d c514 9dbb 6a97 b6be
00000200: 83a1 423d a534 a0be 76ce 9cbe cad6 bd3e
00000210: e6d2 d03e 78fa a0be 8158 96be dc20 87be
00000220: 5320 d3be 0963 7dbd 134e 36bc b338 72bd
00000230: a44e acbe 67d6 bb3e 9686 5a3e 7493 fb3d
00000240: f620 8cbe 89db c7be 0c98 f7be db16 7abe
00000250: 34d0 9a3c ad10 79be 3ec5 c3be 3379 7ebb
00000260: dffb 7a3b f25e 87be a7c6 ce3d 2055 163d
00000270: 8e97 e0be 4a7b 36be 1dd5 abbd dbf6 86be
00000280: 9b10 26bf f0d9 fa3e 74cd 2bbd d015 79be
00000290: e2ea 4f3c f407 96be 95ae 773d aad0 f1be
000002a0: 2cc8 f9be 46d1 0fbf 6533 05be b6c6 323e
000002b0: f5e3 d93e 3685 8dbe 7138 cebe f22d 903d
000002c0: 551f 00be c4d9 8dbe 7a04 8bbe 4a51 83bd
000002d0: 5244 70be f7ff 67bd 8258 953e 8889 01bf
000002e0: fae9 04be 30ac 703d e595 9a3d 0c2d bebc
000002f0: 089c ab3c 069c dbbe a636 13bf b038 ba3d
00000300: 05aa 643e 6db3 edbd 6eae 823d bc5d 0bbe
00000310: 9ef6 5b3d 0c75 41bd 15f7 16bf 19e9 0fbe
00000320: cca1 203e 17eb 30be e601 cfbe b012 c7bd
00000330: dcb8 463e 9730 adbd 3fc8 b63e f2f9 bb3d
00000340: c60d c23e ab4c d73c 82c3 10bc 16ac e63d
00000350: a9ee 1eba a875 6fbd 39dd 71be d361 97bc
00000360: 3480 cdbe 5f8d 1ebe 9fdf afbe 31d4 ae3d
00000370: 4423 7dbd be30 51bd 56ee c03e e7af 8cbe
00000380: 8674 9f3d 123a a0be 2984 dcbe b09a 90bd
00000390: 8071 0a3d eddb a0be 9579 13be 5318 d2bd
000003a0: cfd0 d5be 80e8 093e 874f ecbc b0fa fa3d
000003b0: 3c66 8c3b a3fc d43e 1671 9c3e 54e7 423d
000003c0: 3884 8e3d b377 f5bc 9101 84be e858 12bc
000003d0: 33e2 953e 4a7d 38be cdd7 b5ba 810c 973e
000003e0: d937 85bc a26c 473e a3d4 bd3e ad41 92be
000003f0: 779b ebbb 6746 853e 6198 ea3d efe7 a83e
-0.076384984 0.14190513 -0.09694671 -0.33810362 -0.006040085 -0.19663467 -0.07596266 0.13368545
-0.047030862 -0.09654527 -0.11139838 0.22752772 -0.018246492 -0.310334 0.046784703 -0.27280265
-0.4579655 -0.206383 -0.6120238 -0.5447968 -0.10801125 0.060522728 0.18458253 -0.4759025
-0.26900697 -0.06913415 -0.1779632 -0.17428054 -0.3463539 -0.48940772 -0.18639185 0.21998215
0.36133868 -0.46617806 0.047820084 0.068255514 -0.46271992 -0.030747076 -0.13671686 -0.110434525
-0.26596317 0.30693024 0.35748896 -0.39137232 -0.42443445 -0.30039257 -0.078749485 -0.03214331
-0.009234863 -0.26602507 -0.2618469 -0.088833705 0.015892837 -0.0133716855 -0.47491905 -0.29068732
-0.36008567 -0.47048584 -0.21175133 -0.19293085 -0.55776376 -0.07639673 0.08963961 -0.18804854
-0.24989928 0.122686684 -0.33539173 -0.32973096 -0.2299751 -0.08321065 -0.35590887 0.14520998
-0.07810682 -0.20603006 0.068980716 -0.040786672 -0.15542261 -0.07786886 -0.28169218 -0.27480057
-0.34915423 0.33962798 0.27040514 0.061687455 -0.32049507 -0.36375174 -0.027581269 0.0325353
-0.28226423 -0.46327046 -0.15207386 0.060597386 0.0025005857 -0.36948258 -0.017923709 0.032954697
-0.4207198 -0.37124482 -0.3462914 -0.0016160914 0.01451736 0.39517337 -0.03706034 0.10537733
-0.33128446 0.091549285 -0.21330437 0.11667244 -0.2437081 -0.16499437 -0.5956055 -0.13898323
0.22588956 -0.2153181 -0.19371976 -0.081774116 -0.02674384 -0.09695184 -0.16354941 -0.2249638
-0.06778839 0.055255987 0.35538086 -0.270067 -0.12907821 0.05014483 -0.0047937357 -0.35662395
0.04751731 -0.31290165 -0.30626267 0.37077934 0.40785903 -0.31441092 -0.29364398 -0.26392257
-0.412356 -0.061862025 -0.011127013 -0.059136104 -0.33653748 0.36687014 0.21340403 0.12283984
-0.27368897 -0.3903468 -0.4835819 -0.24422781 0.018898107 -0.24322768 -0.3823642 -0.0038829565
0.00382971 -0.26439625 0.10096484 0.036702275 -0.43865627 -0.17820469 -0.083902575 -0.2636021
-0.6486909 0.48994398 -0.041943982 -0.24324727 0.012690278 -0.29302943 0.06046923 -0.4722951
-0.48785532 -0.561787 -0.13007887 0.17458615 0.4255673 -0.27640694 -0.40277436 0.070400134
-0.12511952 -0.27705204 -0.27151853 -0.06411989 -0.23463562 -0.05664059 0.2916909 -0.5060048
-0.1297988 0.05875796 0.07548121 -0.02321484 0.020948425 -0.42892474 -0.5750526 0.090928435
0.22330482 -0.116064884 0.06380926 -0.13609976 0.05370199 -0.047230765 -0.5897077 -0.14053763
0.1568672 -0.1727718 -0.40431136 -0.09720361 0.19406456 -0.084565334 0.3569965 0.09178533
0.37901133 0.026281675 -0.008835675 0.112632915 -0.0006062785 -0.058461815 -0.23619546 -0.018479263
-0.40136874 -0.15483616 -0.34350297 0.08536566 -0.06180121 -0.051071875 0.37681836 -0.27477953
0.07785897 -0.31294304 -0.4306958 -0.07060754 0.03379965 -0.3141779 -0.14401849 -0.10258546
-0.4176087 0.13467598 -0.028846515 0.12254846 0.004284648 0.41598997 0.30555028 0.047583893
0.069588125 -0.029964304 -0.25782445 -0.00893233 0.2927414 -0.18016544 -0.0013873518 0.29501727
-0.016261982 0.19475034 0.3707629 -0.28565732 -0.0071901637 0.26030275 0.11454845 0.3298945

encoder.lstm.bias_ih_l0 f4 [40]
00000000: c9e7 7f3e c4a3 213e 18e2 83bd d929 713e
00000010: 274b df3e c481 eb3d 29f6 443c 8067 bb3e
00000020: 30e2 6f3e 7810 d23e 7ff2 b03c 5ab4 ba3e
00000030: 9cbf 8b3d cf37 0e3e fe57 943e 31a5 dc3e
00000040: 8cd4 ed3d 453f ad3e e1df b23c 0eea 6a3d
00000050: 3e8f 8f3d 763b 293b 8ceb a53e 7e26 c6bd
00000060: a0ea dbbd f210 b2be a136 fabe ff22 2ebe
00000070: f61c 0f3d 4010 8fbd 48ae 623e cf74 993d
00000080: 9378 9c3e 814e c33e f712 bc3e 7798 633d
00000090: 1826 0c3f 3e10 533e ef45 ae3e 0a2f 1a3f
0.24990763 0.15785128 -0.06439608 0.2355112 0.43612024 0.1149936 0.01202158 0.36602402
0.23426127 0.4102819 0.021600006 0.36465722 0.06823656 0.13888477 0.28973383 0.4309478
0.11612806 0.33837333 0.02183527 0.05735212 0.07009743 0.0025822795 0.3240627 -0.096753106
-0.107381105 -0.34778553 -0.48869804 -0.17005537 0.03493973 -0.06985521 0.22136796 0.074929826
0.3056074 0.3814583 0.3673322 0.055565324 0.54745626 0.20611665 0.3403773 0.60228026

encoder.lstm.bias_hh_l0 f4 [40]
00000000: 314f a93e 9e48 87bd af9a aa3d 0528 a53e
00000010: 7de2 403e 68c1 733e ac51 723e 30ab 5dbd
00000020: 5a7d 4c3e a371 2f3e 81c3 cf3e a903 7c3e
00000030: 5b69 9a3d 6066 48bd b7a8 0f3e cde3 9abb
00000040: a7be 043d 7b13 393e 5b99 02be 6bb1 e23c
00000050: 011c 65be bb35 553e a88b ab3e f4e6 cf3d
00000060: dae3 40be 3faf dabe 9d4e d2bd 4a05 8dbe
00000070: e1d1 7fbd 98c9 30be d4d4 e33d a197 103f
00000080: d597 6c3e a1f0 f93d 81e7 c43e 61bb 843e
00000090: 052f 703d b373 973e bbbc 093f f55c b03e
0.3306823 -0.066056475 0.08330285 0.32257095 0.18836398 0.23804247 0.23663968 -0.054118335
0.19969693 0.17133193 0.40578845 0.24610771 0.07539626 -0.048925757 0.14029203 -0.004726863
0.032408383 0.18073837 -0.12753813 0.02767249 -0.22373964 0.20821278 0.33504987 0.10151473
-0.18836918 -0.42711827 -0.102689005 -0.27543098 -0.062456015 -0.17264402 0.11124578 0.5648137
0.23104794 0.122040994 0.38457873 0.2592421 0.05863859 0.2958046 0.53803605 0.3444592

encoder.lstm.weight_ih_l0_reverse f4 [40, 10]
00000000: fd87 6d3e faa6 043e 1a6e e23e 43b6 8dbd
00000010: cd5d a93e a9fe 3b3e cb0a b9bd a5ad 8b3e
00000020: e366 6e3e 8c20 873e 7cee 86bd f0ca 15bd
00000030: 8493 ee3d 7433 033e 7984 d43e 28c2 833d
00000040: 00cb b23e 0b75 483d 3a2d 213d 6315 843c
00000050: 93d8 c03d 71d8 b23b 137c e93e b149 f13e
00000060: c49b 813e 0375 2fbc caac d23e 04aa ab3d
00000070: 995d b63c d1f9 913d 8df3 0ebe 29e3 183d
00000080: 6d82 4d3d 99fc 083e 5184 a33e 2bd3 853e
00000090: bd55 f6bb 6df6 bb3d 9a60 31bd a715 793e
000000a0: 2f70 11be 2b3d 1dbd bad8 f5bd d2c4 c93e
000000b0: 5479 8e3e b31a 3f3d f0ba ee3d d38c 213e
000000c0: 1e0f 7d3d 1c09 783e c935 a83d 2d92 af3e
000000d0: 819a 183d 25a6 4bbb 1c8b 993e fb65 953e
000000e0: 40cb 663e c3c0 873e 32b5 933e bc30 363e
000000f0: a696 a2bd 5122 5fbd 5a54 2abd 118c f03e
00000100: ce63 64bd 5a4d 123e 7117 9b3e 3b31 d23e
00000110: cecf a73e 8010 3d3e cce6 26bd 2b56 ca3e
00000120: c787 b73e 15b1 e6bd 0050 35bd e138 8c3e
00000130: 8024 9c3e 1cc3 ec3e fac1 cd3e e6d1 763e
00000140: 07b9 92bd 0e55 683e f7b5 eabc 99ab 363e
00000150: 92fd 0d3f a976 b13e 9665 ab3e 6b12 80bd
00000160: 3ee1 5a3d bf4f b73e b72e 0f3e db9e 9d3e
00000170: 2448 4b3e c9a1 6e3e 337f df3d 8ecb d13d
00000180: 758a 873e e093 1ebd 82fb ad3e f728 d63e
00000190: 86f6 ab3e 5a4d 613e f9f3 673e 26ce 0ebd
000001a0: 3382 26bd 40f4 dd3e fad0 fbbd 6e25 02be
000001b0: b946 d23e dcc0 9abc b2b5 b53e e6ed 5dbd
000001c0: a6f8 4a3e bd2c 643e f2f7 1d3d 2182 af3e
000001d0: 4dc6 403e 9586 203e e342 463e 15a3 7f3e
000001e0: ffb9 d33d ae3e ae3e de77 b7bc 8fc4 9f3e
000001f0: a0be 283e 6280 7e3e 8390 0d3d e3fd c53e
00000200: 38d0 673e 3883 d13e 8832 b1bb 6884 333e
00000210: b293 a73d 4ad4 7f3d ea2d 6a3e 9aac a7bd
00000220: 50be da3e 7b35 c03d cbc2 3c3e 3094 073e
00000230: 81c2 c33e 20bd 31be c2fa 243e 789d 423e
00000240: 91c2 5e3e 86c5 bdbd 9653 bd3d 4235 6ebb
00000250: 3ef2 1a3e 28ec 4d3e 8292 a63e 8aaf a43e
00000260: 997a aabd a848 aebd cda7 bb3b 5939 273e
00000270: dc5d 253c fb2f 23bd fdd2 e13e cecf 3c3e
00000280: 379d 673c c599 163e 588e 4dbc 40a6 9b3e
00000290: dfb0 873e df37 ac3e eb32 4b3e c6f8 5fbd
000002a0: b4cd 8f3e d1e3 3b3e 5a34 bebd eafd 573d
000002b0: 624a a33e 9329 d8bd 1091 be3e 83c3 9f3e
000002c0: 65e1 2e3e 6643 3b3e 6e88 0cbe a0ee 1bbe
000002d0: 4d8d 4abd 7302 b0bd e6ef b9bb 75e4 2d3d
000002e0: 5220 11bd da39 a3bd 0df7 0e3e adbb 533e
000002f0: dbe6 843e a379 543e 0f18 c3bd db21 c63e
00000300: b64a e0bd 476e a93c 9451 463e 38c3 b9bd
00000310: 5f3a 793d b967 933d d57e b23d 370d 25be
00000320: 69d2 e83c 9cfe d43d 2589 d23d 3bea 89be
00000330: 61e8 f2bd f4c8 5ebe 1f79 4dbe a0ab 44bd
00000340: 98f7 7dbe cb1b 92be 42ef 2c3b 25ee 983e
00000350: df62 ac3e 3b04 793e 5af6 1ebe 1b56 c83d
00000360: c387 f0bc 6f52 363e 25bb 18be dc5e a63e
00000370: b443 7cbe 2521 93be 164c dfbe a4d4 c4be
00000380: 9be5 c3be 526b 72bc d24c 88be e4e2 01be
00000390: 5bf5 9bbe 0270 7abc dc9f 433d 84ee 93bc
000003a0: 125d b2bd 0d42 143e adf0 cb3e 94a4 28bd
000003b0: 7f1b a1bb 5988 b63e 756c 6f3e 7ef2 123c
000003c0: 8631 9f3d 57b1 df3c 09df 3c3e 737e a33e
000003d0: 321f b43e 9ae8 b8bd 1667 3e3c 9dc8 9f3d
000003e0: 5026 85be 4425 6b3c 7f28 a03e 2891 98bd
000003f0: 9fea 4e3e 22f1 dc3d f138 7e3d 8e95 123d
0.23196407 0.12954322 0.44224626 -0.06919529 0.33079377 0.18358864 -0.09035262 0.27280918
0.23281436 0.2639202 -0.06588456 -0.03657049 0.1164923 0.12812597 0.4150732 0.06433517
0.34920502 0.048939746 0.039349772 0.01612348 0.09416308 0.0054579307 0.45602474 0.47126535
0.25314152 -0.01070905 0.41147453 0.08382037 0.022261428 0.07127727 -0.13960095 0.03732601
0.05017321 0.13377608 0.31936887 0.2613767 -0.007517545 0.09177861 -0.043305017 0.24324666
-0.14202951 -0.038388412 -0.12004228 0.39407974 0.2782694 0.04665632 0.11656749 0.15776376
0.061781995 0.24222225 0.08213384 0.3429121 0.03725672 -0.0031074372 0.29988945 0.29179367
0.22538471 0.26514253 0.2884918 0.17792028 -0.0793889 -0.054476086 -0.04158435 0.46981862
-0.055759244 0.1428732 0.30291322 0.41053185 0.3277573 0.18463326 -0.04074745 0.39518866
0.35845777 -0.112642445 -0.044265747 0.27387145 0.30496597 0.46242607 0.40187055 0.24103507
-0.071641974 0.22688696 -0.02865122 0.17838897 0.5546504 0.34660843 0.3347594 -0.06253513
0.053437464 0.3580303 0.13982664 0.3078526 0.19851738 0.23303904 0.10912933 0.10243903
0.26472822 -0.038715243 0.33980948 0.4182813 0.3358652 0.22002164 0.22651662 -0.034864567
-0.04065151 0.4335041 -0.122957185 -0.12709591 0.41069582 -0.01889079 0.35490185 -0.054181956
0.19821414 0.22282691 0.038566537 0.34278968 0.18825646 0.15676339 0.19361453 0.24964555
0.1033821 0.34032196 -0.022396024 0.3120465 0.16478968 0.24853662 0.034561645 0.38670263
0.22638023 0.40920424 -0.005407635 0.17530978 0.081824675 0.062458314 0.22869077 -0.08187218
0.42723322 0.093852006 0.18433683 0.13240123 0.38234332 -0.17357302 0.16111282 0.19005382
0.21753909 -0.0926619 0.092444584 -0.0036347662 0.1513147 0.20109618 0.32533652 0.32165176
-0.08324165 -0.08509952 0.0057267905 0.1633047 0.010093179 -0.03984068 0.44106284 0.18438646
0.014136604 0.14707096 -0.012546144 0.30400276 0.2650213 0.33636376 0.19843642 -0.05468061
0.28086627 0.18348624 -0.09287329 0.052732386 0.31892687 -0.10554805 0.3722005 0.3120385
0.17078169 0.18287429 -0.13723919 -0.15227747 -0.04945116 -0.08594217 -0.00567435 0.0424542
-0.035431214 -0.07970019 0.1396143 0.20677061 0.2595738 0.20749526 -0.09526073 0.38697705
-0.1095175 0.020682467 0.19367057 -0.09070438 0.060846683 0.07197518 0.087155975 -0.16118322
0.028420644 0.104001254 0.102800645 -0.26936516 -0.11860729 -0.21756345 -0.20065735 -0.048015237
-0.24801481 -0.2853683 0.0026387726 0.2986919 0.33669183 0.2431802 -0.15523663 0.09782048
-0.029361611 0.17804883 -0.1491514 0.32494247 -0.24635202 -0.28736225 -0.43612736 -0.38443482
-0.38261113 -0.014796095 -0.2662111 -0.12684208 -0.3046063 -0.015285494 0.047759876 -0.018058069
-0.08709158 0.14478321 0.3983206 -0.04117258 -0.004916608 0.356509 0.23381217 0.008968947
0.07773118 0.027306242 0.18444456 0.3193241 0.3518005 -0.0902874 0.011621257 0.07801936
-0.26005793 0.014352147 0.31280896 -0.07449561 0.20206688 0.1078818 0.062066022 0.035787158

encoder.lstm.weight_hh_l0_reverse f4 [40, 10]
00000000: 6db2 fcbd 3b32 a43e 4e99 e3bd b214 be3e
00000010: b93f d43e 48e8 cc3e 955a 1c3e 2df8 893e
00000020: 962b 78be 19a9 b93c d96d debe d67d 14bd
00000030: 2cf3 10bd 0fb1 2e3e b7aa c33e becc 823e
00000040: 02aa cb3d 056e c73c 093b f1be b08c 99bd
00000050: dd07 e53c 0a39 6f3e 2b65 92be dfa0 b0bd
00000060: 9a4a 8b3e e2a5 863e 2304 0cbe 671f 893c
00000070: 442e 21be 10d1 9b3d a35b 5dbe a34c 203e
00000080: 282e 1abd c4b9 263e 15ab 803e f546 81bb
00000090: a5c1 913e 5948 063e 17d2 07be 6943 bc3e
000000a0: 9aed a8be 3cb2 053e 2cfe abbe 5d75 ef3e
000000b0: 1ccc be3e b23b 803e b91c af3e 08ad 7e3d
000000c0: e479 9bbe 1e45 9f3e b1bd d8be 9652 783e
000000d0: 4d62 dbbe c686 e53d cedb 6e3e 1aa6 f23e
000000e0: 7c6d da3d 72ee ee3e d878 f6be 7741 343e
000000f0: 8c16 023e 5aa5 03be e032 f3be b18c d1bd
00000100: 307c b53e 2b0d 403e f731 eb3e 3ea4 463e
00000110: 7082 eabe a402 9cbd b068 c1be 1fe6 973d
00000120: c054 cebe 0488 893d 7b46 b53e 3c51 2cbd
00000130: 6301 173e 2d70 233e a515 3fbe 6df3 3ebd
00000140: 6bca c3be f206 e53e f0b3 4cbe 2d03 39bc
00000150: 8de3 bebd 6aca b3bd ff62 a83e cbc6 683e
00000160: cc69 9abe e33c 283e ef35 0fbd c3cb 4f3e
00000170: 15b1 c1bc 4382 25be fc68 1c3e 24ee 423d
00000180: 3102 c53e 00bd 25bd 7b56 b1bd 5387 103e
00000190: 6315 eebd 4a44 a53e 8e61 a5be fe1c 943e
000001a0: 3d16 423e b3c3 bfbd 4b00 a83d 9def 81bc
000001b0: f19e cabe 90a6 573e a129 9abe 777a 853d
000001c0: babd bbbe ce1f f83d 6025 da3e 00bb 1abd
000001d0: 0b79 803e cdd9 e03d fd87 eabc 1843 d53e
000001e0: 7d87 eebc 06ab f83d 8567 93bc 7fb4 cfbd
000001f0: 0efa 943e b8cb c63e 5027 e13d 9989 8e3e
00000200: c1e1 e8bc 6b8b 27bd 2ecf 80be c60d a73c
00000210: 05d7 14be 563d 073c f0d9 c03e 8037 e4bd
00000220: b750 4b3e f529 9c3d f3c9 a6be 826f d33e
00000230: 3ab1 323e 5359 f83e 416f 093e c0bb fdbb
00000240: 4812 e73e 1f40 153e 6826 0cbd ee06 013f
00000250: 2574 edbe 6ca2 783e 79a8 83be bea7 c23d
00000260: 5e59 9dbe 92eb d13e 2cca 003f 95f8 983e
00000270: 6f09 303a f176 e1bd cc10 88bd 11d7 ec3d
00000280: 3ac3 8abe fa46 393e 0f23 99bd 4dda 143e
00000290: c3ac 433e 454e 8e3e 0052 cc3c 3591 cb3e
000002a0: 546c 47bc 15d2 b63e c830 29bb 3cb2 aa3e
000002b0: f86e 85be d501 e8bc b7ac 613e 1170 c83d
000002c0: b1b4 453c a027 9e3e 5284 8e3d d25d ca3e
000002d0: 192e e3be 31bc 053f 8580 92bd 4c19 083e
000002e0: c730 993e 3451 a83d 06eb c63e 193a 943d
000002f0: c029 613d 64da 583d ee48 a0bd 8e62 5b3e
00000300: f170 b1be 7982 e03e c34a 2ebd 73d1 9a3e
00000310: 39e3 483e ce62 5f3e 1bbb 8fbe 8d33 9c3d
00000320: 1c11 cc3e 629b 1e3e 06dc 793d 6e56 273e
00000330: b987 47be 7690 91bd 13ae c6be 57ca 3bbe
00000340: 13bc 3dbd 8ce5 6bbe a5f9 22be 24d2 413e
00000350: d228 b3be 1e8b 6e3d 6563 8a3e a5a7 5e3e
00000360: 62a0 853e dc74 fd3d f6bb c3bd 6ea9 103e
00000370: ef73 36bc 5bc7 96be 161d b73e fe13 d0bd
00000380: 09f2 5fbe 0603 3fbe 2e4c abbe 4aee a2bc
00000390: f78e e3bc 6a81 b3be 23a0 e23d d107 c6bd
000003a0: 8889 bebe 06fb d9bc 8c59 ddbd 32a3 60bd
000003b0: b791 7c3e 1ad2 a23d c25d 4bbd ca26 6f3d
000003c0: 4964 87be 4360 cf3e 415a 253e 4282 f03c
000003d0: e04f 28be 09c2 bbbd 4d8e 4c3e f1ca a23e
000003e0: 0d83 03bf 4980 973e e66b c8be 33a2 e23d
000003f0: a9b4 133e a29c 2e3c b9d9 8c3e 1f2f ec3d
-0.123387195 0.32069573 -0.11113225 0.37125164 0.41454867 0.40020967 0.1526893 0.26947156
-0.24235377 0.02266364 -0.43443182 -0.03625282 -0.035388157 0.1705973 0.38216183 0.2554683
0.09944536 0.024344454 -0.47115353 -0.07497537 0.027957851 0.23361602 -0.2859281 -0.08624434
0.27205354 0.26298434 -0.13673453 0.016738607 -0.15740305 0.07608235 -0.21616988 0.15654235
-0.037641674 0.16281801 0.25130525 -0.0039452263 0.28468052 0.13113536 -0.13263737 0.3677018
-0.32993776 0.13056272 -0.33592355 0.4676923 0.37265098 0.25045544 0.342016 0.062176734
-0.30366433 0.3110742 -0.42332223 0.24250254 -0.42848435 0.112073466 0.23326036 0.4739235
0.10665414 0.46666294 -0.4813907 0.17603098 0.12703913 -0.12856045 -0.47499752 -0.10231913
0.3544631 0.18755023 0.45936558 0.19398591 -0.4580264 -0.07617691 -0.37775183 0.07416939
-0.40299034 0.06715396 0.35405335 -0.04206966 0.14746623 0.1596076 -0.186606 -0.046618868
-0.3824037 0.4473186 -0.19990516 -0.011292261 -0.093207456 -0.08778842 0.32888028 0.22732083
-0.30158842 0.16429476 -0.034963544 0.20292573 -0.02364401 -0.16162972 0.15274423 0.04759039
0.38478234 -0.040463448 -0.08659073 0.14114122 -0.11625173 0.32278663 -0.3230099 0.2892837
0.18953796 -0.093634985 0.08203181 -0.015861327 -0.39574388 0.21059632 -0.30109885 0.06517499
-0.36668187 0.12115441 0.4260664 -0.037775993 0.25092348 0.10979042 -0.028629297 0.4165275
-0.02911734 0.12141995 -0.017993698 -0.10141849 0.29097027 0.388273 0.109938264 0.27839354
-0.02842796 -0.040904444 -0.25158066 0.02039231 -0.14535148 0.00825437 0.37666273 -0.11143398
0.19855009 0.0762519 -0.3257595 0.4129601 0.17450419 0.4850565 0.13421346 -0.007743329
0.45131135 0.14575242 -0.034216315 0.504012 -0.46377674 0.24280709 -0.25714472 0.095046505
-0.30732244 0.41000038 0.5030849 0.29877153 0.0006715273 -0.110090144 -0.06643829 0.11564458
-0.2710207 0.18093482 -0.0747739 0.145364 0.19108872 0.2779409 0.024941444 0.39759222
-0.0121718235 0.35707155 -0.002581643 0.33339107 -0.26061225 -0.028321186 0.22038542 0.09787
0.012067006 0.30889606 0.06958832 0.39524704 -0.44371107 0.5224028 -0.071534194 0.132909
0.29920027 0.08218613 0.38851184 0.07237644 0.054971457 0.05294265 -0.0782641 0.21424314
-0.3465648 0.43849543 -0.042551767 0.30237922 0.19617929 0.21815035 -0.28072438 0.0762702
0.39856803 0.15488961 0.061000846 0.16341564 -0.19485368 -0.07107632 -0.38804683 -0.18338905
-0.04632194 -0.23036784 -0.15915544 0.18927819 -0.3499208 0.05823814 0.27028957 0.21743639
0.26098925 0.12375805 -0.09557335 0.14127132 -0.011136039 -0.2944897 0.35764378 -0.10160063
-0.21869673 -0.18653497 -0.33456558 -0.019889016 -0.027778132 -0.35059673 0.110657 -0.096694596
-0.37214303 -0.026608955 -0.10808095 -0.054843135 0.24664961 0.0795023 -0.04964996 0.0583866
-0.264437 0.4050313 0.1614771 0.029358987 -0.1643672 -0.09167869 0.19976158 0.31795457
-0.5137184 0.2959006 -0.3914482 0.11066093 0.14424385 0.010657461 0.2750986 0.11532425

encoder.lstm.bias_ih_l0_reverse f4 [40]
00000000: 5082 fc3d 98d9 eb3d a925 3ebd 41c8 e83e
00000010: 6b7b c23e efba 383e aed5 643e 1e94 acbd
00000020: 95bf 60bd 67a9 233e 1908 903e a58b 4abe
00000030: de3f 2b3e b3bf a3bc dfc3 693c 1675 a83e
00000040: 1bee bd3e ee4d 173e 928f 3c3b 4516 00be
00000050: 44b5 70be 2323 b13e dafe 27bd f990 c83e
00000060: e4fd b63e 7a8c f6bd fad7 e63d 0ac0 72bd
00000070: b144 07bf a8ac cfbd 9f96 b13e 079f c63e
00000080: eda7 0a3f 9540 943d 9248 c33e e0cd 2b3e
00000090: 2ac9 a83e 7c7c bd3e 5e75 0c3f 184a b13e
0.12329543 0.11516112 -0.046422634 0.45465282 0.37984785 0.1804006 0.22347137 -0.084266886
-0.054870207 0.1598259 0.28131178 -0.19779833 0.16723582 -0.01998887 0.014267891 0.3290183
0.37095723 0.14775822 0.0028772098 -0.12508495 -0.23506647 0.3459712 -0.04101453 0.39173105
0.35740578 -0.120385125 0.11271663 -0.059265174 -0.5283919 -0.101403534 0.34685227 0.38793203
0.54162484 0.072388805 0.38141304 0.16777754 0.32965976 0.37009037 0.5486659 0.34626842

encoder.lstm.bias_hh_l0_reverse f4 [40]
00000000: 7bfc f63d bb1b e13d 9efd ec3e dd7c b43e
00000010: 15ac 18be b8f7 cc3e b71f bbbd c71e 0fbe
00000020: 3acf 9a3d 3f3f ef3d 758f 573e 2b87 b53e
00000030: d56d febd f687 65bd 29bd 993e 57ea e7bd
00000040: aea8 0e3e 9e4d 413e 1023 a13d cf39 923c
00000050: 575b cebe 9cc2 f8bd c5b3 3c3d a16e db3e
00000060: 5bae 233e 4fb0 893e 0906 663c 1315 97bd
00000070: 03e1 06be 31d6 06be 8485 043f dd31 493e
00000080: 0dbe 9f3e 6bec db3d a768 463e 2820 433e
00000090: be42 a43e a1ff bd3e ae9b 523e 4322 8b3e
0.120598756 0.10991617 0.46287245 0.35251513 -0.14909394 0.40032744 -0.091369085 -0.13976584
0.075590566 0.11681985 0.21050818 0.35454687 -0.124232925 -0.056037866 0.3002713 -0.11323994
0.13931534 0.18877265 0.07868016 0.01784983 -0.40304062 -0.12146494 0.04606988 0.4285784
0.1598448 0.26892325 0.014039525 -0.073770665 -0.13171773 -0.13167645 0.5176623 0.19647928
0.31199685 0.107384525 0.19375859 0.19055235 0.3208217 0.37109092 0.205672 0.27174577

decoder.lstm.weight_ih_l0 f4 [80, 20]
00000000: f345 71bb bae9 2e3d c610 153e 5d8e c9bd
00000010: 9c30 d63d 09be 8bbd 493e 2cbc dd9f 1e3c
00000020: 760b 083e b007 58bd 747f b33d 971e ddbd
00000030: e85e ecbd 6bd1 453d 95a2 94bc aea6 1f3e
00000040: 5e83 8dbd 7b96 ecbd 64db edbc 82d4 a53b
00000050: 84f1 173d 4e9c 753e 6af9 3d3e 310c 1cbe
00000060: f4f1 77be 0cf2 943d fcbd 7f3d e4c5 87bd
00000070: 23d7 8abe 1822 8abd 0128 dc3d bc88 81bd
00000080: e57c e93d ac6b 673d d29b e23c 073f 4e3e
00000090: 851f 013e 0b31 50bd 2cbf 39be e3f5 fc3d
000000a0: 5b19 33be 0291 843c 08cd eb3d 2ce1 15be
000000b0: 4269 54bc dfe7 40bd 9f9c f6bd 6a1b dcbc
000000c0: 03e8 023e 83ab 2dbd e704 30be 9065 4b3d
000000d0: 2805 6fbd 9f02 2bbe b12a 0bbe c7e2 b0bc
000000e0: 8568 e2bd a042 ea3d ade7 0b3d bea3 3b3e
000000f0: ae85 b03c df72 623d 648d 163e b767 f33d
00000100: 440d 49be 6ce8 cd3b a006 11be 7ce0 b0bc
00000110: 5810 553d a34e 863d f48d a53a 4d07 243e
00000120: 600c df3d 1fae 253e 417d 263d d31b 73bd
00000130: 9710 48be b7fd 683d 834e 233e e63b 023e
00000140: 8391 97be fdb0 163e ee36 07be 601e 5fbe
00000150: 9410 e03d 908b ca3d 03a3 47be 4904 75be
00000160: 8d04 b3bc a568 373e 0b94 b6bd 85a8 ecbd
00000170: dbe7 ff3c 3f17 083d 7e76 593e efcb 653d
00000180: d067 6f3c a2ae 42bc d79e 8dbe eca7 c8bd
00000190: 820b 66be d93c e5bd edab 1fbd eea1 03be
000001a0: a6fa 6fbe 63d8 87bd c8a9 94bd a781 85be
000001b0: 1a94 403c 5d1f afbd 209b 213d 8bf1 193e
000001c0: 3d9c ab3c 028d 403e becd 35be 14cd 5cbd
000001d0: e0d0 aabd 5495 023e c33d 52be 78a1 16bd
000001e0: 4dd8 ea3d 479d 23be a184 0fbd 1174 e8bd
000001f0: b87d 613d 1113 2abd bb4c 14be 5ea6 37be
00000200: 74da b8bd 00b9 0cbe f0ae 10be e27a 9abd
00000210: 71eb 933d c86f 2abe 978f 9b3d 9aa7 a03d
00000220: d3db 5c3d 6c0a 513e d63d 87be d8ba c1bd
00000230: 454b a7bd cb08 08bd 8d23 663e 3b35 b53d
00000240: 9d53 b7bd 8575 57bc d2f7 e7bd 62f0 0ebe
00000250: 54fa d03d 32cc 5dbe 0ac5 3e3e 377c 94bd
00000260: ab24 4f3e 3612 c7bd 3323 57be e5b1 563e
00000270: d5a6 05bc e947 173e 4961 2fbc 4664 17be
00000280: 9fa6 3f3d 418e bf3d 5b24 b4bd 57a7 b4bd
00000290: fbea 8b3c ffa0 05be e82e 2fbb 4208 b53d
000002a0: bf7c b13c 5cc1 00be cc16 1c3e 8f18 f23c
000002b0: 2b08 f6bd 4327 25bc 0d21 183d 3724 263e
000002c0: ffff f4bd a464 dabc 663f 87be 0de7 803e
000002d0: b6a9 1b3d f384 b13e 6f41 553e 3182 46be
000002e0: cbbb cdbd a42b c03d a163 24be 98ad 6fbe
000002f0: 705a 6bbe c81e 0c3e f80d 15be a68b 3b3d
00000300: 1d21 00be 1a01 be3d 5d3a 9a3e 1792 503e
00000310: 1b22 a93e 450a 97bd 56b9 d7be 93c5 693e
00000320: d966 0abe 0fcf 213e da19 7fbe 280d 063e
00000330: 1d0d 3cbe 9eb1 0e3e 6979 0e3e cb3d db3d
00000340: e510 b83c a8e9 123e 4533 f2bd a152 3c3d
00000350: 95ab a83d 7e1a 9bbc 99e1 a93d f37b c0bd
00000360: 7c8a 23be f431 113e d52b 853e cc95 e53d
00000370: bd2b 853c 7ca4 82bd 4743 f53d 5a5f 0dbd
00000380: cb22 6cbe 4990 0dbe a2f3 82be 56ef 223e
00000390: ba61 ccbd 618c 993d e396 63be 18ea 50bd
000003a0: 4529 babb 3b97 fd3d 8e49 f13d b376 95bc
000003b0: 04a5 003d 83a2 17be 8a5c a6be eccf ebbc
000003c0: cc7e 73be ffbb c8bd 00fc 343e 462e 0abe
000003d0: e3b3 69be f703 bbbc 9704 303e 0f2d ffbd
000003e0: a73b 82be db9b 18be 5dcc 953c 1077 cc3d
000003f0: c64f 65be ba55 76bd 49b9 30be 3ec1 823e
-0.0036815375 0.042703368 0.1455718 -0.09841607 0.1045849 -0.06823356 -0.010512897 0.009681669
0.13285622 -0.052741706 0.08764544 -0.1079685 -0.115415394 0.04829542 -0.018143931 0.15590927
-0.06909822 -0.11552139 -0.029035278 0.0050607333 0.03709556 0.23985407 0.18552175 -0.15239026
-0.24213392 0.07272729 0.062437043 -0.066295415 -0.2711726 -0.06744784 0.10749818 -0.06324908
0.11400775 0.05649917 0.027662192 0.2014123 0.1260968 -0.05082802 -0.18139333 0.12351587
-0.17490141 0.016182426 0.11513716 -0.14636678 -0.012964549 -0.04709613 -0.12041592 -0.02686854
0.12783818 -0.042399894 -0.1718937 0.049657404 -0.058354527 -0.16700219 -0.13590504 -0.02159251
-0.11055092 0.11438489 0.03415649 0.18324181 0.021548118 0.05528533 0.14702374 0.118850164
-0.19633967 0.0062838104 -0.14162683 -0.021591417 0.05201754 0.065579675 0.0012630806 0.1601841
0.10891032 0.16179703 0.040646795 -0.059352707 -0.19537579 0.056882586 0.15947919 0.12718162
-0.29603204 0.14715953 -0.13204548 -0.21788931 0.10940662 0.09889901 -0.19495778 -0.23927416
-0.021852756 0.17911012 -0.08914956 -0.1155558 0.031238487 0.033225294 0.21236607 0.05610269
0.014612153 -0.011882456 -0.27660248 -0.097976536 -0.22465327 -0.111932464 -0.03898232 -0.1285474
-0.23435459 -0.06633069 -0.07258946 -0.2607548 0.01175406 -0.08550904 0.03945458 0.15033548
0.020948524 0.1880379 -0.17754266 -0.053906515 -0.08340621 0.12752277 -0.20531373 -0.036775082
0.11467037 -0.15977965 -0.035038594 -0.11350263 0.055051535 -0.04152209 -0.14482395 -0.17934558
-0.090260416 -0.13742447 -0.14129233 -0.07542969 0.07222641 -0.16644204 0.07595747 0.078444675
0.05392058 0.20414132 -0.26414365 -0.09459466 -0.081686534 -0.03321151 0.22474499 0.088480435
-0.08951495 -0.013150577 -0.11326565 -0.13958886 0.10203996 -0.21659926 0.18629852 -0.072502546
0.20228831 -0.0972027 -0.21009521 0.20966299 -0.008157452 0.14773525 -0.010704347 -0.14784345
0.04678976 0.09353305 -0.08795997 -0.0882098 0.01707982 -0.13049696 -0.002673084 0.08839466
0.021665929 -0.12573761 0.15243071 0.029552726 -0.12013277 -0.0100801615 0.037140895 0.16224752
-0.1196289 -0.026659317 -0.26415557 0.25176278 0.038003646 0.34671745 0.20825742 -0.19385602
-0.10045584 0.09383324 -0.1605363 -0.23406065 -0.22983718 0.13683617 -0.1455611 0.045787476
-0.12512632 0.09277554 0.30122653 0.20368229 0.33033833 -0.07375006 -0.42133588 0.22829275
-0.13515796 0.15801643 -0.24912205 0.13090956 -0.18364377 0.13934943 0.13913502 0.107051454
0.022468993 0.14346945 -0.11826185 0.04597724 0.08235852 -0.01893353 0.082949825 -0.093986414
-0.15970796 0.14179212 0.26010004 0.11210212 0.016256208 -0.06379029 0.11975723 -0.034514762
-0.23060147 -0.13824572 -0.25576502 0.15911612 -0.09979577 0.07497478 -0.22225527 -0.0510045
-0.0056811892 0.123823605 0.117816076 -0.018245077 0.03140737 -0.14808087 -0.32492477 -0.028785668
-0.23778838 -0.098014824 0.17674255 -0.13494214 -0.22822528 -0.022829039 0.17189251 -0.12459766
-0.25436136 -0.14903204 0.018285925 0.09983647 -0.22393712 -0.06014035 -0.1725818 0.25538057

decoder.lstm.weight_hh_l0 f4 [80, 20]
00000000: 7f31 dabd ca31 3fbd 0034 72be fa6a 25be
00000010: 60fd 013e 8517 f5bd c9c2 c7bd d23b 81bd
00000020: 014b 88be f759 88bd ea4b 24bd a92c c73d
00000030: 0833 72b9 0c94 253e dc8e d1bd 5113 9abd
00000040: 8c83 1c3e 5340 993c ca2f 673c 5590 943e
00000050: 7bc6 0fbe 0472 67be 6be9 06be 35f3 3d3e
00000060: fa32 a2bd a341 e8bd b16a 8f3d 140c 0b3e
00000070: 1129 c73d 8ce9 943d 975b a33b 1f72 5bbe
00000080: e614 853d 1137 a5bd aba9 23bd f858 00be
00000090: 9473 f6bd 2ca2 d9bd d46d a7bd 2e74 9bbd
000000a0: 4b40 aa3d 3918 6c3e d2c1 c7bc cf32 3bbd
000000b0: 3a90 39be 815b 3d3d 5165 d33d 6271 33bd
000000c0: e997 8fbc beab 95be 37ad e73d 8042 c03d
000000d0: 47ff acbd 6d2a 12bd 3de8 d23d 9a7d 0fbe
000000e0: 64f4 b93c 6b99 16bd d43f e0bd bd59 01be
000000f0: 31b0 7b3c 4a03 1abe 4e86 d23d a364 823d
00000100: ed17 443e 7081 6bbe 6840 4cbe 941a a9bd
00000110: 776b a2be 9b85 88be 8049 033d 2367 8d3d
00000120: b109 4b3e 7f61 543e 6768 a7bd 49a3 1a3e
00000130: 92f9 e33d cd4d 9f3d 0b4a 95bc 063d 08be
00000140: 2376 b43d 1253 dbbb 4d58 3b3e 0775 793e
00000150: 9865 823e bc28 15be 0457 1e3e 3fef b3bd
00000160: 130f 0fbe 2fc9 b13d bacc bbbd 34bc 1c3e
00000170: e3b5 bd3d c786 333e f8ed 8ebc 8572 083e
00000180: 4dd6 b23d fc56 3d3d 4ed0 a5bd 5eb4 f5bd
00000190: 926b 9b3d a8fc edbd cdbe 2dbe 1d2a db3d
000001a0: b595 7d3d 591c 073e 5303 53bd 7c44 f53c
000001b0: 7a1a fabd 99be e03d 568c 7cbe be04 103e
000001c0: e9dc 063e 3119 9bbd 7316 333e 9fcd fd3b
000001d0: 16df 933e b9c6 9fbc 45d9 e1bb 9aea 7e3d
000001e0: 363a 64bd 5c1a 07bd 6155 7f3d 7b7d 86bd
000001f0: d898 fa3c 1d58 81be 601e a1bc e970 aabe
00000200: 1913 83be d301 88be 41a0 51be 5698 97be
00000210: 8b1c 8a3e 6048 403e e131 4a3e 28d7 033e
00000220: 394d 913d 7aa8 e93d 68ec ef3d e425 e4bd
00000230: 3b24 68be bdf2 773e 5457 433e c917 6bbe
00000240: b408 3cbe 367d 753d af46 12be cf97 513e
00000250: 5109 3dbe e814 143d 4267 4bbe 847e 6bbe
00000260: 4365 e93d a7e3 12be fd10 453e 0969 e83d
00000270: 3347 763e 5199 37be de9c efbd 8a1e ed3d
00000280: fb79 7cbe a113 eb3d ff0e 423e 88d7 3e3e
00000290: da84 f4bd b312 713e 2899 3a3e ea63 28be
000002a0: 17bb 2ebe 9426 2ebe 79fd 473e 2b3f 0f3e
000002b0: 1d86 db3d 0422 98bd 15ef 953d 974e acbd
000002c0: 0d1e 3abe aea7 ff3c 6dbc f6bd a951 abbd
000002d0: 3610 71bd 4607 f3bd 9530 53be 4cb0 783e
000002e0: 5f46 64bd 7fcd 193e 5f8f 123e 404c 3abd
000002f0: 0854 333e 4540 17be 8b27 873e 9550 26be
00000300: 96fe 84be a9d1 1cbd 13fd d2bd 3a38 f73d
00000310: c701 773a 4475 8ebd b3aa 0f3e 2307 813e
00000320: 40f1 093e a2c1 d13a 3b3b 593d 3936 533e
00000330: 75fb dabd a1d1 3ebd 8ff7 fabd 388a 25be
00000340: ba4b 063e 3e1e ea3d 2b20 05be f4da b93d
00000350: db53 b93d 7770 31be ae58 bf3d b980 8cbc
00000360: d28a b3bd 4895 72be 9eb3 93bd 9d1e 0abe
00000370: ab8d 213d edc0 f5bd ad6c febd bd4e 413b
00000380: 435c 21be e4da 4e3e 2e53 dd3d dd09 80bc
00000390: 865e 1cbe 0b97 8cbd 5f98 8f3d e2c0 143e
000003a0: 862d f53d 6460 3abe 71f2 863c 66f1 1dbe
000003b0: 52a7 3cbe 39cb bfbd d8ac 0a3d 9921 3a3d
000003c0: c786 a3bd 9a68 34bd eb34 1dbe 767d 85be
000003d0: ed04 a33d 80c8 c4bc f1b3 ea3d b859 5e3e
000003e0: 553b 023e 210c 1abe ac28 713d e23a f1bc
000003f0: b7b8 d7bc dcb9 193e 8357 063e b9c8 22be
-0.10653972 -0.046678342 -0.23652649 -0.1615409 0.12694311 -0.119673766 -0.09753949 -0.06310238
-0.26619723 -0.066577844 -0.04011146 0.09725315 -0.00023097929 0.16169757 -0.102323264 -0.075232156
0.15284556 0.01870743 0.014110515 0.29016367 -0.14040558 -0.22602087 -0.1317498 0.18549807
-0.07919879 -0.11340644 0.07002772 0.13578826 0.0972463 0.07271108 0.0049852836 -0.21430252
0.06498127 -0.08067144 -0.03995673 -0.12533939 -0.120337635 -0.10626635 -0.08175245 -0.07590519
0.08313044 0.23056115 -0.024384413 -0.04570275 -0.18121424 0.046229843 0.10322059 -0.043809302
-0.017528491 -0.2923259 0.11312335 0.09387684 -0.08447128 -0.03568499 0.10298202 -0.14012757
0.022699542 -0.036767405 -0.10949674 -0.12631889 0.0153618315 -0.15040317 0.10279523 0.06366851
0.19149752 -0.22998595 -0.19946444 -0.082570225 -0.31722614 -0.26664433 0.032052517 0.069044374
0.19827916 0.20740317 -0.0817421 0.15101351 0.11131586 0.07778511 -0.018223783 -0.13304529
0.08811595 -0.0066932524 0.18295403 0.24361049 0.25468135 -0.1456632 0.15462881 -0.08785867
-0.13970594 0.08680951 -0.09169908 0.15306169 0.09263208 0.17531882 -0.017447457 0.13324936
0.08732281 0.046225533 -0.080963716 -0.11997293 0.07588877 -0.11620456 -0.16967316 0.10701392
0.06191035 0.13194408 -0.051516842 0.029939882 -0.12212081 0.109738536 -0.24662909 0.14064309
0.13170208 -0.07573164 0.17489032 0.007745459 0.2888114 -0.019503938 -0.0068923556 0.062235452
-0.055719577 -0.032984123 0.062337283 -0.06566902 0.03059046 -0.25262538 -0.019667804 -0.3328927
-0.25600508 -0.26563892 -0.20471288 -0.2960841 0.26974902 0.18777609 0.1974559 0.12875044
0.07094807 0.114090875 0.11715013 -0.111400396 -0.22670071 0.24213691 0.19076282 -0.22958292
-0.18362695 0.059933864 -0.14284776 0.20468067 -0.18460585 0.03615275 -0.19863608 -0.2299748
0.11396267 -0.14344655 0.19244762 0.11348159 0.24050598 -0.1792958 -0.11699842 0.115780905
-0.24655907 0.11478353 0.18951033 0.18636906 -0.11939402 0.2354229 0.18222487 -0.16444364
-0.17063557 -0.17006904 0.19530286 0.1398894 0.107189395 -0.07428363 0.07320992 -0.08413427
-0.18175526 0.031207886 -0.12047658 -0.08365185 -0.05885335 -0.11866622 -0.20624001 0.24286002
-0.055731174 0.15019797 0.14312504 -0.045482874 0.17512524 -0.1477061 0.26397356 -0.16241677
-0.25975484 -0.038285885 -0.10302176 0.12071271 0.0009422567 -0.069559604 0.1402996 0.25200757
0.13470936 0.0016003142 0.053035002 0.20626153 -0.10692493 -0.046586636 -0.12254249 -0.16166008
0.13114825 0.114315495 -0.13000552 0.09074965 0.09049197 -0.17328058 0.09343086 -0.017151223
-0.08766712 -0.23689759 -0.07211994 -0.1348824 0.039441746 -0.11999688 -0.12423072 0.0029496395
-0.15757851 0.20200688 0.10806881 -0.015629703 -0.15270433 -0.06864747 0.07011484 0.14526704
0.119715735 -0.18200833 0.016473027 -0.15424117 -0.18423203 -0.093649335 0.033856243 0.045442197
-0.07984691 -0.04404507 -0.15352218 -0.26072282 0.07959924 -0.024021387 0.11460102 0.21713912
0.12717946 -0.1504369 0.05887668 -0.029447023 -0.026333196 0.15012306 0.1311932 -0.15896882

decoder.lstm.bias_ih_l0 f4 [80]
00000000: a3e1 1e3e 78cf 6a3e d2de 3bbd 6a3b 243e
00000010: 8b91 903e eec6 39be ba64 a2bc b4be 2b3e
00000020: 18de 923d 2c33 483c 7fdb 17be 36fa 96bd
00000030: 0896 4f3e 6623 8b3e bbaf b63d 5b45 aabd
00000040: 663e 243e 3642 38be f216 febd 9b2d c03d
00000050: 97e1 6f3d e6e2 553e 77e1 c1bd fa68 f1bb
00000060: 5db1 97bc 9889 d03d c205 07be 05fe 103e
00000070: a13f 2fbd ca18 ca3d 6ed5 f5bd 7ab5 583e
00000080: 34d6 f4bd 03c8 03be 6052 c73c 5030 613d
00000090: 6e7f 393e bec5 55be c8c0 08be 9347 063e
000000a0: d408 663e 9305 08be 3865 7bbc b896 59bd
000000b0: 554d 923e bfa5 66bd 2b5d 003d 3d00 33be
000000c0: b961 07be d23d 3e3e d485 16be e44e 86bd
000000d0: d7e0 49be c25c 3fbe 1446 87be c435 5e3d
000000e0: 49cf 66be 20f7 253e b266 c93d 558f 153e
000000f0: 5b8d c53d f886 26be 4d08 6abe 5cc1 a0bd
00000100: e758 343e 3c69 4a3e 5361 d8bd b6de cdbd
00000110: bce0 20be 5c9f 5c3e 2f10 2abe f419 37be
00000120: 7d6d 8e3d caa8 8b3e 302b 423e 4183 fe3d
00000130: 8ec2 fa3d 4d30 33be 6cbc 7b3e a9f2 1d3d
0.15515761 0.22930706 -0.045866795 0.1603829 0.2823604 -0.18142292 -0.01982342 0.16771966
0.07171267 0.012219232 -0.14829825 -0.07371943 0.20272076 0.27175444 0.08920237 -0.0831401
0.16039428 -0.17994007 -0.1240672 0.093836986 0.05856475 0.20887336 -0.09466832 -0.0073672505
-0.01851719 0.10182494 -0.1318579 0.14159401 -0.04278529 0.098680094 -0.12003599 0.21162978
-0.119549185 -0.12869267 0.024331272 0.054977715 0.18115017 -0.20876214 -0.1335479 0.13113241
0.22464305 -0.13283376 -0.015343957 -0.053122252 0.28574625 -0.05631041 0.031338852 -0.1748056
-0.13220872 0.1857827 -0.14699489 -0.06558016 -0.19714676 -0.18687728 -0.26420653 0.054250494
-0.2254001 0.16207552 0.09834041 0.14605458 0.09646102 -0.16262424 -0.22854729 -0.078493804
0.17612039 0.19766706 -0.10565438 -0.10052244 -0.1571073 0.21545166 -0.16607736 -0.17880994
0.06954477 0.27277213 0.18961787 0.124273784 0.122441396 -0.17498894 0.24583596 0.038561497

decoder.lstm.bias_hh_l0 f4 [80]
00000000: a5a0 653e d38d 833e bf03 08be de22 e2bd
00000010: f67e 64bd adce 3c3e c314 713e aba5 9abb
00000020: 6444 e03c 2310 f53d 173b afbd b1b9 233d
00000030: aece c9bd b668 a2bd 85ec c1bc 4c38 9bbc
00000040: 88a5 7fbd 7227 30be 9489 1d3d 6d09 3b3e
00000050: 9add 6cbd 2213 2d3e 3d3d 693d 4920 cf3d
00000060: ed91 79bd 20d9 41be 8de9 7b3d 9b90 3e3e
00000070: 5851 f93c 2cfb 453e be0a 8e3d 1bc0 fe3d
00000080: 3b2e 3bbe be32 353e d846 1ebe 2aed 283e
00000090: 3ec0 2e3e beb3 01bd daca 0fbe b78d 7cbe
000000a0: 269e 753e 7bb7 63be f150 0bbe 5207 f33d
000000b0: 8d08 2a3e a840 a73d 4cd7 4f3e 2bf4 a23d
000000c0: c86a 953d d580 36bd aacc 113e 5f20 b8bc
000000d0: 97b6 bc3d 68ac 9cbd e142 9dbd 0753 02be
000000e0: db31 48be 2459 34be 7ecd 1a3e f900 653d
000000f0: 67a2 30bd 9ded df3c 6a23 7ebe 8415 d13d
00000100: 7ba6 c73d 4289 c4bb 5f63 a3bd 6efd 2a3e
00000110: 8278 a8bd bf74 9bbd 8bc2 c03d 5e25 5bbe
00000120: f8d1 403e 33dd 823e 0eb1 463e 6997 c2bd
00000130: 5a66 5e3c 1934 413c f284 9d3d 0406 c33c
0.22424562 0.2569414 -0.13282679 -0.11041807 -0.055785142 0.18438216 0.23543076 -0.004719456
0.027376361 0.119659685 -0.08556192 0.03997201 -0.09853874 -0.07930128 -0.023672352 -0.018947743
-0.062413722 -0.17202547 0.038461283 0.18265314 -0.057828523 0.1690183 0.056943167 0.1011358
-0.06093018 -0.18930483 0.06150203 0.1860985 0.030434296 0.19334096 0.06935643 0.12438985
-0.18279354 0.17695138 -0.15456712 0.16496721 0.17065522 -0.031665556 -0.14042225 -0.24663435
0.2398611 -0.22237961 -0.13605095 0.118666306 0.16604824 0.08166629 0.20296973 0.079567276
0.072957575 -0.044556458 0.1423823 -0.022476373 0.09214514 -0.076500714 -0.07678772 -0.12726985
-0.19550268 -0.1761213 0.15117452 0.05590913 -0.04312363 0.027334983 -0.24818197 0.10209182
0.097485505 -0.0059978077 -0.07977938 0.16698238 -0.0822611 -0.07590627 0.09412106 -0.21400973
0.18830097 0.25559387 0.19403479 -0.095015354 0.013574207 0.011792206 0.07691373 0.02380658
