models/200-seed-100-synctwin/itr-0-decoder.pth.pth (torch, 16487 bytes, 6 tensors)

lstm.weight_ih_l0 f4 [80, 20]
000000 9a 3a 2c 3d ac 6e 39 3d 90 92 e8 3d 0a 0d 9d bd
       0.042048074 0.04527156 0.113560796 -0.07668503
000010 17 2f 98 3d e5 c8 ac bd d7 dc bd 3b 66 7a 9d 3c
       0.07430857 -0.08436755 0.0057941484 0.019223403
000020 f8 31 e4 3d 15 1e eb bb 5d 00 bb 3d b8 81 0a be
       0.11142343 -0.007175217 0.09130929 -0.13526046
000030 9b 8c 22 be de 16 85 3d 11 1f c9 3c ca d2 10 3e
       -0.15873949 0.06498502 0.024550946 0.1414291
000040 2d ae 43 bd ac 06 11 be 7a 1c 2a bd 96 04 5d bd
       -0.04777353 -0.14162701 -0.041531064 -0.05395945
000050 a7 6a 21 3e a2 ac 8d 3e 25 4f 45 3e bb 4c 1a be
       0.15763341 0.2767077 0.19268472 -0.15068333
000060 ee f9 82 be ac 5c 9c 3d 4e 8d 5c 3d bc 92 88 bd
       -0.25581306 0.07634863 0.053845696 -0.06668612
000070 42 d4 1f be e0 94 b2 bd b9 b5 e3 3d 7f bb 72 3d
       -0.15608314 -0.08719802 0.11118645 0.05926084
000080 9c 33 cc 3d a5 f0 c0 3d 25 ed 03 3d c6 49 88 3e
       0.09970781 0.09420899 0.03220858 0.26618785
000090 3c 33 32 3e ea 12 aa bd 66 ec 4f be 0f 11 f1 3d
       0.17402357 -0.08304389 -0.20305023 0.11770832
0000a0 8b d9 84 be 83 59 bc 3d 9d 5f bc 3d 52 8b 2b be
       -0.25947222 0.091967605 0.09197924 -0.16752365
0000b0 ca 53 14 bd 88 b0 a6 bd 0e e9 13 be 88 23 2b bd
       -0.03621272 -0.081391394 -0.14444372 -0.041781932
0000c0 90 ee 39 3d 7f 03 a7 bd 4c b9 44 be b8 15 88 3d
       0.045393527 -0.08154964 -0.1921131 0.066447675
0000d0 c9 a9 c2 bd 6b e2 22 be ed 99 ea bd bc 50 75 bc
       -0.0950504 -0.15906684 -0.1145514 -0.014972862
0000e0 fa fb c6 bd 3a b1 46 3e b1 d9 95 bd 53 95 53 3e
       -0.097160295 0.19403544 -0.07316912 0.20662431
0000f0 d2 ce d3 3d af 29 ea 3c 28 e7 80 3e 9f 5e 03 3e
       0.10342182 0.02858433 0.25176358 0.12829064
000100 9c 8a 6e be f4 7c f1 bb f2 25 3c be c8 a6 6a bc
       -0.23295063 -0.007369632 -0.1837385 -0.01432199
000110 f6 d2 e8 3d 3c ac 5a 3d bd 40 c9 3c cb 1d 66 3e
       0.113683626 0.05338691 0.024567002 0.22472303
000120 fb 4c 8b 3d 86 b2 43 3e 9f 52 b9 3d e5 74 93 bb
       0.06801792 0.1911107 0.09048962 -0.004500019
000130 ac b9 d0 bd eb d9 06 3d d5 d8 ec 3d f9 f6 ab 3d
       -0.10191664 0.032922667 0.11564795 0.08396716
000140 d3 bc 30 be eb 4d 0b 3e 1e b6 0b be 5c da 3f be
       -0.1725953 0.13603942 -0.13643691 -0.18735641
000150 a0 bb 07 3e 73 94 fe 3d c3 b6 3c be e6 dc 5a be
       0.13255167 0.12430658 -0.18429093 -0.21373329
000160 98 9d 09 3d ef 90 27 3e d5 7e 86 bd 8d 34 f5 bc
       0.03359756 0.16363882 -0.0656716 -0.029932285
000170 ff 1e ff 3c 0b 9d 19 3d 82 76 4c 3e 3d 27 94 3d
       0.03114271 0.037503283 0.19967082 0.072340466
000180 ea 6a 13 3c 5d 88 b6 bc 99 9a 92 be e6 8a 03 be
       0.008997658 -0.02228182 -0.28633574 -0.12845954
000190 2d a9 6d be c5 60 0e bd 85 6d 23 bd 4f 6d c0 bd
       -0.23209067 -0.034760255 -0.039899368 -0.09395849
0001a0 72 67 88 be b5 13 3b bd 78 64 2b bd 17 43 70 be
       -0.26641423 -0.04567309 -0.04184386 -0.23463093
0001b0 6f d3 cc bb de a4 41 bd f2 85 7d 3d f8 cd 44 3e
       -0.006250791 -0.04727637 0.06189532 0.19219196
0001c0 51 d0 d0 3c 2a 4c 6f 3e 31 7f 30 be 24 ce 55 bd
       0.025489958 0.23368898 -0.1723602 -0.052198544
0001d0 65 8b a6 bd 29 e1 2c 3e ce 8f 65 be bb 28 df bd
       -0.08132056 0.16882767 -0.22418138 -0.108964406
0001e0 9f 10 2d 3e f6 df 5c be 70 3a 8f bb e4 bd bc bd
       0.16900872 -0.2156981 -0.00437098 -0.09215906
0001f0 cf 48 e0 3b 96 9e 3b bd 5c fd 1d be 30 73 10 be
       0.006844617 -0.045805536 -0.1542868 -0.1410644
000200 3a 14 8b bd 73 52 b1 bd 2c a3 04 be 80 37 b8 bd
       -0.06790967 -0.08658304 -0.1295287 -0.08994961
000210 d8 c6 96 3d 09 2d 24 be 65 0e f5 3d 3a 17 c5 3c
       0.07362145 -0.16032805 0.11965636 0.024058927
000220 3a d4 87 3d 93 cb 1e 3e 23 d1 22 be 5f c4 0a be
       0.06632276 0.15507345 -0.15900092 -0.13551472
000230 2b 00 f3 bd c0 2b 46 3d 77 a5 2e 3e 6c 01 ab 3d
       -0.118652664 0.048381567 0.17055307 0.083498806
000240 b1 18 c6 bd 67 6a bb bc 0c b2 0e be 8c f5 2f be
       -0.09672678 -0.022877885 -0.13935107 -0.17183512
000250 ad 2a 43 3d 7b 63 7f be c4 85 35 3e a2 8b 66 bd
       0.04764812 -0.24940293 0.17726809 -0.056285508
000260 e4 f4 36 3e 77 6a 66 bd 70 5f 42 be 37 e3 53 3e
       0.17866856 -0.056253877 -0.18981719 0.20692144
000270 0a 4b 88 3b ca a3 4e 3e b4 92 f6 ba 0f db 0b be
       0.004159336 0.20179668 -0.0018812031 -0.13657783
000280 fe 86 91 3d 89 ed d2 3d 3c 5a ae bd a3 59 c7 bd
       0.07105826 0.102992125 -0.085133046 -0.09733894
000290 52 5b bb 3c 4e 37 03 be d1 69 1b bc c9 db ef 3d
       0.022870693 -0.12814066 -0.009485678 0.117118426
0002a0 cc 62 82 3d 2d d8 15 be b1 21 2d 3e 50 18 fb 3c
       0.063665 -0.14633246 0.16907384 0.030651242
0002b0 89 fc 9e bd 46 3d e1 bc 12 e8 2d 3c 57 4e f8 3d
       -0.07763011 -0.027495038 0.010614412 0.12124317
0002c0 11 33 1f be 53 8a bd bc 73 59 97 be d7 3e 81 3e
       -0.15546824 -0.023137247 -0.29560432 0.25243255
0002d0 a6 90 b1 3d 5c 56 b2 3e f6 d2 52 3e b7 3b 18 be
       0.086701676 0.34831512 0.20588288 -0.1486653
0002e0 a1 e8 88 bd f9 28 06 3e e9 06 18 be 4b 79 49 be
       -0.066849954 0.13101567 -0.14846386 -0.19675176
0002f0 e1 dc 58 be 05 c9 8b 3d bf c0 d6 bd 23 89 32 3e
       -0.21178009 0.06825451 -0.10485982 0.17435126
000300 77 3c 02 be fd d5 c0 3d 80 ed 8d 3e a7 dc 43 3e
       -0.12718378 0.09415815 0.2772026 0.19127141
000310 57 91 9e 3e 9f 60 e4 bc c0 d3 e8 be fe 63 56 3e
       0.3097026 -0.027878104 -0.45474052 0.20936581
000320 8b 54 bf bd f3 c2 09 3e 0b 05 26 be 23 e0 19 3e
       -0.09342297 0.13453273 -0.16212861 0.15026908
000330 76 b3 0d be 28 5e 21 3e d9 88 40 3e ae c0 00 3e
       -0.1383799 0.15758574 0.18802203 0.12573501
000340 2f 8e 59 3d 1a a4 9c 3d 2d 8f e3 bd da 46 29 3e
       0.053114112 0.076484874 -0.11111293 0.16530934
000350 d7 80 db 3d 18 c7 9a bd b3 ec 69 3d 66 3c a8 bc
       0.107179336 -0.07557505 0.0571105 -0.020536613
000360 03 4f 48 bd a1 ec d8 3d be 51 36 3e 9c a6 3a 3e
       -0.048903476 0.105920084 0.1780462 0.18227619
000370 56 52 7b bd 85 b7 ac 3d 24 c2 22 3e 0a b3 04 be
       -0.06135782 0.08433441 0.15894371 -0.12958923
000380 b7 72 a2 be 4d 9b 69 be 51 11 c7 be f9 89 8d 3d
       -0.31728145 -0.22813149 -0.388804 0.06911082
000390 58 4b 8d be e2 ee 77 3a d2 5b a8 be 7e 1c 25 3d
       -0.27596545 0.00094578986 -0.32882553 0.040310375
0003a0 6d 18 36 be 5f ac 89 3e a7 d2 54 3e be 02 87 3d
       -0.17782755 0.2688932 0.20783482 0.0659232
0003b0 dc 7d 0e 3e d6 4c 86 3b 57 82 ef be b0 d4 98 bd
       0.13915199 0.004098515 -0.4677913 -0.07462442
0003c0 35 fe 98 be 38 1e 82 bd 46 cf 4e 3e 19 6d f3 bd
       -0.29881445 -0.0635342 0.20196256 -0.11886043
0003d0 eb 90 7f be 74 32 e4 3c ac a0 cc 3d fc 8a fc bd
       -0.24957626 0.02785609 0.09991583 -0.12331197
0003e0 37 ab 99 be 47 95 01 be 96 4f 8d 3d e0 ba 0e 3e
       -0.3001344 -0.12654601 0.068999454 0.13938475
0003f0 78 a6 78 be b4 9f 5f 3a af fa 0b be 68 2d 9f 3e
       -0.24282253 0.00085305725 -0.13669847 0.3108933

lstm.weight_hh_l0 f4 [80, 20]
000000 9d 54 c0 bd 53 62 6f bd cd cf 80 be 0d a1 1a be
       -0.09391139 -0.05844338 -0.2515854 -0.15100498
000010 f9 fe 0f 3e 8b 16 00 be 4b 53 88 bd a2 21 35 bd
       0.14062108 -0.125086 -0.06656512 -0.044221528
000020 87 56 74 be 53 0b 2e bd 04 36 5c bc 0a 70 17 3e
       -0.23861133 -0.04249127 -0.013440613 0.14788833
000030 8e 45 12 bd 10 f2 0d 3e bc be f9 bd fc 47 b3 bd
       -0.035710864 0.13861871 -0.12194583 -0.08753964
000040 5d 3a 07 3e 59 86 e6 3c ce 0f 46 3d c9 4d 98 3e
       0.13205858 0.028140234 0.048354916 0.29746845
000050 8b 3d 0d be 01 c4 69 be 81 7f 0a be ca 07 40 3e
       -0.13793008 -0.22828676 -0.13525201 0.18752971
000060 5d 26 9e bd 26 fe ff bd 51 65 a2 3d d1 c1 0a 3e
       -0.07722161 -0.12499647 0.07929481 0.13550498
000070 8d 27 c6 3d 0e 82 82 3d 21 65 66 3c 5c 9e 06 be
       0.096755125 0.06372462 0.014062197 -0.13146347
000080 60 a5 87 3d 00 95 ae bd 05 87 3a bd 7b 14 04 be
       0.0662334 -0.08524513 -0.04553892 -0.12898438
000090 fe bf fc bd bf c5 9f bd 9e 9c 8d bd ad 5b 9a bd
       -0.12341307 -0.07801389 -0.06914638 -0.07537017
0000a0 fa a0 b3 3d aa 89 69 3e c9 cb a0 bc 50 ec 3b bd
       0.08770938 0.22806421 -0.019628422 -0.045879662
0000b0 12 7a 38 be d9 c3 a8 3d 1b bf 0e 3e 9c ec 3f bd
       -0.18015316 0.0824048 0.13940088 -0.046856508
0000c0 47 01 18 bb af cf 69 be 9a 94 1d 3e ee fa a6 3d
       -0.002319412 -0.22833131 0.15388718 0.0815333
0000d0 14 2c b3 bd 3e 12 4f bd 3d 5e b4 3d 5d eb 0e be
       -0.087486416 -0.050554506 0.08807037 -0.13956971
0000e0 73 ae 59 3c a4 26 a5 bd d3 a3 9a bd f7 92 04 be
       0.013286221 -0.08064011 -0.07550778 -0.12946688
0000f0 b7 45 d9 3c 61 03 19 be 4c f6 b9 3d a6 db 82 3d
       0.0265225 -0.14942695 0.090801805 0.06389551
000100 af 03 4a 3e e2 6e 94 be 99 b6 0e be 62 e1 fe bd
       0.19727968 -0.28990847 -0.13936843 -0.12445332
000110 e9 d1 9f be 13 b8 80 be 4c 7e cf 3d 29 42 0b 3e
       -0.31214836 -0.25140437 0.10131511 0.13599457
000120 0b 63 46 3e 16 09 45 3e 7f ef ba bd 14 64 1c 3e
       0.1937372 0.19241747 -0.091277115 0.15272552
000130 7c 1c cc 3d f3 0b 00 3e ac 5a 25 3d f3 34 b9 bd
       0.099663705 0.12504558 0.040369675 -0.090433024
000140 0b c4 b4 3d 61 94 58 ba d6 2d 3d 3e e5 dc 6a 3e
       0.08826455 -0.0008261856 0.18474516 0.22935827
000150 28 60 81 3e 29 6f 2a be 38 ed 2a 3e e9 75 8d bd
       0.25268674 -0.16643967 0.16692054 -0.06907255
000160 ae a8 03 be 3f fc b3 3d f1 7c c9 bd 75 8b 70 3e
       -0.12857315 0.087883465 -0.09838284 0.23490699
000170 14 2a cf 3d 92 ef 3c 3e 83 4c 76 bc 1c cb 10 3e
       0.10115448 0.18450764 -0.01503289 0.1413998
000180 fb 6f b9 3d 6d 74 a4 3d 06 32 90 bd 95 4f 03 be
       0.09054562 0.08030019 -0.07040791 -0.12823327
000190 4f ce b9 3d 94 40 02 be 43 33 31 be 31 0f b2 3d
       0.09072553 -0.12719947 -0.17304711 0.08694304
0001a0 52 29 94 3d 49 ed 23 3e 52 44 b5 bc e5 e7 a1 3d
       0.07234444 0.16008486 -0.022127304 0.079055585
0001b0 ea 04 cf bd ce fa ed 3d 79 de 3a be e3 a4 f3 3d
       -0.10108359 0.11620103 -0.18248929 0.11896684
0001c0 5d 0a b4 3d ce c4 81 bd 5d 41 2f 3e 43 6d a1 3c
       0.08791039 -0.06336366 0.17114778 0.01970542
0001d0 b6 fa 87 3e 33 9a 1a bd b9 ce 08 3d ce 9a fb 3c
       0.26558465 -0.037744712 0.03340027 0.030713465
0001e0 77 99 4b bd 5d 90 11 bd 20 55 7b 3d 2c 7d 31 bd
       -0.049706902 -0.035538066 0.06136048 -0.043332264
0001f0 7a 51 03 3d c5 31 90 be 6a f2 78 3c 50 a3 98 be
       0.032060124 -0.2816297 0.015194515 -0.29812098
000200 3c a0 5a be 1f ae 5d be ab 76 00 be 84 9d 64 be
       -0.21350187 -0.21648453 -0.12545268 -0.22325712
000210 6b 71 55 3e c7 9b 2a 3e 4f 66 3b 3e 94 c9 f7 3d
       0.20844047 0.16660987 0.18300746 0.12098995
000220 bb d1 60 3d ca 20 f2 3d ad 1a 31 3e 80 ea d4 bd
       0.054887515 0.1182266 0.17295332 -0.1039629
000230 a4 bb 56 be 52 c9 67 3e cc bf 36 3e 7d 43 53 be
       -0.20970017 0.22635391 0.17846602 -0.20631213
000240 7e b3 2b be 1a cb be 3d 97 5f f9 bd 92 f5 46 3e
       -0.1676769 0.09316082 -0.121764354 0.19429615
000250 e0 73 2d be 47 5e f8 3d 6c 43 37 be ca 76 4f be
       -0.16938734 0.12127357 -0.17896813 -0.20260158
000260 6b 10 bf 3d e6 96 39 be ac e1 1b 3e da ea c2 3d
       0.09329303 -0.1812397 0.15222806 0.09517451
000270 fe f5 5e 3e 4b e9 70 be 87 b4 b8 bd 83 0f f6 3d
       0.21773526 -0.23526494 -0.09018808 0.120146774
000280 95 65 7f be 90 47 f7 3d f5 45 49 3e 38 ed 28 3e
       -0.24941094 0.12074196 0.19655593 0.16496742
000290 7a 02 02 be ff 04 71 3e 2f 76 34 3e 8d 09 23 be
       -0.12696257 0.23537062 0.17623208 -0.15921612
0002a0 57 dc 2a be c2 f3 4b be 5f 9b 2d 3e 25 29 8f 3c
       -0.16685615 -0.19917205 0.169538 0.017475674
0002b0 6b f6 e0 3d 4a 10 63 bd 6e 42 b9 3d 10 21 96 bd
       0.109845005 -0.055435456 0.090458736 -0.07330525
0002c0 49 23 31 be 60 3f 67 3d 49 57 12 be 09 cc b1 bd
       -0.17298616 0.056456923 -0.14291109 -0.08681495
0002d0 41 a2 8a bd cb 54 c9 bd c1 e4 39 be 7a 15 59 3e
       -0.06769229 -0.09830626 -0.18153669 0.21199599
0002e0 d2 b9 92 bd c9 ad f3 3d 2b e5 0e 3e 4c c6 72 bc
       -0.07164349 0.11898381 0.13954608 -0.0148177855
0002f0 59 cf 3b 3e 86 e9 25 be 51 ba 69 3e 01 3e 7f bd
       0.18340816 -0.16202363 0.2282498 -0.06231499
000300 43 34 61 be 22 79 25 bc 73 a6 a8 bd e6 3c 15 3e
       -0.21992593 -0.010099681 -0.08234873 0.14574012
000310 a9 e3 9f 3c 23 d8 14 bd 1b 62 0d 3e 8e df 70 3e
       0.019517737 -0.036338937 0.13806956 0.2352278
000320 e5 ba ed 3d 08 54 90 3c 0a 60 c9 3d c9 9b 3c 3e
       0.11607913 0.017618194 0.09832771 0.18418802
000330 db 28 07 be 77 35 08 bd d9 c2 f9 bd 20 7d ca bd
       -0.13199179 -0.033254113 -0.12195367 -0.09887147
000340 a2 2d 66 3e 30 86 f4 3d 8f 22 1f be 7c f3 5d 3e
       0.22478345 0.11939657 -0.15540527 0.21674913
000350 ea 2a 86 3d 04 6e 1e be ec 48 cc 3d 7a c8 b9 3b
       0.06551154 -0.15471655 0.09974846 0.0056696506
000360 95 e8 9d bd 88 49 53 be b0 09 96 bd 5e 18 76 be
       -0.07710377 -0.20633519 -0.073260665 -0.24032733
000370 f6 77 e6 3d 14 8b 3f be 89 fc 5c be cc cc 98 3d
       0.112533495 -0.18705398 -0.2158071 0.07460937
000380 b8 da a8 bd 95 6c 4c 3e 6b 1a 21 3e 6d 9e 20 bc
       -0.08244842 0.19963296 0.15732734 -0.009803397
000390 13 de 82 be 5c e6 e1 bc c0 33 8d 3d 9e 78 3e 3e
       -0.25560054 -0.027575664 0.06894636 0.186007
0003a0 83 36 8f 3d d4 4f 7e be 3b 35 4d bd 59 18 69 be
       0.06992819 -0.2483514 -0.050099593 -0.22763194
0003b0 bb c5 7e be 86 15 00 be 00 da ca 3d f9 9d 0c 3e
       -0.24880116 -0.1250821 0.099048615 0.13732137
0003c0 d7 b4 6b bd 88 9a 4a bd 45 71 28 be ab d0 6a be
       -0.05754551 -0.04946378 -0.16449459 -0.22931163
0003d0 7c 38 c0 3d 14 3f c2 bc 5e 22 15 3e f7 b5 30 3e
       0.093857735 -0.023711719 0.14563891 0.17256914
0003e0 72 62 fe 3d 60 65 95 bd 2c 52 db 3d 7e e6 85 bd
       0.12421121 -0.07294726 0.107090324 -0.065381035
0003f0 0f a8 d6 bc 35 15 f0 3d a4 c3 cc 3d 54 ae 2e be
       -0.026203183 0.11722795 0.09998253 -0.17058688

lstm.bias_ih_l0 f4 [80]
000000 91 22 22 3e b9 32 69 3e 5e cd 35 bd 57 92 24 3e
       0.15833499 0.22773255 -0.044385307 0.16071449
000010 e5 a6 89 3e a1 85 49 be 79 80 03 bd 19 bb 36 3e
       0.26885143 -0.19679882 -0.032104943 0.1784481
000020 02 bd 88 3d c6 66 5f bc 24 7d 3f be be 97 b9 3b
       0.066766754 -0.013635343 -0.18700081 0.005663841
000030 58 5e 57 3e 87 bf 84 3e 08 20 a6 3d 15 e1 ab bd
       0.21032083 0.25927374 0.08111578 -0.0839254
000040 ea 6e 1f 3e e9 ad 62 be 8a 57 0c be 0e 3e c8 3d
       0.15569654 -0.22136654 -0.13705269 0.09777461
000050 5c 0e 86 3d 95 d3 57 3e 12 17 c1 bd b1 22 13 bc
       0.065457076 0.21076806 -0.094282284 -0.008980439
000060 15 28 af bc 9a 44 e4 3d 78 68 08 be 17 66 17 3e
       -0.021381417 0.11145897 -0.13321102 0.14785038
000070 46 c0 31 bd 52 db a2 3d cd b8 0c be a5 4d 8e 3e
       -0.043396257 0.07951988 -0.13742371 0.27793613
000080 b8 bf fe bd 10 eb 0c be 31 34 b9 3c 07 e9 6d 3d
       -0.12438911 -0.13761544 0.022607895 0.05808356
000090 dc 60 3b 3e 06 58 6a be b0 eb fe bd 98 fb 07 3e
       0.18298668 -0.22885141 -0.124472976 0.13279569
0000a0 0a b1 60 3e db 7d 05 be 9a 6e 33 bc a5 30 66 bd
       0.21942535 -0.13036291 -0.010951662 -0.056198735
0000b0 4b 4d 89 3e 65 61 84 bd ea 7a bb 3c c5 44 37 be
       0.26816782 -0.06463889 0.022885758 -0.17897327
0000c0 98 8d 0a be db 98 37 3e c5 f3 33 be 35 c5 d0 3c
       -0.13530576 0.17929403 -0.1757346 0.02548466
0000d0 1e 3a 4b be 9c 95 38 be e6 07 84 be 9f f9 72 3d
       -0.19846389 -0.18025821 -0.25787276 0.05932009
0000e0 cc a9 62 be 3b e8 37 3e ca 1d b4 3d 89 1b 18 3e
       -0.22135085 0.17959683 0.08794744 0.14854254
0000f0 5b ab c2 3d 81 16 26 be 40 e7 63 be 86 d7 9f bd
       0.0950534 -0.16219522 -0.22256184 -0.0780478
000100 43 af 30 3e 2e 88 4a 3e db 7c f2 bd 5e 4b b9 bd
       0.17254357 0.19778511 -0.118402205 -0.09047578
000110 63 b2 22 be 56 16 45 3e 49 20 4d be 9b 49 cb bd
       -0.15888362 0.19246802 -0.20031847 -0.099261485
000120 ed 09 8c 3d 7f 83 88 3e 5a 4d 40 3e 9c 89 00 3e
       0.06837831 0.26662824 0.18779507 0.12552494
000130 60 ea f2 3d bf 4c 5f be 68 7b 76 3e b8 8d 2b 3d
       0.1186111 -0.2180662 0.24070513 0.0418832

lstm.bias_hh_l0 f4 [80]
000000 93 e1 68 3e 6e bf 82 3e 6d 7f 06 be fc 74 e1 bd
       0.227423 0.25536674 -0.13134547 -0.11008641
000010 1b ea 8d bd fa 0f 2d 3e 47 81 64 3e 76 e5 c4 3b
       -0.06929418 0.16900626 0.2231494 0.006008799
000020 e8 bf b7 3c e2 1c c0 3d 6d 7e fe bd 84 70 f4 3d
       0.022430375 0.09380509 -0.124264576 0.11935523
000030 0f 3e ba bd 07 f8 bb bd b5 15 02 bd 25 a7 a1 bc
       -0.09093868 -0.09178167 -0.031758983 -0.019733021
000040 b5 71 89 bd 25 93 5a be bd b2 d0 3c a0 11 3f 3e
       -0.06711141 -0.21345194 0.025475854 0.18659067
000050 75 a2 50 bd d1 03 2f 3e f9 d1 6a 3d 8c d2 cb 3d
       -0.05093618 0.170913 0.05732915 0.09952268
000060 a0 a6 82 bd 9f fb 37 be d2 5e 76 3d ad f8 44 3e
       -0.063794374 -0.1796708 0.06014902 0.19235487
000070 df 4f f4 3c 72 5c 32 3e ff dc 54 3d b4 45 43 3e
       0.029823242 0.17418078 0.05196857 0.19069558
000080 f3 22 40 be b8 0f 2c 3e 8b 0a 20 be 45 1b 2c 3e
       -0.18763332 0.16802871 -0.15629022 0.16807278
000090 ad a1 30 3e ee fc 53 bd f7 7f 06 be b2 d9 7a be
       0.17249174 -0.051754884 -0.13134752 -0.24497107
0000a0 5c 46 70 3e c5 2f 61 be 8d d1 06 be 5c ba ec 3d
       0.2346434 -0.21990879 -0.13165875 0.11558983
0000b0 92 08 18 3e 1f 32 96 3d 57 2f 47 3e 4f 6b 9a 3d
       0.1484702 0.073337786 0.19451652 0.07539999
0000c0 35 13 8f 3d a8 14 51 bd 7d bd e8 3d 15 78 8c 3d
       0.06986085 -0.05104509 0.11364267 0.06858841
0000d0 f5 03 ba 3d 33 1e 8f bd 40 4a 90 bd 25 44 fa bd
       0.09082786 -0.06988182 -0.07045412 -0.12220029
0000e0 5e 0c 44 be 09 68 22 be ff 28 10 3e dc 31 6f 3d
       -0.19145343 -0.15859999 0.14078139 0.05839716
0000f0 5f 66 36 bd 4d 71 e3 3c 5d 02 78 be 5c ff d1 3d
       -0.044531222 0.027763987 -0.24219652 0.10253784
000100 1b 53 c0 3d 49 aa c0 bb e1 7e bd bd 1c 47 35 3e
       0.09390851 -0.0058796746 -0.09252716 0.17702907
000110 d4 1b ac bd e1 86 ca bd e0 44 75 3d 31 b0 09 be
       -0.08403745 -0.09889007 0.059880137 -0.13446118
000120 34 a0 3f 3e b1 6f 7f 3e 38 d3 44 3e 57 07 c0 bd
       0.18713456 0.2494495 0.19221199 -0.093764
000130 23 a4 1f 3c e7 24 00 bd 12 03 93 3d 10 3c de 3c
       0.009743723 -0.031285193 0.0717832 0.02712825

lin.weight f4 [10, 20]
000000 f9 ed b7 3a 95 6f 0f be 88 0b 2b 3a 7b 44 5f 3e
       0.0014032713 -0.14007409 0.00065248506 0.21803467
000010 cc 91 e6 3d 7a e2 76 bb 19 5f 62 3e 53 80 ce 3d
       0.11258277 -0.0037671612 0.2210659 0.1008307
000020 71 58 c8 bc 23 ba 2d 3e bb 9f 25 3e 75 01 ce 3d
       -0.024456235 0.16965537 0.16174214 0.10058872
000030 1b 23 19 be 6e 24 0e be 53 aa d8 3d 8c 08 78 3d
       -0.14954798 -0.13881084 0.10579362 0.060555026
000040 9c 1c 2e be 24 68 96 bd 01 60 28 be 89 01 33 be
       -0.17003101 -0.07344082 -0.16442873 -0.17481054
000050 14 18 40 3e c5 e5 ae 3d 25 4a 0d 3e 7e 87 e6 3d
       0.18759185 0.08539919 0.13797815 0.11256312
000060 2a eb 4a 3e b5 20 bb 3d 20 fc b0 3d 80 a8 f6 bd
       0.1981627 0.09137098 0.08641839 -0.120438576
000070 7c a0 2a 3d e0 b7 38 3e 4e 01 0e bd 97 07 8e bd
       0.041656956 0.18038893 -0.034669213 -0.069350414
000080 5c d4 4b 3b dc 97 64 be 4c ea 09 bd 98 46 28 3e
       0.0031101918 -0.22323555 -0.03367071 0.1643318
000090 1c 8a 72 be a9 73 7b 3e 4d b5 f5 bd 8e 80 de 3d
       -0.23685497 0.2455584 -0.11997471 0.108643636
0000a0 88 15 e7 bc 92 1b 14 be 17 a6 c5 bd c2 87 23 bd
       -0.02820851 -0.14463642 -0.0965082 -0.03992439
0000b0 39 35 d8 3d ca 75 df bc 4f fe 2c bd 6c 2d db bd
       0.105570264 -0.027277846 -0.042234715 -0.10702023
0000c0 86 6e 59 bd dc ce ec bc 92 ec 17 be 5d 21 2d 3c
       -0.05308392 -0.028907232 -0.14836338 0.010567036
0000d0 dc 4c 25 be 66 77 e7 bd 6d 20 64 be 48 0d 80 be
       -0.16142601 -0.1130207 -0.22277994 -0.25010133
0000e0 58 cc 03 be 39 3d 2f be 71 ca 6e 3e 9f c4 2a be
       -0.1287092 -0.17113198 0.23319413 -0.16676567
0000f0 f3 cb 13 be f1 cc 0e 3e a6 fd b1 bd 0f 43 ca 3d
       -0.14433269 0.13945366 -0.08690958 0.09876072
000100 06 f2 87 3d 96 94 34 bd 91 0d 60 3e 42 d6 2b 3d
       0.06637959 -0.044087015 0.21880175 0.04195238
000110 51 59 20 3e 46 f4 7d 3e a9 1e 0b 3e 5e 22 61 3e
       0.15659072 0.24800214 0.13585915 0.21985766
000120 b3 74 30 be 65 0b 73 bd 83 61 dd bd ed 17 bf bd
       -0.17232017 -0.05933704 -0.108096145 -0.09330735
000130 76 e2 e6 bc f7 36 48 3e bf d4 dc 3d a1 12 18 3e
       -0.028184157 0.19552217 0.107827656 0.14850856
000140 56 3e 4a 3e 67 64 56 be 4a ef c5 3c 06 db ed b8
       0.19750342 -0.20936738 0.024161953 -0.00011341837
000150 dd 09 3e 3e 5d 48 48 3e 58 ee f3 bd a9 6e 42 3e
       0.1855845 0.19558854 -0.11910695 0.18987526
000160 4d 25 98 bd 4e 5a e8 39 75 da 89 3d 27 f7 3f 3e
       -0.074289896 0.0004431777 0.067311205 0.18746625
000170 f3 48 d7 3c 94 52 9d bc 5e 7d 34 be c4 22 d7 bc
       0.026279902 -0.019204415 -0.17625949 -0.026261695
000180 0c 8b fa 3d cc 20 bd bd 99 2c 7e 3e 85 9c b8 3c
       0.12233552 -0.09234771 0.248217 0.022535572
000190 76 3b 4f bd 44 30 85 be 9a 5a cd 3d 1c d5 c8 3d
       -0.050593816 -0.26013386 0.100270465 0.098062724
0001a0 b6 57 3a 3d d8 73 8f 3d de bc df 3d b4 7f 0c 3e
       0.045493804 0.07004517 0.109246954 0.1372059
0001b0 5a 64 59 3c d8 59 81 3e 30 39 ba 3d 21 4f 76 bb
       0.013268555 0.25263858 0.09092939 -0.0037583786
0001c0 78 b6 23 3c 09 10 0d 3d 99 7e dd bd 12 5c 76 be
       0.009992234 0.03443912 -0.10815162 -0.2405856
0001d0 d3 9b 9e 3d 1d 23 81 bd 9c a6 50 3e 56 28 1d be
       0.07744565 -0.063055255 0.20376056 -0.15347418
0001e0 64 c0 03 3d c9 d8 37 be a0 88 4c be 74 14 0c 3e
       0.0321659 -0.1795379 -0.19973993 0.13679677
0001f0 df 0d a0 3d af b4 ab 3d d8 ab 97 3d 7c a4 bf bd
       0.07815146 0.08384072 0.074058235 -0.09357545
000200 e0 0b 01 be d4 c3 e0 bd 3b f6 53 be a6 8f 76 3d
       -0.12602186 -0.10974851 -0.20699398 0.060195588
000210 f0 69 80 be 7e 63 64 be 26 16 27 bd 98 b8 3e 3d
       -0.25080824 -0.22303578 -0.040792607 0.04656276
000220 d9 d7 56 be d6 e7 db bd 9a f8 1b 3e 5d d1 f2 bd
       -0.20980777 -0.107375786 0.15231553 -0.11856339
000230 20 0d 8d 3d ad b6 46 be 2f 17 2b 3e cb ce 6e 3e
       0.06887269 -0.19405623 0.16708063 0.23321073
000240 c3 ca 38 be d8 82 48 3d b1 1e f9 3d 1b f0 73 3d
       -0.18046097 0.048952907 0.12164057 0.059555154
000250 ed 98 94 3d 89 da 5d 3d e2 ce 11 be 9d 3b 1b be
       0.07255731 0.05416349 -0.14239076 -0.1515946
000260 5e fb 8d bd 24 49 51 bb 71 06 81 be 63 62 29 be
       -0.0693271 -0.0031934464 -0.25200227 -0.16541438
000270 5b c9 fa bd 48 aa 06 3e c2 fe 18 3d d2 01 7a 3e
       -0.12245437 0.13150895 0.03735233 0.24414757
000280 ea 17 50 3e f5 8d 4e be ff ef 42 3e a4 8d f3 3d
       0.20321622 -0.2017134 0.19036864 0.1189225
000290 86 d6 62 bd 5a 47 87 3d 3f 52 8a 3e 53 7f 11 3e
       -0.055380367 0.06605406 0.27015874 0.14208727
0002a0 03 71 cc bd 30 1f 0f bd 61 29 03 3e 55 3f 3e 3e
       -0.09982493 -0.034941852 0.12808754 0.18578847
0002b0 b1 cd e9 3d f3 98 15 be 34 f4 15 be 7a 1a b0 ba
       0.11416186 -0.14609127 -0.14643937 -0.0013435625
0002c0 dd 47 9d bd d0 24 bb bd 70 bb 63 3d 1b b2 17 be
       -0.076797225 -0.09137881 0.055598676 -0.14814036
0002d0 bc 12 7a 3d ae 42 37 be da ca fc bb ed 88 44 3e
       0.061053023 -0.1789653 -0.0077146115 0.19192858
0002e0 0e 90 13 3c 6d e2 4a 3e 30 27 82 3e 9e b7 80 be
       0.009006513 0.19812937 0.25420523 -0.2514009
0002f0 61 1a 36 3e ca f6 38 3e c0 fd 83 be 1c 00 b3 bd
       0.177835 0.18062893 -0.25779533 -0.08740255
000300 1f c2 9c bd 69 2e c0 bd e6 61 be bd 3f 0b 18 be
       -0.07654213 -0.09383852 -0.092960164 -0.1484804
000310 ac 09 c3 bd 04 0f 9d 3d 5d 4f fe 3c b7 93 71 3e
       -0.09523329 0.0766888 0.031043703 0.23591505

lin.bias f4 [10]
000000 68 75 3e bd c4 8e 84 3e f8 db 1b 3d e4 a3 8c 3c
       -0.046498686 0.25890172 0.038051575 0.017167993
000010 c7 ab 93 3d a2 22 3f bd aa c5 ba 3c 2a 52 c4 3d
       0.07210498 -0.046663888 0.022799332 0.09585984
000020 c9 d8 b7 bd e4 7e fa 3b
       -0.08976895 0.007644521
