models/102-seed-100train_control-40-7/itr-0-nsc.pth.pth (torch, 433145 bytes, 24 tensors)

B f4 [400, 200]
000000 17 b7 d1 38 17 b7 d1 38 17 b7 d1 38 17 b7 d1 38
       1e-04 1e-04 1e-04 1e-04
000010 17 b7 d1 38 17 b7 d1 38 17 b7 d1 38 17 b7 d1 38
       1e-04 1e-04 1e-04 1e-04
000020 17 b7 d1 38 17 b7 d1 38 17 b7 d1 38 17 b7 d1 38
       1e-04 1e-04 1e-04 1e-04
000030 17 b7 d1 38 17 b7 d1 38 17 b7 d1 38 17 b7 d1 38
       1e-04 1e-04 1e-04 1e-04
000040 17 b7 d1 38 17 b7 d1 38 17 b7 d1 38 17 b7 d1 38
       1e-04 1e-04 1e-04 1e-04
000050 17 b7 d1 38 17 b7 d1 38 17 b7 d1 38 17 b7 d1 38
       1e-04 1e-04 1e-04 1e-04
000060 17 b7 d1 38 17 b7 d1 38 17 b7 d1 38 17 b7 d1 38
       1e-04 1e-04 1e-04 1e-04
000070 17 b7 d1 38 17 b7 d1 38 17 b7 d1 38 17 b7 d1 38
       1e-04 1e-04 1e-04 1e-04
000080 17 b7 d1 38 17 b7 d1 38 17 b7 d1 38 17 b7 d1 38
       1e-04 1e-04 1e-04 1e-04
000090 17 b7 d1 38 17 b7 d1 38 17 b7 d1 38 17 b7 d1 38
       1e-04 1e-04 1e-04 1e-04
0000a0 17 b7 d1 38 17 b7 d1 38 17 b7 d1 38 17 b7 d1 38
       1e-04 1e-04 1e-04 1e-04
0000b0 17 b7 d1 38 17 b7 d1 38 17 b7 d1 38 17 b7 d1 38
       1e-04 1e-04 1e-04 1e-04
0000c0 17 b7 d1 38 17 b7 d1 38 17 b7 d1 38 17 b7 d1 38
       1e-04 1e-04 1e-04 1e-04
0000d0 17 b7 d1 38 17 b7 d1 38 17 b7 d1 38 17 b7 d1 38
       1e-04 1e-04 1e-04 1e-04
0000e0 17 b7 d1 38 17 b7 d1 38 17 b7 d1 38 17 b7 d1 38
       1e-04 1e-04 1e-04 1e-04
0000f0 17 b7 d1 38 17 b7 d1 38 17 b7 d1 38 17 b7 d1 38
       1e-04 1e-04 1e-04 1e-04
000100 17 b7 d1 38 17 b7 d1 38 17 b7 d1 38 17 b7 d1 38
       1e-04 1e-04 1e-04 1e-04
000110 17 b7 d1 38 17 b7 d1 38 17 b7 d1 38 17 b7 d1 38
       1e-04 1e-04 1e-04 1e-04
000120 17 b7 d1 38 17 b7 d1 38 17 b7 d1 38 17 b7 d1 38
       1e-04 1e-04 1e-04 1e-04
000130 17 b7 d1 38 17 b7 d1 38 17 b7 d1 38 17 b7 d1 38
       1e-04 1e-04 1e-04 1e-04
000140 17 b7 d1 38 17 b7 d1 38 17 b7 d1 38 17 b7 d1 38
       1e-04 1e-04 1e-04 1e-04
000150 17 b7 d1 38 17 b7 d1 38 17 b7 d1 38 17 b7 d1 38
       1e-04 1e-04 1e-04 1e-04
000160 17 b7 d1 38 17 b7 d1 38 17 b7 d1 38 17 b7 d1 38
       1e-04 1e-04 1e-04 1e-04
000170 17 b7 d1 38 17 b7 d1 38 17 b7 d1 38 17 b7 d1 38
       1e-04 1e-04 1e-04 1e-04
000180 17 b7 d1 38 17 b7 d1 38 17 b7 d1 38 17 b7 d1 38
       1e-04 1e-04 1e-04 1e-04
000190 17 b7 d1 38 17 b7 d1 38 17 b7 d1 38 17 b7 d1 38
       1e-04 1e-04 1e-04 1e-04
0001a0 17 b7 d1 38 17 b7 d1 38 17 b7 d1 38 17 b7 d1 38
       1e-04 1e-04 1e-04 1e-04
0001b0 17 b7 d1 38 17 b7 d1 38 17 b7 d1 38 17 b7 d1 38
       1e-04 1e-04 1e-04 1e-04
0001c0 17 b7 d1 38 17 b7 d1 38 17 b7 d1 38 17 b7 d1 38
       1e-04 1e-04 1e-04 1e-04
0001d0 17 b7 d1 38 17 b7 d1 38 17 b7 d1 38 17 b7 d1 38
       1e-04 1e-04 1e-04 1e-04
0001e0 17 b7 d1 38 17 b7 d1 38 17 b7 d1 38 17 b7 d1 38
       1e-04 1e-04 1e-04 1e-04
0001f0 17 b7 d1 38 17 b7 d1 38 17 b7 d1 38 17 b7 d1 38
       1e-04 1e-04 1e-04 1e-04
000200 17 b7 d1 38 17 b7 d1 38 17 b7 d1 38 17 b7 d1 38
       1e-04 1e-04 1e-04 1e-04
000210 17 b7 d1 38 17 b7 d1 38 17 b7 d1 38 17 b7 d1 38
       1e-04 1e-04 1e-04 1e-04
000220 17 b7 d1 38 17 b7 d1 38 17 b7 d1 38 17 b7 d1 38
       1e-04 1e-04 1e-04 1e-04
000230 17 b7 d1 38 17 b7 d1 38 17 b7 d1 38 17 b7 d1 38
       1e-04 1e-04 1e-04 1e-04
000240 17 b7 d1 38 17 b7 d1 38 17 b7 d1 38 17 b7 d1 38
       1e-04 1e-04 1e-04 1e-04
000250 17 b7 d1 38 17 b7 d1 38 17 b7 d1 38 17 b7 d1 38
       1e-04 1e-04 1e-04 1e-04
000260 17 b7 d1 38 17 b7 d1 38 17 b7 d1 38 17 b7 d1 38
       1e-04 1e-04 1e-04 1e-04
000270 17 b7 d1 38 17 b7 d1 38 17 b7 d1 38 17 b7 d1 38
       1e-04 1e-04 1e-04 1e-04
000280 17 b7 d1 38 17 b7 d1 38 17 b7 d1 38 17 b7 d1 38
       1e-04 1e-04 1e-04 1e-04
000290 17 b7 d1 38 17 b7 d1 38 17 b7 d1 38 17 b7 d1 38
       1e-04 1e-04 1e-04 1e-04
0002a0 17 b7 d1 38 17 b7 d1 38 17 b7 d1 38 17 b7 d1 38
       1e-04 1e-04 1e-04 1e-04
0002b0 17 b7 d1 38 17 b7 d1 38 17 b7 d1 38 17 b7 d1 38
       1e-04 1e-04 1e-04 1e-04
0002c0 17 b7 d1 38 17 b7 d1 38 17 b7 d1 38 17 b7 d1 38
       1e-04 1e-04 1e-04 1e-04
0002d0 17 b7 d1 38 17 b7 d1 38 17 b7 d1 38 17 b7 d1 38
       1e-04 1e-04 1e-04 1e-04
0002e0 17 b7 d1 38 17 b7 d1 38 17 b7 d1 38 17 b7 d1 38
       1e-04 1e-04 1e-04 1e-04
0002f0 17 b7 d1 38 17 b7 d1 38 17 b7 d1 38 17 b7 d1 38
       1e-04 1e-04 1e-04 1e-04
000300 17 b7 d1 38 17 b7 d1 38 17 b7 d1 38 17 b7 d1 38
       1e-04 1e-04 1e-04 1e-04
000310 17 b7 d1 38 17 b7 d1 38 17 b7 d1 38 17 b7 d1 38
       1e-04 1e-04 1e-04 1e-04
000320 17 b7 d1 38 17 b7 d1 38 17 b7 d1 38 17 b7 d1 38
       1e-04 1e-04 1e-04 1e-04
000330 17 b7 d1 38 17 b7 d1 38 17 b7 d1 38 17 b7 d1 38
       1e-04 1e-04 1e-04 1e-04
000340 17 b7 d1 38 17 b7 d1 38 17 b7 d1 38 17 b7 d1 38
       1e-04 1e-04 1e-04 1e-04
000350 17 b7 d1 38 17 b7 d1 38 17 b7 d1 38 17 b7 d1 38
       1e-04 1e-04 1e-04 1e-04
000360 17 b7 d1 38 17 b7 d1 38 17 b7 d1 38 17 b7 d1 38
       1e-04 1e-04 1e-04 1e-04
000370 17 b7 d1 38 17 b7 d1 38 17 b7 d1 38 17 b7 d1 38
       1e-04 1e-04 1e-04 1e-04
000380 17 b7 d1 38 17 b7 d1 38 17 b7 d1 38 17 b7 d1 38
       1e-04 1e-04 1e-04 1e-04
000390 17 b7 d1 38 17 b7 d1 38 17 b7 d1 38 17 b7 d1 38
       1e-04 1e-04 1e-04 1e-04
0003a0 17 b7 d1 38 17 b7 d1 38 17 b7 d1 38 17 b7 d1 38
       1e-04 1e-04 1e-04 1e-04
0003b0 17 b7 d1 38 17 b7 d1 38 17 b7 d1 38 17 b7 d1 38
       1e-04 1e-04 1e-04 1e-04
0003c0 17 b7 d1 38 17 b7 d1 38 17 b7 d1 38 17 b7 d1 38
       1e-04 1e-04 1e-04 1e-04
0003d0 17 b7 d1 38 17 b7 d1 38 17 b7 d1 38 17 b7 d1 38
       1e-04 1e-04 1e-04 1e-04
0003e0 17 b7 d1 38 17 b7 d1 38 17 b7 d1 38 17 b7 d1 38
       1e-04 1e-04 1e-04 1e-04
0003f0 17 b7 d1 38 17 b7 d1 38 17 b7 d1 38 17 b7 d1 38
       1e-04 1e-04 1e-04 1e-04

encoder.attn_v f4 [40]
000000 11 e2 69 3f 23 51 6a 3f 7b 06 84 3f c8 81 5b 3f
       0.91360575 0.91530055 1.0314478 0.85744905
000010 d0 84 9d 3f 22 60 94 3f 17 38 88 3f 9f f6 68 3f
       1.2306156 1.1591837 1.0642117 0.91001314
000020 b0 8f 75 3f 74 19 8f 3f e5 91 98 3f b4 78 8a 3f
       0.95922375 1.1179643 1.1919523 1.0818086
000030 60 c1 60 3f 8f a2 6d 3f 13 f1 59 3f d4 b4 5d 3f
       0.87795067 0.9282617 0.85133475 0.86604047
000040 70 6a 6f 3f ed 8c 9a 3f dc 1e 90 3f 81 86 96 3f
       0.93521786 1.2074257 1.1259418 1.1759797
000050 8d 13 99 3f 2d 04 5a 3f 2e e3 ac 3f 3f 4d 90 3f
       1.1959091 0.8516262 1.350683 1.1273574
000060 34 f0 51 3f 0f 50 79 3f 1c d1 51 3f 60 76 81 3f
       0.82007146 0.97387785 0.819597 1.011425
000070 65 b8 cd 3f 06 55 9e 3f c9 c9 90 3f 3c fc 9f 3f
       1.6071898 1.2369697 1.131158 1.2498851
000080 3a 1e 87 3f 18 1c 8a 3f 95 95 97 3f fc 59 66 3f
       1.05561 1.0789824 1.1842524 0.89981055
000090 00 1a 86 3f 92 89 80 3f 3b df 81 3f 85 5c 9b 3f
       1.0476685 1.0041983 1.014625 1.213761

encoder.grud.zl.weight f4 [40, 44]
000000 11 94 88 be 50 62 aa bd 64 f1 99 bc cc 2d bd bd
       -0.26675466 -0.08319533 -0.018791862 -0.09237251
000010 f4 ea 18 bd 96 dc f5 bd c3 41 d0 3d ba 25 ea 3d
       -0.037333444 -0.12004964 0.10168793 0.11432977
000020 5c 71 0b 3e 6b 9b 90 bd dd 20 18 be e0 d2 3d 3a
       0.13617462 -0.070608936 -0.14856286 0.00072412007
000030 a8 a3 3f 3d dd 82 a9 bd 05 51 ee 3c dd 20 ba 3d
       0.046786934 -0.08276913 0.029091367 0.090882994
000040 26 d4 91 be 0c 2d 6f be b2 23 ba bc f6 6b f0 3d
       -0.2848217 -0.23357028 -0.022722099 0.11739342
000050 03 67 de bd 51 54 b1 3d 87 b5 42 3e 79 cf 75 be
       -0.10859492 0.0865866 0.1901456 -0.24004926
000060 1e 0e 5d be cd 58 bc 3d 18 8d 67 be 37 6a 6a bd
       -0.21587417 0.09196625 -0.22612417 -0.0572302
000070 a8 a5 31 be 59 9c 21 3e 21 3d 8a 3d b9 50 d1 3e
       -0.17348349 0.15782298 0.06749941 0.408819
000080 cf 03 94 bd 55 56 25 bd 1d 3b 7f 3d 6d a4 e7 3d
       -0.07227289 -0.040365536 0.062312234 0.113106586
000090 a2 2e 15 3e 6a 14 3a bc d3 63 b1 3c ad 7e 06 3d
       0.1456857 -0.011357406 0.021654045 0.03283565
0000a0 d1 d8 4c be 05 4d b8 3d 1e 21 84 3e 94 5d 03 3e
       -0.20004584 0.08999065 0.25806516 0.12828666
0000b0 a0 a1 f5 be e2 cf 5e be ec 8b 42 be 80 79 3a be
       -0.47974873 -0.21758988 -0.18998688 -0.18210411
0000c0 72 b1 18 be e2 3c d0 be 35 aa 27 3f 78 cd de 3e
       -0.1491144 -0.4067145 0.6549409 0.43516135
0000d0 95 27 f4 3d db 26 8b 3c 6c ba 92 bd 1c 9f c2 3c
       0.11921612 0.016986301 -0.071644634 0.02375751
0000e0 02 de cc 3e 7c da b9 bd 80 4b 77 bd fc a9 fc 3c
       0.4001313 -0.09074876 -0.060374737 0.030842774
0000f0 93 03 10 be 9a 89 84 be b1 ce 11 bd d0 b8 55 3e
       -0.14063863 -0.25886232 -0.035597507 0.20871282
000100 3e a4 92 3d 9f 10 bc 3e a3 8a ec 3e 28 24 9c be
       0.07160233 0.3673143 0.4619952 -0.30496335
000110 40 a7 42 be 1a 63 f0 bd 80 ef 83 be ea cd 6d 3e
       -0.19009113 -0.11737652 -0.25768661 0.23223081
000120 f1 38 50 be 32 79 a2 3c e8 e9 46 3e 5d 77 7c 3e
       -0.20334221 0.019833181 0.19425166 0.24654908
000130 d7 f8 bd 3d 2e 0e ef 3d fe a2 43 be 73 72 47 be
       0.09275978 0.116726264 -0.19105145 -0.19477253
000140 f8 40 15 bd a8 21 06 bd 8f 7d 15 3d d2 6b 40 3e
       -0.036438912 -0.03274694 0.036496695 0.1879113
000150 b2 2c 36 bd ce 66 b8 3b d5 41 4f 3e 4f 42 61 3e
       -0.04447622 0.0056274896 0.20239957 0.21997951
000160 08 94 8f be 63 24 d1 bd 47 d8 23 be b2 fc 36 be
       -0.28042626 -0.10212018 -0.16000472 -0.17869833
000170 ea bd 37 3c 1c 42 3c be 10 f2 7b 3e 47 cb 46 3e
       0.011214713 -0.18384594 0.24604058 0.19413482
000180 9f 7a 9f 3e 21 f7 35 be 47 ef 9c bd 5a 93 f6 3d
       0.3114824 -0.17770053 -0.07662826 0.12039824
000190 e9 c5 1d 3e e3 43 9b 3c a4 da 60 be a2 10 87 be
       0.15407528 0.01895327 -0.21958405 -0.26379877
0001a0 54 a7 fb bd 46 5e 68 bd 2a 6d d2 3b b6 09 a0 3e
       -0.12287775 -0.05673053 0.006421705 0.3125741
0001b0 0c 6c 82 3d 51 9c 3a 3e 81 e5 00 3e ec b0 c8 be
       0.063682646 0.18223692 0.12587549 -0.3919748
0001c0 73 fd 40 ba de 13 30 bc a0 c6 ec be 21 cb 87 bd
       -0.00073619856 -0.010746924 -0.4624529 -0.06630541
0001d0 2d 30 cd bd 82 22 a1 bd 77 66 32 3e 6b 0f c3 3d
       -0.100189544 -0.0786791 0.174219 0.09524425
0001e0 84 04 04 3e 52 53 a2 3e f6 e4 50 3c d4 ed f3 bc
       0.12892348 0.31704193 0.012749901 -0.029776491
0001f0 4e c9 80 3e 04 1b be bc 68 d5 05 bd 91 86 06 be
       0.25153583 -0.023206241 -0.032674223 -0.1313727
000200 84 97 c0 bc c8 fa 5b 3d 4c 0a 4c bd bc d4 97 bb
       -0.023509748 0.05370596 -0.049814507 -0.004633514
000210 3e 0c fb bd d0 b4 14 be cc 57 0a bc d6 57 30 3d
       -0.122581944 -0.145221 -0.008443784 0.043052517
000220 30 4c e4 3d 75 ad 9e 3b 42 84 a5 3d 18 eb 95 3d
       0.11147344 0.004842455 0.08081867 0.07320231
000230 a7 6d ca 3d cb 6d 99 3d ff 14 68 3d f2 9b 0c 3d
       0.09884196 0.074916445 0.05666065 0.03432841
000240 2f 42 80 3d da bc 05 3d 5c 59 0e 3c 17 4c 13 3e
       0.062626235 0.032650806 0.008688297 0.14384495
000250 4e ac 41 be d7 1d 61 bd b5 a5 f4 3d db 85 06 3e
       -0.18913385 -0.054960098 0.119456686 0.13137
000260 8e d0 09 3d 35 77 d0 3c 00 02 ea 3d 46 3a dc bd
       0.03364616 0.025447467 0.11426163 -0.10753302
000270 2a 89 20 3a c9 ad 48 3d 6d 51 3e be d6 84 f7 3d
       0.00061239547 0.04899386 -0.18585749 0.12085883
000280 c4 19 39 bb 8d f6 44 bd 45 28 a3 3e 03 64 ef 3e
       -0.0028244117 -0.04808669 0.3186666 0.4675599
000290 c5 1d 0c be 29 af 10 bd 98 61 13 be b8 f0 b1 bd
       -0.13683231 -0.035323296 -0.14392698 -0.086884916
0002a0 ac e0 02 be e7 66 1b be b9 b9 3c 3e bb 73 02 3e
       -0.12781018 -0.15175973 0.18430223 0.1273946
0002b0 e3 0f 7c be 94 31 c0 3d eb 58 72 3d bb cd 80 3c
       -0.24615435 0.09384456 0.05916683 0.0157231
0002c0 8c bd 38 3e b1 04 33 be b4 f9 30 bd 26 93 18 be
       0.18041056 -0.17482258 -0.043206885 -0.14899883
0002d0 10 d1 55 3c 9f b1 ac be ee d0 bd 3e 70 d4 00 3e
       0.013050333 -0.33729264 0.37073463 0.12581038
0002e0 7b d7 31 3f fc f4 6c 3d b1 e2 b5 bd 44 51 64 bd
       0.6946942 0.057850823 -0.088811286 -0.055741563
0002f0 92 73 37 3e 5d be 8a 3d 7e 44 6c bd 8a 92 a1 3e
       0.1791518 0.0677459 -0.057682507 0.31557113
000300 04 22 34 be 75 d4 92 be 91 5b 2d be 09 84 f5 3d
       -0.17591101 -0.28677717 -0.16929461 0.11988074
000310 bc df 0b bd 6e 8e d2 3e ac 35 d7 3e 04 f4 22 be
       -0.034148917 0.4112429 0.42033136 -0.15913397
000320 7c d5 48 be 2d 52 82 be 32 d7 e6 bd 34 f9 2f 3e
       -0.19612688 -0.2545332 -0.11271514 0.17184907
000330 00 75 c1 bd 66 9d 0b 3e 04 84 09 3f b9 84 24 3f
       -0.09446144 0.13634261 0.53717065 0.6426502
000340 5b b6 d5 bc a6 14 1b 3d e7 2d d4 bd c8 73 19 3d
       -0.02608793 0.03786149 -0.10360318 0.037463933
000350 b7 54 07 3e 70 05 e7 bc 08 ad 92 3d 5c 09 37 3e
       0.1321591 -0.028200835 0.07161909 0.17874664
000360 81 d4 b1 bd bf bb 02 3f b8 89 4d 3e d6 ae 2a 3e
       -0.0868311 0.5106773 0.20072067 0.16668257
000370 37 f4 84 3c 47 71 8a bd 79 c3 81 be 29 41 eb 39
       0.016229732 -0.06759887 -0.25344446 0.0004487124
000380 a4 4b 06 3d ad 10 b1 be e1 c5 89 3d b5 7c 19 bd
       0.03278698 -0.34583035 0.067271955 -0.037472446
000390 2a cd 27 3f a2 d0 8e bd d3 46 cb bd 0e c3 f4 bd
       0.6554743 -0.06973387 -0.09925618 -0.11951266
0003a0 5b 79 78 3d 4f 11 23 be 08 77 4d 3d f5 19 4f bd
       0.06066261 -0.15924571 0.050162345 -0.050561864
0003b0 42 84 d9 be 1c f0 18 be 5e 6b ad bd 86 c8 f5 3d
       -0.42483717 -0.14935344 -0.08467744 0.120011374
0003c0 c6 62 73 3c 6b 31 31 3e a5 e4 75 3e 2c 39 af be
       0.014855092 0.17304008 0.24013002 -0.34223306
0003d0 85 ae a7 be 40 e5 ed bd 40 0e a4 bd 47 06 30 3e
       -0.32750335 -0.116159916 -0.080105305 0.17189895
0003e0 cf 66 48 be 39 53 15 bd 73 cc fc 3e c2 7e dd 3e
       -0.19570468 -0.03645632 0.49374732 0.4326077
0003f0 8f a0 40 be 5d 6a d9 bd bd c4 14 be 85 7b ed bd
       -0.18811248 -0.1061599 -0.14528175 -0.11595825

encoder.grud.zl.bias f4 [40]
000000 57 a5 50 3e a0 48 e6 3c 11 3d 3c bd d3 a3 8f 3e
       0.20375572 0.028110802 -0.045956675 0.28054675
000010 d5 e3 06 3d 74 7a 82 3e 96 ee 30 3e ee 31 3e 3e
       0.03293212 0.2548405 0.17278513 0.18573734
000020 5a 3c 7d 3e b2 e7 c6 3d 34 bf 11 3e 8f 70 6c bd
       0.24730054 0.09712161 0.14233094 -0.05772453
000030 19 90 86 3e d1 3d 85 be e5 5c 3e 3e 13 3f 97 bc
       0.26281813 -0.26023725 0.18590124 -0.018462693
000040 b7 90 46 3d 32 a5 cc 3e f3 2e d4 3d e5 75 1c 3e
       0.048477855 0.39969784 0.10360517 0.15279348
000050 f2 88 64 bd a5 0a eb 3d 1a 6e 62 bd 09 95 95 3e
       -0.055794664 0.1147664 -0.055280782 0.29215267
000060 4b 9e 9e bd 22 b0 90 bb 48 b2 4f 3d 0b 83 23 3e
       -0.07745036 -0.004415528 0.05070713 0.15967958
000070 e7 20 41 be 5c a3 45 bd 03 20 46 3e 5a b4 74 3e
       -0.18860207 -0.048251495 0.19348149 0.23896924
000080 54 33 c7 bc eb e2 5d be 72 3f cc 3e 9e 08 a4 3e
       -0.024316467 -0.21668594 0.39892155 0.32037824
000090 2d 86 97 3e 7d 0d 96 3e f6 d1 7b 3e 18 3b 10 3d
       0.29594555 0.29307166 0.24591812 0.035212606

encoder.grud.rl.weight f4 [40, 44]
000000 a0 74 ac 3b 38 c6 4b 3d ed b6 a1 bc 18 ba 7e be
       0.005262926 0.049749583 -0.019740546 -0.24875677
000010 95 c9 10 3f 3f f3 1d 3b 5d a8 92 3c ba 5c 0f 3e
       0.5655759 0.0024101285 0.017902547 0.14000216
000020 8e cb 94 3d fb ff 2d 3d bd 43 8e 3d ee 74 17 3e
       0.072653875 0.04248045 0.06946514 0.14790699
000030 6b f4 58 3e d4 6a 1e be 35 ee 8a be 9a d5 5a 3e
       0.21186988 -0.15470439 -0.27134863 0.21370545
000040 6c b1 53 3d b7 50 bf bd 6e a0 c9 3d 2c 9c e8 bc
       0.051682875 -0.09341567 0.09845053 -0.028394781
000050 7e 1d ff 3d a4 c2 2e 3d 58 e8 6b 3e 09 b7 48 3e
       0.12456797 0.042666093 0.23037851 0.19601072
000060 24 95 d8 bd e0 85 2f 3e bc fd 96 3e a5 5e 8f 3d
       -0.10575321 0.17140913 0.2949046 0.07000474
000070 00 7f b1 bd 34 17 89 be 19 fe b7 bd e0 55 0a 3e
       -0.086668015 -0.26775515 -0.08984012 0.13509321
000080 9e 6f bc bd 7b 41 14 be 13 c3 3b 3e 4f af f5 bd
       -0.09200977 -0.14478104 0.18336134 -0.11996328
000090 cf 1d 4d 3e dd ea 00 3e 57 89 67 be 0b b1 bc bd
       0.20030902 0.12589593 -0.22610985 -0.09213456
0000a0 d2 40 78 3e 03 38 ec bd 66 6c 2b 3d 04 ca 22 3e
       0.24243477 -0.11534121 0.041851424 0.15897375
0000b0 b7 0b bc 3b 4d 84 03 3d 8d 9d 89 3d c2 d6 fa bd
       0.005738701 0.032108594 0.067195036 -0.12247993
0000c0 a5 76 dc 3e 84 80 c5 bd 43 ae c4 bd aa d8 ed bd
       0.4305927 -0.09643653 -0.0960355 -0.11613591
0000d0 33 f6 fb 3e 23 2a d6 3d 28 cc 9d 3a 38 19 48 3e
       0.49211273 0.10457256 0.0012038993 0.1954087
0000e0 d6 8a 9a 3d 42 64 81 bb 02 38 a4 bc 1a 2c ec 3d
       0.07546012 -0.0039487192 -0.020046238 0.11531849
0000f0 45 35 66 bd 21 8d 1c be a3 d4 6b bd 4d 5b 45 3e
       -0.056203146 -0.15288211 -0.057575833 0.1927311
000100 a6 0b 47 3e e5 1e 02 3d ec 2d f1 3c 1a 16 92 3d
       0.19438037 0.031767745 0.029440843 0.07133122
000110 07 ed ae 3d e6 26 d4 3d 06 30 e1 bc 76 8c 62 be
       0.08541303 0.10358982 -0.02748872 -0.22123894
000120 80 a7 fb bd 4f ca ad 3d 4d 1c ab 3e 24 60 c4 3e
       -0.122878075 0.08485853 0.3342003 0.383546
000130 73 68 06 3c 42 df 82 bd ab 4a 2e 3e 3b 3e 0a bd
       0.008203614 -0.06390239 0.17020671 -0.033750754
000140 c8 10 b5 bc 81 d8 bb bd 4b 83 82 3e a6 22 83 bd
       -0.022102728 -0.09172154 0.25490794 -0.06403093
000150 fe cc f9 3c 8c 69 92 3e 69 8a d6 bb 42 e6 5b 3e
       0.030493256 0.2859615 -0.0065472615 0.21474555
000160 e2 9a 53 bd 25 a5 95 3d 7d 29 10 be f8 9e b8 be
       -0.05166138 0.073068894 -0.14078327 -0.36058784
000170 8b 97 d9 3e 96 2a 85 be 8d 7e 9a 3e 54 8b 2c 3c
       0.4249843 -0.26009053 0.30174676 0.010531265
000180 68 e1 b3 3e d2 51 f5 3d 1b 6f e8 be 12 2b 2f bd
       0.3513291 0.119784966 -0.45397267 -0.042765684
000190 d2 35 13 3e b7 3e 90 3d 23 dd 9e be 39 a9 b3 3c
       0.14376 0.07043212 -0.3102809 0.021931278
0001a0 2e be 99 bd b9 d9 aa 3c 57 ab 77 3d 2b d9 46 3e
       -0.07506977 0.020855771 0.060466137 0.1941878
0001b0 b1 62 e1 3d 6e 9c 1f 3c f1 f0 85 bd 73 1e 68 3d
       0.11005152 0.009741886 -0.065400966 0.056669664
0001c0 4f 17 ff bd 60 5d aa 3e 76 9b 03 be cc af 64 bd
       -0.12455618 0.33274364 -0.12852272 -0.055831715
0001d0 31 f0 22 3d e6 1a 30 be e1 e4 69 3e 41 c5 bb 3d
       0.039779846 -0.17197761 0.22841217 0.091684826
0001e0 02 76 5b be dd a8 c1 3d f2 72 e4 3d 59 30 5a be
       -0.21431735 0.09456036 0.111547366 -0.21307506
0001f0 80 c2 a7 3e 1c bd 14 bd 5c 07 f9 3d a5 11 fd 3c
       0.3276558 -0.03631316 0.12159607 0.030892203
000200 8d 79 9a 3e b5 31 6c 3d 6c d6 69 bc 8a ce b1 bd
       0.3017086 0.05766459 -0.014272314 -0.08681972
000210 37 8b 8e 3e 57 94 ad 3e 67 b1 16 bd 47 cb 38 3e
       0.27840587 0.33902237 -0.036790278 0.18046294
000220 a7 87 9c 3e 47 65 9e 3d 87 87 0d be e5 28 21 be
       0.30572245 0.07734161 -0.13821231 -0.15738256
000230 59 ae f0 3d e8 b1 95 3d 8f 45 a9 3d 68 31 dd bd
       0.11752004 0.073093235 0.082652204 -0.10800439
000240 27 47 1c be f3 70 6e be 2c 70 6b 3b 64 41 d9 3e
       -0.15261517 -0.23285274 0.0035925014 0.42432702
000250 b2 68 56 3c c7 29 19 3e ed f4 26 3e 55 5b c1 3d
       0.013086485 0.14957343 0.1630437 0.09441248
000260 e3 3f a4 bc 18 0e 33 be 36 c0 5e bd dc 26 a9 3e
       -0.020049995 -0.17485845 -0.054382525 0.3303746
000270 7d a9 33 be dc 0c bc bd b8 f1 96 3c d2 4e 8b 3e
       -0.17545123 -0.0918214 0.018425807 0.27208573
000280 6c ff af 3e 47 b5 78 3e 15 fb dd 3c a7 89 17 bc
       0.3437456 0.24287902 0.027097264 -0.0092491275
000290 2b 8f 1c be 56 62 24 be 27 ec 11 be 13 36 22 3e
       -0.15288989 -0.16053137 -0.14250241 0.1584094
0002a0 f2 0e ea bd 6e 6c 24 3e 77 3c 05 3e 3d 77 bd 3d
       -0.11428632 0.16056988 0.13011347 0.092512585
0002b0 a2 3d bb 3d 61 e1 2a be 99 ef d6 3c 37 0e c5 3d
       0.09142615 -0.16687538 0.026237296 0.09621852
0002c0 6a ad 3e be 02 1c 6d be 98 fe 85 bd 69 14 bc 3a
       -0.1862084 -0.23155215 -0.065427005 0.0014349344
0002d0 d3 d6 a5 3e b9 af 45 bd de 93 85 bd 3e d8 bc 3c
       0.3239046 -0.048263285 -0.06522344 0.023052331
0002e0 8a 40 a7 3e 7a e0 95 3c 53 0e 41 3e f0 3d db bd
       0.32666427 0.018295515 0.1885312 -0.10705173
0002f0 d1 75 f6 3d a8 06 27 be 95 10 c2 bd b4 5f 91 3d
       0.120341904 -0.16311133 -0.09475819 0.07098332
000300 77 b4 0a bd 04 c6 e9 bd d8 12 29 3e 9f d4 5d 3e
       -0.03386351 -0.114147216 0.16511095 0.2166314
000310 bb 53 16 be c2 ac 60 3e 73 23 0a 3d c0 90 bc 3d
       -0.14680378 0.21940902 0.033725213 0.09207296
000320 0f 95 7e bc d9 5d 1e 3e f3 f8 cd bc 4c 5d 37 3e
       -0.015538468 0.15465488 -0.025143122 0.17906684
000330 c9 b7 83 bd db 64 6e bd 44 21 06 3f de a7 ae 3e
       -0.064315386 -0.058201652 0.5239451 0.34112448
000340 b9 1a ff bd 90 b4 47 bd 01 03 2d bd a1 1c a8 3d
       -0.12456269 -0.048756182 -0.042239193 0.082085855
000350 1a 89 49 be 9c c4 9b bd 1a e1 9c 3e 4f ea 14 3e
       -0.19681206 -0.0760586 0.3064049 0.14542507
000360 49 e8 ef 3d 10 81 5d 3e ca 2e f6 3d 29 a0 2f 3e
       0.11714227 0.21631265 0.12020643 0.1715094
000370 b8 41 3d be 68 f1 8d bd af a7 71 3c 6d 6e bf 3d
       -0.18482101 -0.0693081 0.014749452 0.09347234
000380 40 c2 a5 3e e6 7f ef bd 42 5d f5 3d fa 04 58 bd
       0.32374763 -0.116943166 0.11980678 -0.05273912
000390 c6 26 be 3e cb a9 00 bd f4 8c 07 be 07 ef 96 bc
       0.37138957 -0.031411927 -0.13237363 -0.018424524
0003a0 76 7d 18 3e ce da 92 3d f1 32 75 bd 30 8e 83 bd
       0.1489161 0.0717064 -0.059863035 -0.064236045
0003b0 a1 20 15 bd e4 f8 7c bd b1 f0 c0 3c 35 bf 01 3e
       -0.03640807 -0.061760798 0.02355227 0.12670596
0003c0 ce 2d e1 3c b3 6a 39 3d 8c 01 59 bd aa c0 33 3d
       0.027487662 0.045267772 -0.05297999 0.04388491
0003d0 1f 8e c5 3d 73 18 79 3e 76 7a 5d be f5 eb b6 3c
       0.09646248 0.24325733 -0.21628746 0.02232931
0003e0 54 92 81 3d d6 80 55 bc 82 95 c7 3e 98 31 b0 3d
       0.06326738 -0.013031205 0.38981253 0.08603209
0003f0 87 4e 4a be b5 bd 52 3d bf b6 34 be be 46 25 be
       -0.19756518 0.05145045 -0.17647837 -0.16140267

encoder.grud.rl.bias f4 [40]
000000 11 6e b2 3d 00 94 dc b6 ce 37 38 bd 89 72 a8 bd
       0.087124 -6.5737404e-06 -0.044975094 -0.08224971
000010 ff ed ba 3d fc df d8 3c cf da 48 3e dd f3 c0 bd
       0.091274254 0.026473992 0.19614719 -0.09421513
000020 d8 13 e7 3d b0 e5 00 be cc c1 51 3e ad 9f ba 3d
       0.11283082 -0.12587619 0.20484084 0.09112487
000030 c2 7a 24 bd 21 7b 34 3e df 8b db 3d ca ee bc 3d
       -0.040156133 0.17625095 0.10720038 0.09225233
000040 6c b5 14 3e 03 df 92 3e 22 50 8e 3d a2 61 d1 3c
       0.14522332 0.2868577 0.06948878 0.02555925
000050 9f 29 bd 3c 78 17 19 3e b3 f7 d7 3c 92 3f b4 bd
       0.023091136 0.14950359 0.02636323 -0.088011876
000060 30 f8 8f 3e 0f db be bc 39 5a c6 3d d2 00 43 3e
       0.2811904 -0.023297815 0.09685177 0.19043282
000070 1e e2 a5 3e 7a 90 14 3e 0a d1 09 3e 0d 40 b3 3d
       0.32399076 0.14508238 0.13458648 0.08752451
000080 4d 4f 3e 3e 31 39 25 3e c6 eb 91 3d ad c3 fe bb
       0.18584938 0.16135098 0.07125048 -0.007774791
000090 74 39 5c 3e 4d ab 59 3e 83 9a c1 3d c1 32 d8 3d
       0.21506292 0.21256752 0.09453299 0.105565555

encoder.grud.hl.weight f4 [40, 44]
000000 b8 4e 8a 3e bc 51 b0 3d c0 fb 0f bc 41 44 3c 3e
       0.27013183 0.086093396 -0.008788049 0.18385412
000010 dd ac 31 be 72 5e f2 3d cc d5 ee bd 0b a5 f2 bd
       -0.17351098 0.1183442 -0.11661872 -0.11847886
000020 47 0a c7 3e 30 72 cd bc c8 fc cf 3d 64 0a 84 bc
       0.38875028 -0.025078863 0.10155636 -0.016118236
000030 d7 de af bc e1 95 3d bc f2 94 61 3d 26 35 3f be
       -0.021468563 -0.011571378 0.055073686 -0.18672618
000040 8d 48 ea 3d eb a5 ed bd 4c 87 f3 3d d8 13 f9 3d
       0.11439619 -0.11603912 0.1189104 0.12161988
000050 a0 6d 6b 3d 1d 13 cc 3b 84 c8 ca 3a 63 60 f6 bc
       0.057477593 0.0062278644 0.0015471135 -0.030075258
000060 50 38 02 3e 7d 03 3b 3e 19 4f 44 be 02 7b 20 3d
       0.12716794 0.1826305 -0.19170798 0.03917981
000070 bc ba 8a 3d 88 58 0d 3e 36 5f 9c 3e 2d c1 11 be
       0.06773898 0.13803303 0.3054139 -0.14233847
000080 22 5d 59 3d 48 a6 89 bb 9e d3 e4 bd f8 ef b5 bd
       0.053067334 -0.0042007305 -0.11173175 -0.08883661
000090 7e 1e 87 3b 68 53 ba 3d 99 ed 50 3c 1c db 37 be
       0.004123508 0.0909794 0.01275196 -0.17954677
0000a0 c4 89 e6 bd 84 e7 c0 3e 09 b7 88 bd a4 56 8f 3d
       -0.112567455 0.37676632 -0.06675536 0.06998947
0000b0 60 9a ee 3d b4 7b 39 3e 1c 86 1b be e6 a8 63 3e
       0.116505384 0.18113595 -0.15187877 0.22232398
0000c0 75 3b c8 be 18 10 b3 3d 95 d7 61 be 75 f4 32 be
       -0.39107862 0.08743304 -0.22054894 -0.17476065
0000d0 f6 9f 18 3e 26 0c 17 3d 2b 64 2e be 65 f6 93 ba
       0.1490477 0.03687682 -0.17030399 -0.0011288641
0000e0 bf 0c ce bc 3c 97 c4 bd 00 41 0c 3e ad c7 dc bc
       -0.025152562 -0.09599158 0.1369667 -0.026950682
0000f0 b4 0d d3 3d 2f 98 dc bc 66 18 e1 bc e9 28 02 3e
       0.10305348 -0.026928036 -0.027477454 0.12710918
000100 66 70 3f bd e8 8f de 3d c2 da 31 3d 44 70 6c 3d
       -0.04673805 0.10867292 0.043421514 0.057724252
000110 bc 4b 39 3d a1 b7 38 3d 1e aa e7 be 2d 06 9c bd
       0.04523824 0.045096997 -0.45246977 -0.076183654
000120 f6 b1 55 be 15 d6 d9 bd a1 d0 94 3e f0 1e 76 bd
       -0.20868668 -0.10636536 0.2906542 -0.060088098
000130 8b e1 79 bd 3a ec d9 bd 49 6a ba 3d 68 9c 92 be
       -0.06100611 -0.1064076 0.091023035 -0.28634953
000140 b5 88 ba bc f9 cc 05 be 5f 46 47 3d 09 32 05 be
       -0.022770265 -0.13066472 0.048651095 -0.13007368
000150 cf 87 c7 3d 66 24 e0 3d f4 90 2b bd f2 6b 81 bc
       0.097427 0.109444425 -0.041886285 -0.015798543
000160 4a 18 57 be f4 74 31 be 40 1f 0d 3e e1 12 dd bc
       -0.2100536 -0.1732977 0.13781452 -0.026986541
000170 f8 61 f2 3e dd bd bd 3e eb 1e 9f 3e d8 76 2d 3e
       0.4734037 0.37058917 0.31078276 0.16939867
000180 e7 97 90 be d3 99 8e 3e 13 20 83 bc fb 39 2e bd
       -0.28240892 0.27851734 -0.016006505 -0.042535763
000190 77 6c b7 3c 5b e7 52 be ca 1a 60 be fe 5a 8c bd
       0.022390587 -0.20596068 -0.21885219 -0.06853293
0001a0 4a ba af 3d 91 4f 73 3e 52 3f 88 bd 93 50 42 bd
       0.08580454 0.23760821 -0.066527024 -0.047440123
0001b0 3d 9f 5f 3e d7 a3 b6 bd d6 98 14 be 4f 64 58 bd
       0.21838088 -0.08917969 -0.14511427 -0.052830037
0001c0 d5 46 e8 3d a5 78 0b be 96 6d 6a 3e ef 1a a8 3e
       0.11341635 -0.13620241 0.22893366 0.3283305
0001d0 7c d3 5c 3e b1 55 f1 bd 78 3e 83 bc b8 0d 01 3e
       0.2156505 -0.117839225 -0.016020998 0.1260289
0001e0 8a 08 1f be 5c 93 12 3e a5 73 14 3e ca 77 4d 3e
       -0.15530601 0.14314026 0.1449724 0.20065227
0001f0 dd 4e e7 bd 50 5c 0e 3e 08 89 92 bd 0f 82 7f 3e
       -0.11294339 0.13902402 -0.07155043 0.24951957
000200 05 c7 88 bd a5 6f 72 bd aa 34 2f bd 55 7f 4c be
       -0.06678585 -0.059188504 -0.042774834 -0.19970448
000210 fe 76 33 3e d4 5a 34 3e 36 19 db 3c 57 46 39 3e
       0.1752586 0.17612773 0.02674542 0.18093239
000220 6f d6 19 bd 8c 1e ef 3d 64 7f b1 bd e2 96 1b 3e
       -0.037558015 0.11675748 -0.08666876 0.15194276
000230 67 12 93 3e 31 e1 00 be 3b 50 96 3d 25 f9 22 be
       0.28724977 -0.12585904 0.073395215 -0.15915354
000240 8a 7c dc 3d 6f 86 f6 bb a6 a3 34 3d 6f af 11 3e
       0.107659414 -0.00752335 0.04410138 0.14227079
000250 2a a0 2b 3e 08 13 39 3d 1b 0c dd 3d 3d 5d d3 3d
       0.16760316 0.045184165 0.107933246 0.10320518
000260 ba fa ac 3d 18 8c 39 3e 67 f9 2d bd b9 57 04 be
       0.0844626 0.18119848 -0.042474177 -0.12924089
000270 d2 3c 7f 3d 2d dd 25 be b0 ed 75 be 04 59 4a 3e
       0.062313862 -0.16197653 -0.24016452 0.1976052
000280 58 ba 20 3e d7 ef b0 3c 1d 9f a2 bc 2c 38 ed bd
       0.15696084 0.02159874 -0.019851262 -0.115829796
000290 ac 0d 02 3e ac 93 2c bc 9d 8b 9f 3d 5b 5a 81 bd
       0.12700528 -0.010533255 0.07790301 -0.06316062
0002a0 f9 0b 22 3d 4e 06 ab 3d 14 21 cf bd 38 ef 28 bd
       0.0395622 0.08350812 -0.10113731 -0.04124376
0002b0 89 45 f5 3c c4 0d 8d 3e 5f 25 82 bd 6b e7 27 bc
       0.029940384 0.27549565 -0.06354784 -0.010248045
0002c0 ff 14 7c be f3 8f 81 be bb aa 2a 3d 3e 27 2e be
       -0.24617384 -0.25305137 0.041666728 -0.17007157
0002d0 c1 fb 6e bc 4f 45 80 bd d7 f0 b3 3e 01 a2 2d 3e
       -0.01458639 -0.062632196 0.35144684 0.16956331
0002e0 fd 01 8b bd 47 63 c7 3d 48 5d b4 3d 0d 5e 10 be
       -0.067874886 0.097357325 0.088068545 -0.14098378
0002f0 4c 99 74 3d 54 0c b2 bd 94 cc 8d be 46 78 ec 3d
       0.059716508 -0.08693758 -0.27695143 0.11546378
000300 4c 69 70 be db 6b 4a bd 3a 79 18 bd 9c 7c 1f bc
       -0.23477668 -0.049419265 -0.037224986 -0.009734299
000310 c7 b7 80 bd 3f 88 99 3d e1 24 58 3d 5a dd 59 3c
       -0.06285053 0.0749669 0.052769545 0.013297403
000320 e9 ed cf bd 56 21 90 bd ef 7c 79 3e 0e b1 a7 3d
       -0.101528 -0.07037608 0.24364065 0.081880674
000330 4b 37 f2 3c d5 7c 6f 3e cd c4 c9 bb f9 2b ae 3c
       0.029567381 0.23387463 -0.0061574937 0.021261202
000340 39 83 28 bd 06 18 47 3e 39 d0 36 be 4e 43 af 3e
       -0.04114077 0.19442758 -0.17852868 0.34231037
000350 2b be 78 bd 3b 91 41 3e 1b 55 be 3d 5f 87 8d 3e
       -0.060728233 0.18903057 0.09293576 0.27642342
000360 74 61 1c be c7 d2 da bd c8 8e 00 be 4d 8f 8b 3b
       -0.1527155 -0.10684734 -0.12554467 0.004259026
000370 54 7f 80 be 5b d8 6b bc e4 51 11 bc c4 88 b4 be
       -0.25097144 -0.014394845 -0.008869622 -0.35260594
000380 c5 63 8c 3d 80 fe 3c bd 97 5b c3 3e 9d 18 a2 3e
       0.06854967 -0.046141148 0.38155815 0.31659403
000390 0b 34 d0 be c6 97 51 3d 44 2b 2c 3d 8e c6 ac bd
       -0.40664706 0.051170133 0.04203345 -0.08436309
0003a0 a9 f3 b0 bd 5a a8 9b 3d 67 83 60 be 4a 4f 90 3e
       -0.086402245 0.0760047 -0.21925126 0.28185493
0003b0 64 15 4d be 30 8e 7f bd 50 1f 40 be 4e ff 10 3e
       -0.20027691 -0.06239146 -0.18761945 0.14159891
0003c0 eb 08 9d bc 47 36 6c 3e 65 e8 8e 3e 47 fb ef bd
       -0.019169291 0.2306758 0.27911678 -0.11717849
0003d0 c5 34 de bd 3b 12 ce bd f3 25 ca 3d 42 61 44 3e
       -0.10849909 -0.10062071 0.098705195 0.19177726
0003e0 4c 33 19 3d 7b a2 99 3a 59 c0 0a be 59 18 59 3e
       0.037402436 0.0011721397 -0.13549937 0.21200694
0003f0 c6 f7 76 3d b8 25 66 3e 5e b8 77 be 47 64 70 3e
       0.06029489 0.22475326 -0.24191424 0.23475753

encoder.grud.hl.bias f4 [40]
000000 a4 99 ef bd 7c 38 c0 3d a0 7b 98 be 6a ab 0f be
       -0.116992265 0.093857735 -0.29781818 -0.14030233
000010 77 3c 22 bd 68 37 16 be da 80 32 3e 39 45 37 3b
       -0.039608445 -0.14669573 0.17431965 0.0027964844
000020 e9 0a 27 3e 43 35 44 be 1c 4a 52 bd bb 6e 28 be
       0.16312756 -0.19160943 -0.051340207 -0.1644849
000030 b5 bd 8b 3d ed cd ab 3d e8 86 34 be d5 12 31 be
       0.06823293 0.083888866 -0.17629588 -0.1729234
000040 fd f7 62 bc 2e 64 91 bb f6 b4 1c bc 2d 0d 22 be
       -0.01385307 -0.004436991 -0.009564629 -0.15825339
000050 b5 cc 8c bd be 8b 00 be e0 a3 3a be e7 68 2c be
       -0.06874982 -0.12553307 -0.18226576 -0.16836892
000060 9b 8b 89 bd de f8 1d bd a3 40 c3 bd 55 dd 31 3e
       -0.06716081 -0.038567416 -0.09533813 0.17369588
000070 f9 09 ef 3d 04 ff 4b 3e 42 37 80 bd 4f ef 80 3d
       0.11671824 0.199215 -0.062605396 0.062956445
000080 34 18 87 bd 3d e4 1b 3e 8c 92 a7 bb b9 40 ad 3c
       -0.06596413 0.15223785 -0.0051139053 0.021149026
000090 d2 98 1c 3e c3 36 be bd 99 53 9d be 9e 8f 41 3a
       0.15292671 -0.09287789 -0.30727842 0.00073837664

encoder.grud.gamma_x_l.weight f4 [2, 2]
000000 80 40 97 3b b8 26 95 3e d2 83 9d 3e 98 f1 ce bd
       0.0046158433 0.29131103 0.30764633 -0.10104674

encoder.grud.gamma_x_l.bias f4 [2]
000000 20 d3 eb 3c c0 15 63 3c
       0.028787196 0.013860166

encoder.grud.gamma_h_l.weight f4 [40, 2]
000000 a3 3e 1e 3f 96 5c e6 3e f3 79 94 be c4 1b 95 3e
       0.61814326 0.44992512 -0.2899929 0.29122746
000010 1f 62 00 3f de 09 2d bf 63 a4 f9 be 7f bb b0 be
       0.5014972 -0.6759318 -0.4875823 -0.34518048
000020 be 2c 0e bf 60 35 c9 3d a2 5a 89 3e a8 d1 07 bf
       -0.5553702 0.098246336 0.2682696 -0.53054285
000030 b4 39 76 3e 60 c6 23 3e 52 e1 e5 3e ed 22 20 3f
       0.2404545 0.15993643 0.44898468 0.6255329
000040 c8 11 dd 3d 57 6e 22 3f ee a8 b8 3e 80 4d 16 3d
       0.10794407 0.63449615 0.36066383 0.036695004
000050 e0 1c 51 3d f9 90 25 3f 98 f9 9d bd 10 b9 af 3d
       0.051052928 0.64674336 -0.07713622 0.0858022
000060 be 40 08 bf 1f 7d 30 3f 8e 4a ae 3e f8 b3 45 3e
       -0.5322379 0.6894092 0.34041256 0.19306934
000070 ea ab aa 3e b4 68 a3 be 8a 42 bb 3e 71 82 30 3f
       0.33334285 -0.3191582 0.36574203 0.6894904
000080 7f 9d a2 be 34 f1 4d be ac 22 63 be 82 85 9d 3e
       -0.31760785 -0.20111543 -0.22181195 0.3076592
000090 b8 75 3d 3e 30 2d 57 3d 4a f0 d3 3e f4 1e 2c bf
       0.18501937 0.05253333 0.41394264 -0.6723473
0000a0 ca e1 d2 be 67 d5 03 3f 20 1a 59 3e 94 f2 20 be
       -0.41187888 0.514975 0.21201372 -0.15717536
0000b0 c0 cc ba bc 80 f7 33 3e 58 e3 9a be 5c 75 13 bf
       -0.02280271 0.17574883 -0.30251575 -0.5760095
0000c0 85 dd 1d 3f 88 3e 25 3e 9a 57 12 bf 9f 8b e7 be
       0.61666137 0.16137135 -0.5716492 -0.4522371
0000d0 c7 bc d0 be 1c 7f 05 be c0 a3 78 3c ee a0 c5 3e
       -0.40769026 -0.1303677 0.01517576 0.38599342
0000e0 a2 ca 9b be 38 90 72 be 00 d7 53 3e 32 0d 9c 3e
       -0.30428034 -0.23687828 0.20687485 0.30478817
0000f0 4a 6d 92 be be 77 b3 be 0a da c1 3e f8 17 18 3e
       -0.28599006 -0.35052294 0.37861663 0.14852893
000100 4b 2d 10 bf 23 23 9b be dc 4e 47 3e aa 90 6d be
       -0.5631911 -0.30300245 0.19463676 -0.23199716
000110 11 d7 d3 be 34 1c 1f 3e f1 12 11 3f 5b 04 84 be
       -0.4137502 0.15538102 0.5666953 -0.25784573
000120 fb 67 bf be 41 db 27 bf d1 31 34 bf 66 5e c9 3e
       -0.37384018 -0.6556893 -0.70388514 0.39329833
000130 52 7b b8 3e b5 ad 11 bf be c0 db be e1 90 13 3f
       0.36031586 -0.5690568 -0.42920488 0.5764294

encoder.grud.gamma_h_l.bias f4 [40]
000000 22 e4 95 3e 20 d6 4c bd 0a 30 7f 3e 79 59 cb 3d
       0.29275614 -0.050008893 0.24920669 0.09929175
000010 6d 8e b0 bb 5f 99 6d bb 3c 55 07 bf 9a 70 4f 3d
       -0.005388072 -0.0036254746 -0.5286443 0.050644495
000020 42 39 5e bc d4 e3 50 3e 14 a8 d8 3e 59 8f 84 be
       -0.013563456 0.2039941 0.42315733 -0.25890616
000030 4c 56 23 bf 50 eb a8 be b1 dc cf be 26 6e 22 bf
       -0.63803554 -0.3299203 -0.40598062 -0.63449323
000040 16 11 03 3f c9 b5 1a 3e a0 55 1b be 52 64 b7 be
       0.51197946 0.15108408 -0.15169382 -0.35818726
000050 8c 9d 08 be 9a 8f 9d be 8c 83 42 be 9c 62 be 3c
       -0.1334135 -0.30773622 -0.18995494 0.02324038
000060 00 ac 3e ba f8 12 9c be 1d d0 1b 3c 60 74 70 bd
       -0.0007273555 -0.30483222 0.009510067 -0.058704734
000070 31 53 12 bf e9 4b 11 bb e7 c9 a3 3e 80 b7 02 bd
       -0.5715819 -0.002217049 0.31989977 -0.03191328
000080 36 91 bb be 10 d6 0e bd 64 b1 68 3e 4a 9b ea 3d
       -0.36634225 -0.034872115 0.22723919 0.114554
000090 71 3d 6f bb 4d ed a1 3d 58 2c cd bd 00 ef 29 bf
       -0.0036505128 0.0790659 -0.100182235 -0.6638031

decoder.lstm.weight_ih_l0 f4 [160, 80]
000000 e0 78 8c 3d b3 07 a7 3d c2 66 2a 3b f8 81 c6 bb
       0.068589926 0.081557654 0.002600119 -0.006057974
000010 c8 a9 1f bd ed 50 04 be 12 e9 47 3d 97 83 3b 3e
       -0.038980275 -0.12921496 0.048806258 0.18311916
000020 43 22 f2 3c 1f b8 56 be 12 ec 35 3c a3 cb 1f bd
       0.029557353 -0.20968674 0.011103647 -0.039012562
000030 ca ed 27 be 7a 81 4c 3d 27 a8 79 bb 76 86 a1 bd
       -0.16399303 0.049928166 -0.0038094611 -0.078869745
000040 8b f8 4e 3d 2e c4 02 be d0 58 49 be 5f 33 02 3e
       0.050529998 -0.12770149 -0.19662786 0.12714909
000050 11 2b f8 3d 4c b7 05 be 3b c8 14 bd 6f 0b 47 be
       0.12117589 -0.13058203 -0.036323767 -0.19437955
000060 f9 c1 01 3e eb 26 85 3d 26 df d1 bd 40 ce cc 3d
       0.12671651 0.06501564 -0.1024764 0.100002766
000070 6b ca bd 3d c3 85 97 3e 88 3f f3 bd ca 67 28 be
       0.09267124 0.2959424 -0.11877352 -0.16445842
000080 23 ca f6 bd 34 58 3b 3e e5 e2 4c 3d 37 9e ec 3d
       -0.12050273 0.18295366 0.05002107 0.115536146
000090 ea 0d c6 bd 74 38 68 3e c2 6a 6c 3d ef fe e0 bc
       -0.09670623 0.22677785 0.057719 -0.027465312
0000a0 39 d4 29 be cb ee 89 be 59 dd f1 3c 5a 3b 0a bd
       -0.16584863 -0.26939997 0.029524492 -0.03374801
0000b0 d8 ea 13 bd b2 f8 a5 bd f8 62 99 3c 0c ec 64 3e
       -0.036112636 -0.081040755 0.01872395 0.2235567
0000c0 b2 f8 00 3e 30 5b 1e 3d 7d 85 65 3d dd 40 40 3d
       0.1259487 0.038661182 0.056035507 0.04693686
0000d0 0b 73 91 3c 2e 2d 72 3d cb fd 6a 3e 2e 4a 5a 3e
       0.017755052 0.059125118 0.22948377 0.2131736
0000e0 b4 90 db 3c 97 cc 32 be 5e 6f 88 bd 2b 77 5c be
       0.026802398 -0.17460857 -0.066618666 -0.21529834
0000f0 be dc 69 bd 43 17 10 3d 7e ce 0b 3e 0b aa 4c 3e
       -0.05709528 0.035178434 0.1365299 0.19986741
000100 cd d3 75 3e ca 78 bf 3d 06 a8 b6 bd 2a e8 1c 3e
       0.24006577 0.093492106 -0.08918767 0.15322939
000110 4b c8 6d be 60 4a 7a 3e 32 43 f2 bd 73 5e 4f be
       -0.23220937 0.24442434 -0.11829223 -0.20250873
000120 a8 49 a1 3d 71 5c 02 be db 14 42 be b2 f4 bb 3d
       0.07875377 -0.12730576 -0.18953268 0.09177531
000130 98 89 be 3c 3e 0f 88 3b d5 17 2b 3e fc d8 b8 3c
       0.02325897 0.0041522076 0.1670831 0.022564404
000140 52 ff 35 3e 4b a9 0e 3e 48 16 cd 3d 61 ce 27 3e
       0.17773178 0.13931768 0.100140154 0.16387321
000150 4b 78 3c bd 5e b3 50 be 4d 3a b8 3d 92 40 51 bd
       -0.046013158 -0.20380923 0.08995495 -0.05108697
000160 8b 2e f1 bd 4f 8c 83 bd 33 69 dc 3d 88 a4 db bd
       -0.117764555 -0.06423246 0.10762253 -0.10724741
000170 e4 84 c8 3d 73 db 10 bd 66 06 88 3d 9d 4e 88 3c
       0.09790972 -0.035365533 0.066418454 0.016639048
000180 55 00 80 bd 24 0e 78 3d 0c c7 d4 bb 8a e9 a0 bd
       -0.06250063 0.06056036 -0.006493455 -0.07857044
000190 57 58 09 be 06 27 40 3c 13 17 4c 3d 75 3f ea 3d
       -0.13412605 0.011728054 0.049826693 0.11437885
0001a0 23 00 ca 3d 53 8c 5d bd 28 2a 26 3e 3b 0e 59 bd
       0.09863307 -0.0540889 0.16227019 -0.052992087
0001b0 4e 6f 5d bd fb 32 da 3d cf 79 c5 3c 6d 93 3f bd
       -0.054061227 0.10654255 0.024105934 -0.046771456
0001c0 4b 3f bb 3d c9 ab fc 3d 63 67 97 3c 46 73 3d 3d
       0.091429316 0.12337453 0.018481916 0.04625251
0001d0 d8 9c 20 3e d8 0b c4 bd 6d de 9d 3d 1c af db 3d
       0.15684831 -0.095725715 0.0770844 0.10726759
0001e0 1f aa 5d bd e8 5f 7b 3d 4f eb a0 bd 2c a4 de 3d
       -0.05411732 0.06137076 -0.078573816 0.10871157
0001f0 bf ab c8 3d 89 bd 38 bb 3e 8b ac bd 01 11 e2 3d
       0.09798383 -0.0028189144 -0.08424996 0.110383995
000200 11 af 08 3d aa ac 7c bd 2d 8a 26 3e 1f f8 d0 3b
       0.03337008 -0.061688103 0.16263647 0.0063772346
000210 b1 41 a5 bd 1e 6a b6 3c 00 2e 9a 3c ea c1 6d bd
       -0.0806917 0.022267397 0.018820763 -0.05804626
000220 35 25 10 3e 2b 26 bf bd a4 27 df bd 57 67 02 be
       0.14076693 -0.09333452 -0.10896233 -0.12734734
000230 f1 04 79 bd 75 8f 53 3c 1d 8e 33 3e e5 c6 0f 3b
       -0.060795728 0.012912621 0.1753468 0.0021938619
000240 c5 3d 22 bb 0c ec b2 3d 58 f8 96 3c 63 f6 dc bb
       -0.0024756056 0.087364286 0.018428966 -0.006743239
000250 a4 d0 af 3d 84 2e 96 bd dd 98 26 be b5 ac e2 3d
       0.08584717 -0.07333091 -0.1626925 0.110680975
000260 10 d2 fc 39 3b 37 00 be 79 98 8f bd e9 12 c2 bd
       0.00048221694 -0.12521069 -0.07011504 -0.09476263
000270 66 6f c0 3d 77 71 fe bd 0e e3 55 bc 42 ac c6 bd
       0.093962476 -0.124239855 -0.013054622 -0.09700824
000280 d8 60 be bd 57 43 86 3d 46 07 f9 3d 58 5a 33 be
       -0.09295815 0.06555813 0.121595904 -0.17514932
000290 90 d0 18 3e ba 5d 11 bd 73 63 bc bc 30 16 24 3e
       0.1492331 -0.035489775 -0.02299664 0.16024089
0002a0 bd 7f a0 bc 23 0b bf bd 4f 3e 3a 3e f4 b5 d1 bd
       -0.01959216 -0.09328296 0.18187831 -0.10239783
0002b0 a3 36 16 be 2f 23 0d be 6d b2 f7 bd d3 70 e9 bc
       -0.1466928 -0.13782953 -0.12094579 -0.028496182
0002c0 54 87 f0 bd 06 08 3e 3e 6a 32 bc bd c5 a1 24 3e
       -0.11744562 0.18557748 -0.09189303 0.16077335
0002d0 1b 75 a1 bc 1a 40 64 be 30 26 66 3d af 28 57 3d
       -0.01970916 -0.22290078 0.056188762 0.052529033
0002e0 35 29 98 bd 1f b1 25 be 77 88 b7 bd 26 19 2d 3d
       -0.074297346 -0.16180848 -0.089615755 0.04226031
0002f0 35 bd 9c 3e f1 5f 3d 3c d5 08 19 be 29 f2 ea 3c
       0.30613104 0.011558519 -0.14944775 0.028679924
000300 19 97 af bd d0 89 91 bd 9b d9 1d be 47 95 62 bd
       -0.085737415 -0.07106364 -0.15415041 -0.055318143
000310 71 73 9d bd bf cb 02 3e 47 b7 74 3d 06 3e 38 3e
       -0.07688034 0.12773035 0.0597451 0.1799241
000320 00 ce 82 be f1 d5 a5 be 3c da 99 be 62 59 93 3d
       -0.2554779 -0.32389787 -0.30049312 0.07194783
000330 0a 4e 81 be 7c bc 6c be eb 77 a2 bd 55 f1 a2 3e
       -0.25254852 -0.23118776 -0.07933029 0.31824747
000340 51 23 6d 3e 61 e7 66 3e 56 c9 06 3d da c8 0d 3e
       0.23158003 0.22549202 0.032906853 0.1384615
000350 31 33 8e be 3c 34 a6 3e 22 f2 10 3d 0e e1 77 3e
       -0.2777343 0.32461727 0.035387166 0.24206945
000360 60 21 a7 3e 39 49 6b be 90 cd 0d be 3d 2c 91 be
       0.3264265 -0.22977151 -0.13847947 -0.28354064
000370 5d 4a 2c 3e 54 3b 8a 3e a6 a6 58 3e 5e 32 fe 3d
       0.16825242 0.2699839 0.21157321 0.124119505
000380 8e 0f 6f 3e 13 d4 0f 3e ff 20 9d bd 29 06 8d 3e
       0.23345777 0.14045744 -0.07672309 0.27543762
000390 be 3f b1 bd c6 c2 1a 3e dc e1 80 be 3c 72 94 be
       -0.08654736 0.15113363 -0.25172317 -0.28993404
0003a0 ea aa 64 3e 21 be 4e be d5 86 8c be 1e 76 d1 3d
       0.22330824 -0.20189716 -0.2744662 0.10227607
0003b0 ac 3d 8f 3e f8 c3 9a 3d 9c e3 6f 3e 10 39 56 bd
       0.2797674 0.07556909 0.2342667 -0.052300513
0003c0 c9 51 ea bd 18 b6 44 3d 0b 83 f2 3d 4f 16 3c 3e
       -0.114413805 0.04802522 0.11841401 0.18367885
0003d0 3d a1 ef bd b7 7e 37 bd 94 1e 8f 3d a4 ba a8 3d
       -0.11700676 -0.04479858 0.06988254 0.08238724
0003e0 1b 7c 81 bd 14 84 ef 3c b7 30 84 be 1e 81 45 bd
       -0.06322499 0.029237784 -0.25818416 -0.04821884
0003f0 37 73 20 3e 9e 37 21 be fd cc 3d 3e d2 1f 1b be
       0.15668951 -0.15743873 0.18535228 -0.15148857

decoder.lstm.weight_hh_l0 f4 [160, 40]
000000 30 c0 05 3e f8 81 2d be eb f0 ec 3d 9b 31 5c 3d
       0.13061595 -0.1694411 0.11569389 0.053758245
000010 f2 fa 88 3d 13 48 0f be 53 a2 14 be 9d 3f e1 bd
       0.06688489 -0.13992338 -0.14515047 -0.109984614
000020 7c 14 9f 3d 6c 08 d1 bd 5a 27 55 3e 2c 30 9c bd
       0.07767579 -0.102066845 0.20815793 -0.076263756
000030 d5 bc 82 3b 5c 78 09 be d7 00 67 bd df 5a 07 3e
       0.0039897957 -0.1342482 -0.056397285 0.13218258
000040 4c 80 1a be 27 50 4a be 07 28 7f 3d 17 c3 23 be
       -0.15088004 -0.19757138 0.062294032 -0.1599239
000050 a6 56 1a 3e 12 61 27 3e a7 cd 17 be ce c6 0f be
       0.15072116 0.16345623 -0.14824544 -0.14040682
000060 03 52 74 3e 2f d9 0a 3e d1 dd d5 3d ce a5 7a 3d
       0.2385941 0.13559411 0.10442699 0.06119328
000070 66 30 b8 bd 4b a1 db 3d 2f 3b 13 be 20 0a 77 3d
       -0.08993606 0.107241236 -0.14378045 0.06031239
000080 74 f2 37 bd 87 d5 ea 3d 0c e0 08 3d 35 2a 5b 3b
       -0.044908956 0.11466508 0.033416793 0.0033441905
000090 e7 a9 90 3d e9 20 d9 bd b9 23 cf 3c 3d cf 9d bc
       0.07063656 -0.1060198 0.025285589 -0.019263858
0000a0 6a a1 f6 bd 74 ad f5 bc f2 22 64 3e a3 f6 08 bd
       -0.12042506 -0.029989935 0.22278956 -0.033438336
0000b0 a5 3a 05 be 19 a4 fa 3c cc 20 56 bd 22 f9 e9 3c
       -0.13010652 0.030595826 -0.05227737 0.028561179
0000c0 21 ee fe bd 7e b2 36 3e 36 00 0d be fb d8 8f 3d
       -0.12447763 0.17841527 -0.13769612 0.070238076
0000d0 76 14 00 3e 07 d2 26 be 47 68 73 bd 6a 78 75 be
       0.12507805 -0.16291057 -0.05942562 -0.23971716
0000e0 7a 08 ab bc e6 c8 33 bd 81 a7 7e bd 8d 71 94 3d
       -0.020878065 -0.043892764 -0.062171463 0.072482206
0000f0 92 52 3f 3c 4c 4f 08 3d 86 d6 22 be c8 1b b1 3d
       0.011677401 0.03327875 -0.15902147 0.08647877
000100 89 4f f9 3d b3 ee 3c be a3 d3 31 bd ff 5e d7 bd
       0.12173373 -0.18450432 -0.043414723 -0.10516166
000110 17 5e 8a bd 28 c5 da 3d ee cb 20 3e 11 b3 94 3d
       -0.067562275 0.10682136 0.15702793 0.07260717
000120 04 41 00 3e 52 0d d4 3d d2 c4 65 3c 72 ce 5d bd
       0.12524801 0.10354103 0.014023976 -0.05415196
000130 ab d7 a8 3d c4 90 29 3d 0c e2 ad bd 97 86 19 3d
       0.082442604 0.041397825 -0.08490381 0.03748187
000140 a7 9c fa 3d 81 5b 57 3d 83 b1 49 be 06 5a 81 3d
       0.1223691 0.0525775 -0.19696622 0.06315999
000150 98 38 a4 3c 75 21 b3 bd ed 9c ac bd d7 48 16 3e
       0.020046517 -0.08746616 -0.08428369 0.14676224
000160 27 3f 14 be 6f 7e 45 3c 92 9c b4 bd 0d 1f 00 bb
       -0.14477216 0.01205407 -0.08818926 -0.0019549758
000170 51 16 d5 3d 48 4d a1 bd ee e9 ee bb f3 36 9a bd
       0.10404647 -0.07876068 -0.00729107 -0.07530012
000180 fa e9 0d 3e 17 50 a2 bd f0 89 08 be 6d 76 b9 3d
       0.13858786 -0.07925432 -0.13333869 0.09055791
000190 94 61 ab bd 79 df 3d 3e ca 5f 71 3e ba be 94 bc
       -0.08368221 0.1854228 0.23571697 -0.018157352
0001a0 8b 80 75 3e a3 b3 77 bd d0 1e 39 be 91 26 2b 3e
       0.23974817 -0.06047405 -0.1807816 0.1671393
0001b0 a8 c4 5f 3d 76 f3 83 bd c6 19 36 3e ef d2 70 bc
       0.054630905 -0.06442921 0.1778327 -0.014698728
0001c0 15 81 21 3e 9f db 6e 3d c4 27 22 be 29 f9 6b 3d
       0.15771897 0.058314916 -0.15835482 0.057610665
0001d0 67 fb 1e 3e 1a ce 97 be a0 6b ce 3c a6 9c 6d 3d
       0.1552559 -0.2964943 0.025197804 0.05801072
0001e0 b0 e9 79 bd 95 95 84 bd 84 d1 60 3e 79 e0 af bd
       -0.061013877 -0.06473843 0.21954924 -0.08587737
0001f0 6e e1 9d 3d 89 f2 59 be e6 df 13 be 93 74 29 be
       0.07709013 -0.21283926 -0.14440879 -0.16548376
000200 09 f9 18 be cf fe 1f 3e 76 2b 8f bd c8 ee 8a 3c
       -0.1493875 0.15624546 -0.069907114 0.016959563
000210 ac e2 e5 3c 8f 25 0f 3c 33 39 8c 3d 61 af c3 3d
       0.028062187 0.008736982 0.068468474 0.09554935
000220 5f 13 43 3d 2b 48 f5 bc 8d db e1 3d 60 22 ed 3c
       0.047625896 -0.029941639 0.11028204 0.028947055
000230 83 62 bf 3d e9 bc 19 bc 16 6e 21 3d 6b e2 68 be
       0.093449615 -0.009383419 0.039411627 -0.22742622
000240 b4 7e 03 be 3e b5 fd 3d fa 90 41 bc a4 7d 8e bd
       -0.12841302 0.12388085 -0.01181435 -0.06957558
000250 96 da 14 bd d7 ec 27 be a2 87 e8 3c 85 dd 33 bd
       -0.036341272 -0.16398941 0.028384987 -0.04391243
000260 35 2d ba 3d 50 7d 75 bd 19 65 a7 bd 09 9f 7b bd
       0.09090654 -0.05993396 -0.0817358 -0.061430965
000270 8d ef ab 3c 40 47 d3 3d 89 7c d8 3d b0 da bd 3d
       0.02098825 0.10316324 0.10570628 0.09270227
000280 03 4e d0 3d e3 f6 0a be cc d6 2a be 7c 30 20 be
       0.101711296 -0.13570742 -0.16683501 -0.15643495
000290 42 c9 e0 bd 5a 85 92 bd 62 81 37 3e 75 7c 1d bd
       -0.10975887 -0.07154341 0.1792045 -0.03844877
0002a0 7f ef 81 bd 67 82 7b 3d e0 79 36 3d ad 90 3c bd
       -0.063445084 0.06140366 0.044549823 -0.04603641
0002b0 ff 8e 9c bc 15 27 0d 3e 7f d4 85 3b 79 48 97 bd
       -0.019111155 0.1378444 0.0040841694 -0.0738687
0002c0 53 9d 37 3e 3f 9c af 3c 77 aa cf bd d2 d1 a8 3d
       0.17931108 0.021436809 -0.101399355 0.08243145
0002d0 84 6d a0 bd 7a 47 8a bd 05 0a db bc 72 f2 24 3d
       -0.078333884 -0.06751914 -0.026738176 0.040270276
0002e0 ee 08 d9 3d 91 a3 55 bd 54 aa 04 bd 22 ce 95 3d
       0.10597406 -0.052157942 -0.032389 0.07314707
0002f0 9f 17 08 be 98 53 96 3d de 97 6a bd 1d 98 b3 3d
       -0.1329026 0.07340163 -0.057273738 0.08769248
000300 23 96 94 3d cf 40 2a 3d 01 8f a8 3d 14 79 46 bc
       0.07255199 0.041565713 0.08230401 -0.012113828
000310 af ce 74 bd 5e 76 93 bd 3c 4c 3e be 0b 84 ea bd
       -0.05976742 -0.07200311 -0.18583769 -0.114509664
000320 f3 a4 40 be f2 a1 6a bd 4b a2 8a bd 98 0a df 3d
       -0.18812923 -0.05728335 -0.06769236 0.108906925
000330 57 73 76 3d f6 34 0e 3e 63 a7 f9 3d dd e4 36 be
       0.06016859 0.1388739 0.121901296 -0.17860742
000340 a7 b9 27 3d b9 9c 1e be 29 47 1a 3e 17 b3 07 be
       0.040948536 -0.15489472 0.15066208 -0.13251911
000350 2a c0 61 3e bb 4f 2f 3e 81 b1 1c be 18 3f ab 3d
       0.22045961 0.17120259 -0.15302087 0.083616436
000360 be 5b ad bc 34 17 a9 3d 46 e7 0b bd a3 e7 29 3e
       -0.02116191 0.08256379 -0.034156106 0.16592269
000370 1d 80 2c 3d e2 98 71 3d ca 91 27 be 5e 00 4c be
       0.042114366 0.05898369 -0.16364208 -0.19922015
000380 ce fd d1 3d 5f 72 92 bd 39 62 3b 3d d9 a0 d8 bd
       0.102534875 -0.07150721 0.04574797 -0.10577554
000390 da c9 94 3d 71 63 08 be 48 4c 24 be 9f 40 97 bc
       0.07265063 -0.13319184 -0.16044724 -0.01846343
0003a0 63 03 9e bd f9 f2 b6 bb 9b a0 21 3e c1 5d 1d be
       -0.0771549 -0.005583164 0.15783922 -0.15367796
0003b0 ee f7 01 bc ed ea 62 3e 12 8f 02 be 09 0f a5 bc
       -0.007932646 0.2215993 -0.1274989 -0.02014877
0003c0 98 d3 e3 bc f1 70 26 be 79 2a fb 3c 9d a6 ba 3d
       -0.027810857 -0.16254021 0.030659901 0.0911381
0003d0 45 9a 20 be f4 6d a5 3d 9d 59 8d 3d d2 c9 16 be
       -0.15683849 0.080776125 0.06901858 -0.14725426
0003e0 24 1f 84 bd 34 88 61 3d 8e 5b 85 bd f2 fa 1e 3e
       -0.06451252 0.055061534 -0.06511603 0.15525416
0003f0 87 df 84 3d 35 9f fa 3c 9c 4e 33 be f0 c4 d1 bc
       0.06487947 0.030593494 -0.17510456 -0.025606602
