models/101-seed-100-prognostic-linear/itr-0-decoder.pth.pth (torch, 54807 bytes, 6 tensors)

lstm.weight_ih_l0 f4 [160, 40]
0.03493688 -0.098967314 0.060381394 0.11224866 0.018485911 -0.029191915 -0.1040065 -0.06638159
0.09583073 -0.027754309 -0.11199028 -0.105203904 0.1590598 -0.12608579 -0.06595713 0.075237095
0.055041388 0.13812926 -0.10679243 0.04798034 -0.14727417 -0.007596974 -0.13987783 -0.15784918
-0.009561555 0.22377048 -0.06524591 0.2395642 -0.024128554 -0.010234479 -0.104548134 -0.010347722
-0.17095962 -0.1858835 -0.03066361 0.048527908 0.008641054 0.081824005 -0.068799846 0.03571239
0.081039 0.048804708 0.16572087 -0.09374939 0.20111911 0.052096795 0.015928967 -0.05887819
0.10253454 0.056144353 -0.04316695 -0.0055204458 -0.052530155 -0.10691732 0.037871305 0.18625653
0.036020104 -0.10029124 0.09164424 -0.13142787 -0.13648245 -0.05236248 0.13151868 0.12546292
0.049172226 -0.0864037 0.117702834 -0.16394214 -0.014539428 -0.20184235 0.008905095 -0.11683748
0.19236878 -0.045783672 0.0050171698 0.18018316 -0.16997787 0.065124445 -0.1748124 0.065990604
0.21986268 -0.14123046 -0.15194912 0.007124136 0.025733126 0.11851821 -0.06105132 0.10382787
0.009545345 0.029335804 0.026688378 0.1143752 0.17494631 0.021845935 0.12667523 0.17246
-0.13299772 0.15493698 0.04590655 0.19304635 -0.07100196 0.07796507 -0.016814109 -0.008421039
-0.03195735 0.0636864 -0.10679827 -0.22030102 -0.01156528 0.13697574 0.13770004 0.15326014
0.036455683 -0.013978201 0.25324422 0.22945257 0.06987616 0.060124382 -0.11502491 -0.19047742
0.0066396594 -0.09050144 -0.15440261 0.018719232 0.013129358 -0.08588437 -0.08640724 0.29191062
0.031023134 0.15453696 -0.072231755 0.0954444 0.19182366 -0.13456535 -0.07152693 -0.040310796
-0.17553358 0.009575204 0.07018342 -0.0050976947 -0.13412331 -0.07218986 0.075435735 -0.0943404
-0.08825801 -0.024367098 0.14094315 0.020851377 -0.005805825 0.15293606 -0.018001683 0.15264617
0.109285355 -0.08993276 0.07870446 0.035055622 0.002067928 -0.107723914 -0.13341865 0.024651766
0.0046011647 -0.07914993 -0.117999606 -0.06463078 0.15218334 0.1444924 0.057035893 0.15897407
-0.052675337 -0.1208015 0.09048469 -0.04319624 0.005479839 0.03349524 -0.05038456 0.07893069
-0.10122018 0.07549748 -0.1499746 0.1570063 -0.019614523 0.1381938 -0.09447121 -0.120905444
0.032711208 0.091202274 0.088061705 0.011444117 0.093117364 -0.10767094 0.20008884 0.0004972969
-0.0644396 0.08322888 0.116907924 0.21001191 0.07513257 0.1153745 -0.121709764 -0.17756036
0.12385025 -0.1187715 0.100719504 0.078808166 -0.10806964 -0.0532256 -0.17399897 -0.036258504
-0.12328749 -0.0850791 0.043476745 0.0042845835 0.020421244 0.11227479 -0.1747246 0.12881368
0.06404109 0.08481817 -0.010455582 -0.14049004 0.082778 0.17426945 0.13789243 0.033229336
-0.009880858 -0.07160956 -0.03563104 0.04181385 0.019496176 -0.07498892 -0.014265712 -0.11236075
-0.023405258 -0.03191845 0.05242678 -0.077758916 -0.16814929 -0.1146041 -0.0023314652 0.1695576
0.123569146 -0.22843508 -0.06612626 0.12156809 0.06698352 0.0020566327 -0.27340704 0.023128023
0.047523882 0.14968446 -0.025578324 0.14401932 -0.038993657 -0.08833757 -0.057232637 0.046148192
00000000: f919 0f3d 60af cabd 7b52 773d a0e2 e53d
00000010: c46f 973c e223 efbc 5c01 d5bd 12f3 87bd
00000020: e742 c43d 015d e3bc 295b e5bd 2575 d7bd
00000030: 92e0 223e a21c 01be 8814 87bd e815 9a3d
00000040: 1473 613d c271 0d3e fdb5 dabd 0887 443d
00000050: 0acf 16be 09f0 f8bb 223c 0fbe 37a3 21be
00000060: 12a8 1cbc 1724 653e a69f 85bd 5150 753e
00000070: 3fa9 c5bc 84ae 27bc 551d d6bd 7e89 29bc
00000080: 0a10 2fbe 3f58 3ebe 4032 fbbc 33c5 463d
00000090: 3593 0d3c 5893 a73d efe6 8cbd 2847 123d
000000a0: c6f7 a53d 72e7 473d bbb2 293e aeff bfbd
000000b0: 2bf2 4d3e 7363 553d 777d 823c 422a 71bd
000000c0: a1fd d13d 9ff7 653d d4cf 30bd dbe4 b4bb
000000d0: dc29 57bd 78f7 dabd f11e 1b3d 08ba 3e3e
000000e0: d189 133d 7e65 cdbd faaf bb3d 0795 06be
000000f0: 0ec2 0bbe 0a7a 56bd d5ac 063e 5a79 003e
00000100: d168 493d 6cf4 b0bd 2f0e f13d 73e0 27be
00000110: c836 6ebc c3af 4ebe ade6 113c 7d48 efbd
00000120: 52fc 443e a987 3bbd 1267 a43b ef81 383e
00000130: ae0e 2ebe f75f 853d 0602 33be 1526 873d
00000140: af23 613e b89e 10be 8d98 1bbe 9671 e93b
00000150: 47ce d23c adb9 f23d f310 7abd b5a3 d43d
00000160: 1464 1c3c a451 f03c 96a1 da3c 8b3d ea3d
00000170: 2025 333e 3ff6 b23c 27b7 013e 5b99 303e
00000180: 8e30 08be cda7 1e3e 8208 3c3d f1ad 453e
00000190: 7a69 91bd 27ac 9f3d bebd 89bc 66f8 09bc
000001a0: b6e5 02bd 046e 823d 0db9 dabd 9796 61be
000001b0: 4d7c 3dbc 5e43 0c3e 3d01 0d3e 3af0 1c3e
000001c0: 8e52 153d d304 65bc 3aa9 813e 9df5 6a3e
000001d0: 3b1b 8f3d fc44 763d 2e92 ebbd 830c 43be
000001e0: 8091 d93b d258 b9bd b81b 1ebe 1359 993c
000001f0: 851c 573c 25e4 afbd 47f6 b0bd 4f75 953e
00000200: 3a24 fe3c f03e 1e3e 3eee 93bd 5b78 c33d
00000210: 6c6d 443e 80cb 09be b67c 92bd ef1c 25bd
00000220: 13bf 33be 51e1 1c3c 53bc 8f3d 900a a7bb
00000230: 9f57 09be 47d8 93bd 0d7e 9a3d 8a35 c1bd
00000240: 9ec0 b4bd 829d c7bc 6753 103e 82d0 aa3c
00000250: ca3e bebb 459b 1c3e 4478 93bc 474f 1c3e
00000260: 00d1 df3d ab2e b8bd ce2f a13d 7c96 0f3d
00000270: 1386 073b 5b9e dcbd e69e 08be 80f2 c93c
00000280: 5ec5 963b 5c19 a2bd c7a9 f1bd 245d 84bd
00000290: f3d5 1b3e d1f5 133e 789e 693d 19ca 223e
000002a0: 18c2 57bd c766 f7bd 0a50 b93d 8aee 30bd
000002b0: 3990 b33b 4e32 093d 0a60 4ebd 6aa6 a13d
000002c0: 874c cfbd 6c9e 9a3d f192 19be 42c6 203e
000002d0: a3ae a0bc ad82 0d3e 1f7a c1bd 469d f7bd
000002e0: 30fc 053d 42c8 ba3d b259 b43d 1b80 3b3c
000002f0: 51b4 be3d 9582 dcbd 17e4 4c3e 085d 023a
00000300: e9f8 83bd e773 aa3d 6c6d ef3d 5d0d 573e
00000310: 1bdf 993d 7749 ec3d f842 f9bd 62d2 35be
00000320: 33a5 fd3d 793e f3bd 0746 ce3d 2d66 a13d
00000330: 9e53 ddbd 1603 5abd c92c 32be cc83 14bd
00000340: 277e fcbd f43d aebd ac14 323d b165 8c3b
00000350: 744a a73c 53f0 e53d 01eb 32be bce7 033e
00000360: fa27 833d 26b5 ad3d e44d 2bbc 9fdc 0fbe
00000370: 8387 a93d b173 323e ac33 0d3e 7c1b 083d
00000380: 52e3 21bc 08a8 92bd daf1 11bd 0045 2b3d
00000390: 72b6 9f3c ca93 99bd bcba 69bc 651d e6bd
000003a0: 62bc bfbc ecbc 02bd 77bd 563d 1140 9fbd
000003b0: 542f 2cbe 8eb5 eabd 7fcb 18bb 82a0 2d3e
000003c0: d211 fd3d e3ea 69be 346d 87bd b1f8 f83d
000003d0: a82e 893d 92c8 063b 02fc 8bbe fb76 bd3c
000003e0: 67a8 423d e246 193e a289 d1bc cd79 133e
000003f0: d0b7 1fbd 54ea b4bd c56c 6abd e305 3d3d

lstm.weight_hh_l0 f4 [160, 40]
0.12531228 -0.016936429 -0.110599995 0.0046160026 0.13045631 0.14952832 0.09136357 0.1182317
0.031903557 0.08346028 -0.1963241 0.09341716 -0.113239504 0.06409011 0.067475356 0.14964564
-0.02252223 0.013182847 -0.0997917 -0.087577924 0.091052845 -0.14053503 -0.021321008 0.14554007
-0.08126274 0.11924782 0.061456475 -0.18766434 0.15588468 0.027211733 0.035487443 -0.112967126
0.047706444 -0.010192972 0.06568211 0.09558499 0.048336077 -0.023284119 0.029340042 0.01554837
-0.17519002 -0.037931103 -0.074286506 -0.17173111 -0.041698523 0.05102456 -0.1653581 0.13852158
-0.0032221752 -0.12225429 0.041273564 0.010033333 -0.09093138 -0.034318127 -0.02158635 0.10255817
0.09381154 0.041102022 0.1167521 -0.1591053 0.009178714 0.056783773 0.08323776 -0.092641175
-0.055444997 0.14162686 0.007471758 0.18460135 -0.021160215 0.12230794 -0.12702109 -0.048709035
-0.055098414 0.13291797 0.07484989 -0.15104589 0.18885657 0.111832954 0.0878716 0.037531868
0.18606356 0.104573645 0.037902553 -0.008513853 -0.033861157 0.03537785 -0.04550229 -0.022996124
-0.0057587754 -0.123607665 -0.023690451 0.019689156 -0.0024750622 0.011753087 -0.06359078 -0.20694113
-0.13587706 0.050547596 0.16851854 -0.023847327 0.025573427 -0.07879145 -0.09148644 0.0649885
0.011831765 -0.10384016 0.13653566 0.03421494 0.18839493 0.062489916 -0.05089384 0.05676347
0.14405568 -0.05026084 0.07496714 0.1848462 -0.105777815 -0.057165407 -0.050098598 0.08907825
-0.064411044 0.09032581 0.07065708 0.02929654 -0.034424756 -0.12837793 -0.112570934 0.17075789
0.11756674 -0.11849214 -0.0522581 0.1835583 -0.08578328 0.053419374 -0.04909933 -0.08871877
-0.06792828 -0.07404716 0.12035235 0.05241448 0.17413673 -0.023514392 -0.09974852 -0.09669355
0.07224528 0.050764494 -0.066382535 -0.0114247985 0.102603056 0.034905445 -0.04401227 0.15469165
-0.10540192 -0.09677229 0.014524285 0.20073518 0.1817131 0.1339213 -0.11988152 0.11150226
0.024375916 0.17836016 -0.16438624 -0.049865272 -0.05215985 0.10667801 0.05258091 -0.01842982
-0.09018238 -0.1118735 0.083632454 0.19420215 -0.0054348693 0.1687916 0.10385684 -0.11979149
0.057658076 -0.079858035 -0.010920086 0.051275056 0.25327566 -0.20074816 -0.067875385 0.016501114
0.080518305 -0.12594411 -0.017760023 0.13744844 0.009922049 -0.14421932 0.033706665 0.13988878
0.05913863 0.09368155 0.0911826 0.11763414 -0.1268899 0.105651535 0.109892584 -0.18644938
0.066713184 -0.010683658 -0.040013414 -0.12548375 -0.081805505 -0.06200308 0.14592054 -0.017123498
-0.06936765 -0.15151165 0.17002173 0.16057192 -0.10494205 0.14178978 0.035410482 -0.17253155
-0.13172358 0.10429015 0.11555832 -0.035570115 0.11671246 0.11866625 -0.19213466 -0.04823788
0.18599641 -0.04011643 0.023360379 0.033094063 -0.0854193 0.12918814 0.1452325 0.1458443
0.040162586 -0.16744915 -0.096840106 0.020442735 -0.056699112 0.09927984 -0.062633455 0.18880887
0.14493972 -0.005082339 0.08592652 0.0912924 -0.19746926 -0.026587062 0.057691794 0.097728014
0.0041777506 -0.07963982 0.17801668 0.0070565464 -0.11226587 0.018469019 0.015122935 -0.20287508
00000000: dd51 003e 44be 8abc 4082 e2bd d641 973b
00000010: 5796 053e f41d 193e d31c bb3d 7623 f23d
00000020: 4ead 023d 39ed aa3d 2f09 49be 7f51 bf3d
00000030: 1dea e7bd ad41 833d 8530 8a3d b53c 193e
00000040: 8a80 b8bc defc 573c 975f ccbd 0e5c b3bd
00000050: ea79 ba3d 6ae8 0fbe 65a9 aebc 7508 153e
00000060: 146d a6bd 3338 f43d c9b9 7b3d 152b 40be
00000070: 3ca0 1f3e 24eb de3c 485b 113d 4f5b e7bd
00000080: d567 433d 6c00 27bc 5884 863d 10c2 c33d
00000090: 0dfc 453d 56be bebc 875a f03c 97be 7e3c
000000a0: 0365 33be a55d 1bbd 8623 98bd 48da 2fbe
000000b0: 12cc 2abd 21ff 503d a253 29be 9ad8 0d3e
000000c0: 212b 53bb 7560 fabd 780e 293d d962 243c
000000d0: 3b3a babd 2a91 0cbd dbd5 b0bc 050a d23d
000000e0: 4420 c03d 985a 283d ba1b ef3d 80ec 22be
000000f0: 5162 163c 1a96 683d 8f78 aa3d a8ba bdbd
00000100: 4b1a 63bd a206 113e a6d5 f43b 2308 3d3e
00000110: 3058 adbc 967c fa3d d111 02be 2083 47bd
00000120: e0ae 61bd a61b 083e e64a 993d c6ab 1abe
00000130: 9e63 413e ad08 e53d 07f6 b33d 04bb 193d
00000140: 7287 3e3e b52a d63d b53f 1b3d b07d 0bbc
00000150: ffb1 0abd 5de8 103d 9c60 3abd 5e62 bcbc
00000160: 1cb4 bcbb 0426 fdbd 7a12 c2bc 274b a13c
00000170: a734 22bb 0590 403c e23b 82bd 60e8 53be
00000180: 5b23 0bbe ff0a 4f3d 2090 2c3e 785b c3bc
00000190: 5d7f d13c 695d a1bd 3e5d bbbd b118 853d
000001a0: 05da 413c 26aa d4bd 01d0 0b3e f724 0c3d
000001b0: 9aea 403e 6df5 7f3d 0f76 50bd d080 683d
000001c0: 5583 133e 50de 4dbd 5f88 993d 5248 3d3e
000001d0: 0aa2 d8bd 4626 6abd 3034 4dbd a86e b63d
000001e0: f0e9 83bd bdfc b83d a9b4 903d 4cff ef3c
000001f0: f900 0dbd 8175 03be 978b e6bd 28db 2e3e
00000200: d5c6 f03d 02ac f2bd 970c 56bd b5f6 3b3e
00000210: 25af afbd 46ce 5a3d 611c 49bd 30b2 b5bd
00000220: fb1d 8bbd 0aa6 97bd 4b7b f63d 91b0 563d
00000230: e650 323e 41a1 c0bc f448 ccbd 4507 c6bd
00000240: 55f5 933d 6eee 4f3d 91f3 87bd 142f 3bbc
00000250: 8d21 d23d 03f9 0e3d 3646 34bd 7d67 1e3e
00000260: f6dc d7bd 8d30 c6bd 44f7 6d3c 868d 4d3e
00000270: 0013 3a3e aa22 093e 7184 f5bd 4c5b e43d
00000280: 00b0 c73c 0ca4 363e de54 28be 873f 4cbd
00000290: 91a5 55bd 007a da3d 155f 573d 22fa 96bc
000002a0: 8ab1 b8bd ef1d e5bd 7e47 ab3d eedc 463e
000002b0: fd16 b2bb b5d7 2c3e e5b2 d43d 3e55 f5bd
000002c0: e02a 6c3d 9c8c a3bd 29ea 32bc cb05 523d
000002d0: 59ad 813e ed90 4dbe 4002 8bbd 582d 873c
000002e0: c8e6 a43d 7ef7 00be 787d 91bc 49bf 0c3e
000002f0: 1790 223c 3bae 13be 0010 0a3d 013f 0f3e
00000300: 593b 723d 1ddc bf3d f1bd ba3d 2bea f03d
00000310: 6def 01be d55f d83d 5d0f e13d 96ec 3ebe
00000320: eca0 883d 820a 2fbc 1be5 23bd d07e 00be
00000330: a589 a7bd f1f6 7dbd 326c 153e 9446 8cbc
00000340: a010 8ebd df25 1bbe 2d1a 2e3e f76c 243e
00000350: dceb d6bd 5731 113e 950a 113d 1cac 30be
00000360: 8ce2 06be 1396 d53d d7a9 ec3d f8b1 11bd
00000370: f106 ef3d 4a07 f33d f3be 44be 1595 45bd
00000380: d875 3e3e 2051 24bd 445e bf3c a48d 073d
00000390: 50f0 aebd e549 043e d4b7 143e 3558 153e
000003a0: 8681 243d ca77 2bbe 1b54 c6bd 8677 a73c
000003b0: 543d 68bd 3b53 cb3d f845 80bd 1d57 413e
000003c0: 146b 143e c089 a6bb 3efa af3d 83f7 ba3d
000003d0: 6235 4abe 1ccd d9bc 3b4e 6c3d a025 c83d
000003e0: 83e5 883b 341a a3bd 014a 363e 9a3a e73b
000003f0: a6eb e5bd 574c 973c 30c6 773c 7cbe 4fbe

lstm.bias_ih_l0 f4 [160]
0.039267346 0.14268124 0.19411819 0.13612677 -0.06517503 0.09446536 0.1683518 0.07412183
0.0747508 0.03575691 0.16159001 0.06532808 -0.05443742 -0.10206967 0.07696578 0.07161376
-0.026935324 0.14375348 -0.04707264 -0.10099989 -0.020875415 -0.09589194 0.18465093 -0.0099834865
0.072167836 0.09231323 0.10607415 -0.03313467 0.041429896 0.090410456 -0.0049241665 0.07973969
-0.10606527 0.10741335 0.05600571 -0.06786786 0.1462464 -0.037222676 -0.014578225 0.16480777
0.10325506 0.108930714 0.23990284 -0.06703553 -0.019489313 -0.08686696 -0.034279216 0.15582749
0.18872249 0.17763384 0.008737731 -0.018854277 0.0450639 0.14140166 -0.033725087 0.13531402
0.17874889 0.13872 0.1289421 -0.07724677 0.14462739 0.18698126 0.10512712 -0.0968332
-0.07768818 0.06975105 0.0034812272 0.07531864 0.14441173 0.05737652 0.041774746 0.031993154
0.17539404 -0.1874889 0.20002875 -0.06554766 0.053231027 0.18640916 0.038482614 -0.08396551
-0.06317242 0.045338683 0.09480713 0.07270814 -0.09327405 0.08864086 0.11381161 0.12845452
0.09319486 -0.12622002 -0.022310518 0.10006711 0.06600237 0.094409674 0.10716724 -0.016935736
0.049221355 0.16350418 0.13175657 0.10408634 0.07075371 -0.1489232 -0.020948138 -0.06914285
0.09362495 -0.022209432 0.017839432 0.078857586 0.029562345 0.13791694 0.091014504 -0.12801754
-0.001971253 0.096412584 -0.020354018 0.009368732 -0.08421554 0.03936361 -0.039403707 -0.07202997
0.03311898 0.023772808 -0.0029208576 0.1045069 0.00023778288 -0.09745635 0.0445295 0.119743496
-0.05161835 0.108089894 -0.06767012 0.1314017 0.09719826 -0.08870235 0.053586714 -0.03159908
0.12348497 -0.08926623 -0.1367933 0.1681282 -0.049561016 0.123329945 -0.011453587 0.15451126
-0.0037436846 0.10045443 0.07540535 0.18010712 0.15028404 -0.019860744 -0.10397167 -0.02891644
-0.029429866 0.13012451 0.079201795 -0.068134874 0.19416335 0.0360423 0.0071549956 0.20824139
00000000: ccd6 203d 081b 123e ebc6 463e d164 0b3e
00000010: 7c7a 85bd 0e77 c13d 6a64 2c3e 30cd 973d
00000020: f316 993d d675 123d da77 253e baca 853d
00000030: c6f9 5ebd e709 d1bd 3ca0 9d3d 3caa 923d
00000040: 78a7 dcbc 1d34 133e 3ecf 40bd 08d9 cebd
00000050: eb02 abbc fe62 c4bd 2215 3d3e c791 23bc
00000060: bbcc 933d b80e bd3d 673d d93d 38b8 07bd
00000070: 65b2 293d 1e29 b93d e75a a1bb 904e a33d
00000080: c038 d9bd 88fb db3d 3e66 653d 4efe 8abd
00000090: 9ec1 153e ce76 18bd 82d9 6ebc 5ec3 283e
000000a0: 6477 d33d 1117 df3d 17a9 753e ed49 89bd
000000b0: 0da8 9fbc 4ee7 b1bd 5d68 0cbd 3e91 1f3e
000000c0: 7840 413e a5e5 353e b328 0f3c 4974 9abc
000000d0: ed94 383d 99cb 103e 5123 0abd c28f 0a3e
000000e0: f309 373e 9e0c 0e3e 6609 043e 8e33 9ebd
000000f0: 3419 143e 0478 3f3e e34c d73d 7c50 c6bd
00000100: fb1a 9fbd a3d9 8e3d 4d25 643b a940 9a3d
00000110: abe0 133e a403 6b3d ff1b 2b3d 410b 033d
00000120: 7f9a 333e 17fd 3fbe 56d4 4c3e da3d 86bd
00000130: c708 5a3d 0be2 3e3e f29f 1d3d 1cf6 abbd
00000140: 8b60 81bd 0eb5 393d 3e2a c23d 01e8 943d
00000150: 7706 bfbd 5789 b53d 1016 e93d 9589 033e
00000160: f2dc be3d d23f 01be 8cc4 b6bc fcef cc3d
00000170: 402c 873d dc59 c13d 7f7a db3d d0bc 8abc
00000180: 559c 493d a46d 273e 32eb 063e 382b d53d
00000190: 52e7 903d 537f 18be 6e9b abbc c49a 8dbd
000001a0: 70be bf3d 8ef0 b5bc 0024 923c 1680 a13d
000001b0: bb2c f23c 193a 0d3e d065 ba3d 0817 03be
000001c0: 2330 01bb f673 c53d 78bd a6bc 4f7f 193c
000001d0: 3279 acbd bd3b 213d c865 21bd 7384 93bd
000001e0: c4a7 073d 31bf c23c dc6b 3fbb b707 d63d
000001f0: 5b55 7939 3297 c7bd 9164 363d 143c f53d
00000200: c36d 53bd 3c5e dd3d a296 8abd 2b8e 063e
00000210: e20f c73d 94a9 b5bd be7d 5b3d 096e 01bd
00000220: b0e5 fc3d 37d1 b6bd 8b13 0cbe cd29 2c3e
00000230: 7e00 4bbd 6994 fc3d d3a7 3bbc 3338 1e3e
00000240: 9b58 75bb 0dbb cd3d 1f6e 9a3d 006e 383e
00000250: 0fe4 193e 00b3 a2bc 19ef d4bd 2ce2 ecbc
00000260: e716 f1bc 5c3f 053e 8d34 a23d 4c8a 8bbd
00000270: c2d2 463e 17a1 133d 7474 ea3b 3b3d 553e

lstm.bias_hh_l0 f4 [160]
0.11671901 -0.01342591 -0.034208 0.16472211 -0.06528878 0.047493692 -0.02654389 0.027600532
-0.05285992 0.12801252 0.035062496 -0.11592978 0.11304778 -0.09854565 0.004989556 0.097513035
0.18317206 0.1403048 -0.17310537 0.14217937 0.0054535363 -0.12869862 0.018398672 0.029891267
0.1710311 -0.04976373 -0.061034143 0.083177485 0.048118874 0.08810584 -0.09660416 -0.06783449
0.153351 0.009776341 0.13024351 0.18772179 0.08872901 -0.050184276 -0.13287194 0.06797286
0.05997737 -0.1542951 0.25086313 -0.12112322 -0.034953717 -0.0792707 -0.051940724 0.06669396
0.1791169 0.041647013 -0.018978504 0.06766363 -0.074922636 0.14766814 -0.09152157 0.030781923
0.24294196 0.14330283 0.012696574 0.047165677 -0.01458728 0.09921658 -0.07978754 -0.110903904
0.040536303 0.17717989 -0.02667312 -0.061530963 0.12658137 -0.03620606 0.053297292 0.18591025
0.018330017 -0.072572954 -0.03541967 -0.0592512 0.18126741 0.16106555 -0.06093212 0.021432802
0.13764824 0.11371877 -0.032403298 0.026839467 -0.0031082863 -0.1378786 -0.0565509 -0.06935954
-0.070924915 -0.076506875 0.04915538 0.11763427 0.07290679 0.057069145 0.0048681083 0.016108954
0.09900169 -0.04077017 -0.046061147 -0.13274728 0.059628654 0.044899337 -0.1553488 -0.13787714
-0.07567784 -0.055980943 0.040902983 -0.11286544 -0.12305328 -0.08274856 0.021996045 0.07914717
0.061658546 0.16562568 0.11358847 0.05899137 0.09086434 0.1470317 0.14263232 0.029250946
-0.0034702145 0.12517603 0.105081715 0.16655989 0.13437238 -0.02110958 0.15592693 0.055450536
-0.0054176473 0.14121076 0.00799302 0.08451016 0.048873477 0.00900031 0.14043567 -0.03310547
0.20908809 0.15489627 -0.06526273 -0.028943706 0.096165575 0.18452632 0.17997386 0.12291195
0.04801393 0.08499048 -0.027459765 -0.036264174 -0.09988897 -0.034222513 0.12579663 0.02382658
-0.061459865 0.031728 0.13297367 0.20830585 0.06637141 -0.041787926 0.07742158 -0.06715482
00000000: 600a ef3d 59f8 5bbc b01d 0cbd eaac 283e
00000010: 20b6 85bd bf88 423d 9272 d9bc 831a e23c
00000020: a583 58bd b715 033e b19d 0f3d 986c edbd
00000030: 9885 e73d 4dd2 c9bd 6e7f a33b eab4 c73d
00000040: 7591 3b3e 10ac 0f3e 8942 31be 7897 113e
00000050: 94b3 b23b 92c9 03be d0b8 963c 88de f43c
00000060: c722 2f3e 0ed5 4bbd f0fe 79bd f558 aa3d
00000070: 4c18 453d d670 b43d 67d8 c5bd cfec 8abd
00000080: 0b08 1d3e f22c 203c 8e5e 053e 243a 403e
00000090: 8eb7 b53d 078e 4dbd 950f 08be 5b35 8b3d
000000a0: d5aa 753d 89ff 1dbe 2271 803e 730f f8bd
000000b0: a12b 0fbd ad58 a2bd ccbf 54bd d896 883d
000000c0: 6c6a 373e 0f96 2a3d cf78 9bbc 3b93 8a3d
000000d0: 0a71 99bd 5136 173e a96f bbbd 5f2a fc3c
000000e0: c7c5 783e fabd 123e 4b05 503c cc30 413d
000000f0: 7dff 6ebc 1032 cb3d a667 a3bd 9621 e3bd
00000100: 6509 263d a56e 353e 9681 dabc e407 7cbd
00000110: 8c9e 013e ce4c 14bd 434e 5a3d 425f 3e3e
00000120: d528 963c 21a1 94bd 3714 11bd 63b1 72bd
00000130: 2a9e 393e 5eee 243e f593 79bd d893 af3c
00000140: a9f3 0c3e 63e5 e83d 52b9 04bd 71de db3c
00000150: 64b4 4bbb 0c30 0dbe eba1 67bd 600c 8ebd
00000160: 1541 91bd a3af 9cbd 2757 493d 3cea f03d
00000170: 2850 953d 56c1 693d a784 9f3b edf6 833c
00000180: 66c1 ca3d 9ffe 26bd 9daa 3cbd e7ee 07be
00000190: 2d3d 743d 5ee8 373d c113 1fbe aa2f 0dbe
000001a0: fcfc 9abd 464c 65bd e389 273d ff25 e7bd
000001b0: 5c03 fcbd 1478 a9bd 0d31 b43c e917 a23d
000001c0: ac8d 7c3d c799 293e 12a1 e83d efa0 713d
000001d0: 1517 ba3d 7a8f 163e 350e 123e ae9f ef3c
000001e0: 8a6c 63bb 252e 003e 1535 d73d ad8e 2a3e
000001f0: ea98 093e ffed acbc 4fab 1f3e 1a20 633d
00000200: 8586 b1bb 8e99 103e 28f5 023c aa13 ad3d
00000210: 8e2f 483d 0976 133c 5ece 0f3e 9a99 07bd
00000220: 301b 563e 219d 1e3e 77a8 85bd 5a1b edbc
00000230: 75f2 c43d 78f4 3c3e 114b 383e 43b9 fb3d
00000240: 41aa 443d 7d0f ae3d 4df3 e0bc be89 14bd
00000250: 9792 ccbd e82c 0cbd d5d0 003e f62f c33c
00000260: 57bd 7bbd 38f5 013d 402a 083e 214e 553e
00000270: bced 873d d129 2bbd 358f 9e3d 7788 89bd

lin.weight f4 [3, 40]
0.14383218 -0.087143 -0.08778352 0.16125877 -0.21368752 0.046750862 0.17044957 -0.13599157
0.26484594 -0.18257348 -0.11163869 -0.025933102 0.123494364 -0.098872736 0.029949397 0.041063584
-0.18032792 0.13960344 -0.16437037 0.07188955 -0.13433444 0.06641107 0.14173304 0.08886751
0.13453193 0.018988699 0.005332922 -0.10900413 0.062287707 0.1220502 -0.010151419 0.13939355
-0.07549917 0.05547014 -0.033522878 0.24882852 -0.18164803 -0.11817129 -0.21479325 0.2147994
0.11438671 -0.123806 -0.15424472 -0.05502868 -0.18959364 0.2112668 0.031209169 0.022439672
0.10283465 0.05177632 0.14697707 -0.12156237 -0.05535798 -0.020058015 0.12959166 0.17197224
0.016733197 0.24334624 0.094385885 -0.0997912 -0.23490326 0.082402095 0.15144971 0.21697265
0.12137665 -0.17108038 0.06116842 -0.19418702 -0.1729226 0.20098619 -0.08240736 0.11063326
-0.101427056 0.067743376 -0.11697666 0.1422467 -0.12741324 -0.04485636 -0.038708773 0.16312325
-0.051019914 0.013772528 -0.1892015 -0.113671444 0.0034720576 0.20544578 0.24178831 -0.09620809
-0.13320707 -0.16154169 0.16734904 -0.18084964 0.2169131 -0.11668472 0.027940035 0.0728967
0.24601798 0.20869733 -0.1775548 -0.19015862 0.0791761 0.06345185 -0.022169637 0.11209849
0.13740614 -0.21628748 0.14385198 -0.15524195 -0.18272817 -0.052695174 0.27459937 0.03545744
-0.17103061 0.071059726 0.06341287 -0.14804576 -0.1585233 -0.18767925 -0.15904707 0.16664346
00000000: be48 133e 0778 b2bd d9c7 b3bd 0521 253e
00000010: e7d0 5abe d57d 3f3d 558a 2e3e 6041 0bbe
00000020: e399 873e 8bf4 3abe d3a2 e4bd a871 d4bc
00000030: 9dea fc3d ca7d cabd 7058 f53c 4a32 283d
00000040: e2a7 38be 34f4 0e3e b550 28be d43a 933d
00000050: f88e 09be 8702 883d 7722 113e 2b00 b63d
00000060: bdc2 093e 308e 9b3c cbbf ae3b 8f3d dfbd
00000070: 6521 7f3d 75f5 f93d 2352 26bc 2fbd 0e3e
00000080: 4f9f 9abd a834 633d 494f 09bd e7cc 7e3e
00000090: f101 3abe ca03 f2bd c3f2 5bbe 60f4 5b3e
000000a0: 9443 ea3d 008e fdbd 54f2 1dbe c165 61bd
000000b0: d624 42be 5356 583e 5faa ff3c 67d3 b73c
000000c0: f99a d23d 6813 543d 2881 163e b1f5 f8bd
000000d0: 0dbf 62bd b550 a4bc adb3 043e 7e19 303e
000000e0: 0f14 893c c22f 793e 634d c13d 545f ccbd
000000f0: 7b8a 70be 6ec2 a83d a215 1b3e 142e 5e3e
00000100: 5294 f83d b22f 2fbe bd8b 7a3d f6d8 46be
00000110: 9f12 31be 53cf 4d3e 31c5 a8bd b193 e23d
00000120: fdb8 cfbd 0abd 8a3d 7691 efbd 1ea9 113e
00000130: 9e78 02be 4dbb 37bd 178d 1ebd c809 273e
00000140: 42fa 50bd 2ba6 613c 0abe 41be 93cc e8bd
00000150: 768b 633b 6160 523e 5b97 773e bf08 c5bd
00000160: 6f67 08be 2f6b 25be 8c5d 2b3e a630 39be
00000170: 781e 5e3e 66f8 eebd 80e2 e43c dd4a 953d
00000180: 23ec 7b3e c1b4 553e edd0 35be f1b8 42be
00000190: 1427 a23d 0bf3 813d 199d b5bc e593 e53d
000001a0: 32b4 0c3e 777a 5dbe ef4d 133e bff7 1ebe
000001b0: 181d 3bbe e5d6 57bd 4a98 8c3e d23b 113d
000001c0: a622 2fbe c387 913d 9bde 813d 4f99 17be
000001d0: ef53 22be fd2e 40be 3cdd 22be 95a4 2a3e

lin.bias f4 [3]
-0.10037818 0.013686827 -0.026554354
00000000: 1393 cdbd b73e 603c 8488 d9bc
