models/102-seed-100train_treated-40-12/itr-0-decoder.pth.pth (torch, 81459 bytes, 8 tensors)

lstm.weight_ih_l0 f4 [160, 80]
00000000: b0fd 5c3d aa70 27be eda5 f13b e4a7 0dbd
00000010: 2947 9f3d b743 f23c 49c8 cf3d 6ca5 bd3d
00000020: dd97 7a3d 9de7 2fbd 30b1 b1bd 8ea6 1e3e
00000030: 8c29 e0bd ceaf 21be 0d30 033d a83c 5cbd
00000040: 0de7 9f3b 3062 6bbe 0754 ab3a b339 1f3e
00000050: ca4b 15bc 7851 a6bc fd96 7fbc c971 4ebd
00000060: 8616 5ebe 72fd 573e 20bb 163d dc9a 0f3d
00000070: 0760 2b3e f4a7 003d 9aab febd 614c d93c
00000080: 31a8 14be 0642 2e3c 9144 b4bd efd9 5fbd
00000090: c7a6 b7bd bbc4 5fbe 1424 26ba 2075 85bd
000000a0: 99e8 ed3d 403e 1e3e e4d8 603d 5e25 5cbd
000000b0: 1fc0 18be 5b93 42be dfa2 e33d 239b 96bd
000000c0: 3050 a43d bb6b 19be 6fd7 ebbd f151 4bbd
000000d0: f151 203c 30d8 29bd cea0 80bc d174 38be
000000e0: 20d2 b2bc d870 3bbd 5a48 483e cafa 483d
000000f0: e84d 34bd 9306 913d 810f 023e 3ca9 483a
00000100: 8f64 3cbe 42c9 0abe 21e4 afbd 6922 bdbc
00000110: b2b5 f7bc 5b83 913d 4ec8 ac3d b055 b0bd
00000120: 9698 34bd 0a83 c43d 95f7 c7bd 2032 54bd
00000130: 5e54 d93c 2292 7a3d e0e8 203e e837 38be
00000140: 99db f8bd e64e a63c 1de3 733d 4ecc fd3d
00000150: 576a 183e 92cc 953d e523 e5bd 4099 bbbc
00000160: e666 d3bd 2825 0dbd 08a5 fa3d 5080 183e
00000170: afc3 193d 2b05 b8bd 4d82 81bc b78e fa3d
00000180: 9e48 80bd 9e93 36bd 773c e3bd 8135 d0bb
00000190: f2f6 5c3d 3c92 26be 0854 d83d 5388 813d
000001a0: 699e 993d d71e 243e 8257 66bc 96b8 4c3d
000001b0: 4ddf 16be bff5 fbbd f051 24be f5dc f33d
000001c0: 302f cdbd 738c 36bd de99 343e b1f3 11be
000001d0: cfb8 0039 e6db 01bd df37 193d 01ae 4c3c
000001e0: 24b1 bc3d 4a60 11bd b6f8 e43d 5d0d 893d
000001f0: 6840 0d3e e08f af3c 2bf7 b5bd cb44 133e
00000200: 06bd cdbb 829e a93d e7b7 a73d 0478 0abe
00000210: c9ce 08be d773 22bc 5cc1 e73d fe1d 763d
00000220: efa3 b3bd 316b 45bd f28e d73d 658c aabd
00000230: 606c 03be 747e 383e eba6 873d 1330 bebd
00000240: 0052 863d 9857 373e 1789 1a3e cac7 a23d
00000250: 0ce9 a9bd dc77 2d3e 115a 333e 74ca 323e
00000260: c074 64bd 906b 003d 22dd 433c 4f64 2dbe
00000270: 775b 98bd cd60 fcbd 79c0 e93d ef26 de3d
00000280: f27d d7bc 74f8 17be 2957 4ebc 0f77 0abd
00000290: 55e8 e33d 99e0 12be 8288 31bd c919 cebc
000002a0: cb96 6abc b6c8 59be 6f41 d43d e4d1 f2bd
000002b0: 14ed 453a b202 fbbc 2f21 0b3d 7b44 61ba
000002c0: 3ac5 d73c c713 37be d23b 3f3d b5bf 1bbe
000002d0: 19d1 18be b00e 92bc f6a6 4bbe 7f85 d8bd
000002e0: e902 c1bc 9319 c0bd a3a1 4b3e 8fa2 0c3d
000002f0: 6dd4 fbbc 6b89 7f3d 231d 623d cf94 d23d
00000300: b998 d2bc 9d92 b3bd 1ea1 a43c 6ba1 fabd
00000310: f08e b0bc 0da2 d5bd 9763 053e 153b 013e
00000320: 2de6 8dbc 6165 fc3a a92e 7d3d 2fc1 95bb
00000330: 18db 3dbd 33e8 953d cf9b 433c 9ffb 0dbb
00000340: fe65 0c3a 40a0 18be 66d3 063e c968 163e
00000350: e99b c23d 880d 2abb 9f51 0f3d 3779 fdbd
00000360: 011a 18be 50b8 313e a6c3 b3bd 8599 09bd
00000370: 3b70 d0bd 0b64 bdbd 3b96 5ebd 3823 a03d
00000380: 7fc8 ba3d ba06 923d 6ee7 2abe 8baa debd
00000390: f423 d7bd 1127 7e3d 3b69 c23d 3c4a 01be
000003a0: ab64 483d 2602 c2bd 8122 1ebe 6e89 393e
000003b0: dce9 b8bd 5f99 d83d 1c82 22bd be18 bd3b
000003c0: 7dda 7c3c c93b d7bc 2bad f33d a41a f73d
000003d0: b8bd 9f3d 8dc5 afbd 7ec3 96bc cce4 2bbb
000003e0: 7c54 0cbd 848e 333e 9fac 1bbe 03fd 1ebd
000003f0: 0daa 30bc c7a4 633e 5591 4d3e 2ae3 873d
0.053952873 -0.16351572 0.007374516 -0.03458394 0.077772446 0.029573305 0.10145623 0.09260067
0.061179984 -0.042945493 -0.08676374 0.15493223 -0.109454244 -0.1578972 0.032028247 -0.053768784
0.0048798383 -0.22986674 0.0013071307 0.15549354 -0.009112308 -0.02030252 -0.015599963 -0.050401483
-0.2168828 0.21092775 0.03679955 0.035059795 0.1673585 0.031410173 -0.12435074 0.026525678
-0.14517285 0.010635858 -0.088021405 -0.054651197 -0.08967357 -0.2185239 -0.00063377735 -0.065164804
0.1161663 0.15453434 0.054894343 -0.053746574 -0.14917038 -0.19001524 0.111150496 -0.07353809
0.08023107 -0.14982502 -0.115157 -0.049638692 0.009785161 -0.041465938 -0.015701678 -0.18013312
-0.021828711 -0.045761913 0.1955885 0.049067296 -0.04401961 0.07081332 0.12701227 0.00076546124
-0.18397735 -0.13553336 -0.08588434 -0.023087697 -0.030238006 0.07105132 0.084366426 -0.086100936
-0.04409083 0.09595306 -0.097640194 -0.051805615 0.026529487 0.06117452 0.15713835 -0.17990077
-0.1215126 0.020301294 0.059542764 0.12392484 0.14884315 0.07314409 -0.11188487 -0.022900224
-0.10322361 -0.034459263 0.122385085 0.14892697 0.037540134 -0.08985361 -0.015809203 0.12234252
-0.06263851 -0.044574372 -0.11095517 -0.0063540344 0.053946443 -0.16266721 0.10562903 0.0632483
0.075009175 0.1602739 -0.014058949 0.049980722 -0.1473362 -0.12302732 -0.16046882 0.119073786
-0.10018766 -0.044567537 0.1763682 -0.14253117 0.00012275878 -0.031703852 0.0374068 0.012492658
0.092134744 -0.03549222 0.1118025 0.06692002 0.137941 0.02143091 -0.08885034 0.14381711
-0.006278637 0.08282186 0.081893735 -0.13522345 -0.13360132 -0.009915314 0.11316177 0.060087197
-0.08771502 -0.04819793 0.105253115 -0.083275594 -0.1283431 0.18016988 0.06623634 -0.09286513
0.06558609 0.17904508 0.15091358 0.07948263 -0.08296403 0.16940254 0.17514826 0.17460042
-0.055775404 0.03135258 0.011954578 -0.16932796 -0.074393205 -0.12323151 0.11413664 0.1084727
-0.026305173 -0.14840871 -0.012594023 -0.03380495 0.11128298 -0.1434349 -0.043343075 -0.02515878
-0.014318178 -0.21267971 0.10364043 -0.1185644 0.0007550281 -0.030640934 0.033967193 -0.0008593273
0.026339162 -0.17878638 0.04668791 -0.15209849 -0.14923514 -0.01782927 -0.1988791 -0.10572337
-0.023560958 -0.09379878 0.19885878 0.034334715 -0.030740941 0.06238691 0.05520357 0.10282289
-0.02570759 -0.08768199 0.020096358 -0.12237819 -0.021552533 -0.10431299 0.13026272 0.12620194
-0.01732167 0.0019256287 0.061812077 -0.0045701484 -0.046351522 0.07319679 0.011939003 -0.002166487
0.0005355774 -0.1490488 0.1316658 0.1468841 0.09502394 -0.0025948007 0.03498995 -0.123766355
-0.1485367 0.17355466 -0.08777551 -0.033593673 -0.10177656 -0.09247597 -0.05434249 0.078192174
0.09120273 0.07130189 -0.16689846 -0.10872372 -0.105049044 0.062048975 0.09492727 -0.12625974
0.04892413 -0.09473066 -0.1544285 0.18118832 -0.0902898 0.10576128 -0.039674863 0.0057707718
0.015432951 -0.026273625 0.118982635 0.12065628 0.07799858 -0.08582602 -0.018403765 -0.0026228903
-0.034260258 0.17534834 -0.15202568 -0.03881551 -0.010782731 0.22230826 0.20074971 0.06635125

lstm.weight_hh_l0 f4 [160, 40]
00000000: b8e4 033d 00ec 39be f96b 193e 9ca6 84bc
00000010: 110f cfbd eb1d fa3d dd56 683d 84fb 08be
00000020: b4f5 0c3c 6f13 f8bd a6dc 453e dab8 c23d
00000030: aced 153e 2812 283e 65c0 dd3d 8606 273e
00000040: ed52 84bd c284 103e 20ed 00bd 3248 dfbc
00000050: 92b9 cebd 4fc5 65be 11d9 9d3d 6260 263e
00000060: 3d3a bb3d 7593 833d 365a 96bd edb0 d4bc
00000070: 650c 8cbe f9fe bdbd fd2d c8bd 4be8 10be
00000080: 9a70 bc3d 7d49 17bd 8ef6 ec3d 35dc 10bc
00000090: 0121 e0bc 7730 583e df14 4abd 1e98 cabd
000000a0: f611 863d 3667 3ebe 8e1c 2e3c cf85 afbd
000000b0: 1716 e1bd 7682 82bd 09df 713e bb64 553d
000000c0: 0e0a 0fbe b18f 0dbd fcab fabd 514c 873d
000000d0: 0c22 033e cdd5 f2bd 5cad d6bd c264 a23d
000000e0: 53cd 563e 8dd6 e2bd 616b 373d 5f9d f63d
000000f0: c799 eb3d 607c 0ebe 4610 dfbd f529 f6bb
00000100: 6a28 b1bc ad15 6f3d 8109 e0bd 2629 123e
00000110: b2d1 baba 0c9d 723e ff77 053e 8fc3 18be
00000120: 0e2d 09bd 1362 0b3e 67a5 65bd 41cd 1c3e
00000130: 259e 883d 703d 7bbe eba8 33be 625b 443c
00000140: 5eb9 15bc 2d44 e8bd 5cb2 89bd 1c77 393d
00000150: fb13 fbbd eb4b 5dbd 8653 0dbc 0f83 d1bd
00000160: 0080 493e 0475 dc3c 47e7 f1bc e497 10be
00000170: 2b87 153e 7b08 ccbd d5fa 233c 1769 38bd
00000180: faf4 543e 5c7b 063e 97d0 31be de92 713d
00000190: 81f3 1fbe d641 e63d d9b3 5d3d 3b0e 03be
000001a0: 29bd db3c 8b7d a53d 99ad 20be 5614 873c
000001b0: c514 e0bd 4225 273e b4dc af3d 8b24 ddbd
000001c0: f6b0 b3bd b60f 80bd 1cd5 06bd 29d4 8a3d
000001d0: 9ac9 193e c5cd afbc 2a3e 1bbe 08b6 ee3d
000001e0: 564e 683e c926 5dbe e89c f1bb 9efe 9bbd
000001f0: b9aa 16bd 8633 22bd 9db6 073e d89b f7bd
00000200: 0fcd 9b3d bdda cdbd 7516 88bd 4226 e6bd
00000210: 862a 8d3d f01f 593d c95b b9bd 441a 143e
00000220: 76f7 f7bc 8d6c 743c 2609 203e 10a3 8ebd
00000230: cd61 0fbe bb52 37bd f280 16be 339a c73d
00000240: d23d 473e 46c5 a53c bd5c 8d3d b5d1 5bbd
00000250: 4491 3fbe 242e 56bd 71f3 cd3d 965e 1abe
00000260: 328d 11be 863c 15bc 7f3e 203b 68ce 583d
00000270: de19 d03d 35c8 85bd 391f fa3d f2c9 9d3c
00000280: 3e9d 33be f834 a23d a58a a4bb 506d 26bc
00000290: 6293 b33d a205 243e 1d8b 593d f8da 63bc
000002a0: 7ca4 18be 0bf1 dfbd 3a77 14bd 079d af3d
000002b0: b8a1 023c c9aa 4c3c fa71 c73c 08da 3ebd
000002c0: adaa 31be 59f5 503d abd6 273e db91 ecbd
000002d0: f0c7 723d 6cd4 6bbd 85b5 0d3e 87b8 a53d
000002e0: 7271 efbd 5d53 01be f360 09be 574f dc3d
000002f0: 4b0a b53d dbed b93c 6e09 123d b08b 03be
00000300: 47cd e6bd 52bc fd3c 0bd9 f3bd 7b48 b73d
00000310: fb43 27be 0231 8a3c 5c40 df3d 866f 843d
00000320: 03cc 6ebe f5ec 85bd d771 863a c4fc 513d
00000330: 3003 acbd fd6d 9b3d fe1d ab3e 5195 d9bd
00000340: 7383 3cbe 1a14 353c a6e8 ad3c ff88 76bc
00000350: 2f31 f8bb 47bf 57be 2ce1 8dbd a1eb efbb
00000360: 887c 52bc 4a15 d73c 3a4a bebd c346 5cbe
00000370: 79d8 2d3d fb38 073e 7445 ec3d ad3a 9b3d
00000380: f394 803e e4d8 be3d 8468 363e d626 8e3e
00000390: 7fa1 943d 1f62 b6bd ca31 8d3d b1fc 84bd
000003a0: 3473 4b3e 564b 3abc ac15 2a3e 3f33 a8bd
000003b0: acba 21be 3307 87be 7cb4 973e 0bf3 783d
000003c0: 1278 0b3e b039 63be da1e 343e 04c2 a23c
000003d0: 7cfd 8dbc da0c b93d 53ad 65bd e8ae c83c
000003e0: 019c 70bc 46cb c93d b6aa 1d3d c44b 3e3e
000003f0: 71fa e23d 3820 27be 2a13 f73d edd5 1d3e
0.032200545 -0.18156433 0.14982595 -0.016192727 -0.101102956 0.12212738 0.056723464 -0.13377196
0.008603502 -0.12113082 0.19322452 0.09507914 0.14641446 0.16413176 0.10827712 0.16311082
-0.06461129 0.14113143 -0.03147614 -0.027256105 -0.100939885 -0.22438549 0.07707418 0.16247705
0.091419674 0.064246096 -0.07341425 -0.025963271 -0.27353206 -0.09277148 -0.097743966 -0.14151113
0.092011645 -0.03693532 0.11570464 -0.008841564 -0.027359487 0.21112238 -0.04933631 -0.09892295
0.065463945 -0.1859406 0.010626925 -0.08570444 -0.109905414 -0.0637254 0.23620237 0.052098017
-0.1396868 -0.034560863 -0.12239835 0.06606353 0.12805957 -0.118571855 -0.104822844 0.07929374
0.20976762 -0.110760786 0.04478014 0.12041735 0.1150394 -0.13914633 -0.10891776 -0.007512326
-0.021625716 0.05837028 -0.10939313 0.1427351 -0.0014253168 0.23692721 0.13034056 -0.1491835
-0.033490233 0.13611631 -0.056065943 0.15312673 0.06670789 -0.24535155 -0.17544906 0.011984678
-0.009138433 -0.113411285 -0.067234725 0.045279607 -0.1225967 -0.05402748 -0.008625871 -0.102300756
0.19677734 0.026911266 -0.029529227 -0.14120442 0.14602344 -0.09962555 0.0100085335 -0.045022096
0.20796576 0.13132995 -0.17364727 0.058977954 -0.15620233 0.11243026 0.054126594 -0.12798397
0.026823597 0.08080586 -0.15691222 0.01648919 -0.109414615 0.16322806 0.08587018 -0.10797986
-0.08773987 -0.062529966 -0.03291808 0.067787476 0.15018311 -0.021460423 -0.15160432 0.116558135
0.22686133 -0.21596827 -0.007373441 -0.07616924 -0.036783908 -0.039599918 0.13253255 -0.12090272
0.07607471 -0.10051487 -0.06644908 -0.11237766 0.06892876 0.053008974 -0.0905071 0.14463145
-0.030269366 0.014918459 0.1562849 -0.069646955 -0.14002152 -0.044756632 -0.14697626 0.09746208
0.19457176 0.020235669 0.06902454 -0.05366679 -0.18707758 -0.052290097 0.100561984 -0.15075144
-0.14214018 -0.009108668 0.0024451313 0.05293122 0.10161184 -0.06532327 0.122129865 0.019261334
-0.17540452 0.07920259 -0.0050214105 -0.010157898 0.087683454 0.16017774 0.053111184 -0.013907187
-0.14906496 -0.10934647 -0.036246516 0.085748725 0.007973127 0.01249189 0.02434634 -0.04659465
-0.17350264 0.05101523 0.16390483 -0.11551257 0.059272707 -0.05757563 0.13838775 0.080918364
-0.1169156 -0.12629457 -0.1341589 0.107573204 0.08839854 0.022696426 0.035653524 -0.12846255
-0.11269622 0.030973587 -0.11906632 0.089493714 -0.16334526 0.016869072 0.109009475 0.06466584
-0.23320012 -0.065393366 0.0010257316 0.051266447 -0.083990455 0.07589338 0.3342132 -0.10624183
-0.18409519 0.011052156 0.0212291 -0.015047311 -0.0075742225 -0.2106906 -0.06927714 -0.0073217903
-0.012847073 0.026255269 -0.09291501 -0.21511368 0.042442773 0.1320533 0.11536685 0.07579551
0.2511364 0.09318712 0.17813307 0.27764004 0.072573654 -0.08905434 0.06894262 -0.064935096
0.19868165 -0.011370501 0.1660983 -0.082128994 -0.15793866 -0.2637268 0.29629886 0.06077866
0.13620022 -0.22189975 0.17589894 0.019867904 -0.017332785 0.09035654 -0.056073498 0.024497464
-0.014685632 0.098532245 0.03849288 0.1858359 0.11082924 -0.16320884 0.12064202 0.15413637

lstm.bias_ih_l0 f4 [160]
00000000: 7712 83bd 83c7 09be 3c16 4abd a0eb ed3c
00000010: 2d81 913d 2874 783d 3466 fe3c 3b73 82bc
00000020: b11a 373e 5a60 18ba 3f23 4d3d 7ab4 2fbd
00000030: 36f7 b03d dbe9 0c3d b240 493e 861a 5f3c
00000040: 5c70 163e c8de d2bc 4ddc 9dbd 31b6 9f3d
00000050: c6d3 23bd 22c0 ba3d 20f9 c7bc da5c ca3d
00000060: 97e2 133b 9baf 453e 30c3 8c3d ab3b 153d
00000070: df79 dfbd 4919 1b3e e7a7 f93b 7cb9 97bd
00000080: 449c 6bbd 227c ac3b a807 34bd 62ac 023e
00000090: bd5f 1a3d 8029 cfbd 10f4 183c c28b f83d
000000a0: 51f6 c6bd 0168 4bbd b7ca ddbc fe0d a0bd
000000b0: ec9a f23c b36e 0d3e c28a 7cbd 40ee 0e3e
000000c0: 4937 d93d 08b9 f73c 5223 55bb 7202 2f3e
000000d0: 0cf3 3d3e 43f0 1f3e 0cde 5f3d f447 d43d
000000e0: 2214 95ba 2c6a 61bd 8f28 3c3d 5275 fc3c
000000f0: 9138 2f3e 540b bc3d b988 d6bd 2f58 843d
00000100: fb64 1d3e e255 17be 20a8 753d 97f3 9c3d
00000110: 8fa8 0dbd 96fd f9bd 91a0 c1bc aa1b 193d
00000120: 5a1d da3d 53fa 0ebd d765 413d d79b ba3d
00000130: d0ee 2f3e 3bc4 10bd 72f2 e93d fdba a83d
00000140: 478d b9bd d457 0fbe 8d40 1c3c 253c f2bd
00000150: 9419 bb3d ffab a5bd fb65 db3d 7b12 1bbe
00000160: f0fe 733d ec8a bbbc c6bf c7bd a328 f73d
00000170: afa4 003d d44e e03c 01b2 e6ba f0e7 23bd
00000180: dedd 7c3d cd0f 923d 987f 033c e7f6 e0bb
00000190: fe99 953d 9b46 113e 9a65 b1bc 1b33 8cbd
000001a0: e4c3 073e afbb 033e dfd8 5dbd 5a92 a3b9
000001b0: adfd c7bd 5e4d d73d 1662 aaba 1ac2 26be
000001c0: fe74 3abe 597b 083e ec10 0d3e baaa 7f3c
000001d0: 3984 ea3d ed98 003d 515c 29be b030 653d
000001e0: ca85 0b3e 33a7 0c3e b8ed 303e bbea 88bd
000001f0: 0f4a 34bd a0b2 503e eac8 063d e102 df3c
00000200: 819d 8f3e fa6c e33d 41e7 15bd 1d12 8a3d
00000210: 0088 ff3d a018 303e 8a81 9e3c 02e7 d73d
00000220: c9a7 273e 6917 1d3e 3c04 903d defb bfbd
00000230: bce3 babb 2bf7 833b 7af9 95bd 649d c53d
00000240: b774 b93d 5d15 713e fc08 983c 235a 6d3d
00000250: ea73 6d3d 1110 673e 0c56 193e 5ca5 df3b
00000260: a6e1 41bd 1ea8 393e 2810 b33d 8941 7e3e
00000270: dd92 03be 17e3 583e 8f60 8fbd d283 2b3e
-0.06400006 -0.13455014 -0.04933761 0.029043019 0.071047164 0.06065765 0.031054594 -0.015924087
0.17881276 -0.00058126973 0.05008244 -0.042896725 0.08640902 0.03440271 0.19653586 0.0136171635
0.14691299 -0.025740996 -0.07708035 0.07798422 -0.039996885 0.09118678 -0.024410784 0.09880991
0.0022565478 0.1930527 0.068731666 0.036433857 -0.10911917 0.15146364 0.0076188925 -0.07408425
-0.057522073 0.005263821 -0.043952614 0.12761071 0.03768896 -0.10115337 0.009335533 0.12136032
-0.0971495 -0.049659733 -0.027074201 -0.07815169 0.029614888 0.1381176 -0.061655767 0.13958073
0.10606248 0.030239597 -0.0032522273 0.17090777 0.18549746 0.15618996 0.05465512 0.103652865
-0.0011373798 -0.055032894 0.045937117 0.030817661 0.17111422 0.09181848 -0.104752965 0.06462132
0.15370552 -0.14778855 0.05997479 0.076636486 -0.034584578 -0.12206571 -0.023636134 0.037379898
0.106501296 -0.034906697 0.047216263 0.09111755 0.17180943 -0.03534339 0.11423196 0.0823879
-0.0906015 -0.13998348 0.0095368745 -0.11827878 0.09135738 -0.08089446 0.107128106 -0.15143768
0.0595693 -0.022893392 -0.09753375 0.12068298 0.031407055 0.027381338 -0.0017600657 -0.040016115
0.061735027 0.0713192 0.008026026 -0.0068653706 0.07304762 0.1418709 -0.021654893 -0.06845685
0.1325832 0.12864564 -0.054161903 -0.00031198823 -0.09765182 0.105128035 -0.0012999203 -0.16284981
-0.18208691 0.13328303 0.13775986 0.015604669 0.11451001 0.03139584 -0.16539122 0.055954635
0.13625255 0.13735656 0.17278183 -0.06685396 -0.04401594 0.2038064 0.03290645 0.027223052
0.28049853 0.1110477 -0.036597494 0.06741736 0.12477112 0.17196894 0.019348878 0.10542108
0.16372599 0.15340962 0.07032058 -0.09374212 -0.0057034176 0.0040272675 -0.073229745 0.096491605
0.09055465 0.23543306 0.018558972 0.05794729 0.057971872 0.22564723 0.1497423 0.0068251323
-0.047334336 0.18130538 0.08743316 0.24829687 -0.12848993 0.21180378 -0.07000839 0.16749504

lstm.bias_hh_l0 f4 [160]
00000000: e4bf babd 1c75 963d cd0d b3bc d609 853c
00000010: 77d7 103d 5db7 f43d fb02 e0bc 504b 71bd
00000020: 311f 05bd 93d7 1d3d b130 f73c 50bd 1e3d
00000030: 8a14 3b3c ece0 3b3c f5dd 873d fb78 773e
00000040: 91e1 16bd f960 1dbc f33d 8cbd 7392 8abd
00000050: 8249 acbd d7a9 683e a37d 703d 4427 85bc
00000060: 47e5 91ba 5648 593e c887 af3d bcab 953d
00000070: 914e 3bbc 6d67 9e3d 26be c93c 4669 da3d
00000080: 57e2 2fbd 6bc9 9c3d 1c95 583e d40d adbd
00000090: 88a1 703c 5939 dbbc 537b f83d e0e6 3e3d
000000a0: 0326 fb3d 938f 173e 2a4b 7b3d 1b55 423c
000000b0: 338b ddbd 7f63 c13d 6ffd a73d 9bce d0bd
000000c0: 0fa0 e03d 3d95 cabd 6494 7abc 6987 603e
000000d0: 67b1 f93d c33e 04bd 7ed4 e73d 5c44 debd
000000e0: 7b7f cabd 4c37 a03b 72f6 1d3e 83e7 ac3d
000000f0: 39ad 973c 02c2 dc3c 9584 b43d e029 efbd
00000100: 2558 0a3e 99d8 1b3d 623c ddbd 7972 013e
00000110: 7738 3ebd 5338 93bd 9c16 b13d b4dd a0ba
00000120: dea6 093d 9afc bf3d f861 383c 7814 973b
00000130: 408a d3bd f145 ed3d 8875 2e3e 95a9 d73d
00000140: 24c5 d93d 469a 203c a4b6 573d c31b 37bd
00000150: b0a8 033d 3f90 00be 4bfb fa3d 9527 14be
00000160: e44e 373d 4d79 f1bd e876 e43d f97a 2d3e
00000170: 2df4 f23d edba 603c e70d 793d 2482 263e
00000180: 57fb 39bd 6f79 0dbd 8ca5 febc c769 893d
00000190: defc e0bd 91d0 3cbc fce1 05be 5903 0f3e
000001a0: 7a1d edbd 9a88 00bc d968 533d a533 063e
000001b0: 69c4 20bd 511d e23a 12fe 2d3d c119 a4bd
000001c0: 4a5a 11bd 3b10 aebc a08f 0a3e c69f 9e3d
000001d0: db72 ecbd 1455 06be 1e66 1ebe 9eab fc3d
000001e0: 1f1f 28bb ac2e 92bd ca84 343d 6f38 f139
000001f0: 6012 153c d8b8 8d3e 9414 4e3e af58 543e
00000200: af85 0d3e dfce 00ba f087 8139 4120 113e
00000210: 4453 013e 0386 403e 81b3 663e b304 ad3d
00000220: d644 0fbd 9d53 3b3d 6bb6 8abd 76ab e13d
00000230: 8894 903d 9ff8 833e 49a7 1d3e f0d3 0fbc
00000240: 63be 263d 1153 393e b277 c03d c641 dd3c
00000250: 1add 3f3d 2009 783e 308f 0a3d 7fba a43d
00000260: 1b2a 93bd 7b60 cf3d c263 743e cf64 593e
00000270: 3c08 55bd b901 cb3d cb13 583e 7756 a93d
-0.091186315 0.073465556 -0.021857167 0.016240042 0.035361733 0.11949036 -0.027345171 -0.058909714
-0.03250045 0.038535666 0.030174585 0.03875476 0.011418471 0.0114672 0.06634132 0.24167244
-0.03683621 -0.00960564 -0.068477534 -0.06766214 -0.08412458 0.22721039 0.058713567 -0.016254075
-0.0011130952 0.21219 0.0857082 0.07308146 -0.011432306 0.07734571 0.024626803 0.106646106
-0.042940464 0.07655605 0.2115063 -0.08449903 0.01468695 -0.026760744 0.12132897 0.0466069
0.122631095 0.14800863 0.06135098 0.011861111 -0.10817566 0.094428055 0.082026355 -0.10195657
0.10968029 -0.09891746 -0.015294168 0.21926655 0.1219204 -0.032286417 0.113198265 -0.10852882
-0.09887596 0.0048894044 0.15426043 0.08442595 0.018515216 0.026947979 0.088143505 -0.11677909
0.13510187 0.03804836 -0.10802533 0.12641324 -0.046440568 -0.07188477 0.086468905 -0.0012273104
0.033606403 0.09374352 0.011253826 0.0046105944 -0.103291035 0.11585606 0.17037022 0.10530392
0.10633305 0.009802407 0.052664414 -0.04470421 0.032143295 -0.12555026 0.122549616 -0.14468224
0.04475297 -0.117907144 0.11155492 0.16941442 0.11862979 0.013716442 0.060804274 0.16260582
-0.045405712 -0.034539636 -0.031084798 0.067096286 -0.109857306 -0.0115243355 -0.13074487 0.13966121
-0.11577888 -0.007845068 0.051613662 0.13105638 -0.03924981 0.0017251169 0.04247863 -0.08012725
-0.035486497 -0.021247974 0.13531351 0.07745318 -0.115453444 -0.13118392 -0.15468642 0.12337421
-0.0025653315 -0.07137808 0.04407195 0.00046009148 0.009098619 0.27680087 0.20125037 0.20736955
0.13820527 -0.00049136387 0.0002470608 0.1417246 0.1262942 0.18801121 0.22529413 0.08448162
-0.034977756 0.045734037 -0.06773075 0.11019032 0.0705958 0.2577562 0.15395845 -0.008778557
0.04070891 0.18098094 0.0939783 0.027008902 0.04684172 0.24222231 0.03382796 0.08043384
-0.07185765 0.10125824 0.2386618 0.21229862 -0.052009806 0.09912438 0.211013 0.08268445

lin.weight f4 [2, 40]
00000000: 3a52 003e 8472 1c3e 1d99 47be 6e85 8ebe
00000010: f977 70be b906 ffbe bc48 2ebe 2a48 2e3c
00000020: ce35 b93e 08ce 78be c606 86be 05f1 80be
00000030: 087d 7e3e b2cd 713d 78c1 d23e d8b9 7dbe
00000040: 7688 ca3d 94ca 653a 636a a1bd 926f 5dbd
00000050: 79cb afbd c8d2 e63e c827 793e 4cb2 043e
00000060: 12ea 943e 1191 0d3f 8ae6 3cbe 0a6a 9dbd
00000070: 9ab0 16bc 13a9 b03e 5530 2ebe 198c 253e
00000080: a62a 823e 5757 b8bd b806 de3d 088b 89be
00000090: 7dc3 c43d 0118 19bc fdc7 9f3d 5c49 9b3e
000000a0: 75e1 973e a63b 303e f703 6bbe bab3 32be
000000b0: d6f4 313d b9a0 253e 0f8d 003e 47cb 1dbd
000000c0: cafd 91bd 32ce 6a3d 540d 0bbd 4a04 0ebe
000000d0: 0e2f 753e 3548 6f3e 47e6 5b3e c5af 2f3e
000000e0: 4309 8a3e a3e0 573e 62b8 62be 7e4a b0bd
000000f0: 8f4b 38be c000 483e ebe5 3a3d 009d 873d
00000100: 9edc 25be 1901 853e aa74 8cbe 83ba b9be
00000110: b912 693e 7d7f 4f3d 188d 4bbe 7992 253e
00000120: 698a 0b3e b5b1 4ebe db2f fd3d 375e 84be
00000130: 27e2 e13d 6756 77be ab5f 873e 6f2d c2bd
0.12531367 0.15278059 -0.19492002 -0.27836174 -0.23483266 -0.49809816 -0.17019933 0.010637322
0.36173862 -0.24297345 -0.26177043 -0.25183883 0.24852383 0.059034057 0.4116323 -0.24777925
0.09889309 0.0008765843 -0.0788162 -0.05406148 -0.08583731 0.45082688 0.24331582 0.1295864
0.2908483 0.5529948 -0.18447319 -0.07686241 -0.0091973785 0.34503993 -0.17010625 0.16166724
0.25423163 -0.09001034 0.10841125 -0.26863885 0.09607599 -0.009344102 0.078018166 0.30329406
0.29664198 0.17210254 -0.22950731 -0.17451373 0.043446384 0.16174592 0.1255381 -0.03852394
-0.071284845 0.05732555 -0.033948258 -0.13868824 0.23943731 0.23367389 0.21474563 0.17156895
0.2696019 0.21081786 -0.22140649 -0.08607958 -0.17997573 0.19531536 0.045629423 0.06621742
-0.1619744 0.259774 -0.27432758 -0.3627511 0.22761048 0.05065869 -0.19878042 0.16169156
0.13627018 -0.20184977 0.12362643 -0.2585313 0.11029463 -0.24154054 0.26440176 -0.09481322

lin.bias f4 [2]
00000000: 7d8d e03d 71f7 f7bd
0.10964487 -0.121077426

time_lin.weight f4 [40, 1]
00000000: ac30 3bbf d4ba 903e f076 6cbe 00d1 8f3d
00000010: d8a7 0d3e 7cca e33e 981c 6fbf 289c fa3e
00000020: 14af 45bf 2eba 033f 761a 233f 84b0 5cbf
00000030: dec2 0bbf e4c4 70bf 6cfd bc3e 9870 d43e
00000040: 5c58 3dbf 8c84 543f 0821 69bf 7cf1 b13e
00000050: 88ec f9be b026 e23e 94f5 733f 20e1 3abe
00000060: 107d dcbd 6ea8 69bf 8477 b3be 3024 ec3d
00000070: c063 34bd f067 26bf a252 493f de79 59bf
00000080: 7ec8 75bf 70af fdbd e046 083e ecc2 393f
00000090: ae1e 40bf 9893 58be 082a 2c3f c87f 0abf
-0.7312114 0.2826754 -0.23092246 0.070222855 0.13833559 0.4449042 -0.93403006 0.48947263
-0.77220273 0.5145596 0.6371225 -0.8620684 -0.5459422 -0.9405043 0.36912096 0.41492152
-0.7396295 0.8301475 -0.91066027 0.3475455 -0.48813272 0.4417014 0.952966 -0.18249941
-0.10766041 -0.9127263 -0.3505212 0.1153034 -0.04404044 -0.65002346 0.7864171 -0.8495158
-0.9600905 -0.12386978 0.13308287 0.7256305 -0.75046813 -0.21150053 0.67251635 -0.5410123

time_lin.bias f4 [40]
00000000: 0e8f 1abe ad7c 703f 9c2f a53d 6949 aa3e
00000010: f23c babe cf23 0dbf 2e98 a93d 84a6 1abf
00000020: 46ba c9be df22 5bbd 6e39 6a3e 9c1d 523f
00000030: 6104 5abe 05a4 003f b00b 99bc 45b3 50bf
00000040: b7f2 1cbe 7101 1b3f 517e 1c3f 3901 793f
00000050: 9b8e dbbe f2b3 31be 5cc3 be3e c295 ab3e
00000060: 094f 97be ed6e 37bf 8e2d 4cbf 324d 273f
00000070: dbd3 70bf 6118 2ebf 354f 3bbf 0160 efbe
00000080: c509 8dbe ec0d 4e3f b362 4dbf 9f6e 703e
00000090: cbd9 573f f8d0 49be 3b22 c73e c9c8 21bf
-0.15093634 0.9394024 0.080657214 0.33259133 -0.36374623 -0.55132765 0.08280979 -0.6041033
-0.39399928 -0.053500053 0.2287347 0.8207643 -0.21290733 0.50250274 -0.01868233 -0.81523544
-0.15326963 0.60549074 0.61130244 0.9726749 -0.42882237 -0.173538 0.37258422 0.33512694
-0.29552487 -0.71653634 -0.7975701 0.65352166 -0.94073266 -0.6800595 -0.73167735 -0.46752933
-0.27546516 0.80489993 -0.8022873 0.23479699 0.843167 -0.19708622 0.38893303 -0.63197
