models/101-seed-100train_treated-20/itr-0-nsc.pth.pth (torch, 356637 bytes, 24 tensors)

B f4 [400, 200]
00000000: 17b7 d138 17b7 d138 17b7 d138 17b7 d138
00000010: 17b7 d138 17b7 d138 17b7 d138 17b7 d138
00000020: 17b7 d138 17b7 d138 17b7 d138 17b7 d138
00000030: 17b7 d138 17b7 d138 17b7 d138 17b7 d138
00000040: 17b7 d138 17b7 d138 17b7 d138 17b7 d138
00000050: 17b7 d138 17b7 d138 17b7 d138 17b7 d138
00000060: 17b7 d138 17b7 d138 17b7 d138 17b7 d138
00000070: 17b7 d138 17b7 d138 17b7 d138 17b7 d138
00000080: 17b7 d138 17b7 d138 17b7 d138 17b7 d138
00000090: 17b7 d138 17b7 d138 17b7 d138 17b7 d138
000000a0: 17b7 d138 17b7 d138 17b7 d138 17b7 d138
000000b0: 17b7 d138 17b7 d138 17b7 d138 17b7 d138
000000c0: 17b7 d138 17b7 d138 17b7 d138 17b7 d138
000000d0: 17b7 d138 17b7 d138 17b7 d138 17b7 d138
000000e0: 17b7 d138 17b7 d138 17b7 d138 17b7 d138
000000f0: 17b7 d138 17b7 d138 17b7 d138 17b7 d138
00000100: 17b7 d138 17b7 d138 17b7 d138 17b7 d138
00000110: 17b7 d138 17b7 d138 17b7 d138 17b7 d138
00000120: 17b7 d138 17b7 d138 17b7 d138 17b7 d138
00000130: 17b7 d138 17b7 d138 17b7 d138 17b7 d138
00000140: 17b7 d138 17b7 d138 17b7 d138 17b7 d138
00000150: 17b7 d138 17b7 d138 17b7 d138 17b7 d138
00000160: 17b7 d138 17b7 d138 17b7 d138 17b7 d138
00000170: 17b7 d138 17b7 d138 17b7 d138 17b7 d138
00000180: 17b7 d138 17b7 d138 17b7 d138 17b7 d138
00000190: 17b7 d138 17b7 d138 17b7 d138 17b7 d138
000001a0: 17b7 d138 17b7 d138 17b7 d138 17b7 d138
000001b0: 17b7 d138 17b7 d138 17b7 d138 17b7 d138
000001c0: 17b7 d138 17b7 d138 17b7 d138 17b7 d138
000001d0: 17b7 d138 17b7 d138 17b7 d138 17b7 d138
000001e0: 17b7 d138 17b7 d138 17b7 d138 17b7 d138
000001f0: 17b7 d138 17b7 d138 17b7 d138 17b7 d138
00000200: 17b7 d138 17b7 d138 17b7 d138 17b7 d138
00000210: 17b7 d138 17b7 d138 17b7 d138 17b7 d138
00000220: 17b7 d138 17b7 d138 17b7 d138 17b7 d138
00000230: 17b7 d138 17b7 d138 17b7 d138 17b7 d138
00000240: 17b7 d138 17b7 d138 17b7 d138 17b7 d138
00000250: 17b7 d138 17b7 d138 17b7 d138 17b7 d138
00000260: 17b7 d138 17b7 d138 17b7 d138 17b7 d138
00000270: 17b7 d138 17b7 d138 17b7 d138 17b7 d138
00000280: 17b7 d138 17b7 d138 17b7 d138 17b7 d138
00000290: 17b7 d138 17b7 d138 17b7 d138 17b7 d138
000002a0: 17b7 d138 17b7 d138 17b7 d138 17b7 d138
000002b0: 17b7 d138 17b7 d138 17b7 d138 17b7 d138
000002c0: 17b7 d138 17b7 d138 17b7 d138 17b7 d138
000002d0: 17b7 d138 17b7 d138 17b7 d138 17b7 d138
000002e0: 17b7 d138 17b7 d138 17b7 d138 17b7 d138
000002f0: 17b7 d138 17b7 d138 17b7 d138 17b7 d138
00000300: 17b7 d138 17b7 d138 17b7 d138 17b7 d138
00000310: 17b7 d138 17b7 d138 17b7 d138 17b7 d138
00000320: 17b7 d138 17b7 d138 17b7 d138 17b7 d138
00000330: 17b7 d138 17b7 d138 17b7 d138 17b7 d138
00000340: 17b7 d138 17b7 d138 17b7 d138 17b7 d138
00000350: 17b7 d138 17b7 d138 17b7 d138 17b7 d138
00000360: 17b7 d138 17b7 d138 17b7 d138 17b7 d138
00000370: 17b7 d138 17b7 d138 17b7 d138 17b7 d138
00000380: 17b7 d138 17b7 d138 17b7 d138 17b7 d138
00000390: 17b7 d138 17b7 d138 17b7 d138 17b7 d138
000003a0: 17b7 d138 17b7 d138 17b7 d138 17b7 d138
000003b0: 17b7 d138 17b7 d138 17b7 d138 17b7 d138
000003c0: 17b7 d138 17b7 d138 17b7 d138 17b7 d138
000003d0: 17b7 d138 17b7 d138 17b7 d138 17b7 d138
000003e0: 17b7 d138 17b7 d138 17b7 d138 17b7 d138
000003f0: 17b7 d138 17b7 d138 17b7 d138 17b7 d138
1e-04 1e-04 1e-04 1e-04 1e-04 1e-04 1e-04 1e-04
1e-04 1e-04 1e-04 1e-04 1e-04 1e-04 1e-04 1e-04
1e-04 1e-04 1e-04 1e-04 1e-04 1e-04 1e-04 1e-04
1e-04 1e-04 1e-04 1e-04 1e-04 1e-04 1e-04 1e-04
1e-04 1e-04 1e-04 1e-04 1e-04 1e-04 1e-04 1e-04
1e-04 1e-04 1e-04 1e-04 1e-04 1e-04 1e-04 1e-04
1e-04 1e-04 1e-04 1e-04 1e-04 1e-04 1e-04 1e-04
1e-04 1e-04 1e-04 1e-04 1e-04 1e-04 1e-04 1e-04
1e-04 1e-04 1e-04 1e-04 1e-04 1e-04 1e-04 1e-04
1e-04 1e-04 1e-04 1e-04 1e-04 1e-04 1e-04 1e-04
1e-04 1e-04 1e-04 1e-04 1e-04 1e-04 1e-04 1e-04
1e-04 1e-04 1e-04 1e-04 1e-04 1e-04 1e-04 1e-04
1e-04 1e-04 1e-04 1e-04 1e-04 1e-04 1e-04 1e-04
1e-04 1e-04 1e-04 1e-04 1e-04 1e-04 1e-04 1e-04
1e-04 1e-04 1e-04 1e-04 1e-04 1e-04 1e-04 1e-04
1e-04 1e-04 1e-04 1e-04 1e-04 1e-04 1e-04 1e-04
1e-04 1e-04 1e-04 1e-04 1e-04 1e-04 1e-04 1e-04
1e-04 1e-04 1e-04 1e-04 1e-04 1e-04 1e-04 1e-04
1e-04 1e-04 1e-04 1e-04 1e-04 1e-04 1e-04 1e-04
1e-04 1e-04 1e-04 1e-04 1e-04 1e-04 1e-04 1e-04
1e-04 1e-04 1e-04 1e-04 1e-04 1e-04 1e-04 1e-04
1e-04 1e-04 1e-04 1e-04 1e-04 1e-04 1e-04 1e-04
1e-04 1e-04 1e-04 1e-04 1e-04 1e-04 1e-04 1e-04
1e-04 1e-04 1e-04 1e-04 1e-04 1e-04 1e-04 1e-04
1e-04 1e-04 1e-04 1e-04 1e-04 1e-04 1e-04 1e-04
1e-04 1e-04 1e-04 1e-04 1e-04 1e-04 1e-04 1e-04
1e-04 1e-04 1e-04 1e-04 1e-04 1e-04 1e-04 1e-04
1e-04 1e-04 1e-04 1e-04 1e-04 1e-04 1e-04 1e-04
1e-04 1e-04 1e-04 1e-04 1e-04 1e-04 1e-04 1e-04
1e-04 1e-04 1e-04 1e-04 1e-04 1e-04 1e-04 1e-04
1e-04 1e-04 1e-04 1e-04 1e-04 1e-04 1e-04 1e-04
1e-04 1e-04 1e-04 1e-04 1e-04 1e-04 1e-04 1e-04

encoder.attn_v f4 [20]
00000000: cfb5 923f 632c 8d3f 0961 553f badc 8b3f
00000010: 7fe7 9e3f 9031 383f 5c6e 6f3f db41 6d3f
00000020: 78e6 7e3f 0040 6f3f c7f0 913f dda6 4d3f
00000030: fdb3 8b3f f352 843f 5c00 683f 4d9c 683f
00000040: 7cee a13f b1eb 8c3f 7ca9 5d3f 3e3e 8c3f
1.1461734 1.1029171 0.8335119 1.0926735 1.2414397 0.71950626 0.9352777 0.9267861
0.9957042 0.9345703 1.1401604 0.8033274 1.0914303 1.0337814 0.9062555 0.90863496
1.2650905 1.1009427 0.8658674 1.0956495

encoder.grud.zl.weight f4 [20, 26]
00000000: 5ea3 e3be ef04 a23d 3de9 9c3e c218 c0bd
00000010: 26cd 863e 8629 4dbd 2e0c ba3d 95ef 6dbe
00000020: c390 d9bd 767e 24be e994 5bbe 8abf 5ebe
00000030: 4487 ad3e fdae ecbd c76b 84be 1889 f33d
00000040: 55e6 c63e 8d8b ccbd 9103 93be cc19 2bbe
00000050: 3b75 03bf b96a 8a3e 61c1 063d 9971 8c3e
00000060: 469e 853d 8095 863e e1ee 753e defa 86bc
00000070: 189d 0dbf 6e1c 093e daac aebe 58be de3d
00000080: d925 89bc 1585 f0bd 0a39 98be ee8a 27be
00000090: a81a 4a3e 999c c43e fa8c 67be 6524 d53e
000000a0: 8144 a33e 259e 79be 59a3 85be 5de9 d83d
000000b0: 7e6e 193e 4f33 633c 99c3 253c f1d6 72bd
000000c0: e8c1 013d b1c5 3ebc 686f 93bd 9382 1f3d
000000d0: 8c6d 323e 6c45 d03c 0abe 003e 46fb c1bd
000000e0: 24aa 963e 3cc5 afbe 9a5d 2f3e 5c3c 323e
000000f0: 0d75 9bbe 3012 5e3e 12c8 573e 74ad cabc
00000100: b8e4 9b3e fd30 d9bd dada abbe 9212 31be
00000110: 5ea0 04be 0085 0ebf 3ada a43e 8680 543e
00000120: 67f4 cfbe f280 593e c20f 77be 812f 6c3d
00000130: 202d d93e 04d5 833e 279e 16be 8d7a 9bbd
00000140: 1970 8bbd 853a f23d df5a 7b3d 4534 84be
00000150: 3ac0 253e 5156 0bbd 99e9 61be 1721 963e
00000160: 6f65 903e 2918 12be 1655 aa3d 16a2 3ebe
00000170: 3036 233d a423 aebe b4ba 1bbe a48c 6abe
00000180: 5f88 42bd 6cb0 5b3e e4c0 70be b12d c53d
00000190: 79f0 1b3c 09a8 403e 586e 683e 6648 3e3e
000001a0: 6f42 e2be b609 4e3d 75ce 823d 05a4 7abd
000001b0: 8105 3e3e bff5 cf3d 14ec 81be 3cc3 60bd
000001c0: 79c8 773d 52c0 893e f18c 8e3e cd83 1d3e
000001d0: 032d 223e 3010 8d3d 450a b8bd 76c6 e9be
000001e0: 7ecb c4bd f543 543d 0752 033e ce44 c93c
000001f0: 7985 79be 3cc2 c43d 35c3 b53d 7a12 903e
00000200: ae41 aa3d ce6f d23e 324d 46be 660b 8dbe
00000210: c3b2 61be 8289 2cbf b92d ef3d 3429 963d
00000220: 29d8 a7be e466 57be 19b7 283e 3eb5 753f
00000230: f3e8 043f 1837 d13d ac34 5c3e ce09 5bbe
00000240: 706b 92be 9424 50bf b32b 37be 53d0 a5be
00000250: 7935 c83e 4ce0 cdbe 06cc c5be 2852 733f
00000260: 58cc d5be 87e2 923e 868f 243e 9602 f03d
00000270: 962c 933e 300a b3bc 5f7b a53e d1f8 20bd
00000280: 84c3 0e3e ae69 0cbd 1ef8 133e 54d1 17be
00000290: e2d6 11be 4fb8 8b3d c536 9b3e 4ea3 a8be
000002a0: c6c7 083e 6fe7 d5be fafd fbbc 382a f43c
000002b0: 1a39 36bd 4a53 98bd fcfd 57be fe85 8ebe
000002c0: 4150 f4be d68f d13e b37d c23c e058 203d
000002d0: 1b04 693d 5ef7 d93a 93de 9f3e 55e1 31be
000002e0: 71f2 86be e6c4 383e cd72 14be 1982 a73c
000002f0: 4ea9 363e ac66 f9be 3efe b2be a169 95be
00000300: 76c7 623d 3c42 443e c9ee f8bd f8cc 4abc
00000310: 9e75 af3b e6fb 28be d759 bcbe 974b b4bd
00000320: a33f 563e d0b6 b1bd bba0 643e fc95 10be
00000330: 5d7a c2be 4d6c 7b3e c403 88bd 61b4 813e
00000340: d2d3 aa3e ef21 053e 6657 02be 0315 e23b
00000350: 1616 953d 9276 feba a4b6 3b3e 065c 0abe
00000360: 9b96 903c b5ba 233d 4225 f83d 69e6 0abe
00000370: 55ea 9a3e 6c56 52be aaff a7be 4f3a 803d
00000380: 3515 b63d 51ab 2ebe eeea 11be 4e1e 033e
00000390: a3d0 d4bd 1158 8b3d 710a 2fbe df1e 76bc
000003a0: ac9c 5e3e 2100 eb3d 1afc 0b3e a11d 5dbe
000003b0: 1274 37bc 36e4 8dbe e7cd 9e3d 51f3 9cbe
000003c0: f81c 3cbe c8f1 523e 37f7 99be 8dc2 363e
000003d0: 0611 4c3e 2308 5b3e c29c de3c a2d1 0cbe
000003e0: 4020 c8be dae3 4bbe 041b be3d 6f11 aabe
000003f0: 12f8 17bd a186 843e beae e13d 3fc8 883e
-0.44460577 0.07911097 0.30646697 -0.09379722 0.2632839 -0.050088428 0.09084354 -0.23235925
-0.10623314 -0.16063866 -0.21443523 -0.21752754 0.33892262 -0.11556814 -0.25863478 0.11891383
0.38847604 -0.09987555 -0.28713658 -0.1670906 -0.51350754 0.27034548 0.032899264 0.27430418
0.06524329 0.26285934 0.24016906 -0.016477045 -0.5531783 0.13389751 -0.3411625 0.10876149
-0.01674168 -0.117441334 -0.29731017 -0.16361591 0.19736731 0.38400725 -0.22612372 0.4162933
0.31888202 -0.24376734 -0.26101187 0.105913855 0.14983556 0.013867213 0.010117435 -0.059287015
0.031679064 -0.011643813 -0.071989834 0.038942885 0.17424601 0.025423728 0.12572494 -0.09471755
0.29426682 -0.34330165 0.1712555 0.17405838 -0.3036274 0.21686625 0.21072415 -0.024740912
0.30447936 -0.10605047 -0.33565408 -0.1729224 -0.129518 -0.5567169 0.32197744 0.20752153
-0.40616152 0.21240595 -0.24127105 0.05766249 0.4241724 0.25748456 -0.14708768 -0.07591734
-0.0680849 0.11827568 0.06136596 -0.25821128 0.1618661 -0.034017865 -0.22061767 0.2932212
0.28202388 -0.14267029 0.0831701 -0.18616518 0.0398466 -0.34011567 -0.1520794 -0.22905213
-0.047493335 0.21454018 -0.23511082 0.096278556 0.009517782 0.188141 0.22698343 0.18582305
-0.4419131 0.05030223 0.06387035 -0.061191577 0.18556787 0.10154294 -0.25375426 -0.05487369
0.06049392 0.2690454 0.27841905 0.1538231 0.15837483 0.06887853 -0.08986334 -0.45659226
-0.096091256 0.05182262 0.1282426 0.024568941 -0.24367322 0.0960736 0.088751234 0.28139096
0.08313309 0.41100925 -0.19365385 -0.2754776 -0.22040848 -0.6739732 0.11678643 0.073320776
-0.32782105 -0.21035343 0.16476096 0.9597968 0.5191795 0.102155864 0.21504468 -0.21390459
-0.28597593 -0.81305814 -0.17887764 -0.323855 0.39103296 -0.40210187 -0.3863222 0.95047235
-0.41757464 0.28688452 0.16070375 0.11719243 0.28744954 -0.021855444 0.32320687 -0.03929979
0.13941771 -0.03428047 0.14450118 -0.14825946 -0.14242128 0.068222634 0.30315223 -0.32937092
0.13357458 -0.41778132 -0.030760754 0.029805288 -0.04448805 -0.07437761 -0.21092981 -0.27836603
-0.4771748 0.4093005 0.023741579 0.039147258 0.05688868 0.0016629507 0.31224498 -0.17371114
-0.26356843 0.18043861 -0.14496918 0.020447778 0.17838022 -0.48711145 -0.34959596 -0.2918215
0.055366002 0.19165891 -0.1215492 -0.01237797 0.0053545972 -0.16502342 -0.36787292 -0.0880348
0.20922713 -0.08677447 0.22326939 -0.14119714 -0.3798398 0.24553032 -0.06641343 0.2533293
0.3336473 0.13001226 -0.12728652 0.0068994774 0.07279603 -0.0019413999 0.1833139 -0.13511667
0.01764994 0.03997298 0.12116481 -0.13564457 0.30256906 -0.2054078 -0.32812244 0.062611215
0.08890764 -0.1705754 -0.14249775 0.12804529 -0.10391357 0.06803907 -0.17093827 -0.015022009
0.21739453 0.11474634 0.13670388 -0.21593334 -0.011197107 -0.27713174 0.077541165 -0.30654386
-0.18370426 0.20600045 -0.30071422 0.17847653 0.19928369 0.21389823 0.027174357 -0.13751844
-0.39087105 -0.19911137 0.092824966 -0.33216426 -0.037101813 0.25883964 0.110196576 0.26715276

encoder.grud.zl.bias f4 [20]
00000000: 827c 673e c31e 15be 0a3a a93e 831e 353e
00000010: b0bb 963e f9e4 eb3e b3b6 943e 9b5a d4ba
00000020: eb99 b13e d7f1 503e 396c 733d f260 013f
00000030: b367 ed3e 04d2 d1bc 6320 843e b999 413d
00000040: 4d1f 013e 7d86 a73e 01f5 c43e 2d7a 273e
0.2260609 -0.14562516 0.33052093 0.1768742 0.2944007 0.4607313 0.29045638 -0.0016201319
0.34687743 0.20404755 0.05942938 0.5053855 0.4636818 -0.025612839 0.2580596 0.047265742
0.12609597 0.32719794 0.38468173 0.163552

encoder.grud.rl.weight f4 [20, 26]
00000000: 2c0e 12be a3a9 163e a3b3 8f3d fef1 573e
00000010: 2564 a23d 5eca 88be 4702 14bd 2198 033e
00000020: f6a8 edbc c7df 18be af09 bfbd 3254 09be
00000030: a1fc c7bd 35ae 0fbe c741 fb3d abce 703e
00000040: 67be 50bd b14f d1bc 97b8 463d d659 a73d
00000050: 26b1 1ebe 9bfb 133e 1902 a4bd aaef 673d
00000060: 3b32 583e 837b bf3c eed8 cbbc 9a00 8abe
00000070: f360 d73d e639 bfbe e3fc f93e ada4 3dbe
00000080: ece9 383d a117 97bb 7b6f f8bc 9dc4 683e
00000090: 479f cf3d 36d9 8abe 9dcb 9ebc a013 b3bd
000000a0: 71db a8be 1617 2cbe 6d71 523e 843e 1fbf
000000b0: a132 05be 5900 093e a91f 44bd d2d9 a13e
000000c0: 1092 92bb 1bbd 113e ec01 5d3d 07bb 033e
000000d0: cc4c 8b3b c161 07bd 9a5a 03bd 2162 793d
000000e0: 8f9d 2f3e c9ac 083e e4ea 1fbe 1245 153e
000000f0: d0b1 d23d afaa c63d 643b 71bd bb92 05be
00000100: c46a b0bd 2e4c c4bd 5677 733e 07a4 f1bd
00000110: a42a 313e 930f 823d ca0a d33d 02ed b9bc
00000120: 746b 643d 87fe 873e 694b ccbc b191 1f3e
00000130: c253 85bd 8935 883d 4ccb d8bd f3f2 203e
00000140: 47f0 953d 3db5 c93c 1be0 003e 62b4 acbd
00000150: 0ab6 9f3e 50dd b7bc 4d27 d0be a729 f4bc
00000160: 2838 203e 35b9 16be 1a1c d6bd 20ed 793c
00000170: c50d 03be fb67 633d 7e99 76bd 4077 2c3d
00000180: 1610 aa3b 04b2 883e f98b f13d dff6 babd
00000190: 825d 273b abbd d93d 7a33 4cbd eab9 47bd
000001a0: c409 ae3e 72e7 4a3d 79f5 0f3c e2d7 db3e
000001b0: 1269 263e 077c ccbc b10f fb3e 5c57 e53d
000001c0: 0c3c eebd f66b 87be d9b2 83be 3870 fd38
000001d0: 1d6f 01bf 4285 ef3b bc8f 2bbd 3768 403d
000001e0: fc5d 933e 1fe3 46be d543 febd 88a8 643e
000001f0: a826 513e 8e6c 5bbe 05db 6f3e bf34 afbc
00000200: f9a8 9a3d a515 fcbd f919 b13e 880d f9bd
00000210: 8cc0 97be ac9d 3b3d 7a61 e23d 57d7 57bc
00000220: 79d0 cbbd 46df a13d 0d28 b8be e754 263d
00000230: f64a 343e 639d 163d 95cb f73b be40 e9bd
00000240: a831 7fbe b64d 47be 19e8 94be 17a1 ccbe
00000250: 7587 903d 2cb3 233e 06da 1cbd f116 b93d
00000260: 6da9 fa3d 6152 253f dfc3 ff3e 9eee 0e3f
00000270: f275 d33d c42d 823e 551b 833e fd62 853e
00000280: dbf9 143e 7759 55be cdc5 b73e 9d0f 973e
00000290: 073c 65be 5ff6 90be 9128 90be f646 babe
000002a0: be1b 82be 2e1b ccbd be68 c63c b006 ad3d
000002b0: f5ee 9b3d def7 6cbd a3d9 c0be 4993 b13e
000002c0: 809e e23d 1843 09bd 6094 863d f1bf 33be
000002d0: 2da9 21bd 54f4 c7bd 15fd 60be 41ab 9e3d
000002e0: a0d3 883d 5fba 223c acf5 db3d 57ab 3d3e
000002f0: aa7f 1c3c 2185 d8bd 272e ea3d 5942 ad3d
00000300: 69e0 223e 8d3a 503e 2384 943c ba78 9b3d
00000310: 3b66 2d3e d78a e23d def3 e63d 8370 0f3d
00000320: 8285 f33d 0c93 963a e7c2 e53d 78b8 9b3c
00000330: ea01 16be be58 c23d 8623 45bd e95b bc3c
00000340: 8190 c33e b2d1 ce3d 9322 a33d cecb 3a3e
00000350: 7a79 77bd a2ed f0bd bee4 d33d 0f3c b43d
00000360: 0a83 02bf 3bf0 fd3d a4a7 1a3e 70fc 8fbd
00000370: 7ec5 593d 4bca ebbc 3dd7 c83d 9c8d ea3d
00000380: 4ca7 7dbe b529 2fbe f6d4 703e d181 513c
00000390: 15ab 423c bdbf d7bd 21db e73c 06d0 f43d
000003a0: f30a 343d 8794 87bd 0607 a4be 4798 afbe
000003b0: 602a cbbe 4c78 86be fc3f 8fbd 725c 463e
000003c0: 3637 50be 42f2 3c3d f09f eebd 1b82 653e
000003d0: e1f3 db3d efa5 453e 1d34 f03e 177e 963d
000003e0: f0f6 b73c 9706 993c 0963 14be 0fd2 f7bd
000003f0: 3651 7f3e f731 81bd aaa8 d9bc c42d 053c
-0.14263219 0.14713149 0.07016685 0.21088406 0.07929257 -0.26716894 -0.036134984 0.12851001
-0.02901123 -0.14929114 -0.09328019 -0.13411024 -0.09764982 -0.14031298 0.122684054 0.23516338
-0.05096283 -0.025550695 0.048515882 0.08171432 -0.15497264 0.14451449 -0.080082126 0.056625046
0.21112911 0.023374325 -0.024883714 -0.26953584 0.105165385 -0.3734886 0.4882575 -0.1851985
0.04514496 -0.004610971 -0.030326596 0.22731252 0.101378016 -0.27118844 -0.0193842 -0.087439775
-0.3297992 -0.16805682 0.20551081 -0.62204766 -0.13007595 0.13379039 -0.047881756 0.31611496
-0.0044729784 0.14232294 0.05395691 0.12864314 0.0042510983 -0.03305221 -0.032068826 0.0608846
0.17149948 0.13347162 -0.15616947 0.1457713 0.10287821 0.09700524 -0.05889453 -0.13044254
-0.08614114 -0.095848426 0.23775992 -0.11798864 0.17301422 0.06350627 0.10304792 -0.022696022
0.055766538 0.26561376 -0.024938302 0.1558292 -0.06510116 0.06650836 -0.10585651 0.15717678
0.0732122 0.024622554 0.1258549 -0.08432843 0.31193572 -0.022444397 -0.40654984 -0.029805018
0.15646422 -0.14719088 -0.10454579 0.015254289 -0.12798221 0.055519085 -0.060204975 0.042105913
0.005189906 0.26698315 0.11794276 -0.09129118 0.0025537913 0.106318794 -0.04985378 -0.048761286
0.33991826 0.04953713 0.008786553 0.42938143 0.16251019 -0.024961485 0.4903541 0.11198303
-0.11632547 -0.26449555 -0.25722387 0.000120848825 -0.5056017 0.0073095867 -0.041885123 0.046974387
0.28782642 -0.19422577 -0.12415282 0.22329915 0.20424902 -0.21428129 0.23423393 -0.021387456
0.0755176 -0.12308816 0.34590128 -0.12160784 -0.2963909 0.045804664 0.110537484 -0.0131739
-0.099518724 0.07903914 -0.35968056 0.040608313 0.1760672 0.03677119 0.0075621107 -0.11389302
-0.24921286 -0.19463238 -0.29083326 -0.39966652 0.070570864 0.15986317 -0.03829386 0.09037579
0.12239347 0.64578825 0.49954125 0.5583285 0.10325231 0.2542554 0.2560679 0.26052085
0.14548437 -0.2083491 0.35893098 0.295041 -0.2238618 -0.28312966 -0.2815595 -0.36382264
-0.2541179 -0.099661216 0.024219867 0.08448541 0.07613937 -0.057853572 -0.37666044 0.34682682
0.11065388 -0.03351125 0.06571269 -0.17553689 -0.03946798 -0.09763399 -0.21971543 0.07747508
0.06680989 0.00993213 0.107402176 0.18522392 0.009551922 -0.10572267 0.11434584 0.084599204
0.15905918 0.20334835 0.018129414 0.07591386 0.16933529 0.11061638 0.11276983 0.03501941
0.11890699 0.0011487915 0.11218815 0.01900886 -0.14649168 0.094895825 -0.04812958 0.022993045
0.38196185 0.1009859 0.07965579 0.18241808 -0.060418583 -0.11764075 0.103463635 0.08800518
-0.509812 0.12399336 0.15103012 -0.070305705 0.05316686 -0.028782984 0.098066784 0.11452791
-0.2477085 -0.17105754 0.23518738 0.012787298 0.011881609 -0.10534618 0.028302731 0.1195374
0.043955754 -0.06620126 -0.32036608 -0.34295866 -0.39680767 -0.26263654 -0.06994626 0.19371203
-0.20333561 0.046129473 -0.116515994 0.22412913 0.107398756 0.1930158 0.4691476 0.073482685
0.022456616 0.0186799 -0.14490904 -0.12100612 0.24933323 -0.06308358 -0.026569683 0.008128587

encoder.grud.rl.bias f4 [20]
00000000: 0493 56bd 095b 953d e488 1ebd cad8 65bd
00000010: 31aa e3bd d466 b23e 1388 41bd 639b 3f3d
00000020: 9f10 583d f0fe 783d 398c babd 0889 873e
00000030: db00 1c3d 5dbb bbbc a152 88be 752d 8fbe
00000040: a493 113e ab30 1ebe 3033 0e3e 2d89 51be
-0.0523863 0.07292754 -0.038704768 -0.05611495 -0.11116446 0.34844077 -0.04724891 0.046779048
0.052750226 0.060790002 -0.091087766 0.26471734 0.038086753 -0.02291649 -0.2662554 -0.27964368
0.14216477 -0.15448253 0.13886714 -0.20462485

encoder.grud.hl.weight f4 [20, 26]
00000000: af59 403e 91ad 583e 60f4 023e 8523 cfbc
00000010: 3b6f 93be 542d bebb 267b 8bbc c2d9 b6bd
00000020: 7cc1 a7be 1f95 b0bd 16ea 95bd ecc7 0d3e
00000030: e43c fa3d 47f3 533e 0422 48bd 1bae 0dbe
00000040: b272 03be ed3e 38bd d797 0fbe a401 573e
00000050: 155e b9bc 9c15 53be 6169 4cbe e2c9 51be
00000060: 1cd1 51be 0979 d43c bb6a 3c3d b9c4 ac3d
00000070: 1b2d 3d3d f655 893e 8eba bbbd d482 85be
00000080: f0a3 b03d d935 1d3e d8d4 e1bd 663e f2be
00000090: d612 89be 7dcd 6abd c9bd b2bb d1de 90be
000000a0: bff2 88be 784e 243e 18ba 6a3e 7382 033e
000000b0: 7b6f 0fbc 7d1d 693d e243 87be 125f 5bbe
000000c0: a83e 22bd 5458 2dbc 173f 043e 191e e9bd
000000d0: a32e fcbd 85fd 38be 8bf5 83bc 643b 45be
000000e0: dc43 9b3e 6f91 be3d 24a7 7a3a 1b59 89be
000000f0: 15c3 8e3e eb77 2d3c eaf5 553e afa4 18bd
00000100: 0e26 b83e cff1 9ebd 160d 733c 258b d43d
00000110: f08f 1dbe 47dd 643e 65ed 07be 94f7 7abe
00000120: 3b26 b33d 02d5 313e 85ff ab3d caeb 15be
00000130: 03c4 0f3d 20c6 c43d f14d 813e 2fe6 f03d
00000140: 3293 473e a99c c73d a435 0ebe 44e6 443e
00000150: e73f 383d 2853 a5be 03f8 72be d25a 4b3d
00000160: 3ae2 073c 13a4 b5bd a39e c4bc 6fd6 4fbd
00000170: be47 6a3e 2401 d9bd 868e a73d 257f edbd
00000180: e0e6 1dbd 428a f1bd 9c72 d73d 85c6 85bd
00000190: c9db 703d bd00 bfbd b5b1 86bd 48f1 c13c
000001a0: 48fb d83d c68c 853e 2f68 01bd f3fc 2a3e
000001b0: 220b 84be 1202 c0bd 25a6 633e efcf 913e
000001c0: cd35 2cbf c5e4 36bd 390c 2abe ad5f 91be
000001d0: 611f 18be 8e70 6a3d 297f 07be d169 a1bd
000001e0: 853e 3b3e 2af6 8abe 2c98 9cbe 8b57 033f
000001f0: aa27 493c ca09 97be 6852 fe3d a6bc 423e
00000200: 13fa 0a3d c676 06be 0083 c1be 7832 cebd
00000210: c5dc 093e 30c0 b23d bef0 c73e e404 e4bd
00000220: c79e e33b cd4a c63d 9e80 f63e 8c5f cfbd
00000230: e171 eabd 3116 cabd e92a 483e a0ca 5cbe
00000240: 4455 b1be 97c3 0e3e 4c70 e73d ec3a c63e
00000250: 9fc9 683d 4d21 0b3e 925c d53d 4247 243d
00000260: b231 093e 2fac babd cd2f e3bd c4b9 3d3e
00000270: 5396 a2be 19d0 be3c 24aa afbd 241b 74be
00000280: 35e5 ed3e fb90 b53d a9e7 cabc 8ac0 ba3d
00000290: e1ba d73e 3be4 cc3e 81ce 4a3d caa7 093e
000002a0: 30a8 493e a5ac 1fbd 8f10 8fbe e134 8abb
000002b0: dd43 f5bd 99e1 10bd 9299 063e 1805 5bbe
000002c0: 3035 c7bb fc3a 9d3e 6e32 c93d 4eed 083e
000002d0: 2c15 5b3e ca93 233e 77a2 6cbe 2e7d f4bc
000002e0: 71c5 6cbe df27 93be 2d63 743e 0f40 12bd
000002f0: 41f5 79be 66c8 84bd fad4 573d fb60 c93c
00000300: 27b4 0f3e ee44 9dbd 9c63 6f3e 4c2c 19be
00000310: 4884 4abe 7177 e1bd f37a 49bd c8ea 473d
00000320: 0e61 153d 471f 9d3d 5641 193e d30b 803e
00000330: 5d4a a7bc a833 1d3e 712e cabb 8b74 533d
00000340: b7f1 8bbd 392f e8bd d5c0 abbe 0a51 52be
00000350: 2344 5a3e 8590 423d 5cc2 f63c c974 ff3b
00000360: bd17 333d 84b8 80bd aa35 91bc 5d3d 81bd
00000370: ee64 663e 4da8 f63d c24c adbd ccac 24be
00000380: ba32 7fbc 8365 013e d3ba acbd e5c0 3abe
00000390: 0804 8b3e d69a 4d3c b9b5 1fbe 5cb3 88bd
000003a0: 13ec 053d 84e4 b4bd b6e1 24be 2f6a 8dbe
000003b0: fafe f23d 9110 21be 815e 413e 8538 853e
000003c0: 7651 4cbe 8036 14be 46b5 ae3e eaee 7c3e
000003d0: d330 9a3e 46db ab3d b04c d23e e6a5 1abe
000003e0: 0d81 16be 4681 083e 4f9d 81be 0da1 663d
000003f0: 756c cbbd c088 8fbe bd44 6cbd d6a0 cd3e
0.18784212 0.2115996 0.12788534 -0.025285492 -0.287958 -0.0058037434 -0.017026495 -0.08928253
-0.32764804 -0.086221926 -0.07320039 0.13845795 0.12218645 0.20698272 -0.048860565 -0.13835947
-0.12836722 -0.044981886 -0.14022766 0.2099672 -0.02262787 -0.20613712 -0.19962074 -0.20487168
-0.20489925 0.02593662 0.046000224 0.08435959 0.046185594 0.26823395 -0.09166442 -0.26076376
0.086250186 0.15352573 -0.11026925 -0.4731323 -0.26772183 -0.057324875 -0.005454753 -0.28294995
-0.267477 0.16045558 0.22922552 0.12842731 -0.008754606 0.056912888 -0.26418978 -0.21422985
-0.039610535 -0.010580141 0.12914692 -0.11382694 -0.12313583 -0.1806546 -0.016108295 -0.19260937
0.3032521 0.09305083 0.0009561649 -0.26825795 0.2788321 0.010587673 0.2089459 -0.03726643
0.35966533 -0.07760965 0.014834663 0.10378102 -0.15386939 0.22350036 -0.13274153 -0.24508506
0.08747526 0.17366412 0.08398346 -0.14640728 0.03509904 0.09608102 0.25254777 0.11762654
0.19489744 0.097466774 -0.1388765 0.19228464 0.044982817 -0.32290006 -0.23727421 0.04964716
0.008293683 -0.08869185 -0.024001425 -0.05074161 0.2287893 -0.10595921 0.08181481 -0.115965165
-0.038550258 -0.11793949 0.10519907 -0.06532005 0.058803353 -0.09326313 -0.06576864 0.023674622
0.10594803 0.26083964 -0.031593498 0.16698055 -0.25789744 -0.09375395 0.22231348 0.28478953
-0.67269593 -0.044651765 -0.16606225 -0.28393307 -0.1485572 0.057236247 -0.13232102 -0.07881511
0.18285568 -0.27140933 -0.30584848 0.51305455 0.012277523 -0.29499656 0.124180615 0.19017276
0.033929896 -0.13131246 -0.37795258 -0.1006822 0.13463123 0.08728063 0.3905086 -0.11133745
0.006946418 0.09682236 0.48145002 -0.10125646 -0.11447502 -0.09867514 0.19547619 -0.2156167
-0.34635365 0.13941799 0.11300716 0.3871683 0.056832906 0.13586922 0.10418047 0.04010702
0.13397864 -0.09114873 -0.11093102 0.18527895 -0.31755313 0.023292588 -0.085773736 -0.23838478
0.46463934 0.088655435 -0.024768667 0.09118755 0.42134765 0.40017876 0.049513344 0.13442913
0.19693065 -0.038983006 -0.2794232 -0.0042177294 -0.119758345 -0.035371397 0.1314452 -0.21388662
-0.0060793385 0.30709064 0.09824072 0.13371775 0.21394795 0.15974346 -0.2310885 -0.029844847
-0.23122193 -0.28741357 0.23865958 -0.035705622 -0.24409963 -0.064835355 0.052693345 0.024582377
0.14033566 -0.07679163 0.23377842 -0.14958304 -0.19777024 -0.1100911 -0.04918952 0.04880789
0.03646951 0.07671981 0.1496633 0.2500902 -0.020421201 0.15351737 -0.006170087 0.051624816
-0.06833213 -0.11337132 -0.33545557 -0.20538726 0.21315055 0.047501106 0.030121975 0.0077959043
0.04372381 -0.062851936 -0.017725784 -0.06310532 0.22499439 0.120438196 -0.08461906 -0.16081542
-0.015576059 0.1263638 -0.084340714 -0.18237646 0.27151513 0.012549123 -0.15596665 -0.06674835
0.03269584 -0.088326484 -0.16101727 -0.27620074 0.11865039 -0.15728976 0.18883707 0.26019683
-0.1995295 -0.14473915 0.34122676 0.24700513 0.30115375 0.083914325 0.41074133 -0.15102348
-0.14697666 0.13330564 -0.2531533 0.056305934 -0.09932796 -0.2803402 -0.05768274 0.4016177

encoder.grud.hl.bias f4 [20]
00000000: ea8e 85bd 33d1 2b3e 29fb 1fbe 2407 b3bd
00000010: a036 a23d ecf2 10be 8329 29bc fc14 03be
00000020: a8ed 34be 752a 83bc 6991 9fbd 653a 4cbe
00000030: 34f7 9cbe 623d d1bd a576 9dbe 7bd3 3b3d
00000040: 147b 2f3e 8471 d7bc a6b8 b43d f40f e53c
-0.06521399 0.16779022 -0.15623154 -0.08741596 0.07920575 -0.14155167 -0.010324839 -0.12800974
-0.17668784 -0.016011456 -0.07791407 -0.19944151 -0.3065735 -0.10216786 -0.3075458 0.04585598
0.17136794 -0.026299246 0.088242814 0.027961709

encoder.grud.gamma_x_l.weight f4 [3, 3]
00000000: 2468 e13e 5c9e 9a3e c8fa 713e 8ed9 a8be
00000010: cc9c df3e a2ef c7be 987a a0be 20c8 dc3d
00000020: d498 ff3e
0.44024765 0.30198944 0.23630822 -0.3297848 0.43674314 -0.39050013 -0.31343532 0.10780358
0.49921286

encoder.grud.gamma_x_l.bias f4 [3]
00000000: 584a 55be a206 b63e 8a7a e0be
-0.20829141 0.35551935 -0.4384349

encoder.grud.gamma_h_l.weight f4 [20, 3]
00000000: 869d 123f 4a3d 073f 46cd 113f 7487 983e
00000010: 502e 03bf 0c11 b03e 445f 823e 5e07 91be
00000020: 808f fd3e 8c1a fd3e 741a ec3e af1d 04bf
00000030: 0f5d edbe 285e 10bf b48e ec3e 201a cdbe
00000040: ca8c f6be 140e 54be 809f 2cbc d43d 483e
00000050: 2b6a 09bf c2d1 9e3e 58a5 e43e 1834 bcbe
00000060: 866f 9fbe 659a 93be 3096 673e 89b0 f3be
00000070: bc05 dc3e bc13 0e3e ac6b 00bf 911f 03bf
00000080: 10fa c2bd f821 bdbd e012 633d 1ea2 f2be
00000090: 42be aa3e e059 293d 55b3 f4be c680 983e
000000a0: 2a35 2dbe d4d5 033f 609e 9d3c c2ec d43e
000000b0: 4cef fc3e 00d7 68bb ae84 e2be cb97 02bf
000000c0: 6240 21be 50b9 aebd 7e0e e0be 5c36 063f
000000d0: 323f 043f c88f a23d d8f6 9a3d 60a4 f1be
000000e0: b692 0ebf 60ff 743d e0d2 903e 8e0b 0ebf
0.5727161 0.52827895 0.5695385 0.29790843 -0.5124254 0.34388006 0.25463307 -0.28325933
0.49523544 0.49434316 0.46113932 -0.51607794 -0.4636006 -0.5639367 0.46202624 -0.40058994
-0.4815429 -0.20708495 -0.010536075 0.19554836 -0.53677624 0.31019408 0.44657397 -0.36758494
-0.31139773 -0.2882873 0.22615886 -0.47595623 0.42973125 0.13874716 -0.50164294 -0.5122004
-0.09520352 -0.09234995 0.055437922 -0.4738931 0.3334828 0.041345477 -0.4779307 0.29785746
-0.16914812 0.5149815 0.019240558 0.41586882 0.4940132 -0.003552854 -0.44241852 -0.5101287
-0.15747216 -0.08531439 -0.43761057 0.52426696 0.5165893 0.0793758 0.07566613 -0.4719572
-0.55692613 0.059813857 0.28285885 -0.5548638

encoder.grud.gamma_h_l.bias f4 [20]
00000000: 4663 3fbc 5595 c6be 3402 ddbd 971d 2c3e
00000010: 7944 fd3d 60cc d6bc 30a8 aebe 8717 00bf
00000020: 20a1 28be 9b6f 013e 4f2f 8bbb 14cb e73d
00000030: 00d6 6f3e 5c06 e0be 80a1 7dbc a882 cebe
00000040: e8c7 0fbf ba05 f0be 5610 c4ba e2df 803e
-0.0116813835 -0.38785806 -0.10791436 0.16808163 0.12366576 -0.0262205 -0.34112692 -0.500359
-0.16467714 0.1264023 -0.004247583 0.11318031 0.23421478 -0.43754852 -0.015480399 -0.40334058
-0.5616441 -0.4687937 -0.0014958482 0.2517081

decoder.lstm.weight_ih_l0 f4 [80, 40]
00000000: 96c2 6b3e 54b9 6fbd 6e49 093e 71c9 31bd
00000010: 8d95 4c3d f98e 053e d295 213e b7a6 263e
00000020: 195a 97bd 834c b2bc ac8f 253e bb93 573e
00000030: a5c4 42be e373 663e 2b09 0fbe 24fc 54be
00000040: 6f5c fdbd 5be8 d33c cd94 ba3d 8ef5 953e
00000050: 1a5d 8bbe c50c b5bd 17ac 7d3e d6ce 85be
00000060: 952f b5bd a060 93bd aded 443c 1acc 39be
00000070: 4035 91be db78 a8bd d0ce 613e 4c89 a23e
00000080: c28c 90bb 65e5 7b3c 46d6 483c 9ae7 70bd
00000090: aa45 e2bc 9b15 eebd c69f c53d dc72 7d3d
000000a0: 6948 983d e66e 473e cece 3fbe c5d1 c1bc
000000b0: 7e32 223e 6e83 053d 99db c2bd a8b9 0c3d
000000c0: 204c 13be 3868 afbb 7369 44be f096 8abe
000000d0: 8019 b73d 7076 4e3d 0abb 2fbe 49cc 63bd
000000e0: db99 433e 8f7c acbe 11df 0c3e 6607 67bc
000000f0: 312d abbe 27ec 803e 0b03 4c3e 4865 12be
00000100: bf98 babe 8516 ddbe 02ee 7e3e 5462 8fbe
00000110: b1e2 bdbd 1aea d53e bde6 b63e a83f 6a3e
00000120: 29f4 d5be 4859 c4bd d251 bf3e c3aa 9b3e
00000130: 3381 b9be e75e 253e faea 48bd 1cd0 603e
00000140: 20ca e83d 3760 8b3e 1c55 223e 040d 433e
00000150: 8744 32be bc07 283e 2db0 143d 5f27 e73d
00000160: 808a 69be 4b75 173e a662 a13d 4793 c03d
00000170: 336a e3bc a97d fc3c 4f95 fdbc a26a 6fbd
00000180: 6c52 35be d774 463d 6d69 61bd 5025 923e
00000190: 1c27 99be fc2d 4f3d 7a78 c03d 44b0 66be
000001a0: 5915 97be e3b4 60bd 9721 303e d9f3 bbbc
000001b0: d6d1 afbd 1cbd 2e3e 44b3 bd3e 21ee e23e
000001c0: 3466 b7be 383a 0abe 2651 e23d 5278 9a3e
000001d0: f4c9 febc 420c 863e b549 c3bd d384 c03e
000001e0: b999 103e 14b6 893e cd3a fb3e a246 aebb
000001f0: 1010 f2be 7c7c 543f a402 953e 2949 833d
00000200: 02e6 6cbe 9a4c 9d3e 56fd 15bf cce0 013e
00000210: b0ca ae3e 59af b13e 89b6 eabd 22a5 b3be
00000220: 1b69 17be a374 a7be f47d 463e 0940 7d3e
00000230: 4da7 103b 9f79 e23d 9036 8b3e fad6 2dbe
00000240: 08da 7abe 2ff9 a0be e51f 4c3d 29bf 93be
00000250: 6902 7cbe 7220 33bd 8d27 4a3d c93a 333e
00000260: 3ffb b7be 4ac4 12be c4f6 3f3e b839 0e3b
00000270: a9c8 f03b 1509 6c3e a836 f7bc 5713 633e
00000280: da68 113e 8338 d83e fc08 c5be 9709 d6bd
00000290: ab7a b83c 3bb5 44be 13e6 aaba 88d1 a4be
000002a0: f071 42bd eafd b1be af14 87be d47b 79be
000002b0: 427d e93c 8397 eb3d eabc 61be 8b15 87be
000002c0: 86e9 5ebc c317 84be 9413 0dbe e04f b1bc
000002d0: 89a2 9dbc 06e8 a9bd c42a 453e ef55 f3bd
000002e0: eab7 d2bd 441c b23d 8ee2 babd 7819 43be
000002f0: e762 48be 751c f43d 6455 923e 8b62 723e
00000300: afc5 57be 091d 13be 0955 57bc 35b9 e3bc
00000310: 6b09 c2bb 9289 96bd d66b 813d d937 af3c
00000320: da64 f63d ed73 0ebc 4373 69be 598d a13d
00000330: 531b 8f3d fd75 103d 7867 093e 9eae 09bd
00000340: 517f 7c3e c4bd d43d 4acd 43bc c0e9 2dbe
00000350: 9a64 8cbd 12c9 7bbe 5946 6dbd 2b60 763e
00000360: c5aa 293e 729f 0a3d ce85 4b3e 8be3 ccbd
00000370: 790c 22be 3252 7a3d 8588 ce3d 3fa6 cb3c
00000380: 1524 6abe 1604 2bbe c4fd 00be 63db 003e
00000390: 56bd f83d 83d3 933e 4470 583e 0150 e13c
000003a0: 0f02 98bd 744b fb3d 5964 0c3d d594 c4bc
000003b0: 3626 ebbd 9d41 643e 4b82 ddbd a98e 0a3e
000003c0: 3b3d 3c3d 4d5d 9b3e 5406 713e 3738 293e
000003d0: 467d a83e d012 743e 8aae 54be dc13 823e
000003e0: 7f55 7fbe d6f8 3a3e c376 a8be f273 423e
000003f0: 5b42 c3ba f5c5 a63e e3ac 423e 2c00 99b9
0.23023447 -0.058526352 0.13406917 -0.043405 0.04994731 0.13042821 0.15779808 0.16274534
-0.07390232 -0.021765 0.16168088 0.21052448 -0.19020326 0.22505145 -0.13968341 -0.20799309
-0.12371146 0.025867632 0.09110413 0.29288906 -0.27219468 -0.08840326 0.24772678 -0.26134366
-0.08846966 -0.07196164 0.012019557 -0.18144265 -0.2836094 -0.08226176 0.22051549 0.31745374
-0.004411311 0.015374516 0.012258118 -0.058814622 -0.027621109 -0.11625215 0.09649615 0.061877117
0.07435686 0.19475898 -0.18731233 -0.023659596 0.15839574 0.032596044 -0.09514541 0.034356743
-0.14384508 -0.005353 -0.1918085 -0.2706828 0.089404106 0.05040592 -0.17161193 -0.055614743
0.1910166 -0.3368878 0.13756968 -0.014100885 -0.33432916 0.2518017 0.19923036 -0.14296448
-0.3644466 -0.43181244 0.2489548 -0.28004706 -0.092717536 0.41780168 0.35722914 0.22875845
-0.41787842 -0.095873415 0.3736711 0.30403718 -0.36231384 0.16149484 -0.049052216 0.21954387
0.11366677 0.27221844 0.15852779 0.19047934 -0.17408954 0.164092 0.036300827 0.11286806
-0.2280674 0.14790837 0.07880144 0.09403091 -0.0277606 0.030821638 -0.030954985 -0.058451302
-0.17707223 0.04845127 -0.055032182 0.28544092 -0.2991265 0.050580963 0.09397979 -0.22528177
-0.29508474 -0.054860007 0.17200314 -0.022943424 -0.08584945 0.17064327 0.3705083 0.44322303
-0.35820162 -0.13498771 0.11050634 0.30169922 -0.031102158 0.26181227 -0.09535543 0.37601337
0.1412114 0.26896727 0.490683 -0.0053184787 -0.4727788 0.8300245 0.29103577 0.064104386
-0.23134616 0.30722505 -0.58589685 0.1268341 0.34139013 0.34704092 -0.11460597 -0.35086924
-0.14786188 -0.32706174 0.19383985 0.24731459 0.0022072375 0.11058354 0.27190065 -0.16976538
-0.24497235 -0.31440112 0.049835104 -0.2885678 -0.24610294 -0.043732114 0.049354125 0.17502894
-0.35933873 -0.14332691 0.18746477 0.0021701884 0.0073481393 0.2305034 -0.03017743 0.22175346
0.14200154 0.42230615 -0.38483417 -0.10451048 0.02251943 -0.19209759 -0.0013038538 -0.3219111
-0.04747194 -0.34764034 -0.26382968 -0.24363643 0.02850211 0.11503508 -0.22044721 -0.26383623
-0.013605481 -0.2579938 -0.13777 -0.021644533 -0.019242542 -0.08296208 0.19254595 -0.11881625
-0.10288985 0.086967975 -0.09125243 -0.19052684 -0.19568978 0.1191949 0.28580773 0.23670404
-0.21071504 -0.14366545 -0.013142833 -0.027798275 -0.005921533 -0.07350458 0.06319396 0.021388935
0.12030955 -0.008694631 -0.22797875 0.07888288 0.069876336 0.035268772 0.13418376 -0.033613794
0.24657942 0.103877574 -0.0119508 -0.169837 -0.06855126 -0.24588421 -0.057928417 0.24060123
0.1656905 0.033843465 0.19875261 -0.10004338 -0.1582507 0.061113544 0.10084633 0.024859546
-0.22865327 -0.16700777 -0.12596804 0.1258369 0.12145488 0.28872308 0.21136576 0.02750397
-0.07422268 0.12270251 0.034275386 -0.02399675 -0.114818975 0.22290654 -0.10815867 0.13530983
0.04595683 0.3034462 0.2353757 0.1652535 0.32908076 0.23835301 -0.20769706 0.25405777
-0.24934958 0.18258986 -0.32903108 0.18989542 -0.0014897095 0.32572904 0.19011264 -0.00029182562

decoder.lstm.weight_hh_l0 f4 [80, 20]
00000000: 1652 56be baa2 c9be b6d9 453e 917e 9e3c
00000010: cadd 02be c46a 42be 549e 17bd e49a a6be
00000020: 2b9f a43e 480f 86be c4cc 493d dd2f ad3e
00000030: 8019 003e 7b5d c13d 9227 103e ecb4 d13d
00000040: 10dc 87be bdd0 8abe 60a3 4a3e 3a62 6d3e
00000050: a36b 18bd 19e9 b83c 76e7 d4bd 4688 86be
00000060: 94c3 c9bd 95a6 e83d 9a9c e5bd 0e5c ebbd
00000070: 6e1c f2bc 52ff 6c3d cc8b 63be fa48 6f3e
00000080: 3c21 bdbe 340f 1ebe 538c 4fbd 6e48 cebd
00000090: df25 67be e631 94be 5ae1 f63e 1093 923d
000000a0: 9ce8 5bbe 225c b1bd 89c5 f93c a7f8 073f
000000b0: 5a5f 993d 129b 13bf 8494 31bf 5e56 8abe
000000c0: 5bc1 6c3e 7778 4abe d677 c33e 9a1d e43e
000000d0: c04f 043f 1be6 85be 4a91 80be 4f48 143f
000000e0: 58de bd3d 62c0 ab3e 450e b23e 9dfb a4bd
000000f0: cf67 833e 7a84 9c3e 998a c13d f56f 20be
00000100: 4245 3d3e 205c d1bc 070e 94bc aea0 a63e
00000110: 6322 103c 33bf 0b3e 8b60 3a3e 6384 e1bc
00000120: da29 3e3d a2d7 4b3e 8781 52be 9bf7 253e
00000130: bd66 573d ec2e a53d d38a 8dbe 4b95 f53e
00000140: df29 93bc 9cbc e2be 78ef 793d 8666 2dbe
00000150: de54 3f3e d25b 87be 9ca2 33be d765 883d
00000160: a1d5 113e d228 16be 3782 cf3a ac80 c53d
00000170: e518 5e3e d2bb c2bd cde7 e7bd 9b07 09be
00000180: e514 1fbe 23f8 91bd 9b63 8bbd 409b 6b3d
00000190: 3812 2dbe 2386 8dbe e0e6 9cbe 76a9 1b3d
000001a0: 6a23 25be 7404 cd3d a5dc d03c beac 9d3d
000001b0: 1650 603e 58c8 04be 17c2 3f3c 64c1 c0bd
000001c0: f167 763e 0264 8d3e 9b35 f0bd 2d9c 6cbd
000001d0: 06b0 27be fcc3 edbd 178e 293e 4e9e 83bd
000001e0: d73e f8bb 5ec6 223e 6138 d53b 8b3e 083e
000001f0: 29f6 e63b f9f7 9ebe 967b babc a157 99bd
00000200: a8c5 8a3e 8efd 9b3d 7c7b 56be 529a 283d
00000210: d57e 6dbd 1ba6 563e cc12 823e 9997 f9ba
00000220: ebc4 02bd 3358 01be 14cf 933d 686c ad3c
00000230: fc06 edbc 3ba0 6abe 2aee 82bd d668 12be
00000240: 281f 01be 1748 4bbe 6438 8e3d 76c6 353e
00000250: 8ea4 6e3d 70d3 803e 96cd 5b3e 0300 013e
00000260: 3b77 9abc 29cf 2ebe 5885 abbc 9b72 9f3e
00000270: fa04 9c3d 33f7 febd 6b9f 773e 7732 313e
00000280: 87a0 2dbe 8b38 303b 5806 25be a1b0 793d
00000290: 7e96 143e 430c 0dbe c77e 4ebe 420f 95be
000002a0: c87c 873e 32ea 43be 7138 043d d8c5 0a3e
000002b0: b799 ad3d a6b6 afb8 ce37 183e af33 d43a
000002c0: 208f ec39 5152 76be 2f3e 3f3e 8716 283e
000002d0: ad4a 6f3d db11 5cbe d761 c03c e706 03be
000002e0: 07a1 3abe a556 7abe 7311 ba3d 7dac 7b3c
000002f0: a87a 463d 45e4 463d b6d1 82be 688d f03d
00000300: 50ab bf3d c422 c3bd d2a6 2abe b6c7 8d3e
00000310: b499 f3bd 6898 f9be 974c 663e 8e54 bd3b
00000320: e96c 063e c67f e13d a3d1 67bd 0cd1 90be
00000330: 5e80 ad3b 14d5 603d b118 a5bd 3e87 1b3c
00000340: 62a4 7abd f8dd 7ebc 8908 e73d 8dd0 2dbd
00000350: 5309 0b3e 42aa e83d abe5 603e 528d 4c3d
00000360: f71f 873d 3f62 473d cefd 5f3e 0c73 293c
00000370: db5e bdbd 5524 16be 6510 183e cb7e d03d
00000380: 44e5 53be 2407 e5bd 6c27 a9be 114a 6ebe
00000390: dea3 2f3e 13f0 e43d 4ef1 0a3e c06b fe3d
000003a0: e3d0 0d3d cc7d f43d a88a 073e 23e2 4fbe
000003b0: 4671 0c3b 8a33 893e 951f d93d 073e b1bd
000003c0: 709b 2abc 39ab 87be 2455 3bbc b119 223e
000003d0: 2b13 20be be51 c73d 3c5c 54be 850c c53d
000003e0: 4e9b dd3d 531e 25be 9590 933e b166 29be
000003f0: 4030 653e 0dff 14be c4e0 9abd 5642 acbd
-0.20929751 -0.39381963 0.19321331 0.019347461 -0.12779918 -0.1898604 -0.037016228 -0.32540047
0.32152686 -0.26183534 0.049267545 0.3382558 0.12509727 0.09441658 0.14077595 0.10239586
-0.26535082 -0.2711238 0.19788885 0.23182002 -0.037212025 0.022572087 -0.1039571 -0.26275843
-0.09851757 0.11359898 -0.1121151 -0.114921674 -0.029554572 0.05786068 -0.22221297 0.23367682
-0.36939418 -0.15435487 -0.050670933 -0.100724086 -0.2257304 -0.2894432 0.48218805 0.07156956
-0.21475452 -0.08660151 0.0304897 0.5311379 0.0748889 -0.57658494 -0.6936724 -0.27019018
0.23120634 -0.19772516 0.38177365 0.44553834 0.5168419 -0.2615212 -0.25110847 0.57922834
0.09270924 0.33545214 0.34776512 -0.08055804 0.25665137 0.30569822 0.094502635 -0.15667708
0.18483451 -0.025556624 -0.018073095 0.32544464 0.008797261 0.13647155 0.1820089 -0.027528947
0.04642663 0.19906476 -0.20557223 0.16207735 0.052588213 0.0806559 -0.27644977 0.47965464
-0.017964302 -0.44284523 0.06101939 -0.16933641 0.18684718 -0.2643724 -0.175425 0.066600494
0.14241649 -0.14664009 0.0015831654 0.09643683 0.21689184 -0.0950848 -0.11323509 -0.13381808
-0.15535314 -0.071274064 -0.068061076 0.057521105 -0.16901481 -0.276414 -0.30644894 0.038003407
-0.1612679 0.10010615 0.025495837 0.076989636 0.2190555 -0.1296705 0.0117039895 -0.09411886
0.24063088 0.27615362 -0.117289744 -0.05776613 -0.16375741 -0.11609647 0.16558109 -0.064266786
-0.0075758505 0.15895984 0.006506965 0.13305108 0.0070483875 -0.31048563 -0.022764008 -0.07487417
0.27103925 0.07616721 -0.20945543 0.041162796 -0.057982285 0.20961802 0.25404966 -0.0019042372
-0.031926077 -0.12631302 0.072172314 0.021169856 -0.028933994 -0.22912686 -0.063930824 -0.14297804
-0.12609541 -0.19851719 0.069443494 0.17751488 0.0582624 0.25161314 0.21465144 0.1259766
-0.018855682 -0.17071213 -0.020937607 0.31142125 0.07618137 -0.12449493 0.24181907 0.17304407
-0.16955768 0.002688917 -0.16115701 0.060959462 0.14510533 -0.13774209 -0.20165549 -0.29113203
0.26462388 -0.19132307 0.03228039 0.13552034 0.084765844 -8.378671e-05 0.14865038 0.0016189719
0.00045120064 -0.24054839 0.18676065 0.16414843 0.058420826 -0.21491186 0.023484154 -0.12795602
-0.1822549 -0.24447115 0.090853594 0.015360949 0.048456818 0.04855754 -0.25550622 0.11745721
0.09358847 -0.095281154 -0.166652 0.2769143 -0.11894551 -0.4874909 0.22490154 0.005777902
0.13127483 0.11010699 -0.05659641 -0.2828449 0.0052948436 0.054890707 -0.0806135 0.0094926935
-0.061191924 -0.015555851 0.11280925 -0.042435218 0.13577776 0.11360599 0.21962611 0.04993946
0.06597894 0.04867768 0.21874163 0.010342371 -0.09246608 -0.14662297 0.14850004 0.10180434
-0.20692927 -0.111830026 -0.3303789 -0.23270442 0.17152354 0.11178603 0.13568613 0.124228954
0.034623038 0.11938056 0.13236487 -0.20301108 0.002142982 0.26797134 0.10601727 -0.08654409
-0.010413036 -0.2649782 -0.011433873 0.15830113 -0.15632312 0.09732388 -0.2073831 0.096215285
0.10820638 -0.16124849 0.28821245 -0.1654308 0.22381687 -0.14550419 -0.07562402 -0.0841109

decoder.lstm.bias_ih_l0 f4 [80]
00000000: 025e 93bd b26a 783e d965 f13d debf b23d
00000010: 7a01 6e3d 4171 f83d cb2b f5bd 2d45 8abd
00000020: d279 2bbc d7fd e9bd 367f 153c 4138 dfbd
00000030: c228 8fbd 7fc0 e7bc 5d75 79bd 36c9 ba3c
00000040: 640c 28bd 5741 b33c af29 09bd 2cd5 25bd
00000050: 0944 1bbd 39f4 eabd 32b6 f13d 4631 d3bd
00000060: a060 843e efad 053e d933 713e 5c97 103d
00000070: ad1d 793e e5f9 d43d 9fba 7a3e 3a11 6ebd
00000080: 20ab 923e e20a 63bd aeea 093d 6fc2 083e
00000090: e8e5 3e3e 61ad 2a3e 3e53 24be d05a 583e
000000a0: c710 713e a244 a83d 47c8 423e d1ef 403d
000000b0: 5c66 a0bd f3b1 523d 6b10 b43d dbd4 78bd
000000c0: 03f9 3d3e 0688 b63d 1c38 133d 8483 d7bd
000000d0: 5e2c c83d 3144 303e fcf9 413d 761b 113e
000000e0: f4ae 083e a13f 023e 9f0c ae3d 9e1c 16bd
000000f0: 30d8 b93e 342f 8c3e 7df1 403e 1b9f a23e
00000100: e8fe 3b3e 0758 4e3e 3420 14bc 61ad 80bc
00000110: bc91 a73e 1e45 cf3e 57a2 013d 5bcc 033d
00000120: 9658 283e a1bc 843c 2d4f 233d 2ac3 a63e
00000130: eb9f 7a3d 87d2 473e 2674 923e 9ea1 df3d
-0.07195665 0.24259451 0.11787004 0.08728002 0.058106877 0.121309765 -0.119712435 -0.067514755
-0.010466056 -0.11425369 0.009124568 -0.108994015 -0.06990196 -0.028290031 -0.060902942 0.022801023
-0.04102744 0.021881742 -0.03348702 -0.0404865 -0.03790668 -0.11472363 0.11802329 -0.103121325
0.2585497 0.13054632 0.23554935 0.035300598 0.24327727 0.10399226 0.24485253 -0.058121897
0.28646183 -0.0554303 0.033671074 0.1335542 0.1864239 0.16667701 -0.1604738 0.21128392
0.23541556 0.08216216 0.19021712 0.047103707 -0.078320235 0.051439237 0.08792194 -0.06074987
0.18552022 0.08912663 0.035942182 -0.105231315 0.09774087 0.17213513 0.047357544 0.14170632
0.1334799 0.12719585 0.08498501 -0.036648385 0.3629775 0.27379763 0.1884212 0.31762013
0.18358958 0.20150767 -0.009040881 -0.015707674 0.32728374 0.4048242 0.03164896 0.03217731
0.16440043 0.016203227 0.03987043 0.32570773 0.061187666 0.19513904 0.2860424 0.10919498

decoder.lstm.bias_hh_l0 f4 [80]
00000000: 52d3 113e ee88 6e3e 3f1d ed3d d7d8 503e
00000010: cab9 a43e 6092 f9bd 9ea3 e83d 2bb5 193e
00000020: ebc9 47bd df10 873d f499 d73d b5de aabd
00000030: c59e 32be aeb0 773e c993 6a3e e6c2 62bd
00000040: ae27 b9bc 43fe af3d 7f81 10be f581 563e
00000050: b7df 823c 1ed4 9a3c c10b 9fbc 7a1a d9bd
00000060: 8894 e23d d19d 4e3e 8317 1f3e 9b6a 2f3e
00000070: 2768 523e 1193 c13e b7ba e23d 0007 2c3d
00000080: 041a 823e 32bf 423e c92e 22bd 50cc cebc
00000090: 3fcd 883e 85c1 233d 45d9 9b3d d66b 13be
000000a0: 2d34 aa3d 9308 50be 5853 443d 2175 493d
000000b0: 0e4f ec3d 476b 323d 8c95 d0bc 3954 f83d
000000c0: bafe 5e3d be14 cc3d dcc8 fc3d 98f1 a03d
000000d0: 6347 383d 8773 29be c147 58be 79d8 503e
000000e0: 5ec3 38be e03f 153e ce37 053e 6a73 6c3e
000000f0: de7c d33e 90d7 6d3d 47b1 c23e 6d27 113c
00000100: 7cb6 323e 9cf0 283d 5631 3f3e afd4 523e
00000110: ffbd c23e 47c5 d13d add1 863d 929f ebbd
00000120: 4351 c03e 53ff 7c3e 680d d13e 0ec0 603e
00000130: 74ac ec3d ec72 c13e db0f 0dbd 93e6 f6bd
0.14240769 0.23294422 0.11577844 0.20395218 0.32172996 -0.12186122 0.113593325 0.15010516
-0.04877655 0.06595015 0.10527411 -0.08343259 -0.17443378 0.24188492 0.22907938 -0.05536165
-0.022601929 0.085934184 -0.14111899 0.20948012 0.015975816 0.018899973 -0.019414784 -0.10600753
0.11063486 0.2017739 0.15536313 0.1713051 0.20547543 0.37807515 0.11070769 0.041998863
0.25410473 0.19018248 -0.0395954 -0.025243908 0.2671909 0.039979476 0.076098 -0.14396605
0.08310733 -0.20315771 0.047931045 0.04918397 0.11538516 0.04355934 -0.025461935 0.12125439
0.054442145 0.09964894 0.123429984 0.0785858 0.044989955 -0.16547976 -0.21121122 0.20395078
-0.18043277 0.14575148 0.13009569 0.23090902 0.41306204 0.058066905 0.38025877 0.0088594975
0.17452425 0.041245088 0.18671164 0.20588945 0.3803558 0.10242706 0.06582961 -0.11505045
0.37561998 0.24706773 0.4083054 0.21948263 0.1155633 0.3778299 -0.03443895 -0.12055697

decoder.lin.weight f4 [3, 20]
00000000: 5be0 da3e 5624 46bf 7f2d 623f 09ec 1bbf
00000010: a7e7 a2bd 79ac 423e f634 083f a483 69be
00000020: 2c20 b43e ff77 9e3d 1a19 1fbf dd81 dc3e
00000030: 31e7 623f 2621 1dbf c6e5 0d3e 524c 563e
00000040: 5ccc bebe 7616 36bf 0928 14bf c9d7 efbe
00000050: 3e6a e43e e6dd 96bd 370a d93e e8a8 54be
00000060: b72c 8bbe e393 c43e 9d62 803d 0d7b 0f3f
00000070: b4e4 ef3e 4d96 ea3e 77fd 123e 5d83 383e
00000080: 52fa cdbd b342 03bf 02bb 923e d719 81be
00000090: 9fe8 a9bc df56 b5be a221 533c 3cf4 75be
000000a0: 6a7d 8e3e 78a3 fcbb f702 1abf 1134 9abe
000000b0: 5fb2 d4be d03d 0f3f 62d6 3239 75f5 ad3e
000000c0: dace 9e3d 37c8 d23e 138f b9be 6fc4 65be
000000d0: c89d a4be 5c48 833e 7238 e23e d3d8 26bf
000000e0: 6b74 b8be 2f06 b2be 9d81 333e 9223 a8be
0.42749295 -0.77399194 0.8835067 -0.60907036 -0.079543404 0.19011106 0.5320581 -0.22804123
0.35180795 0.07737731 -0.62147677 0.43067828 0.8863402 -0.61378706 0.13857183 0.20927551
-0.3726529 -0.7112802 -0.5787359 -0.46844319 0.44612306 -0.073665425 0.42390606 -0.20767558
-0.27182552 0.3839408 0.06268809 0.56047136 0.46854174 0.45817795 0.14354502 0.18018861
-0.100575104 -0.5127365 0.286583 -0.25215027 -0.020740805 -0.3541784 0.012886437 -0.2401895
0.27830058 -0.0077099167 -0.60160774 -0.3011785 -0.41542336 0.55953693 0.00017055267 0.3397633
0.077542976 0.41168377 -0.3624197 -0.22438215 -0.32151628 0.25641143 0.4418369 -0.651746
-0.3602632 -0.34770343 0.17529912 -0.32839638

decoder.lin.bias f4 [3]
00000000: 1625 1cbe ec57 13be 6c0b 273e
-0.15248522 -0.14389008 0.16312951

decoder.time_lin.weight f4 [20, 1]
00000000: 44e6 fdbe 1028 71be c086 213f 600d c2be
00000010: 88ab c7be 8098 abbe d695 41bf 109a 2b3f
00000020: 4c10 5a3f a2ab 6b3f ae11 4b3f 10cd f4be
00000030: 44fe a1be d4ad b0be d453 32bf bc6c 0e3f
00000040: 18f3 00be 0075 963b 84ed 553f e295 283f
-0.4958974 -0.23550439 0.6309624 -0.3790083 -0.38998055 -0.33514786 -0.75619256 0.67031956
0.8518112 0.92058766 0.7932385 -0.478127 -0.31639302 -0.3450762 -0.6965916 0.55634665
-0.12592733 0.004591584 0.83565545 0.65853703

decoder.time_lin.bias f4 [20]
00000000: ccdc dabd 3563 0e3f 55cd 813f fc31 58bf
00000010: 8f02 abbe 2bbf c8bd eba6 fd3e 332a 0abf
00000020: 53f7 40be ffbf ac3e b674 463f e54c 613e
00000030: e6a4 a7be 9473 0abf a107 6e3f 2067 2c3e
00000040: c76a 71be e558 2a3f 9506 00bf 7c18 893e
-0.10686645 0.5562013 1.0140787 -0.8445127 -0.3340039 -0.098020874 0.4954141 -0.5397064
-0.18844347 0.3374023 0.77521837 0.22001989 -0.32742995 -0.5408261 0.9298039 0.16836214
-0.23575889 0.6654189 -0.50010043 0.26776493

decoder_Y.lin.weight f4 [5, 20]
00000000: eb6c 563e e4e8 823e 7de4 d6bd 9b56 663e
00000010: d0fb a83e b007 77bd a28c 15be bc08 00bf
00000020: 3c28 d4be fe67 9fbe abe3 eabe 91b3 9dbe
00000030: d71c 0e3f edd5 e73e 7207 4ebe ee7f bbbe
00000040: 3e35 873e 680c 0bbf aad3 e4be cc4b f53e
00000050: 94ba 873e 33e3 e33e 30fb b7be 4208 da3e
00000060: 854f 423e 09d3 85be 29ac b4be d356 79be
00000070: d151 c5be 9948 92be ffbd 44be c0b2 f1be
00000080: 5fa3 a43e d3fd 993e 9c10 d0be 97bc f2be
00000090: fa1a 0c3e 06f6 a7be 2dd9 81be 44ab 3f3e
000000a0: da88 be3e ef2c c23e e7ba c7be 4bf3 243e
000000b0: 1cb4 903e 2680 13bf 3601 8ebe 1ae6 81be
000000c0: 74b7 e9be 7007 9bbe 2326 e1be aad1 66be
000000d0: bb2f a13e dcf6 4b3e 5a8a cebe 8b1b eabe
000000e0: b442 373e bee5 5dbe 5915 7ebe ba9c 01bd
000000f0: d36a c63e d146 943e 2189 98be 403f 2c3e
00000100: 78f3 013f 045a e2be 60b9 d6be cae9 07be
00000110: 5fdd 59be c293 f6be 7478 39be 84ca c4be
00000120: 0ef9 6d3e c072 8c3e 3cfa e1be 7571 c7be
00000130: 4bbf 173e 049b b0be 56d0 50be 9e81 bf3d
00000140: 25aa ad3e 0456 a63e cfec d9be 5753 8a3e
00000150: dcb5 bf3e 43c6 78be 99fe b3be 76cd 95be
00000160: f636 7ebe 48a0 e5be e0f9 a7be ea08 f1be
00000170: c395 6c3e 6294 173e 8a72 4ebe 2b3d eabd
00000180: 004c f83e 751f 16be 4422 a7be dc97 88bc
0.20939986 0.25568306 -0.104927994 0.22493975 0.33004618 -0.060310066 -0.14604428 -0.5001333
-0.41436946 -0.31134027 -0.45876822 -0.3080106 0.55512756 0.452804 -0.20120028 -0.3662104
0.26407808 -0.54315805 -0.44692737 0.4790939 0.26509535 0.44509277 -0.35933828 0.42584425
0.18975647 -0.2613757 -0.35287598 -0.24349527 -0.38538983 -0.28571013 -0.19213103 -0.47206688
0.32155892 0.30076465 -0.40637672 -0.47409508 0.13682166 -0.32804888 -0.25361004 0.18717676
0.37213784 0.37924907 -0.39009783 0.16108434 0.28262413 -0.57617414 -0.277353 -0.25370866
-0.45647776 -0.30279112 -0.43974409 -0.22540918 0.31481728 0.19918388 -0.4033993 -0.4572414
0.17896539 -0.21669671 -0.24812831 -0.031643607 0.38753375 0.2896028 -0.2979212 0.16821003
0.5076213 -0.442093 -0.41938305 -0.13272777 -0.21275853 -0.48159605 -0.18112355 -0.38435757
0.23239538 0.27431297 -0.44136226 -0.38953748 0.14819066 -0.34493268 -0.20391974 0.093508944
0.33918872 0.324875 -0.42563483 0.27016708 0.37443435 -0.24294381 -0.3515518 -0.29258317
-0.24825653 -0.44848847 -0.32807827 -0.47077113 0.23104005 0.14802697 -0.2016088 -0.11437448
0.48495483 -0.14660437 -0.3264333 -0.016673975

decoder_Y.lin.bias f4 [5]
00000000: 996c 6e3e 5082 7ebd 0057 d5bd efb4 38be
00000010: cc0b 6e3c
0.23283614 -0.062135994 -0.104169846 -0.1803777 0.01452918
