models/105-seed-100-synctwin_lh_no_lasso/itr-0-nsc.pth.pth (torch, 399405 bytes, 20 tensors)

B f4 [400, 200]
1e-04 1.45098 -0.18203817 -0.9003549 0.5373897 3.635767 -0.051768187 1.7793878
-0.0077771964 1.7104043 -0.95774645 -0.27469295 0.114282176 -0.74714065 0.66698486 -0.78520685
0.37436083 3.833418 -0.7475608 1.5486088 -0.25831017 1.5727241 0.8175143 -0.1971168
0.072526366 -0.14726861 3.116832 -0.24428746 -0.4381066 -0.91196084 -0.15264092 -0.19614062
2.011437 0.38997665 0.9237064 -0.82540196 2.0804143 0.12814166 -0.7167009 -0.8875823
-0.2527238 -0.06991246 2.1088765 0.60938877 0.778694 -0.30360547 0.11686117 0.76564
-0.78565264 -0.9367012 -0.4722082 -0.22611313 1.5344071 0.6332898 -1.0269578 1.5357869
0.73485297 -1.0559578 0.40208858 0.062261082 2.6654255 1.958031 0.09490808 -0.7677854
-0.9278832 0.34480715 1.5388172 0.6880632 -0.14474185 0.7817145 -0.44988388 -0.5898764
0.27989358 -0.6219038 -0.17807624 0.9211138 0.20239279 -0.8323203 0.33669844 -0.4251364
-0.38209817 1.2608687 0.06225677 0.4473938 -0.99578613 -0.53113973 0.10995557 0.9467862
4.2938805 -0.34967473 0.7270909 3.3005183 2.48797 -0.055511776 0.037591092 1.8670443
-0.8024249 -0.018829681 -0.87895525 -0.4711518 1.112569 0.17266299 4.62596 1.4117913
-0.6742544 -0.014999071 1.0316643 -0.5099219 0.12808542 -0.51956457 0.44435027 -0.6871701
3.5210772 0.22002004 -0.55163825 -0.8791847 -0.56762695 -1.014375 -1.0021492 -0.844903
-0.77445024 0.4987129 0.9273824 -0.1779566 -0.9174127 -0.45945778 -0.7675357 1.7520664
-0.76486635 -0.7347239 -0.4597558 -0.6700426 3.222941 1.2299342 -0.9375123 -1.0103891
-0.35630894 -0.0860973 -0.8629623 -0.3212131 -0.30359328 -0.98526764 1.6308031 0.02915843
-0.8695931 0.08087819 4.0039196 0.69659007 6.301119 -0.8480501 1.6721389 -0.22681801
-0.34482378 -0.9852091 -0.95845467 -0.5138632 -0.3054228 1.1589398 1.6893969 -0.69242203
0.37251773 1.3280299 5.7301106 1.7451816 0.7208798 -0.6096 1.8730866 -0.028166078
5.912167 2.149389 -1.0155892 0.8170208 1.8602055 2.43986 3.0238357 1.9376507
1.5998894 -0.317031 -0.44849047 -0.57512796 -0.8787037 4.2917485 0.051402222 1.2172755
1.8834374 0.6445287 -0.060267303 -0.2204776 -0.5699407 0.050686173 -0.98064053 0.09257663
0.59362566 1.2767876 -0.8772795 1.1116861 -0.96760815 -0.27155566 -0.21247165 -0.96473944
0.29634714 1e-04 0.043573327 -1.1633284 -0.09992498 -1.1146392 -1.4336562 1.1445899
-1.5723888 1.8290918 -1.550585 0.0378383 1.8060097 -1.3777851 0.06866391 -1.2104771
-0.8915067 4.4061728 -1.3513553 5.752787 -1.0172423 -0.7926291 -0.6299729 -0.7071522
-0.6867642 -0.93539524 -0.5522662 -1.2452143 -0.113199756 -1.4204204 -0.9149338 1.8228903
4.2653956 -1.2407428 -0.18170755 -1.2535598 5.992571 -0.21310054 -0.87085146 -1.0594862
1.2942394 -0.055656217 -0.6461257 1.9162973 6.4331326 -0.48232967 0.52059263 0.4038806
-1.2652379 -1.096115 -1.0450193 -0.79242194 -0.3959357 0.388064 -1.0343537 4.1413355
00000000: 17b7 d138 b6b9 b93f 3768 3abe a97d 66bf
00000010: 5f92 093f 68b0 6840 e10a 54bd fbc2 e33f
00000020: dad7 febb 87ee da3f df2e 75bf 8ea4 8cbe
00000030: c60c ea3d 9c44 3fbf 85bf 2a3f 5103 49bf
00000040: 39ac bf3e b856 7540 2560 3fbf d038 c63f
00000050: 3b41 84be 064f c93f 9e48 513f fdd8 49be
00000060: b488 943d 95cd 16be 2d7a 4740 7e26 7abe
00000070: 824f e0be 4476 69bf e74d 1cbe 16d9 48be
00000080: 62bb 0040 05ab c73e 0678 6c3f 8b4d 53bf
00000090: 8225 0540 9137 033e b679 37bf 9838 63bf
000000a0: 0465 81be 442e 8fbd d5f7 0640 e700 1c3f
000000b0: 7d58 473f 2d72 9bbe e954 ef3d fc00 443f
000000c0: 8820 49bf a6cb 6fbf 46c5 f1be 338a 67be
000000d0: 7467 c43f 481f 223f 5a73 83bf aa94 c43f
000000e0: 531f 3c3f a029 87bf 8ede cd3e 7a05 7f3d
000000f0: 5596 2a40 c3a0 fa3f 2b5f c23d 958d 44bf
00000100: c189 6dbf 908a b03e f6f7 c43f e924 303f
00000110: 3537 14be 711e 483f 2e57 e6be 2402 17bf
00000120: 364e 8f3e 1635 1fbf 9e59 36be 1dce 6b3f
00000130: 0e40 4f3e f112 55bf bd63 ac3e 7aab d9be
00000140: 5fa2 c3be 2564 a13f f400 7f3d cd10 e53e
00000150: d7eb 7ebf c6f8 07bf 6330 e13d 9560 723f
00000160: 7867 8940 9108 b3be a122 3a3f b13b 5340
00000170: e73a 1f40 5160 63bd 1ef9 193d 4ffb ee3f
00000180: b86b 4dbf b440 9abc 3603 61bf cf3a f1be
00000190: a968 8e3f 91ce 303e dd07 9440 94b5 b43f
000001a0: f09b 2cbf aabe 75bc 930d 843f 3e8a 02bf
000001b0: d328 033e 2f02 05bf e181 e33e 61ea 2fbf
000001c0: 5459 6140 ef4c 613e 2a38 0dbf 4012 61bf
000001d0: 0050 11bf 0ad7 81bf 6d46 80bf 904b 58bf
000001e0: 5f42 46bf 4c57 ff3e ef68 6d3f 413a 36be
000001f0: 8fdb 6abf 0d3e ebbe 387d 44bf b643 e03f
00000200: 48ce 43bf de16 3cbf 1d65 ebbe e987 2bbf
00000210: aa44 4e40 7c6e 9d3f ce00 70bf 6e54 81bf
00000220: 206e b6be c853 b0bd 19eb 5cbf 0b76 a4be
00000230: 9470 9bbe 803a 7cbf 28be d03f a9dd ee3c
00000240: a79d 5ebf 77a3 a53d 1c20 8040 ba53 323f
00000250: c4a2 c940 d019 59bf a608 d63f fb42 68be
00000260: be8c b0be aa36 7cbf 495d 75bf 8a8c 03bf
00000270: 6160 9cbe 2458 943f 283e d83f 9242 31bf
00000280: a5ba be3e e2fc a93f 115d b740 1c62 df3f
00000290: 948b 383f bf0e 1cbf 4dc1 ef3f 8cbc e6bc
000002a0: 7930 bd40 978f 0940 d4fe 81bf 4628 513f
000002b0: 371b ee3f ab26 1c40 8686 4140 f004 f83f
000002c0: 2dc9 cc3f e351 a2be 8ba0 e5be 963b 13bf
000002d0: baf2 60bf 0156 8940 238b 523d afcf 9b3f
000002e0: 7a14 f13f d5ff 243f d9da 76bd e1c4 61be
000002f0: a2e7 11bf 4e9c 4f3d 420b 7bbf d198 bd3d
00000300: daf7 173f c76d a33f 6495 60bf bb4b 8e3f
00000310: 2bb5 77bf 5809 8bbe 2b92 59be 2af9 76bf
00000320: d0ba 973e 17b7 d138 f279 323d f2e7 94bf
00000330: 78a5 ccbd 7fac 8ebf 0c82 b7bf ec81 923f
00000340: 0944 c9bf ae1f ea3f 9279 c6bf 55fc 1a3d
00000350: 532b e73f 435b b0bf aa9f 8c3d eaf0 9abf
00000360: c839 64bf 5eff 8c40 36f9 acbf d516 b840
00000370: ff34 82bf bee9 4abf e745 21bf ed07 35bf
00000380: c7cf 2fbf 1076 6fbf 5161 0dbf 2f63 9fbf
00000390: 46d5 e7bd 56d0 b5bf 1a39 6abf 7854 e93f
000003a0: 1f7e 8840 a9d0 9ebf 8b11 3abe a674 a0bf
000003b0: 24c3 bf40 0737 5abe 1ff0 5ebf 3e9d 87bf
000003c0: a3a9 a53f c6f7 63bd 7e68 25bf 3b49 f53f
000003d0: 39dc cd40 eaf3 f6be 8f45 053f 70c9 ce3e
000003e0: 51f3 a1bf 7f4d 8cbf 31c3 85bf 2adc 4abf
000003f0: 16b8 cabe 53b0 c63e b465 84bf d285 8440

encoder.attn_v f4 [40]
1.2043978 0.8514272 0.89187 0.9627919 1.2388791 0.94525117 0.8349286 0.89994884
1.0053805 0.9318759 0.8363826 0.7545546 1.3330141 0.92314714 1.1816785 1.2115322
0.8984359 0.9716184 1.1558689 1.1924529 1.019447 0.9477457 0.8519923 0.8350441
0.93064654 1.2771451 0.9957124 1.1867284 1.2378728 1.1409676 0.8492564 0.90139145
0.60208184 1.0305037 1.0682186 1.1608609 0.9028457 1.1860473 0.96905416 0.5089147
00000000: b529 9a3f 22f7 593f 9851 643f 8879 763f
00000010: 9793 9e3f fbfb 713f e1bd 553f 0c63 663f
00000020: 4fb0 803f 6b8f 6e3f 2c1d 563f 7e2a 413f
00000030: 35a0 aa3f 5f53 6c3f 3e41 973f 7d13 9b3f
00000040: e5ff 653f fcbb 783f 83f3 933f 4ca2 983f
00000050: 3d7d 823f 769f 723f 2b1c 5a3f 73c5 553f
00000060: da3e 6e3f 7e79 a33f 02e7 7e3f b7e6 973f
00000070: 9e72 9e3f 3a0b 923f de68 593f 97c1 663f
00000080: 0922 1a3f 8ce7 833f 63bb 883f 1797 943f
00000090: e520 673f 66d0 973f ef13 783f 3c48 023f

encoder.lstm.weight_ih_l0 f4 [80, 2]
-0.036971606 0.3112994 -0.087625585 -0.0061961478 -0.17097211 0.0068263523 -0.1090123 -0.10510884
-0.10042931 -0.17029825 -0.31686395 0.027423918 0.17439878 0.16652803 0.10689916 0.22730882
0.057771537 0.05804604 0.47502708 -0.033549484 -0.3045781 0.0800852 -0.18392846 0.08557795
-0.084383056 0.036747865 0.15526925 -0.017078772 -0.110927165 0.055751473 -0.0036970105 -0.035203353
0.20379458 0.094875015 -0.24929933 -0.06446563 0.05834955 -0.05134811 -0.10588266 0.21417126
0.03678285 -0.011355875 0.034337815 -0.06514488 -0.18882906 -0.064654335 -0.0564343 0.0073151286
0.42314756 0.16056056 -0.14209354 0.0055414834 -0.02249647 -0.01723719 0.120834254 0.17513858
-0.09852249 -0.027522054 0.4396441 0.35095814 -0.001636283 0.00054519804 -0.22957014 0.07862497
-0.11087399 -0.24212143 0.10440523 0.11538599 -0.0004412366 -0.09262728 0.04140896 0.17955568
-0.26598504 0.17582928 -0.097993664 -0.25840974 0.11814875 -0.036610313 0.1292142 0.0042923293
-0.017767971 0.2948364 -0.035051633 -0.20818394 -0.015421267 -0.10277046 -0.012876391 0.19909744
0.29776877 -0.11587206 -0.20298578 -0.12076708 0.0034754751 -0.29901677 -0.17558149 -0.09660871
-0.08800288 0.26980105 -0.16217846 -0.026239298 0.1740217 0.015119784 -0.15219587 -0.009318656
-0.084704496 0.08270218 -0.11195266 0.046180326 0.1566909 -0.021740949 -0.13035046 0.03320839
-0.0036333965 0.07255571 0.24230316 0.17619884 0.06718577 0.2067695 0.065410644 -0.078119434
-0.120935485 0.4057523 0.11980977 0.0636121 -0.36559573 -0.21973577 0.01348141 0.052058656
-0.10956174 0.28879827 -0.14378756 -0.03782178 -0.11249794 0.12561983 0.010541004 0.35976547
0.08193664 0.0074213804 0.18913059 0.40150875 0.17439187 0.1312543 -0.21520998 0.00091023796
-0.13020436 -0.20209557 0.032782376 0.09931871 0.2859113 -0.07446713 -0.038704176 0.22460547
-0.09608309 0.1096478 -0.30644074 -0.26729694 -0.027156278 -0.050256304 0.17646837 0.22223386
00000000: 8a6f 17bd a362 9f3e 0b75 b3bd 0e09 cbbb
00000010: 5013 2fbe 98af df3b d741 dfbd 4e43 d7bd
00000020: e2ad cdbd aa62 2ebe fe3b a2be 20a8 e03c
00000030: 9895 323e 5386 2a3e f2ed da3d a5c3 683e
00000040: d9a1 6c3d afc1 6d3d c036 f33e 2f6b 09bd
00000050: a9f1 9bbe b603 a43d be57 3cbe 7e43 af3d
00000060: 06d1 acbd ee84 163d e7fe 1e3e c8e8 8bbc
00000070: c82d e3bd a85b 643d 8b49 72bb 6431 10bd
00000080: 87af 503e d54d c23d 5348 7fbe 8e06 84bd
00000090: f0ff 6e3d 6552 52bd 02d9 d8bd b64f 5b3e
000000a0: 9da9 163d fe0d 3abc cfa5 0c3d ae6a 85bd
000000b0: 685c 41be 7e69 84bd a727 67bd bfb3 ef3b
000000c0: cca6 d83e fd69 243e f880 11be 5595 b53b
000000d0: 844a b8bc 0235 8dbc f377 f73d 8757 333e
000000e0: 29c6 c9bd ee75 e1bc 0819 e13e c9b0 b33e
000000f0: 8c78 d6ba 9feb 0e3a 6f14 6bbe 2106 a13d
00000100: e711 e3bd aeee 77be 69d2 d53d 7d4f ec3d
00000110: c655 e7b9 5fb3 bdbd 719c 293d 72dd 373e
00000120: 312f 88be 970c 343e e7b0 c8bd 484e 84be
00000130: f9f7 f13d b2f4 15bd ba50 043e aba6 8c3b
00000140: 238e 91bc ccf4 963e 4d92 0fbd 2c2e 55be
00000150: 7ba9 7cbc 5279 d2bd 80f7 52bc 33e0 4b3e
00000160: 2675 983e 554e edbd 81db 4fbe bb54 f7bd
00000170: ccc4 633b ba18 99be a2cb 33be cada c5bd
00000180: db3a b4bd 5d23 8a3e 1c12 26be ccf3 d6bc
00000190: bf32 323e f8b8 773c 3cd9 1bbe 47ad 18bc
000001a0: 8d79 adbd c35f a93d 7047 e5bd 9527 3d3d
000001b0: 9473 203e 131a b2bc 977a 05be 8505 083d
000001c0: 471e 6ebb 1798 943d 521e 783e 786d 343e
000001d0: b198 893d 62bb 533e 04f6 853d 15fd 9fbd
000001e0: 06ad f7bd c4be cf3e d35e f53d 1047 823d
000001f0: 5d2f bbbe 6a02 61be 22e1 5c3c 753b 553d
00000200: e861 e0bd 5edd 933e 0c3d 13be 03eb 1abd
00000210: 5265 e6bd 7ca2 003e 2db4 2c3c 2e33 b83e
00000220: 66ce a73d 0d2f f33b 73ab 413e 8e92 cd3e
00000230: c893 323e 8767 063e 0160 5cbe 099d 6e3a
00000240: 4b54 05be 24f2 4ebe d046 063d 9c67 cb3d
00000250: f762 923e 3982 98bd 4588 1ebd fafe 653e
00000260: 36c7 c4bd 078f e03d cde5 9cbe 25db 88be
00000270: d876 debc 8ed9 4dbd 20b4 343e 4691 633e

encoder.lstm.weight_hh_l0 f4 [80, 20]
-0.031184115 -0.03428941 -0.052676503 -0.08460993 0.007885701 -0.17889917 0.11905421 -0.28584835
-0.18290427 -0.1872996 0.117970064 -0.147576 0.15292256 0.07351595 0.041646905 -0.03800854
-0.33648345 0.03554133 0.024157986 0.10419028 0.17710325 -0.13172007 0.3581342 -0.15165107
0.042299513 0.33664778 -0.2573716 -0.26270884 0.33837676 -0.28489497 -0.08960481 -0.17202432
-0.37020716 -0.2498832 -0.08432827 -0.08858205 -0.18139522 -0.10122421 -0.040768743 0.008597954
-0.17918672 0.048067335 0.07964173 -0.29504997 -0.07752027 0.24670981 -0.19930534 0.13617833
0.12597635 -0.23893166 -0.36436707 0.006930419 -0.23856606 0.0627342 0.09373717 -0.15449098
0.1928513 -0.24699679 0.07406922 0.054203276 0.35491076 -0.07347737 -0.17543817 0.02865797
0.13121724 0.11562265 -0.24347153 -0.07621851 -0.121442944 -0.19703342 -0.15711132 -0.26265752
-0.0068384116 -0.18989685 0.13595487 -0.111290134 0.06117529 -0.39397067 -0.078335285 0.00090908847
-0.1829939 -0.03212456 -0.09669477 -0.025726061 0.15513021 0.18521069 -0.12694438 -0.18837182
-0.3354123 -0.16975066 0.14082216 -0.2147387 -0.18215092 -0.036081772 0.2171863 0.22231086
-0.28638664 -0.011653488 0.24759814 0.017357273 -0.15074712 0.016033642 -0.23569186 -0.21731989
-0.1174669 0.104956254 0.06531903 -0.14703713 -0.1756848 -0.41691595 -0.04820795 -0.090895765
-0.25696343 0.065319896 0.1408002 -0.134634 -0.29946572 -0.45346826 -0.15315144 -0.07529221
-0.11963403 0.12361523 -0.1843548 0.072037205 -0.14013907 -0.10091806 -0.10941857 -0.09409528
-0.039193746 -0.01932441 0.13474376 0.08050472 0.14315708 0.03912617 -0.073292196 -0.15583642
0.16469713 -0.27357522 -0.17463367 0.2665358 -0.011265965 0.15530027 -0.09247857 -0.18931042
-0.100366086 -0.16503099 0.09001579 -0.23980165 0.25253284 -0.10526044 0.06133944 0.23213221
0.012008944 -0.115379654 -0.23449713 -0.159142 -0.06898551 -0.2252962 -0.14983925 -0.24939863
0.087703034 -0.077755325 0.04384507 -0.33077794 0.20193167 0.19754994 -0.22828452 -0.29071093
0.03058428 0.22338004 -0.29596138 -0.16942576 -0.07734003 -0.20847322 0.347585 0.017373238
-0.0035567726 0.0057685757 -0.17732207 0.06078898 -0.17286177 -0.099592336 0.07480868 -0.23530902
0.16690233 0.2681401 0.24600418 -0.17581874 -0.14358756 -0.0194184 -0.044853885 0.011256193
-0.34300655 0.21811904 0.1932335 -0.15346919 0.17793253 -0.047076665 0.091757365 0.039119083
-0.1600481 0.054777034 -0.0444716 -0.1769708 -0.012257544 0.11346049 -0.2180376 -0.18478137
0.068620875 0.06595447 -0.31443912 0.06554452 -0.30935648 -0.2592279 0.19185545 0.38930658
-0.22031736 -0.18431714 0.15292755 0.37039122 -0.20252275 -0.13798761 0.09177568 -0.07036859
-0.30533978 0.13040105 -0.19816954 -0.15723887 0.022153042 -0.22302787 0.026468553 -0.1498219
-0.045497283 0.046403427 -0.12454136 -0.052970305 -0.06038637 -0.26869023 0.10588738 -0.17888965
-0.06929684 0.08921289 -0.19636269 -0.3725608 0.16983144 0.13557284 -0.0068275332 0.067986935
0.09533165 -0.2940374 0.10244948 -0.011395123 -0.26883227 -0.2993731 0.23699167 -0.045554973
00000000: d475 ffbc 0d73 0cbd 51c3 57bd f947 adbd
00000010: 0733 013c 5831 37be b2d2 f33d b75a 92be
00000020: 424b 3bbe 77cb 3fbe 4a9a f13d 2a1e 17be
00000030: bb97 1c3e 888f 963d f295 2a3d d8ae 1bbd
00000040: 8f47 acbe c993 113d f8e6 c53c b761 d53d
00000050: 8e5a 353e a0e1 06be 5e5d b73e 6b4a 1bbe
00000060: 4142 2d3d 195d ac3e 36c6 83be c681 86be
00000070: b83f ad3e c1dd 91be ba82 b7bd 2527 30be
00000080: cb8b bdbe 62e1 7fbe 4db4 acbd 816a b5bd
00000090: abbf 39be a34e cfbd 20fd 26bd 6fde 0c3c
000000a0: b97c 37be 41e2 443d 341b a33d ca10 97be
000000b0: f3c2 9ebd 7fa1 7c3e b316 4cbe 5572 0b3e
000000c0: f2ff 003e 80aa 74be 528e babe 9118 e33b
000000d0: a94a 74be ca7a 803d 46f9 bf3d e232 1ebe
000000e0: d07a 453e baec 7cbe 9ab1 973d 4104 5e3d
000000f0: ddb6 b53e 4e7b 96bd 10a6 33be 1ec4 ea3c
00000100: d05d 063e 91cb ec3d 9a50 79be 7318 9cbd
00000110: 14b7 f8bd 21c3 49be cae1 20be 0c7b 86be
00000120: c114 e0bb 5274 42be c137 0b3e 15ec e3bd
00000130: f192 7a3d 86b6 c9be 406e a0bd e54f 6e3a
00000140: c162 3bbe 0b95 03bd e807 c6bd 76bf d2bc
00000150: 74da 1e3e dfa7 3d3e b5fd 01be 8be4 40be
00000160: 29bb abbe 1ed3 2dbe af33 103e 76e4 5bbe
00000170: c585 3abe 7bca 13bd 1666 5e3e 75a5 633e
00000180: 45a1 92be 45ee 3ebc 5e8a 7d3e d730 8e3c
00000190: 745d 1abe fc58 833c 3559 71be 1b89 5ebe
000001a0: 7c92 f0bd 4ef3 d63d fcc5 853d e790 16be
000001b0: b7e6 33be 0276 d5be b375 45bd 8f27 babd
000001c0: b690 83be 70c6 853d ed2d 103e 7fdd 09be
000001d0: 9253 99be fe2c e8be bbd3 1cbe cd32 9abd
000001e0: b002 f5bd fb29 fd3d 81c7 3cbe 3e88 933d
000001f0: 9e80 0fbe 21ae cebd d816 e0bd 07b5 c0bd
00000200: 9f89 20bd 3a4e 9ebc 45fa 093e a9df a43d
00000210: c597 123e c342 203d 381a 96bd 9593 1fbe
00000220: 5da6 283e 0d12 8cbe 2bd3 32be 6177 883e
00000230: e294 38bc 0907 1f3e 6865 bdbd 97da 41be
00000240: bc8c cdbd e2fd 28be 335a b83d 908e 75be
00000250: fc4b 813e c992 d7bd 113f 7b3d 11b4 6d3e
00000260: 29c1 443c 2b4c ecbd 0420 70be 1ff6 22be
00000270: 4648 8dbd 0cb4 66be 766f 19be 5b62 7fbe
00000280: a69d b33d 2f3e 9fbd e396 333d ba5b a9be
00000290: 2dc7 4e3e 884a 4a3e 6bc3 69be 10d8 94be
000002a0: e28b fa3c bdbd 643e 4088 97be f27d 2dbe
000002b0: 7364 9ebd 017a 55be a9f6 b13e 5252 8e3c
000002c0: be18 69bb 5206 bd3b eb93 35be defd 783d
000002d0: ad02 31be 11f7 cbbd 4b35 993d d9f4 70be
000002e0: 72e8 2a3e a949 893e 85e8 7b3e d409 34be
000002f0: 9e08 13be 5613 9fbc b5b8 37bd e56b 383c
00000300: 8e9e afbe 995a 5f3e 01df 453e 0727 1dbe
00000310: f233 363e 76d3 40bd 49eb bb3d 553b 203d
00000320: a6e3 23be e25d 603d da27 36bd d537 35be
00000330: ded3 48bc f95d e83d 4045 5fbe 5437 3dbe
00000340: 1a89 8c3d 2313 873d 2afe a0be 353c 863d
00000350: f963 9ebe 85b9 84be c175 443e 3153 c73e
00000360: e09a 61be a2bd 3cbe 0a99 1c3e eba3 bd3e
00000370: 2062 4fbe a04c 0dbe e3f4 bb3d 681d 90bd
00000380: 7f55 9cbe da87 053e f5ec 4abe 3a03 21be
00000390: 4c7a b53c 6b61 64be 94d4 d83c ea6a 19be
000003a0: 5c5b 3abd 8511 3e3d 8a0f ffbd 64f7 58bd
000003b0: b357 77bd c491 89be 7cdb d83d d92e 37be
000003c0: 80eb 8dbd 3fb5 b63d 4d13 49be 4ac0 bebe
000003d0: 4be8 2d3e 9bd3 0a3e 80b9 dfbb bc3c 8b3d
000003e0: 3d3d c33d 128c 96be 08d1 d13d 9cb2 3abc
000003f0: 62a4 89be 6e47 99be f2ad 723e da97 3abd

encoder.lstm.bias_ih_l0 f4 [80]
0.15325585 0.16855496 0.2082105 0.038278285 0.21180567 0.11275982 0.17020631 0.11191694
0.27130324 0.16412382 0.26618984 0.03600452 0.027868599 0.13374634 0.08550911 0.21207474
-0.024234207 -0.027254874 0.04057565 -0.0021050642 0.32567263 0.33212462 0.340403 0.08683119
-0.0906166 0.39873055 0.19751972 0.064016305 -0.0061514084 0.31592625 0.42684686 0.16575313
0.5096957 0.07973496 0.12689778 0.26309475 0.13662362 0.022719063 0.017815042 0.1928089
-0.2286514 -0.062150322 0.12002021 -0.18789278 -0.021308018 -0.13111058 -0.14635189 -0.12929718
0.076444626 -0.067816325 -0.2996302 -0.007419137 -0.07716461 -0.15824832 0.048452497 0.077056065
-0.12654789 0.14411178 0.012843828 0.2313491 0.28003982 0.17473932 0.42828244 0.33064833
-0.0009311658 0.32509348 0.053054783 0.16440596 0.37030762 0.3307577 0.32645884 0.35763636
0.53465664 0.27542746 0.29937902 0.06372507 -0.079038665 0.20702374 0.3513293 0.18559544
00000000: 1aef 1c3e ac99 2c3e 2235 553e b1c9 1c3d
00000010: 96e3 583e 9fee e63d 904a 2e3e b534 e53d
00000020: 42e8 8a3e 1310 283e 094a 883e 7a79 133d
00000030: b04c e43c cdf4 083e 661f af3d 1f2a 593e
00000040: d186 c6bc 9d45 dfbc a732 263d 1ef5 09bb
00000050: 90be a63e 3d0c aa3e 4d49 ae3e 8dd4 b13d
00000060: 3295 b9bd 6926 cc3e 9c42 4a3e fb1a 833d
00000070: c191 c9bb 16c1 a13e ac8b da3e 30bb 293e
00000080: 6b7b 023f 154c a33d 7ef1 013e 5bb4 863e
00000090: 10e7 0b3e 541d ba3c daf0 913c b26f 453e
000000a0: 9823 6abe 5691 7ebd 28cd f53d f766 40be
000000b0: 278e aebc da41 06be 45dd 15be 7b66 04be
000000c0: 008f 9c3d 49e3 8abd 2169 99be 3b1c f3bb
000000d0: 7b08 9ebd d90b 22be 2076 463d 92cf 9d3d
000000e0: c595 01be 0a92 133e eb6e 523c c7e6 6c3e
000000f0: 6161 8f3e ddee 323e d647 db3e bd4a a93e
00000100: 7b19 74ba a772 a63e f94f 593d 095a 283e
00000110: f698 bd3e 1359 a93e 9d25 a73e 1d1c b73e
00000120: 42df 083f d404 8d3e 3548 993e 4a82 823d
00000130: 06df a1bd 08fe 533e 6fe1 b33e bb0c 3e3e

encoder.lstm.bias_hh_l0 f4 [80]
0.029348476 0.18027249 -0.053221717 -0.058574338 0.28236836 0.33428612 0.0010207689 -0.10876039
0.30369356 0.38162538 0.12359778 0.06726844 0.2675978 0.08555609 0.24975826 0.093240984
0.0010161939 -0.0189919 -0.065060295 -0.103187904 0.0760236 -0.033461183 0.12466761 0.12752393
-0.12568493 0.257283 0.10402241 -0.13932835 0.2672944 0.47780117 0.35289493 0.26394755
0.42397347 0.22188048 -0.060347877 -0.0984178 -0.10546824 0.17735709 0.089140564 -0.1405529
0.08354209 -0.33055076 -0.04312829 -0.047875453 0.08862671 -0.0292088 -0.10608543 -0.16271488
-0.1530428 -0.17754841 -0.17127615 -0.14047556 0.1274205 -0.21726723 0.22256982 0.1074801
-0.014919153 0.19991551 -0.17152685 -0.012977018 0.08266371 0.20274155 0.41950426 0.21565025
0.06917555 0.23677856 0.005576461 -0.07038608 0.3173055 0.06981302 0.41082853 0.082840025
0.549809 0.10349692 0.107362896 0.3021251 0.1021912 0.37246162 0.20812048 -0.09658314
00000000: 376c f03c 5a99 383e 04ff 59bd a5eb 6fbd
00000010: 9692 903e 8d27 ab3e 52cb 853a c4bd debd
00000020: b97d 9b3e 6764 c33e d520 fd3d 09c4 893d
00000030: 9402 893e 0838 af3d a1c0 7f3e 21f5 be3d
00000040: cf31 853a e794 9bbc 553e 85bd 2e54 d3bd
00000050: 43b2 9b3d 980e 09bd bb51 ff3d a295 023e
00000060: 8db3 00be 99ba 833e b409 d53d 17ac 0ebe
00000070: d0da 883e 5ba2 f43e a5ae b43e 2224 873e
00000080: 0d13 d93e a334 633e 562f 77bd 468f c9bd
00000090: bcff d7bd 199d 353e 548f b63d 19ed 0fbe
000000a0: 1e18 ab3d f33d a9be 4aa7 30bd 0d19 44bd
000000b0: ec81 b53d 4b47 efbc 5143 d9bd bb9e 26be
000000c0: 40b7 1cbe 40cf 35be 0463 2fbe d3d8 0fbe
000000d0: 857a 023e 4d7b 5ebe 58e9 633e 871e dc3d
000000e0: 776f 74bc a7b6 4c3e bca4 2fbe 8f9d 54bc
000000f0: 974b a93d 7b9b 4f3e 43c9 d63e 6bd3 5c3e
00000100: e9ab 8d3d 1476 723e bfba b63b 9426 90bd
00000110: de75 a23e 21fa 8e3d 1e58 d23e 08a8 a93d
00000120: 48c0 0c3f 31f6 d33d 14e1 db3d 24b0 9a3e
00000130: 9f49 d13d 4ab3 be3e 891d 553e 62cd c5bd

encoder.lstm.weight_ih_l0_reverse f4 [80, 2]
0.115775496 -0.06897801 -0.35098386 -0.031978868 -0.08410637 -0.15718299 -0.30246282 0.061371654
0.027788574 -0.06737685 0.036678873 -0.012787077 -0.024219295 -0.00605963 -0.06896348 -0.027698176
-0.06745847 -0.05399497 -0.21381108 0.20397826 0.2361147 0.27327552 0.23370273 0.005829144
0.08712371 0.37919667 -0.15637776 -0.14435157 -0.020459197 0.07135419 -0.16911662 0.0115521485
-0.03075541 -0.011643142 0.43445125 -0.03875814 0.117478795 -0.2648763 -0.34606376 0.321161
-0.08225479 -0.060402468 -0.32619536 0.31860593 -0.15419425 0.13893579 -0.05972679 0.023386667
0.06033426 0.16449478 -0.14170395 0.23820816 0.20029646 -0.019698525 -0.017979698 -0.10608734
-0.07303972 0.10420682 0.18669537 0.13834183 0.20474356 -0.019653725 0.078855574 -0.099078886
0.19027944 0.12563771 -0.21204205 0.13108715 -0.02195633 -0.006422105 -0.24360266 -0.12967147
0.052226707 0.099339165 0.053951547 -0.34183013 -0.14535643 -0.29876164 -0.32964227 -0.020974869
-0.24284384 -0.17891276 0.19385153 -0.04046041 -0.24889664 0.008957378 0.080197796 -0.2180904
-0.025692021 0.02317013 0.14605531 0.10251233 -0.20675053 -0.0027693834 -0.2026676 0.2015885
0.023329671 0.2064487 0.07891274 0.029091487 -0.23138312 -0.32777807 -0.2028984 -0.06888949
-0.23996478 -0.12237033 0.16540737 0.16354226 -0.15401524 0.0024903726 0.16631915 0.20844732
0.074973896 0.1677015 -0.16231576 0.08387193 -0.032557778 -0.19871402 0.17104179 -0.16498068
0.03334328 -0.13847959 -0.18072656 0.034690816 -0.10378378 0.07321266 -0.38515678 0.12012629
0.12448604 -0.03791111 -0.18385303 0.18932779 -0.031303775 0.13566783 -0.1796552 -0.22738251
-0.113356546 0.040524114 0.054188207 0.30489683 0.14270796 0.23417959 0.24124713 0.15041327
0.51110184 0.40371162 -0.13599676 -0.1629283 0.052559424 -0.2041641 -0.052212846 -0.06834417
-0.1327769 -0.085132994 0.33759862 -0.10003447 -0.35444182 -0.1894502 -0.22836375 0.18089299
00000000: b41b ed3d 5844 8dbd 28b4 b3be 46fc 02bd
00000010: f63f acbd 94f4 20be 68dc 9abe d860 7b3d
00000020: dda4 e33c e0fc 89bd 963c 163d e380 51bc
00000030: 8b67 c6bc dc8f c6bb ba3c 8dbd 49e7 e2bc
00000040: ab27 8abd d429 5dbd 4bf1 5abe addf 503e
00000050: 0dc8 713e c5ea 8b3e c54f 6f3e 6702 bf3b
00000060: ea6d b23d 1126 c23e 7e21 20be e6d0 13be
00000070: 0c9a a7bc 2522 923d e82c 2dbe 3945 3d3c
00000080: c5f2 fbbc e1c2 3ebc 6570 de3e dbc0 1ebd
00000090: b998 f03d de9d 87be 452f b1be 376f a43e
000000a0: 3375 a8bd 9468 77bd 1403 a7be 5120 a33e
000000b0: 19e5 1dbe 2f45 0e3e 14a4 74bd 6595 bf3c
000000c0: 0f21 773d 5271 283e d71a 11be d7ec 733e
000000d0: 841a 4d3e cd5e a1bc 294a 93bc 5244 d9bd
000000e0: d995 95bd 636a d53d 122d 3f3e 7ba9 0d3e
000000f0: 4ca8 513e d900 a1bc 087f a13d dfe9 cabd
00000100: 9dd8 423e 2ca7 003e 8d21 59be b63b 063e
00000110: c3dd b3bc 8570 d2bb fa72 79be 99c8 04be
00000120: aceb 553d 5572 cb3d 4cfc 5c3d 5c04 afbe
00000130: 51d8 14be 49f7 98be dfc6 a8be 7dd3 abbc
00000140: 0eac 78be e834 37be 0481 463e d1b9 25bd
00000150: c3de 7ebe f7c1 123c be3e a43d 1753 5fbe
00000160: 1378 d2bc 49cf bd3c 868f 153e fcf1 d13d
00000170: 69b6 53be 8b7e 35bb 1888 4fbe 376d 4e3e
00000180: de1d bf3c 4a67 533e 019d a13d 4551 ee3c
00000190: b2ef 6cbe 87d2 a7be 99c4 4fbe ef15 8dbd
000001a0: 54b9 75be 4c9d fabd 8d60 293e 9f77 273e
000001b0: 2cb6 1dbe 8535 233b 914f 2a3e 3773 553e
000001c0: ea8b 993d f1b9 2b3e 1a36 26be 0cc5 ab3d
000001d0: 4e5b 05bd b07b 4bbe 9425 2f3e b2f0 28be
000001e0: f792 083d 98cd 0dbe 6210 39be f517 0e3d
000001f0: 978c d4bd 85f0 953d 4533 c5be c604 f63d
00000200: 89f2 fe3d ae48 1bbd f843 3cbe 25df 413e
00000210: 6338 00bd 82ec 0a3e 88f7 37be f6d6 68be
00000220: 7a27 e8bd 9dfc 253d 74f4 5d3d 701b 9c3e
00000230: 0922 123e c6cc 6f3e 7d09 773e f005 1a3e
00000240: 92d7 023f 4ab3 ce3e bc42 0bbe add6 26be
00000250: 8d48 573d 6510 51be 23dd 55bd 07f8 8bbd
00000260: abf6 07be 355a aebd bad9 ac3e dfde ccbd
00000270: 6679 b5be 3cff 41be 30d8 69be 033c 393e

encoder.lstm.weight_hh_l0_reverse f4 [80, 20]
0.30905083 -0.13316683 0.013283882 -0.0563245 -0.27075315 -0.10368792 0.12392255 0.11511135
0.04635774 0.11089311 -0.049149867 -0.19979805 -0.3777107 0.06485323 -0.07880437 -0.2802179
-0.06667055 -0.16217034 -0.029798284 0.0037476805 0.3236566 -0.14444877 0.5499533 0.19889955
-0.07978755 -0.42542234 -0.12764774 -0.07833437 0.12807266 0.39315638 -0.03107849 0.04463664
0.29889202 0.09931435 -0.09051408 -0.5032088 -0.029554842 -0.4061604 0.34629437 0.32248193
0.0075679133 -0.08487442 -0.18294376 0.11987917 -0.05360723 0.32453883 0.030279797 0.24981175
0.10121763 0.320192 -0.5627618 0.1650861 -0.12344815 -0.038225133 0.19553216 0.26539958
0.11865275 -0.27148786 0.13332751 -0.3635251 -0.1999598 -0.04766112 0.564723 0.09598091
0.1083582 -0.44788334 -0.23346893 -0.1124404 0.13375418 0.4413529 -0.3073217 -0.10442241
0.5724928 0.19827971 -0.23125216 0.10674083 -0.011241033 -0.88054967 -0.15953605 -0.48229405
0.033273276 -0.14284416 0.18461712 0.31854266 -0.109751955 -0.4007605 0.14415145 -0.074360386
-0.12894349 0.31081358 -0.03693082 -0.09213107 -0.09233893 -0.2136222 0.13966537 -0.1421668
0.15044883 -0.24673422 -0.01169369 -0.30518046 -0.18286945 -0.50817055 0.090624 -0.026961314
-0.029750329 0.27824277 0.1171524 0.34672308 0.04838037 0.21657199 0.07773976 0.1309814
-0.121028334 -0.23198397 0.024311222 0.07477528 0.09386471 0.012483852 0.22914298 0.22098526
-0.051082768 -0.2215692 0.47485363 0.45072097 -0.43667087 -0.03086547 0.13307181 0.09689654
0.1367683 0.401196 -0.3023285 -0.21574691 -0.20361254 0.079510935 0.08917664 -0.061748736
0.11559489 0.097326435 -0.076425776 0.0033637707 -0.07993958 -0.21651481 0.09414572 0.24122417
0.06829875 -0.21999864 0.006460967 0.063329846 0.04223994 0.23162837 -0.109359995 0.3192803
0.120356 0.06937203 -0.10295886 0.023171574 -0.24410067 -0.4506344 0.26621342 0.4186728
0.08650947 -0.078014456 0.14258789 0.065039046 -0.13567652 0.24812084 -0.09027532 -0.03240629
-0.06990342 -0.036076825 -0.37765878 -0.0067598545 -0.2950582 0.06335695 0.17989412 -0.0123807145
0.22516 -0.18127526 0.20448558 0.21190055 0.19032374 -0.16333483 0.068931766 0.10250116
-0.28451496 0.1843345 0.24087982 0.24146684 0.17984745 0.10386833 -0.17318667 0.104733124
-0.37343913 0.04101065 0.041543074 -0.08130721 -0.08102479 0.039153542 0.1993476 -0.19401442
0.0018640915 -0.46275693 -0.11484751 0.06505681 0.1302253 -0.006751052 0.388509 0.18395495
0.15933563 0.11382299 -0.13881995 -0.2557699 -0.010480697 -0.22687349 0.101854034 0.13048705
-0.32921413 0.3034689 0.08605549 -0.11510956 0.028357238 0.2646811 -0.038704216 -0.14472502
-0.110345475 0.21067017 -0.261711 -0.047025517 -0.16963044 0.28687415 -0.26035333 0.023746181
-0.27317217 -0.0044101207 -0.019864919 0.012773523 -0.1212174 -0.25709805 0.102394946 -0.38058078
0.16416776 -0.40297514 0.31806055 0.31074238 -0.21694246 0.02203164 0.34473005 0.31188637
0.2942688 0.12349929 -0.23481877 0.1206901 0.078010835 -0.12030346 0.043228082 -0.099436
00000000: e93b 9e3e e35c 08be a4a4 593c 85b4 66bd
00000010: 28a0 8abe 555a d4bd 1bcb fd3d 80bf eb3d
00000020: 9de1 3d3d ed1b e33d 5f51 49bd dc97 4cbe
00000030: 4c63 c1be c5d1 843d 2f64 a1bd b878 8fbe
00000040: 928a 88bd fb0f 26be 881b f4bc a59b 753b
00000050: 51b6 a53e 61ea 13be bdc9 0c3f 53ac 4b3e
00000060: a867 a3bd f5d0 d9be 17b6 02be c56d a0bd
00000070: 7b25 033e cb4b c93e 5198 febc e9d4 363d
00000080: 6008 993e 5265 cb3d 725f b9bd 4bd2 00bf
00000090: ff1c f2bc 42f4 cfbe 7f4d b13e 5a1c a53e
000000a0: 42fc f73b a4d2 adbd 9c55 3bbe 3683 f53d
000000b0: 4193 5bbd f429 a63e 560d f83c a7ce 7f3e
000000c0: 304b cf3d 35f0 a33e 2811 10bf 550c 293e
000000d0: 62d2 fcbd f591 1cbd 9539 483e 74e2 873e
000000e0: 3700 f33d 7500 8bbe 0287 083e f61f babe
000000f0: 43c2 4cbe 4e38 43bd b091 103f a491 c43d
00000100: e7ea dd3d f750 e5be 7b12 6fbe 2747 e6bd
00000110: dbf6 083e 02f9 e13e 4559 9dbe 6bdb d5bd
00000120: e38e 123f d609 4b3e 5ecd 6cbe f09a da3d
00000130: 4f2c 38bc b46b 61bf 6b5d 23be 3fef f6be
00000140: 8f49 083d bd45 12be 450c 3d3e 0618 a33e
00000150: a2c5 e0bd 7b30 cdbe 709c 133e 424a 98bd
00000160: c309 04be f522 9f3e c644 17bd 37af bcbd
00000170: 311c bdbd c7bf 5abe 7004 0f3e 2c94 11be
00000180: 420f 1a3e e5a7 7cbe e496 3fbc 9d40 9cbe
00000190: 2142 3bbe 7717 02bf 1399 b93d f9dd dcbc
000001a0: f6b6 f3bc d675 8e3e 99ed ef3d b085 b13e
000001b0: 7f2a 463d 0cc5 5d3e 0636 9f3d fd1f 063e
000001c0: b4dd f7bd 358d 6dbe 5428 c73c c823 993d
000001d0: 243c c03d 1289 4c3c 75a4 6a3e f649 623e
000001e0: 2a3c 51bd 09e3 62be 0420 f33e e6c4 e63e
000001f0: 5393 dfbe 95d9 fcbc fa43 083e b171 c63d
00000200: fd0c 0c3e 9069 cd3e cdca 9abe c2ec 5cbe
00000210: ce7f 50be a1d6 a23d 3ea2 b63d 3eec 7cbd
00000220: 04bd ec3d 1553 c73d 1e85 9cbd b572 5c3b
00000230: 5db7 a3bd 0fb6 5dbe 79cf c03d 7803 773e
00000240: 37e0 8b3d 5347 61be 85b6 d33b 14b3 813d
00000250: ca03 2d3d fd2f 6d3e 22f8 dfbd b578 a33e
00000260: 357d f63d ec12 8e3d 18dc d2bd 50d2 bd3c
00000270: 87f5 79be 8db9 e6be 204d 883e 485c d63e
00000280: e12b b13d 0bc6 9fbd 8f02 123e 3133 853d
00000290: c9ee 0abe 6413 7e3e 44e2 b8bd 75bc 04bd
000002a0: 8629 8fbd 4bc5 13bd 7e5c c1be c581 ddbb
000002b0: de11 97be 4ac1 813d 2a36 383e 7bd8 4abc
000002c0: 5890 663e 39a0 39be ab64 513e 75fc 583e
000002d0: 3ae4 423e 3f41 27be 192c 8d3d 21ec d13d
000002e0: f2ab 91be 2fc2 3c3e 33a9 763e 1543 773e
000002f0: ee29 383e ebb8 d43d d957 31be 527e d63d
00000300: 6a33 bfbe c9fa 273d 1229 2a3d 6584 a6bd
00000310: 53f0 a5bd 775f 203d c721 4c3e b7ab 46be
00000320: 8854 f43a 7aee ecbe 2c35 ebbd 813c 853d
00000330: c859 053e ee37 ddbb a7ea c63e b05e 3c3e
00000340: e128 233e 071c e93d d126 0ebe 46f4 82be
00000350: 3bb7 2bbc 8651 68be d998 d03d 669e 053e
00000360: c18e a8be 4760 9b3e dc3d b03d 90be ebbd
00000370: 704d e83c 4884 873e 5088 1ebd cc32 14be
00000380: cffc e1bd ecb9 573e fcfe 85be d49d 40bd
00000390: 9ab3 2dbe 2be1 923e 084d 85be 5a87 c23c
000003a0: 39dd 8bbe c682 90bb c1bb a2bc 0a48 513c
000003b0: d440 f8bd 5ba2 83be 71b4 d13d 7cdb c2be
000003c0: 981b 283e c252 cebe d5d8 a23e a019 9f3e
000003d0: 2a26 5ebe b37b b43c 7580 b03e 92af 9f3e
000003e0: 66aa 963e 32ed fc3d 5574 70be 5f2c f73d
000003f0: 25c4 9f3d a961 f6bd ee0f 313d 1aa5 cbbd

encoder.lstm.bias_ih_l0_reverse f4 [80]
0.02042603 -0.08148863 0.08351372 -0.12138694 0.12402144 -0.060644582 0.12396238 -0.0961759
0.29589948 0.1293941 0.072966315 0.31147957 -0.14813165 0.26400065 0.26864815 0.090789884
0.18314184 0.012333027 0.022226244 0.33291173 0.36400068 0.11189652 0.12901397 0.19614525
-0.13943708 0.17263137 0.06243367 0.09181508 0.054041997 0.12068717 -0.075483195 0.045034185
0.14102401 0.026187409 0.35047418 -0.0039498084 0.22002737 0.3940646 0.101922065 0.18376403
0.20770976 -0.037185803 0.02605021 -0.12573764 -0.20507535 0.1470746 0.09240119 0.15284863
0.07873267 -0.019536152 -0.2624233 0.07468538 -0.0125289885 -0.047769107 -0.071748994 -0.047846947
-0.08853763 -0.18691783 0.19919 0.14248945 0.17605172 0.16511041 0.42318952 0.23117213
0.30086187 0.10360716 0.39768842 0.35411447 0.06101245 0.20700313 -0.051552754 -0.010114841
0.0042974455 0.03635893 0.34751865 0.100484505 0.23311059 0.2681285 0.22291438 0.22772676
00000000: 7d54 a73c 83e3 a6bd 3e09 ab3d b799 f8bd
00000010: f4fe fd3d 7466 78bd fddf fd3d dff7 c4bd
00000020: 2380 973e e37f 043e 5d6f 953d 407a 9f3e
00000030: d3af 17be 182b 873e 408c 893e 0cf0 b93d
00000040: 8989 3b3e 7710 4a3c d013 b63c 6873 aa3e
00000050: 4c5e ba3e 012a e53d 3d1c 043e 4dda 483e
00000060: 98c8 0ebe 47c6 303e 73ba 7f3d 8b09 bc3d
00000070: 245b 5d3d d62a f73d ef96 9abd c475 383d
00000080: 9968 103e fa86 d63c 5a71 b33e 656d 81bb
00000090: db4e 613e d6c2 c93e 84bc d03d a32c 3c3e
000000a0: deb1 543e 2450 18bd 4067 d53c 5ec1 00be
000000b0: 46ff 51be b99a 163e d63c bd3d 5a84 1c3e
000000c0: 983e a13d 480a a0bc 595c 86be a6f4 983d
000000d0: 6346 4dbc 8aa9 43bd 23f1 92bd 29fb 43bd
000000e0: 3853 b5bd 6367 3fbe 77f8 4b3e c1e8 113e
000000f0: e746 343e b412 293e 4cac d83e 63b8 6c3e
00000100: 910a 9a3e fe2f d43d d19d cb3e 7e4e b53e
00000110: 31e8 793d a1f8 533e fb28 53bd b8b8 25bc
00000120: 96d1 8c3b 1aed 143d f7ed b13e d2ca cd3d
00000130: 8bb4 6e3e 2448 893e ab43 643e 3431 693e

encoder.lstm.bias_hh_l0_reverse f4 [80]
-0.026155792 -0.016436307 0.20802498 0.28454065 0.037300866 0.20672685 0.15016189 0.017873388
0.078401744 -0.10341221 -0.10080721 0.033964194 0.03552789 0.27819955 0.11630981 -0.036317743
0.1806329 0.25398225 0.1716663 0.057639107 0.32378894 0.15394355 0.29533812 0.48146355
-0.056877796 0.152804 0.2733976 -0.035405237 -0.020871447 0.11434774 -0.031928383 0.14956196
0.24489973 0.30658868 -0.00801831 0.16418767 0.033121385 0.25848395 0.078697294 0.30708548
0.10872556 0.015770448 0.03545984 -0.034816004 -0.24022108 -0.11865462 -0.12598386 0.114632644
0.15313415 0.11422159 -0.19272678 -0.030582005 -0.13608237 -0.18218553 0.00035418264 -0.009749636
0.06896264 -0.1102904 0.21637154 -0.049155474 0.22239783 0.43957174 0.15944776 0.37867266
0.041443545 0.22144018 0.04072629 -0.03903629 0.11817366 0.32102275 0.19838443 -0.029091068
0.0627465 0.29277718 0.2874937 0.15124395 -0.003058147 0.47427204 0.24869835 0.35928524
00000000: ac44 d6bc 6fa5 86bc 8004 553e 50af 913e
00000010: cbc8 183d 34b0 533e 0ac4 193e 366b 923c
00000020: 1891 a03d c8c9 d3bd 0374 cebd 0a1e 0b3d
00000030: b185 113d 2c70 8e3e d633 ee3d eac1 14bd
00000040: d5f7 383e f609 823e 4ac9 2f3e fc16 6c3d
00000050: aac7 a53e 61a3 1d3e 8f36 973e 6482 f63e
00000060: b1f8 68bd a778 1c3e c5fa 8b3e 1505 11bd
00000070: 99fa aabc 262f ea3d 56c7 02bd c526 193e
00000080: ffc6 7a3e 31f9 9c3e 3b5f 03bc d020 283e
00000090: 4aaa 073d 0258 843e 0c2c a13d 4f3a 9d3e
000000a0: 82ab de3d 0731 813c 563e 113d 3a9b 0ebd
000000b0: 84fc 75be 3201 f3bd ea01 01be 85c4 ea3d
000000c0: 33cf 1c3e 02ed e93d 2b5a 45be 1d87 fabc
000000d0: 2d59 0bbe d88e 3abe 97b1 b939 f0bc 1fbc
000000e0: 493c 8d3d efdf e1bd 8090 5d3e 4057 49bd
000000f0: 42bc 633e 8c0f e13e 4646 233e 62e1 c13e
00000100: b5c0 293d 37c1 623e 9cd0 263d 84e4 1fbd
00000110: 0805 f23d 185d a43e 4a25 4b3e 6450 eebc
00000120: 3d81 803d e4e6 953e 6032 933e b2df 1a3e
00000130: 316b 48bb c9d3 f23e c8aa 7e3e 3cf4 b73e

decoder.lstm.weight_ih_l0 f4 [160, 40]
0.07999112 -0.027763117 0.27810988 -0.24152242 -0.07678873 -0.08859866 0.016178904 -0.119691126
-0.059557397 0.20005873 -0.26934293 0.06737 -0.11606481 -0.060482185 -0.032289535 0.22344363
-0.099199876 0.27434936 0.08181433 0.20146644 0.08452873 -0.05351745 0.21550988 -0.45929605
-0.04084502 0.16478585 0.2700275 0.15923037 0.09233961 -0.15228859 -0.13217135 -0.054960858
0.0368487 -0.052048426 -0.0657874 -0.11780285 -0.15862653 -0.03837774 0.19185406 0.085567996
-0.2298576 0.0730866 -0.060313955 -0.13753429 0.13116513 0.11454691 -0.08094123 -0.058784932
-0.09394422 -0.13123463 -0.21723352 0.039589852 0.12483444 0.117826864 -0.098378114 0.18427809
0.037226897 -0.17040733 -0.09117292 -0.04774976 0.29437664 -0.2629362 0.229491 -0.15142779
-0.0015566457 0.0518216 0.14499825 0.13210079 0.014706327 -0.1586688 0.04645434 0.19688442
0.12610024 -0.019067654 -0.088612296 -0.13498892 -0.27392828 0.052782252 0.20987466 0.26727265
-0.080025546 -0.1271174 0.09667826 0.11149968 -0.012992241 -0.122364216 -0.029156877 -0.041628886
0.062505886 -0.17203543 -0.009136554 -0.052293908 0.029059328 0.11584049 -0.14477424 0.09606417
0.081060804 -0.089099795 -0.0988211 -0.058590557 -0.06639402 -0.07866299 0.053551074 0.038696278
0.1032854 0.13973154 -0.051388167 -0.010690864 -0.08429859 -0.053212464 -0.016648525 0.055319406
-0.055462614 0.08113376 -0.03877327 0.04151392 -0.12631646 0.0101436805 0.1978796 -0.02412825
-0.13507019 0.053211816 0.06822525 -0.19935171 -0.095676735 -0.22905168 0.04375718 -0.09105903
-0.111651674 0.092194796 0.051467396 -0.13111776 0.16374701 -0.027557788 0.23433822 0.046458315
-0.0063113417 -0.08670891 0.07916976 -0.066918366 -0.04212855 -0.09575618 0.15833066 0.21589856
-0.1360467 -0.010197781 -0.019899199 0.18836427 0.030195324 -0.060649827 -0.07960819 -0.09062445
0.13884607 -0.14859925 -0.192804 0.06572545 -0.047980852 -0.19983053 -0.020649165 -0.013365073
0.028253298 -0.027908374 0.22832817 0.014265306 0.063471794 -0.03387049 -0.14860758 -0.10442871
0.10961723 -0.053360246 -0.13221388 -0.103538804 0.082168594 -0.08467613 -0.005424572 0.11677795
0.104442395 0.17551906 -0.009499709 0.029978618 -0.10340461 -0.067380525 0.026538907 -0.06382665
-0.15646964 0.17401135 0.0379244 0.16221301 0.07994852 0.00888133 -0.020829909 -0.061436128
-0.09960635 -0.1961396 -0.05450574 -0.023244629 -0.08649065 0.20018277 -0.070818394 0.14426012
-0.050657816 -0.008337597 -0.03836054 0.099303454 0.055333946 0.026600404 -0.011691126 -0.011510986
-0.017183043 0.068579 -0.17355289 -0.14611149 0.00167849 -0.20467165 0.007234361 0.2548338
-0.15153942 -0.08882417 -0.017624283 -0.08357939 -0.087884955 -0.20484436 0.1221562 0.30829468
0.1350507 -0.035090063 0.08560548 0.05924568 -0.0816612 -0.16141967 -0.04969194 -0.04673617
0.22189957 -0.18969779 -0.07778019 0.090586156 -0.09373578 -0.17136416 0.06935584 0.13452962
0.25351897 -0.09934351 -0.05459329 -0.15692072 0.066899665 0.25878373 0.034582265 0.04436519
0.005719132 0.09333954 -0.11040716 -0.049343187 0.08632194 0.11727846 0.08294647 0.13641657
00000000: 62d2 a33d 7a6f e3bc 6b64 8e3e a751 77be
00000010: 6943 9dbd 3773 b5bd 9f89 843c 9f20 f5bd
00000020: 75f2 73bd 32dc 4c3e 51e7 89be 48f9 893d
00000030: 63b3 edbd 2bbc 77bd 0842 04bd 68ce 643e
00000040: 4e29 cbbd 8577 8c3e 458e a73d 384d 4e3e
00000050: 661d ad3d 1d35 5bbd 9fae 5c3e da28 ebbe
00000060: 1c4d 27bd 9fbd 283e 0b41 8a3e 490d 233e
00000070: 8d1c bd3d 8af1 1bbe ed57 07be a31e 61bd
00000080: aaee 163d bb30 55bd 8bbb 86bd 9f42 f1bd
00000090: fe6e 22be fa31 1dbd 6475 443e 463e af3d
000000a0: ca5f 6bbe 6dae 953d c40b 77bd cad5 0cbe
000000b0: 2750 063e 9297 ea3d 84c4 a5bd 78c8 70bd
000000c0: d465 c0bd 5f62 06be 7772 5ebe f828 223d
000000d0: 33a9 ff3d 364f f13d 777a c9bd 65b3 3c3e
000000e0: 3b7b 183d 427f 2ebe deb8 babd 4195 43bd
000000f0: 89b8 963e 939f 86be b0ff 6a3e e30f 1bbe
00000100: 5d08 ccba e342 543d 6c7a 143e 6e45 073e
00000110: cef2 703c 137a 22be e846 3e3d 129c 493e
00000120: 6c20 013e c533 9cbc 5d7a b5bd 893a 0abe
00000130: 5440 8cbe 3432 583d 62e9 563e f6d7 883e
00000140: 6fe4 a3bd 102b 02be 40ff c53d f259 e43d
00000150: 69dd 54bc 179a fabd 67da eebc 0d83 2abd
00000160: 1603 803d 0e2a 30be 7cb1 15bc 2332 56bd
00000170: d40d ee3c c73d ed3d b33f 14be 4bbd c43d
00000180: 3503 a63d f479 b6bd b862 cabd a7fc 6fbd
00000190: 97f9 87bd 101a a1bd 5f58 5b3d fd7f 1e3d
000001a0: 4c87 d33d c915 0f3e 667c 52bd bc28 2fbc
000001b0: bda4 acbd 50f5 59bd 7d62 88bc 9a96 623d
000001c0: c42c 63bd 7529 a63d b8d0 1ebd 800a 2a3d
000001d0: 1a59 01be ae31 263c f3a0 4a3e 9ca8 c5bc
000001e0: d74f 0abe a2f4 593d aeb9 8b3d db22 4cbe
000001f0: 2af2 c3bd 868c 6abe bb3a 333d 287d babd
00000200: a2a9 e4bd a0d0 bc3d 7acf 523d bc43 06be
00000210: 4cad 273e dfc0 e1bc 5cf6 6f3e 134b 3e3d
00000220: 5fcf cebb 7194 b1bd c123 a23d 7f0c 89bd
00000230: fd8e 2cbd d11b c4bd 6f21 223e 8314 5d3e
00000240: d34f 0bbe 9814 27bc a503 a3bc 90e2 403e
00000250: 2f5c f73c f46b 78bd 9e09 a3bd 5099 b9bd
00000260: aa2d 0e3e 672a 18be 696e 45be 119b 863d
00000270: 9287 44bd 60a0 4cbe 7028 a9bc 2ef9 5abc
00000280: 7673 e73c 1aa0 e4bc dcce 693e 08b9 693c
00000290: 80fd 813d c8bb 0abd 962c 18be b8de d5bd
000002a0: 007f e03d 4690 5abd 1363 07be 270c d4bd
000002b0: 0248 a83d ae6a adbd 9cc0 b1bb 4729 ef3d
000002c0: e5e5 d53d 45bb 333e aba4 1bbc b895 f53c
000002d0: ccc5 d3bd cdfe 89bd 1f68 d93c 8cb7 82bd
000002e0: 9439 20be 0830 323e 9e56 1b3d 2b1b 263e
000002f0: 0dbc a33d ff82 113c 7ca3 aabc 73a4 7bbd
00000300: 6afe cbbd d2d8 48be 6941 5fbd 856b bebc
00000310: 0322 b1bd b6fc 4c3e 3c09 91bd edb8 133e
00000320: 927e 4fbd 6b9a 08bc f11f 1dbd 9c5f cb3d
00000330: d9a5 623d 17e9 d93c 238c 3fbc 9398 3cbc
00000340: 74c3 8cbc 2673 8c3d d9b7 31be 409e 15be
00000350: c700 dc3a 7295 51be 380e ed3b 9379 823e
00000360: 262d 1bbe 72e9 b5bd cd60 90bc ac2b abbd
00000370: 07fd b3bd b8c2 51be 082d fa3d cdd8 9d3e
00000380: bb4a 0a3e 99ba 0fbd ed51 af3d 99ab 723d
00000390: fd3d a7bd 334b 25be c789 4bbd 6d6e 3fbd
000003a0: a439 633e 2340 42be 384b 9fbd 3c85 b93d
000003b0: 8bf8 bfbd 167a 2fbe 6f0a 8e3d 22c2 093e
000003c0: 3dcd 813e 9c74 cbbd 379d 5fbd d3af 20be
000003d0: b102 893d 4d7f 843e 22a6 0d3d 46b8 353d
000003e0: 8e67 bb3b cd28 bf3d 261d e2bd 151c 4abd
000003f0: 8fc9 b03d b02f f03d d7df a93d c9b0 0b3e

decoder.lstm.weight_hh_l0 f4 [160, 40]
0.051632654 -0.013157529 0.004040643 -0.17385069 -0.16678813 -0.15647012 -0.024289824 0.0034203727
-0.032886785 0.0038849497 0.10920364 -0.22345525 0.20144175 0.10174786 0.14340782 -0.06577455
-0.1537834 0.1471168 -0.12227756 -0.10907727 -0.10185092 0.19427738 0.07161283 0.14138275
0.12708853 0.15751636 -0.14309384 0.015748402 0.13392107 0.12299838 0.0022857361 0.16444436
-0.008214347 0.14336708 0.16834855 -0.31592244 -0.17122646 0.07391276 -0.05403079 -0.105075985
-0.08924098 -0.046282176 -0.040905084 0.10594363 -0.10082334 0.02887501 -0.13754554 -0.065856665
0.125163 -0.0069474345 -0.12427105 0.049464613 0.01873179 -0.019279111 -0.073288955 -0.040852748
-0.10957985 0.16486146 0.04444103 0.0019802127 0.0829355 0.047435306 0.007609309 -0.012159497
0.17847744 0.018410679 0.2031034 0.30509287 0.07421941 0.4128965 0.11401026 -0.09790861
-0.07492146 0.20744683 -0.14401074 -0.21779852 0.054290947 0.0055677495 -0.050944135 -0.046404473
-0.096188314 0.10391915 0.16223545 -0.1513457 -0.15146007 0.18364543 -0.15224375 -0.047993943
0.007098273 0.012546908 0.014938623 -0.014514175 -0.09192157 0.09153636 0.117736064 -0.16871442
-0.04554697 0.18864988 0.08704118 -0.0719992 0.07942727 0.1415806 -0.05239101 -0.14809501
-0.042621467 -0.026433125 0.12369831 0.10994382 -0.1432131 0.0023386977 -0.059683863 0.056250803
-0.15375562 0.018899761 -0.10618257 -0.23234703 0.012026705 -0.0610845 0.06940234 0.015577373
0.02168845 0.00047977347 0.008156332 0.046233077 -0.016031986 0.004433463 -0.28836623 -0.05925304
-0.08508818 0.08245294 -0.05982406 -0.037510555 -0.011847489 -0.12975407 0.13363086 0.06126292
0.12966724 0.030897195 -0.16389276 0.047945853 0.0012335588 -0.07484697 0.26040664 -0.020735703
0.12022278 0.064802244 0.35187247 0.37244073 -0.16790165 0.3663636 0.063385636 0.011509122
-0.01076342 -0.009952072 -0.06909883 -0.14594388 -0.007306881 0.0743646 0.10988502 -0.16345927
0.17181155 -0.04920556 -0.15393934 -0.10157369 0.032300204 0.16759385 0.034659192 0.0021056568
-0.05134093 0.15861468 -0.14832368 0.015216315 0.029998412 0.020524152 0.020407714 0.10852358
0.00029544215 -0.047148008 -0.14862572 -0.07217809 0.07569167 -0.107643485 0.02751236 0.15577929
-0.18088266 0.11785733 0.06078594 -0.04032896 0.16798152 0.15203975 0.034027033 -0.15179467
0.030892352 0.042276654 -0.0010978795 -0.09042449 0.034769174 0.039410897 0.065078184 -0.10561473
-0.00830417 -0.17331292 -0.14076658 -0.19535817 -0.20883264 0.1343899 -0.28258786 0.03196347
0.083316654 -0.12745705 0.06519157 -0.04541626 0.0044128094 -0.22948839 0.05258176 -0.027780332
0.18728112 0.08662516 0.01925451 -0.1765709 -0.14333726 0.21375313 0.06184307 -0.19309984
0.049200267 -0.0005187556 0.11961526 0.33436435 -0.0057842075 0.3616787 -0.075275235 -0.045835618
-0.054229133 0.16767348 0.068889126 -0.23058446 0.06412992 0.13126843 0.047539644 0.022382509
0.18236585 -0.046386335 0.054396007 -0.18000475 -0.08545493 0.09721014 0.035566464 -0.14594561
0.14146039 -0.008394174 -0.022625742 -0.104558654 0.06097089 -0.13759308 -0.08793997 -0.057686243
00000000: c37c 533d ad92 57bc 5f67 843b ea05 32be
00000010: 82ca 2abe b439 20be 74fb c6bc 5528 603b
00000020: 4bb4 06bd a49a 7e3b 28a6 df3d 74d1 64be
00000030: bf46 4e3e 2f61 d03d 80d9 123e cfb4 86bd
00000040: 6579 1dbe c9a5 163e a86c fabd e763 dfbd
00000050: 3797 d0bd a6f0 463e bfa9 923d a4c6 103e
00000060: 7f23 023e f84b 213e 3187 12be cb02 813c
00000070: 9b22 093e 93e6 fb3d 4acc 153b 1a64 283e
00000080: 7895 06bc d2ce 123e 9063 2c3e 96c0 a1be
00000090: fd55 2fbe 935f 973d 644f 5dbd 1432 d7bd
000000a0: fac3 b6bd 6192 3dbd 178c 27bd f9f8 d83d
000000b0: 787c cebd 498b ec3c bdd8 0cbe dcdf 86bd
000000c0: bb2a 003e 4ea7 e3bb d281 febd 689b 4a3d
000000d0: 6973 993c 3aef 9dbc 8518 96bd 3655 27bd
000000e0: 676b e0bd 71d1 283e cc07 363d 75c6 013b
000000f0: 16da a93d 864b 423d 8357 f93b a038 47bc
00000100: cac2 363e fed1 963c 56fa 4f3e 2235 9c3e
00000110: 5900 983d 2c67 d33e 367e e93d 4f84 c8bd
00000120: 6c70 99bd f16c 543e 8d77 13be 9306 5fbe
00000130: 2f60 5e3d ab71 b63b ccaa 50bd 9e12 3ebd
00000140: 61fe c4bd 90d3 d43d 0d21 263e 5efa 1abe
00000150: 5918 1bbe 8c0d 3c3e c9e5 1bbe 4c95 44bd
00000160: a198 e83b 8c91 4d3c 20c1 743c ddcc 6dbc
00000170: 6041 bcbd 6a77 bb3d 9b1f f13d 79c3 2cbe
00000180: 768f 3abd 6f2d 413e a542 b23d 5174 93bd
00000190: c4aa a23d 81fa 103e f597 56bd 38a6 17be
000001a0: d993 2ebd 488a d8bc 8a55 fd3d 3a2a e13d
000001b0: 74a6 12be d644 193b 1177 74bd 3e67 663d
000001c0: 1d72 1dbe acd3 9a3c 3f76 d9bd 61ec 6dbe
000001d0: a80b 453c be33 7abd d022 8e3d 3d38 7f3c
000001e0: faab b13c 1b8a fb39 23a2 053c e55e 3d3d
000001f0: 8355 83bc 9546 913b bda4 93be 51b3 72bd
00000200: b642 aebd 16dd a83d 130a 75bd aba4 19bd
00000210: f81b 42bc 40de 04be 87d6 083e d4ee 7a3d
00000220: 7dc7 043e 1d1c fd3c 81d3 27be df62 443d
00000230: 5daf a13a 5e49 99bd 0554 853e ecdd a9bc
00000240: 5c37 f63d 0ab7 843d a128 b43e 8db0 be3e
00000250: 69ee 2bbe 0394 bb3e 54d0 813d c290 3c3c
00000260: 0e59 30bc 040e 23bc b083 8dbd 5072 15be
00000270: 8f6e efbb 784c 983d 660b e13d de61 27be
00000280: 5eef 2f3e c58b 49bd 46a2 1dbe de05 d0bd
00000290: 384d 043d b99d 2b3e ccf6 0d3d 0fff 093b
000002a0: de4a 52bd e36b 223e 2ae2 17be da4d 793c
000002b0: 3bbf f53c 4422 a83c 142e a73c 9c41 de3d
000002c0: 93e5 9a39 451e 41bd 5731 18be 1bd2 93bd
000002d0: 3c04 9b3d 3074 dcbd 9a61 e13c 9b84 1f3e
000002e0: 4e39 39be 2f5f f13d aefa 783d fb2f 25bd
000002f0: 5903 2c3e 4fb0 1b3e ee5f 0b3d 1070 1bbe
00000300: f511 fd3c 492a 2d3d b9e6 8fba 7a30 b9bd
00000310: 1f6a 0e3d 526d 213d b647 853d 894c d8bd
00000320: 370e 08bc f178 31be 1d25 10be f90b 48be
00000330: 39d8 55be 829d 093e 5baf 90be 21ec 023d
00000340: eca1 aa3d 1a84 02be 2883 853d 6606 3abd
00000350: 5499 903b 01ff 6abe f95f 573d 9493 e3bc
00000360: 9fc6 3f3e 8868 b13d a2bb 9d3c 01cf 34be
00000370: 01c7 12be 1ae2 5a3e 294f 7d3d f7bb 45be
00000380: 3886 493d 19fd 07ba d8f8 f43d ce31 ab3e
00000390: 7389 bdbb f32d b93e e729 9abd 21be 3bbd
000003a0: 5e1f 5ebd 99b2 2b3e be15 8d3d 551e 6cbe
000003b0: 8c56 833d 3b6b 063e eeb8 423d 865b b73c
000003c0: 1dbe 3a3e 99ff 3dbd 59ce 5e3d 2a53 38be
000003d0: ff02 afbd 1c16 c73d 24ae 113d c472 15be
000003e0: feda 103e b887 09bc 9f59 b9bc d922 d6bd
000003f0: 9dbc 793d 33e5 0cbe df19 b4bd 6948 6cbd
