models/104-seed-100-synctwin_lss_no_lasso/itr-0-nsc.pth-testing.pth (torch, 399581 bytes, 20 tensors)

B f4 [400, 200]
00000000: 17b7 d138 fe70 973f e91c be3f 79cc 4c3e
00000010: 5a5f 65bf fb53 a540 3d5e 51bf b970 31bf
00000020: d950 e03e b71a 84bf a308 853b 50d9 773d
00000030: 83a7 38bf 4712 09bf 01a5 ea3f 3936 40bf
00000040: dd85 c6be 756d df3f 58e4 25bf 79c7 b13e
00000050: 86d8 1e3f 2724 ec3f 15ca 09bf 42f1 1bbf
00000060: 4e0b 7fbf ce3b e5be adcb e93f 1890 8a3c
00000070: ccd5 65bf ae0b 28bf 3fc4 0e3e c2ce 803f
00000080: dc81 4fbf fec2 7b40 29e9 42bf 1235 a6be
00000090: d7b0 50bf 3510 4c3f 1477 61bf 335f 61bf
000000a0: a032 74bf 7a38 c0be 67ab 5c40 6d3c 9dbe
000000b0: 630f 0c3f 2b69 05be 9bae ea3f be02 fc3c
000000c0: a3a8 0cbf e2ab 5abf fb57 4340 9e3d 39bf
000000d0: 2452 4a40 65d8 09bf 8b0b 163f 9003 a7be
000000e0: 302a 7b3f b24e b9be b58d 76bf f48d b140
000000f0: a747 d13f 8edd 053e 9f92 a7be 4a9a 4ebf
00000100: f574 99bc 281b 00bf ff58 f0be f646 37bf
00000110: 0ace 25bf ebe0 fbbe 567f d13e dcaf 803e
00000120: 8213 72bf 215a 2fbf 082f 1640 43bf 49be
00000130: f333 f8be f07b 43bf 34a2 0cbf 65f7 31bf
00000140: b4ba 7b40 6bcf ebbd b5b9 1140 0a49 4fbf
00000150: de84 7fbf a51b 0040 55b5 e93e e323 ac40
00000160: 39f9 14bf 69a1 39bf 8a62 10bf e046 12bf
00000170: 75d2 72be f825 67bf a706 8c3f a9e4 3cbf
00000180: efe6 923e 0090 51bf 25e0 c5be ae43 bebe
00000190: 57b2 26bf cd70 a540 eaeb 01bf 97af a3be
000001a0: c315 26bf 7bbf 22bf 8c54 32bf 8402 66bf
000001b0: 9e82 f7bc 11d1 2f40 e2ca 183f 030d 233e
000001c0: 640f ef40 8f97 f140 c177 143e b8d7 5cbf
000001d0: aa5b 3fbf f79e f5bb 58fe 13bf 2e64 a940
000001e0: 72bd 1fbe 63db 7440 61a6 4340 bb89 adbd
000001f0: 578c 233f bc1c 863e bff0 56bf bb2b 93bf
00000200: 989a 53bf 9d53 d23d ecda 6f40 a6e2 a03d
00000210: 9977 a43e b844 7840 6f26 773d 14e3 8dbf
00000220: 3191 37bf 07ab b8be 9518 f33c dd3a 3dbf
00000230: fda8 2bbf 08b5 c33e 7e34 1ebf 48dc 5ebf
00000240: 9889 183f ef3b 2dbf 2210 3dbf 780c 5fbf
00000250: a620 723f 6b7b 60bf 298b 2abf b325 b540
00000260: 5e6a 39bf 2283 c9be d92e 20bf 3379 9e3f
00000270: eaa8 8abe cc9e 66bf b7e2 0240 77f7 7fbf
00000280: d298 40bf 8bf5 4dbf 3ebb 20bf d845 1a40
00000290: cf67 2c3f b17e 40bf 2183 e63e c762 103f
000002a0: d2c6 ff3b 7628 8dbf 9959 323f 19da 8540
000002b0: f6b3 3fbf 138f 36bf 1d70 f53f 13a6 debe
000002c0: c181 47bf 1abf 3abf 2053 bf3e f5bf ce3e
000002d0: 5147 29bf 51d1 17bf be36 4a3e 03d1 4fbf
000002e0: 8c00 753e 6477 0240 c499 20bf bf40 d33f
000002f0: 9ec4 18bf 2137 2abf ad93 1fbf af91 3ebe
00000300: e038 c4be c96a 9cbe 01e8 c73e 5294 12bf
00000310: 159a 4abf f6a3 54bd 036e 533f 5d97 68bf
00000320: c95a 773f 17b7 d138 fa24 8fbf 0be9 803f
00000330: 2a8b babd 2ecd c5be 0194 7cbe 59e2 87bf
00000340: 03f6 89bf 3ea4 903f 11ac 8d3f 986c 98bf
00000350: 267f 2ebc 1bdc 7fbe 4466 5abf ffec 813f
00000360: 3285 a0bf 8de0 0340 f139 7bbf 661d 91bf
00000370: 345c debd 8c9a 68bf 702d 88bf 64ce 96bf
00000380: 2ca7 5c3f 60cb 89bf c3fc b63f 25b2 2340
00000390: 8c9b e13d 4a63 333f be21 82bf a83c e83f
000003a0: 0f64 f53e 8083 5640 560b 94bf f5c3 6fbf
000003b0: ba16 c8be 75f8 72bf 8585 8ebf 26fe 393e
000003c0: 8056 bdbe d7b2 a1bf a25c 0d40 09d0 7fbf
000003d0: 80d3 95bf 5c02 4b40 2691 1bbf c331 96bf
000003e0: 1af4 9cbf c62c 753f cbd8 9040 6a86 aebf
000003f0: 840f 8b40 8c6b 4940 f6a3 4240 211a 3640
1e-04 1.1831357 1.4852573 0.19999875 -0.8959862 5.1665015 -0.8178442 -0.69312626
0.43811682 -1.0320653 0.0040598675 0.06050998 -0.721306 -0.53543514 1.8331605 -0.7508274
-0.38774005 1.7455279 -0.6480155 0.34722498 0.6204914 1.8448533 -0.5382398 -0.60915005
-0.99626625 -0.4477219 1.8265282 0.016914412 -0.89779353 -0.6564282 0.1394205 1.0063097
-0.81057525 3.9337764 -0.76137024 -0.32462364 -0.81519836 0.7971223 -0.88072324 -0.8803589
-0.9538975 -0.37543088 3.4479616 -0.30710164 0.5471098 -0.130284 1.8334535 0.030763026
-0.5494482 -0.8541852 3.052245 -0.72359645 3.1612635 -0.53845817 0.58611363 -0.32619905
0.9811125 -0.36192852 -0.9630998 5.5485783 1.6349992 0.13072798 -0.3272905 -0.80704176
-0.018732527 -0.5004144 -0.469429 -0.7159265 -0.64767516 -0.49195036 0.40917462 0.2513417
-0.94561017 -0.684969 2.3466206 -0.19701867 -0.48477134 -0.7636099 -0.54935 -0.6951812
3.9332705 -0.11514171 2.2769597 -0.80970824 -0.99812114 2.0016873 0.45646158 5.3793807
-0.58192784 -0.7251192 -0.5640036 -0.57139397 -0.23713095 -0.9029231 1.093953 -0.7378641
0.28691813 -0.8186035 -0.3864757 -0.3716101 -0.65115875 5.1700196 -0.507506 -0.31969902
-0.64876956 -0.63573426 -0.6966026 -0.8984759 -0.03021365 2.7471354 0.59684575 0.15922932
7.4706287 7.549751 0.14498807 -0.8626666 -0.74749243 -0.0074957567 -0.5780997 5.293479
-0.15599611 3.8258903 3.05703 -0.084735356 0.63886017 0.26193798 -0.839611 -1.149772
-0.82657766 0.10269854 3.747737 0.0785573 0.32122496 3.8791943 0.060339388 -1.1084924
-0.7170592 -0.36067984 0.029674808 -0.73917943 -0.6705473 0.38224053 -0.61798847 -0.8705487
0.5958495 -0.67669576 -0.7385274 -0.871284 0.9458107 -0.8768832 -0.6661859 5.660852
-0.7242793 -0.3935786 -0.62571484 1.2380737 -0.27081996 -0.90086055 2.0450876 -0.99986976
-0.75233185 -0.80452794 -0.6278571 2.410513 0.673459 -0.75193316 0.45021918 0.5640072
0.0078056837 -1.1027973 0.69667965 4.1828732 -0.74883974 -0.71312064 1.9174839 -0.4348608
-0.77932364 -0.7294785 0.37368107 0.40380827 -0.66124445 -0.59303766 0.19747445 -0.811783
0.2392599 2.038537 -0.6273463 1.6504134 -0.59675014 -0.6649037 -0.6233471 -0.18610261
-0.38324642 -0.3055022 0.39044192 -0.5725757 -0.7914136 -0.051914178 0.8258974 -0.9085596
0.966229 1e-04 -1.1183159 1.0071119 -0.09108575 -0.38633102 -0.24665834 -1.0615951
-1.0778202 1.1300123 1.1068135 -1.190814 -0.010650432 -0.24986307 -0.85312295 1.015045
-1.2540648 2.0605805 -0.98135287 -1.1337097 -0.1085743 -0.9086082 -1.0638866 -1.1781735
0.86192584 -1.076519 1.4295887 2.557748 0.11015996 0.7007338 -1.0166547 1.8143511
0.479279 3.3517761 -1.156596 -0.9365838 -0.3907984 -0.94910365 -1.1134497 0.18163356
-0.36980057 -1.2632703 2.2087789 -0.9992681 -1.170517 3.172019 -0.60768354 -1.1733936
-1.2261994 0.95771444 4.526464 -1.363477 4.345644 3.1471891 3.0412574 2.8453448

encoder.attn_v f4 [40]
00000000: 3327 863f 4bc4 993f b626 843f 9bab 743f
00000010: 6f13 7f3f d4ac 8c3f 813e 8a3f 3a68 883f
00000020: 8275 8f3f 24c6 8d3f ab0a b03f e3fc 883f
00000030: f3a0 863f a197 823f a2aa 703f 05c6 8b3f
00000040: e2f3 ca3f e194 393f 8f59 863f abd3 623f
00000050: 72d0 413f 0dd3 323f adae e23f 86a0 553f
00000060: a4e6 873f 3b12 b83f cacd 953f 4f00 963f
00000070: 118f 913f df18 a73f 1b3f 613f c778 a43f
00000080: 75e4 493f 410e 923f 433b a43f 6973 583f
00000090: bc78 ae3f 2c5e 743f 1731 943f 85a8 483f
1.0480713 1.2013029 1.0324314 0.9557435 0.9963903 1.0990243 1.0800325 1.0656807
1.1207736 1.1076093 1.3753256 1.0702175 1.0517868 1.0202523 0.94010365 1.0919806
1.5855677 0.72492796 1.0496081 0.8860423 0.7570869 0.6985329 1.7709557 0.83448064
1.0617261 1.4380563 1.1703427 1.1718844 1.1371785 1.3054465 0.87986916 1.2849358
0.7886422 1.14106 1.2830585 0.845511 1.3630595 0.95456195 1.1577481 0.7838214

encoder.lstm.weight_ih_l0 f4 [80, 2]
00000000: 3935 53bd 60e7 773e d3a5 44be e26f 2d3d
00000010: ef71 6cbd 5a2c 273e cc2f 0cbe c6bc 10be
00000020: 0d0e f43c a1a2 4fbc 6450 e6bd fd18 e03d
00000030: b84b 183e 891f e13c ccba 053e e169 e53e
00000040: ac99 743c a4f1 d4bc 2ea6 3b3e 1c9f e23d
00000050: e9f2 d6bd 0d3f cb3d edf2 d53d 6a2d 823e
00000060: 2568 5cbe cbb6 1c3e 8114 4b3e 50ea 0c3e
00000070: 8cf9 38be c1a2 1d3e 5cd1 903d 641c 6a3d
00000080: cfb3 bc3c 854f fcbd dd67 51be 86db 0fbd
00000090: 13df 013e 18e7 17bc fd22 45bd 11b3 ab3e
000000a0: 1452 343d 1213 bcbd 28bc 3bbd d7f0 a13d
000000b0: 538c 62be f868 fabb edd3 9fbe 7a79 68bd
000000c0: 93ef a73e 5d14 143e e864 f43d d604 453e
000000d0: 74b3 99bd 37b2 2abd c557 403e 63ca 2f3e
000000e0: 6e2d 0f3e c64f af3c 170c cd3e 7532 b83e
000000f0: 4387 92be 071d 99bb 2421 873d f9b8 d93e
00000100: b85d 8f3c f355 243d 92d1 be3e 5463 383e
00000110: 2dec 83bc 48ab fcbd c2ef 22bd 028e 1b3e
00000120: 1121 aebe 8869 59bb 7343 65bd 7d31 a2bd
00000130: 5baa 7a3e 4b02 893c 61c9 1e3e 5d85 573e
00000140: 2f9d 0ebe 04c8 6d3e 483c 46be e747 b3be
00000150: bf91 c13d 42ac c4bd bef7 2c3b e766 803e
00000160: 9a53 1c3e e267 15be 9b15 59be 0bb1 7fbe
00000170: 2548 6a3c 152d 59be 9c42 95be 00d7 17be
00000180: c4c0 03be 2f69 753e fa90 89be 28ef 05be
00000190: 14cf f53d c4ce ca3d 919a 27be cd28 2dbe
000001a0: 4e1c b9bd 4496 8b3e 0eab 75be e653 a7bc
000001b0: 10ac 433e 15d7 043e 8789 89be 6709 44bc
000001c0: 702c f23d 3760 383e bdf7 8d3d 6ae5 243e
000001d0: 3d88 cb3d 99cd 8e3e f555 21bd 22d9 88bd
000001e0: 94bf 8dbd 1e50 883e 5822 e2bd a6a0 233d
000001f0: c2a8 aebe 8720 cebd 5138 debd 31d1 2dbc
00000200: 5515 563b 5f0a c33e 8a0e ccbd 96bb 30bd
00000210: 6bc4 15be 887a 113d 4c47 9b3e cef2 0e3f
00000220: ee26 883e e104 0b3d 30d1 0e3e 2526 e93e
00000230: 57e0 093d 7f6e 963d 6797 47be 0f9f a83d
00000240: cef2 78be 79f8 1fbe 6fff f23d 37ff e63d
00000250: ce0b 7e3e 0729 28be c66b 12be d02e 293e
00000260: 248a 4dbe 9225 8dbd f9ac 3ebe 5d8d cebd
00000270: 9fd4 1c3e 9b2b b33c e9f2 ff3d 728e a63e
-0.05156443 0.24209356 -0.19203882 0.042343028 -0.057725843 0.16325513 -0.13690108 -0.14134511
0.029791856 -0.012673051 -0.11245802 0.10942266 0.14872634 0.027480857 0.13059539 0.44807342
0.014929216 -0.02599413 0.18325111 0.11065504 -0.1049555 0.09924135 0.10446725 0.25425273
-0.21524103 0.15304105 0.1983204 0.13761258 -0.18063945 0.15394117 0.07071182 0.05715598
0.023034958 -0.12319855 -0.20449777 -0.035121463 0.12682752 -0.009271406 -0.04812907 0.33535054
0.04402359 -0.09183325 -0.045833737 0.07907265 -0.22123842 -0.007641908 -0.31216374 -0.056756474
0.32799968 0.14460893 0.11933309 0.19240126 -0.07504931 -0.041673865 0.18783481 0.17167048
0.13982174 0.021400344 0.40048286 0.35975996 -0.28618822 -0.00467265 0.06598118 0.42523935
0.017500743 0.04012103 0.37269264 0.1800664 -0.016103828 -0.12337357 -0.039779432 0.1519089
-0.34009603 -0.0033174474 -0.055972528 -0.079195954 0.24479048 0.016724726 0.15506507 0.21046968
-0.13927148 0.23220831 -0.19358933 -0.35015795 0.09451627 -0.09603168 0.0026392783 0.25078508
0.15266266 -0.1459041 -0.21199648 -0.2496988 0.014299427 -0.21208604 -0.2915238 -0.1482811
-0.12866503 0.23965906 -0.2686842 -0.13079512 0.12002388 0.09902719 -0.16367556 -0.16910096
-0.09038602 0.2726308 -0.23991033 -0.020425748 0.19108605 0.12972672 -0.26862738 -0.011965132
0.11824882 0.18005453 0.06932018 0.1610314 0.09938095 0.27891234 -0.039388616 -0.0668204
-0.06921306 0.26623625 -0.11041707 0.03994813 -0.34113127 -0.10064798 -0.10850585 -0.010608957
0.0032666523 0.3809385 -0.099637106 -0.043147646 -0.14625709 0.035517246 0.30327833 0.5583924
0.265922 0.0339402 0.13946986 0.45536914 0.033661213 0.07345294 -0.19491349 0.08233463
-0.24311373 -0.15622129 0.11865126 0.11279147 0.2480919 -0.164219 -0.14298925 0.16521764
-0.20072228 -0.068919316 -0.18620671 -0.10085557 0.15315484 0.021871379 0.12497503 0.32530552

encoder.lstm.weight_hh_l0 f4 [80, 20]
00000000: 7285 dbbb ccc4 c1bc 04a5 223d 1db1 1e3c
00000010: 63e2 22bd 3208 a3bd 6ea8 313e 7e81 9ebe
00000020: f2f8 f7bd 7d10 6dbe 5dd1 d23d 9e73 8b3c
00000030: dbe5 a1bd b0ee b63d ea0a 80be 7614 54be
00000040: cb7b 123d ca28 333e 5b89 a4bd 5a3d 22bd
00000050: 168d b7bc ff2e 68be a87d cfbd 0096 88be
00000060: f6cf 143e a43f d13d 2b9e 0cbf 42e5 a2bd
00000070: 7907 ce3e f1b7 9abe 32d6 55be c6de b6be
00000080: 13d6 143e edf6 4abe 674c 923d a0e4 8f3e
00000090: 4c14 2ebf 2e75 8c3e 3c19 0e3e 682c 7b3e
000000a0: 3032 cfbe b936 00be e08e 973e 508e f3be
000000b0: 7571 79be e6b5 ae3e d26e c8be c240 553e
000000c0: 6d13 e93d c8f6 e6bd 4885 0abf d918 50be
000000d0: 2833 83be 6bf4 853e 5caf 63bd 8c78 97be
000000e0: 3d21 85bb 32db aa3e 51b9 6a3d 93ea 093e
000000f0: 2b5c 843e 2116 8fbe 2a8e abbe 3e93 a6bd
00000100: 8664 023e aef6 9e3d 3ccb 9fbe 2ef4 043e
00000110: e9b9 adbd 2cc1 10be d32e 98be 8fc1 c6be
00000120: 08b3 fa3c 05d4 15be 5ff8 903d 8b18 ac3d
00000130: d487 7d3d 8b6e 2ebd 1f52 723c b575 ba3d
00000140: 30d4 65be 5a24 8dbc 77a3 dfbd a431 cf3d
00000150: 0ed5 483d aabd ed3d f51d 28be c8d2 83bd
00000160: da78 ddbd 135a c9bd b143 193e 5240 8fbe
00000170: 5316 d2bd 0345 e43d 8491 3b3e 4f36 673e
00000180: 258b 44bd f1e2 aa3c bfbd a73e 625a 44bd
00000190: 41e5 93be 30ee 67be 8b93 05be dcc4 b0be
000001a0: fc97 773d 9fb7 5f3e e15c 9e3d 8235 f4bd
000001b0: 61ab 94bd 5b5e 91be 231e 12be 1c2f dbbd
000001c0: 0607 b7be 1401 893d 4992 82bd b702 00be
000001d0: 2d1e 1abe 619b cfbc 3b4f 21be eda3 61bd
000001e0: 6553 0bbe 7a35 8e3e 8a87 cebe 913c da3d
000001f0: dee2 9b38 bd87 b2be 7f4b d1bd ca63 28be
00000200: 1f77 a23e 6918 86be 0898 5c3e e9d6 b3be
00000210: 34fa 233f 7539 903d eff3 ca3c e060 4a3e
00000220: df16 663c 1ee5 6dbd ba7d 693c 7c15 9e3e
00000230: 62ec a0be fc87 99bd 0ba6 a43d 677e f5be
00000240: 03a4 75be 4097 9abe e11a babe 4146 b8bd
00000250: eb88 553e 5f40 3f3d 5eb4 afbe 9a97 93be
00000260: 2987 3c3e 934e 493d 079a f6bd c4f4 05be
00000270: 3e84 05bf 633b 083e fe49 cbbd abce 40bd
00000280: 9078 75bd 9827 ae3d 4265 f03d 6081 a9be
00000290: 8b00 453e e1e4 873e d21f 10be 37ae 86be
000002a0: b350 523e fee6 493e 1a1b 4ebe b4df 39bd
000002b0: bfd6 a5be 2889 7cbd 7918 393d ceaf 21bd
000002c0: 3008 88bc 8b7b 5f3e 2900 8fbe 2b11 40bd
000002d0: 4d02 5bbe a553 8dbd 6bc7 2a3e 76e2 47bd
000002e0: 5dc8 6c3e afb2 883e 1931 153e 351c 88be
000002f0: a3f1 77bd 47e6 f6bb f66f 0e3d fca0 f4bd
00000300: 149b a0be 6515 0b3e 01cd 403e 0e30 23bf
00000310: 0b26 603e 479a 47be 4279 bb3d 25bb bebd
00000320: 271f acbe 1c8b 26be d55a b1bd ad83 73be
00000330: 7604 a1bd 4ea7 0d3b 0c58 55be 4267 fabd
00000340: bf8a c33c 7f0f 1abe 7a12 90be 15e5 6cbd
00000350: 11eb aabe 9b7b 6cbe 1eb0 723e 38dd 723e
00000360: f526 afbe b176 8f3c f249 303e 6338 183f
00000370: e368 46be 7703 e2be 07a4 9f3c d29a 703d
00000380: 5810 f0bd b394 133d 73ea 04bd c328 c2be
00000390: a846 543d 5e59 edbd a6fa ba3d 6ff2 ecbd
000003a0: 1adb 6e3e 027e e0bd 7197 8abe 7a36 7fbd
000003b0: 2435 053c d8ab c1bd 75eb 3c3e 3ba4 1bbe
000003c0: 30d2 7a3e 7e40 14be a744 65be 1357 9abe
000003d0: a8f2 623e 354d 133e c2c2 153d bb85 a03e
000003e0: 3bd2 9c3e af98 c03d b4ad b3bb ea1d ddbc
000003f0: b619 9cbe 651e a3bd ae1e 12bd d266 2f3e
-0.0066992575 -0.02365341 0.039708152 0.009685782 -0.03976668 -0.079605475 0.17349407 -0.3095817
-0.121080294 -0.23150821 0.10293839 0.017022904 -0.079051696 0.08932245 -0.25008327 -0.2071093
0.03576259 0.17496029 -0.08034011 -0.03960929 -0.022406142 -0.22674178 -0.10131389 -0.2667694
0.14532456 0.102172166 -0.54928845 -0.07953884 0.40240076 -0.3021846 -0.2088249 -0.35716838
0.14534788 -0.19820757 0.07143479 0.28104115 -0.6799972 0.2743315 0.13876814 0.24528658
-0.40467978 -0.12520875 0.29601192 -0.47569513 -0.24359687 0.34123152 -0.3914705 0.20825484
0.11380658 -0.112775385 -0.5410962 -0.20321979 -0.25624967 0.2616304 -0.055587158 -0.29584157
-0.0040628 0.33370358 0.057305638 0.13468389 0.2585157 -0.2794657 -0.335069 -0.08133553
0.12733659 0.07761894 -0.31209743 0.12983772 -0.08482725 -0.14136189 -0.29723224 -0.38819548
0.030602947 -0.1463166 0.07078623 0.08403119 0.061897114 -0.04258589 0.014790087 0.09104482
-0.22444224 -0.017229248 -0.1091985 0.1011689 0.04903131 0.11608441 -0.16417678 -0.06436688
-0.10814066 -0.098316334 0.14967228 -0.2797876 -0.10258164 0.111459754 0.18317229 0.22579311
-0.04798426 0.020860167 0.32761952 -0.04793776 -0.28885844 -0.22649455 -0.13044564 -0.34525192
0.060447678 0.2184739 0.07732559 -0.11924268 -0.072592504 -0.283923 -0.14269309 -0.10702345
-0.35747546 0.06689659 -0.06375558 -0.12501036 -0.15050574 -0.025342645 -0.1575288 -0.055087972
-0.13606031 0.27775174 -0.40337783 0.106560834 7.433233e-05 -0.34869185 -0.10219478 -0.16444317
0.31731507 -0.26190498 0.2154237 -0.351249 0.64053655 0.07042209 0.02477452 0.19763517
0.014043539 -0.05807983 0.014251167 0.30875766 -0.31430346 -0.0749664 0.08039483 -0.47948
-0.23988347 -0.3019352 -0.36348632 -0.08997775 0.20853011 0.04669225 -0.34317297 -0.288266
0.18410935 0.0491472 -0.12041097 -0.13081652 -0.5215491 0.13303904 -0.09926222 -0.047072094
-0.05992943 0.08503646 0.117380634 -0.33106518 0.19238488 0.26541808 -0.14074638 -0.2630479
0.20538597 0.19717023 -0.20127526 -0.045379356 -0.323904 -0.06165424 0.045189355 -0.0394743
-0.016605467 0.21824472 -0.2792981 -0.046891373 -0.21387596 -0.069007196 0.16677634 -0.048799954
0.23123308 0.26698825 0.1456951 -0.2658402 -0.060533177 -0.0075347754 0.034774743 -0.11944768
-0.31368315 0.1358238 0.18828203 -0.637452 0.21889512 -0.19492446 0.091539875 -0.09313039
-0.33617517 -0.16264004 -0.08659903 -0.23780699 -0.07862179 0.0021614614 -0.20834368 -0.12226726
0.02386987 -0.15044974 -0.28139096 -0.057835657 -0.33382466 -0.23094027 0.23699996 0.23717201
-0.3420941 0.017512651 0.17215708 0.5946104 -0.19375949 -0.44143268 0.019487394 0.0587414
-0.11721867 0.036030483 -0.03245015 -0.37921724 0.051825196 -0.11589311 0.09129839 -0.11569678
0.23325768 -0.10961534 -0.27068666 -0.062307812 0.0081303455 -0.09456605 0.18449195 -0.15199368
0.24494243 -0.14477727 -0.2238947 -0.30144557 0.22162879 0.14384921 0.03656269 0.31352028
0.30629143 0.09404122 -0.0054833535 -0.026991803 -0.30488366 -0.07964782 -0.03567379 0.17129067

encoder.lstm.bias_ih_l0 f4 [80]
00000000: 6854 043e ccec 913d 95ba 963e a8b3 9e3d
00000010: e434 3e3e 62b6 493e c027 383e a77f b93e
00000020: fc7b 6b3e de0d be3d 1215 833e db0b 493d
00000030: f3d3 ad3d 8b4d 923e 990e 233d 44a5 603e
00000040: 6267 433d b15e 01be 4b18 d73d 41b2 6bbd
00000050: 47f5 a93e 96bb c03e eb0f b23e 038d ed3d
00000060: 61f1 10be a501 d03e 4395 0b3f aa16 8a3e
00000070: 9d4b 2b3e 459f a03c 275e db3e 7e0d 853e
00000080: 1c39 223f 204a 2c3e ebb4 573e af44 913e
00000090: 6365 683e 1565 bdbc fa3c f43d 689a 993e
000000a0: 7dd4 8dbe 6385 e53d 6484 3b3e fdbc 72be
000000b0: 81c6 88bd 985a 0ebd 3ccd 45be d787 92bd
000000c0: ef18 c43d 5043 2dbd 2a9e 58be bb46 ab3c
000000d0: 4fd5 d0bb ac30 efbd 426f e6bd 5e5b 88bd
000000e0: 635f 60be c57e 553e abe1 2ebd d450 363e
000000f0: 9689 883e 6f92 303e 0f7d 153f 3fd0 d83e
00000100: 6afe c9bc c040 a83e 28e0 5c3e e156 c13e
00000110: 2e2f d03e dddb 823e a889 e13e d327 fd3e
00000120: eaac ff3e c890 c13e 242d 7f3e 3381 153e
00000130: 200f 9e3d 4242 db3d f41a c03e f7dc 713e
0.12922823 0.071252435 0.29439226 0.077491105 0.18574864 0.1969848 0.17983913 0.36230204
0.22996515 0.09279989 0.25602013 0.049083572 0.08487692 0.28574786 0.039808843 0.21938044
0.047706015 -0.12633778 0.105026804 -0.057543043 0.33194944 0.37643117 0.3477777 0.115991615
-0.14154579 0.40626255 0.5452463 0.26970416 0.16728063 0.019607196 0.4284527 0.25986856
0.6336839 0.16825151 0.21065108 0.28372714 0.22694926 -0.023119489 0.11925693 0.30000615
-0.27701178 0.11207082 0.18312222 -0.23704906 -0.066784866 -0.034754366 -0.19316572 -0.07154816
0.09575068 -0.042300522 -0.21154085 0.02090775 -0.0063730846 -0.11679205 -0.112516895 -0.06658052
-0.21911387 0.2084914 -0.042695682 0.17804271 0.2666747 0.1724336 0.5839395 0.4234638
-0.024657447 0.328619 0.21569884 0.37761596 0.40660995 0.25558367 0.44050336 0.49444446
0.4993661 0.37805772 0.24919564 0.14600067 0.077177286 0.10705997 0.37520564 0.23619448

encoder.lstm.bias_hh_l0 f4 [80]
00000000: cb5b ae3b 1dec a93d 3700 073d e99b 9ebc
00000010: 573b 833e 4047 d63e 2a8d 2e3c 3606 113e
00000020: 8c53 863e c3df 9e3e 6c4d e83d 378d a43d
00000030: c132 a63e 3e42 733e 93f4 503e 8aeb cd3d
00000040: 376a 953d 04d1 f1bd 18c3 1fba ef6e 22be
00000050: 1b8c a83d 1ab1 313c ee35 073e f671 203e
00000060: 8dda 34be ff95 873e ad4b e73e cbe7 873d
00000070: dca6 e13e 6dd6 393e 2581 b53e dd53 b73e
00000080: 4847 0c3f 56ec 9e3e f3bb bf3c ef4e 9fbd
00000090: c417 78bc cfac 063e f627 433e e69f 08bd
000000a0: 1d1b 103d ce14 20be cc9f a33c b3b8 c6bd
000000b0: 30be 303d c884 893d 7591 1cbe 5cf8 d6bd
000000c0: 31f2 08be 91ae 1bbe 085e aabd 34ae e5bd
000000d0: 38f8 4a3e d007 34be 9450 7c3d a018 14bd
000000e0: ea20 dcbd b251 873e 2484 68be 82bf 87bd
000000f0: d1ec 8d3d 1b3f 4d3e ca3d 133f 32ef 9d3e
00000100: 9028 3a3d dc12 763e f741 2c3e 7c40 123e
00000110: 1f0c b53e 09b4 afbb 165e 063f 92eb 603e
00000120: 7cb7 033f 0513 533e 5834 6a3d 1ed0 c43e
00000130: e34d 843e cd84 8b3e a790 6d3e fd59 3cbd
0.005321001 0.08296988 0.03295919 -0.019361453 0.2563121 0.41851234 0.010653773 0.14162526
0.26235616 0.31030092 0.11342892 0.08034747 0.32460597 0.23755738 0.20405798 0.10054691
0.072956495 -0.11807445 -0.000609444 -0.1586263 0.08229848 0.010845447 0.13204166 0.15668473
-0.17661496 0.26481625 0.45174924 0.06636008 0.44072616 0.18148203 0.35450092 0.3580617
0.54796267 0.31039685 0.02340505 -0.07778727 -0.015142385 0.13151859 0.19058213 -0.033355616
0.035182107 -0.15632936 0.019973658 -0.09703197 0.043150127 0.06714779 -0.15289862 -0.104965895
-0.13373639 -0.1520331 -0.08318716 -0.11214867 0.1982125 -0.17581105 0.061600283 -0.036156297
-0.10748465 0.26429516 -0.22706658 -0.06628324 0.06929935 0.20043604 0.5751616 0.30846554
0.04544884 0.24030632 0.16822039 0.14282411 0.3536081 -0.005362038 0.52487314 0.21964863
0.5145185 0.20612724 0.057178825 0.3844003 0.25840673 0.27249756 0.23199712 -0.045984257

encoder.lstm.weight_ih_l0_reverse f4 [80, 2]
00000000: 3344 1a3f cca3 c43d 303c bbbe a81d a7be
00000010: e470 e2be 9c44 86be 1a91 f6be b5bd 9f3d
00000020: 3561 883e e23c 023d 60c6 4b3d da16 e13d
00000030: 5cd4 56be e648 54bd fa48 603e 3e01 973e
00000040: 2bef 6c3d 8467 073d ea54 0cbf feef d9bc
00000050: a405 213e 53a4 cb3d 216c d1be 591e d3be
00000060: dc31 d0bd 7faf 2fbd aa3f bb3e decd cdbd
00000070: d9a0 16bd 5878 163f f0fe 46bd a5b2 473e
00000080: ebcd 773d 2fac 5dbc eaef 37bd b3b6 843d
00000090: cb20 74be c99b d1be 6efd 85be e0ef 26be
000000a0: 45c3 8dbe ff2b 36be 00a9 67be a989 073e
000000b0: 84c6 88be 45cd a93e ab54 6dbd 6f36 183d
000000c0: 5f11 043e e0a0 ed3d f745 acbd 7dd1 203e
000000d0: c2a6 9dbd d902 e4bd 99d5 cc3e 35c1 0f3e
000000e0: 08f4 f6bd cbdf 1d3e 3685 e83d 91a2 273e
000000f0: 8a27 703c 78ec 9fbd 4e73 98be 69f1 323e
00000100: 9da6 5dbf 46f0 09bd cb11 99be 1955 9d3d
00000110: 5028 cd3e 183a 1a3f 90be c8be 4163 b7bd
00000120: cdcd b03d 82eb 1f3e eeab c63d 1dda 11be
00000130: bbda a6be a766 8fbe f9d3 e2be 5e05 46be
00000140: 894e 2abe b640 77be a61a c93e 343e 3b3d
00000150: 71b2 b9be b63e ce3d de13 c63e 7cb0 37be
00000160: 3917 8abe 0804 febd f978 61bd b56c bc3d
00000170: b7ad b5be f48b 0c3e a895 acbc c616 c23e
00000180: 0d39 0a3e 02e8 c33e a4bc 883e 0174 c83d
00000190: e69a e5be 9f56 18be 9fd6 37be f235 3a3c
000001a0: 1260 80be cc6f 533e 1c5c 263e 7d09 423e
000001b0: 9238 b0be 9471 fa3d b32e cc3e 2100 bc3d
000001c0: 26c3 65bd 7016 373e 920d 4d3d bc04 c33e
000001d0: 8b5a dbbd 77d9 66be 81b5 203d d865 40be
000001e0: e2b3 8dbe cfc3 71be a4c6 9f3c a2e4 29bd
000001f0: 9d80 5a3c 12d7 f23d e6be acbe f27d 3f3e
00000200: 64ed 993e f1a0 fc3c d020 e8bd cfaf 0e3e
00000210: d2d1 6ebe 12e3 703e c551 623e a8d5 233e
00000220: 7466 95bc fcf0 2a3e b6f2 12be 0354 603e
00000230: 5e25 a23d 82cb 1e3e f63e 91be 046e a0bd
00000240: 2bf8 7ebc 9b7c 723d c39e 65bc f415 6fbe
00000250: f925 713d 57e0 d73c 8824 aa3d 8e25 3a3e
00000260: faca b53d 5ab9 a83c f5d3 a93e 9ffd 593e
00000270: 17ac 18bf ee0a 5bbe 3ddd aebe e0be a6bd
0.60260314 0.09601554 -0.36569357 -0.32639813 -0.44226754 -0.2622422 -0.4815758 0.077998556
0.26636663 0.031796344 0.049749732 0.10990687 -0.20979446 -0.051827334 0.21902838 0.29493135
0.057845276 0.033057705 -0.5481707 -0.026603695 0.15724808 0.09943452 -0.40902808 -0.4123409
-0.1016576 -0.042891975 0.3657201 -0.10049032 -0.03677449 0.5877738 -0.04858297 0.19501741
0.060499113 -0.013529821 -0.044906534 0.064801596 -0.23840635 -0.40939167 -0.26169914 -0.16302443
-0.2768804 -0.1779022 -0.22623062 0.13236107 -0.26713955 0.3316442 -0.057942074 0.037161287
0.12897252 0.1160295 -0.08411782 0.15704913 -0.07697822 -0.11133356 0.40006712 0.14038546
-0.12058264 0.15417401 0.11353533 0.16370608 0.014657864 -0.07808775 -0.2977547 0.17474903
-0.86582357 -0.03367641 -0.29896387 0.07682247 0.40069818 0.60244894 -0.39207888 -0.08954478
0.086330034 0.15617183 0.09700762 -0.1424336 -0.32588753 -0.28008005 -0.44302347 -0.19337985
-0.16631521 -0.24145779 0.39278144 0.04571362 -0.36268952 0.10070555 0.38687032 -0.17938417
-0.26970842 -0.12403113 -0.05504701 0.09200422 -0.35484096 0.13725263 -0.021067455 0.37908
0.13498326 0.38262945 0.2670642 0.09787751 -0.4484474 -0.14876793 -0.17952965 0.011365401
-0.25073296 0.20648116 0.16246074 0.18948932 -0.3441816 0.122286946 0.3987938 0.09179712
-0.05609431 0.17879653 0.05006177 0.3808955 -0.10710629 -0.22543894 0.039235596 -0.1878885
-0.27676302 -0.23609851 0.019503899 -0.041477807 0.013336328 0.11857428 -0.33739394 0.18700388
0.30063927 0.030838462 -0.113343835 0.13934253 -0.23322228 0.2352412 0.22101505 0.15999472
-0.01823733 0.1669349 -0.143504 0.21907048 0.079172835 0.1550732 -0.28368348 -0.07833484
-0.015562098 0.059200864 -0.0140149025 -0.23348218 0.058874104 0.02635209 0.08307749 0.18178388
0.08876605 0.020596195 0.33169523 0.21288155 -0.5963759 -0.21390888 -0.34153166 -0.08141875

encoder.lstm.weight_hh_l0_reverse f4 [80, 20]
00000000: 0c44 123e 4790 08bf f426 c33c 4b4c e5bd
00000010: eb34 c7be 6862 5b3e 6b36 583e 2ab7 89be
00000020: 43c7 9cbe 34ca a2bd d1ed 3f3e 2f1f 2fbf
00000030: 3069 dbbe 9ee2 2dbe 1a02 2f3e 91d4 0ebf
00000040: 40d1 66be 03f7 22bf 155b 24bf 4950 e5bd
00000050: d133 013f d5e4 a3bc 9cda 983e f741 50be
00000060: 4513 a63d 3b0e 11be 5273 71bd bb93 25be
00000070: 9ef1 4f3d 881d 173d 0837 7cbd 4537 3a3e
00000080: 07ca e0bd 88a8 99be 714b 71bd c0bc 1fb9
00000090: 55bf 8cbe 8ac0 c8be 00fe e73e 9a16 5c3e
000000a0: 1a4f f4bd ea50 0ebe 629a 19bf 93b0 ef3c
000000b0: fd02 febc f2cf 7b3e a23a 88bc c85b 4d3e
000000c0: 9c58 57bc 936a 353e 5fac 9fbe 36ec e5bd
000000d0: 7cd4 93be 57d5 73be 20a6 ebbc fcc3 94bd
000000e0: 1fb2 123d af2f bfbd 9742 82be e7d9 06bf
000000f0: 44c4 6f3e 2030 5cbe efa6 153f a112 05be
00000100: 7aa3 923e b878 34bd e36c 113e 8f53 92bd
00000110: 2de4 243e cd3e fcbd 453b bebd 23b9 803d
00000120: 068f 3f3e 7dbe 41be 1ab4 56bd 60f2 b83d
00000130: 8799 25be 3186 fdbd 4ac3 2a3c 4e99 9a38
00000140: cdcd 8a3e 5686 9dbe 338c 513d fa99 2c3e
00000150: 6591 c3bd cf40 c5bc e31c ad3e 8cad 19bc
00000160: 81e5 29be a5ed 0d3b eb00 dc3d 1885 893e
00000170: 3a25 22be 85dd e8be e1fa 0c3e 79ba c4bd
00000180: e278 593e 18ec 2c3e b59a 213e e2e6 c7bc
00000190: c38b b1be d84c 8abe 5393 f23d 8928 b5be
000001a0: 6745 f4bc df62 a83e a94f 093f 1a82 883e
000001b0: 157b 923d c64e 513d 8391 2f3e 6745 583e
000001c0: 2f36 fcbd c71b 86be 4fb1 c13e 44a8 a9bd
000001d0: fe22 483e 896b 32bd 0748 84bd bc0c 8c3e
000001e0: e2ba b53e 00ed d83c aca2 0dbd ec5c 803e
000001f0: f0d4 94be 941f 8bbe 9fdd 5f3e 31b3 753e
00000200: 1b2a 8e3d 3159 c33d 219e ecbe 8bda d33e
00000210: 3fbe 1c3e d8a3 c3bc 83e9 ecbd 052d e03e
00000220: 7e8b a93e ef98 d03e f462 ce3e 51cf 2d3f
00000230: 67cd d9be f988 49be f01a 823c 0ce0 1d3e
00000240: c50e 213e 7a8a 93bd dd69 a4bd 8407 c7bc
00000250: 4276 9cbd e323 523e dbe2 113c 5b86 293f
00000260: 486a 1bbd 0e5e dc3c 1293 1bbe 9457 923d
00000270: d329 9fbd fc4c 31be a322 a33e 9a13 383e
00000280: 6bdc b73e 10b4 4bbe 7664 e93e 027d 0a3e
00000290: 4d96 c5bd 11f3 863e 48b2 89bd e582 33bd
000002a0: fc51 4fbd efe7 aebd 0d99 9cbe a381 c4bd
000002b0: 57d3 e2be a44c 60be 5b38 233e c802 3fbd
000002c0: 984f 453e 2bb7 143e 870a 823e 656d ebbd
000002d0: 3009 e53e 2b89 8dbe 4442 493f 7584 6abe
000002e0: 388f 46bd 7b6e ad3e 6e14 ab3e f343 593d
000002f0: 71b7 633c 93e4 ef3c 7492 cfbd ff60 453e
00000300: f937 d8be 2a08 dabe a2ba b53d 7ba6 96be
00000310: 6f96 fbbd 14dc 6bbe f0af a03e 0045 a93d
00000320: 442f 903e 0a63 c9bd 9963 f13d 2781 a0bd
00000330: 35c7 503e 9d34 ccbd b012 a63b bc98 6fbd
00000340: b9ed 763d 9567 3d3e 13f7 1fbe 35a6 b5bd
00000350: c4ba 613d 0bfd dcbe 868f 3cbe c5fb 2e3d
00000360: 7424 3abe 837b 843d 178d 993e 73f9 313e
00000370: 274d c73e db94 0f3e da25 3f3e a578 ce3e
00000380: b678 eabd 61d8 ee3d 1346 8bbe 6e09 c2bc
00000390: c533 03be 28c0 3a3e ab27 99be f87f e2bd
000003a0: 8d2e a13d ff13 f0bd 774e 22be c925 fcbd
000003b0: 0f3b 8bbe c6ff 3abd 3fb2 583e 86f3 26be
000003c0: 6cd1 d63e 603a 68be 792f a3bd a545 9f3d
000003d0: 14e4 5fbe b4b9 8f3b 16a2 a83e 4b17 28be
000003e0: a272 8abb d5f2 ebbc 5e47 b9be d0a6 843e
000003f0: a478 113e 3b89 fabe 5dae babd 4ab9 023e
0.1428377 -0.5334515 0.023822285 -0.11196192 -0.3890756 0.21424258 0.21114509 -0.26897556
-0.30620775 -0.079487234 0.18743064 -0.6840696 -0.4285369 -0.16980979 0.17090645 -0.557931
-0.2254076 -0.6365816 -0.6420148 -0.11196954 0.5046969 -0.020006577 0.29854286 -0.20337664
0.08109144 -0.14165585 -0.05894787 -0.16169636 0.050767533 0.036893398 -0.06157592 0.18185146
-0.10976034 -0.30011392 -0.058909837 -0.00015233736 -0.27489725 -0.39209396 0.45310974 0.21492997
-0.1192915 -0.13898054 -0.60001194 0.029259002 -0.031007284 0.24591044 -0.01662952 0.20054543
-0.013143685 0.17716436 -0.31186196 -0.11226694 -0.2887305 -0.23811851 -0.028765738 -0.072639436
0.0358144 -0.09335267 -0.2544143 -0.5267624 0.23414713 -0.21502733 0.58457845 -0.12995388
0.28640348 -0.04406044 0.14201693 -0.07144844 0.16102667 -0.12316666 -0.092886485 0.06285312
0.18706903 -0.18920322 -0.052417852 0.09030604 -0.16171847 -0.123791106 0.010422537 7.3718475e-05
0.2711014 -0.30766553 0.051159095 0.16855612 -0.09549216 -0.024078755 0.338111 -0.009379756
-0.16591455 0.002165654 0.107423626 0.26859355 -0.15834513 -0.45481506 0.13767578 -0.09605879
0.2123752 0.16886938 0.15781672 -0.024402086 -0.34676942 -0.27011752 0.11844506 -0.35382488
-0.02981825 0.32887933 0.53637177 0.2666176 0.07152382 0.051100515 0.17145352 0.21120225
-0.12315022 -0.26193067 0.37830588 -0.08284047 0.19544598 -0.043559585 -0.064590506 0.27353466
0.35494143 0.026480198 -0.034578964 0.25070894 -0.29068708 -0.2717253 0.21861885 0.23994137
0.06941625 0.09538496 -0.46214393 0.41377673 0.15306948 -0.023881838 -0.11567976 0.43784347
0.33114237 0.4074168 0.4030987 0.67894465 -0.42539522 -0.19681157 0.015881985 0.15417498
0.1572829 -0.07204147 -0.08028004 -0.024295576 -0.076397434 0.20521502 0.008904184 0.66220635
-0.037943155 0.026900318 -0.15192822 0.071456105 -0.07771649 -0.17314523 0.31862363 0.17976227
0.35910353 -0.19892907 0.45584458 0.13524249 -0.09647808 0.2635732 -0.067234576 -0.043826003
-0.050615296 -0.085403316 -0.30585518 -0.09595039 -0.44301865 -0.21904236 0.15939467 -0.04663351
0.19268644 0.14522998 0.25398657 -0.11495475 0.44733572 -0.27643713 0.7861674 -0.22902091
-0.048476428 0.33873352 0.33414024 0.053043317 0.013898716 0.029283797 -0.101353556 0.19275282
-0.42230204 -0.42584354 0.08873488 -0.2942389 -0.12284552 -0.23033172 0.3138423 0.08265114
0.2816106 -0.09833343 0.11786575 -0.07837134 0.20388491 -0.09970973 0.0050681457 -0.05849527
0.060285304 0.18496545 -0.15621595 -0.08869592 0.055109754 -0.43161806 -0.18414125 0.042720575
-0.18177968 0.064688705 0.29990456 0.17380314 0.3892605 0.14021628 0.18666783 0.4032642
-0.11448805 0.11662365 -0.272019 -0.023686137 -0.12812717 0.18237364 -0.29913077 -0.11059564
0.07870207 -0.11722564 -0.15850244 -0.123118944 -0.27193496 -0.04565408 0.21161745 -0.16303834
0.4195665 -0.22678518 -0.07968039 0.077769555 -0.21864349 0.004386151 0.32936162 -0.16415136
-0.004225091 -0.028802315 -0.3618726 0.25908518 0.14206177 -0.48932824 -0.091152884 0.12765995

encoder.lstm.bias_ih_l0_reverse f4 [80]
00000000: 90ba b4bb f65f 383d 97e8 a33e ec89 a03d
00000010: dbd9 fb3d 8f24 913b b189 a93e a37d aebd
00000020: f0ac a43e 87b4 023e 2f40 5f3e 818e 0d3f
00000030: f3f3 173d bdda e83e c1c6 e43e a639 9d3d
00000040: 0212 c23e 4ab9 203c 8c5e 9d3d 2e92 383e
00000050: fc31 be3e 1066 883d 9ba5 d43e 5a27 c23d
00000060: 49ee d0bd 77f4 403e 84d5 0c3e 26b3 8f3d
00000070: 3af5 4e3d 37c6 0a3d 1aa1 1c3d 7258 403e
00000080: 0448 db3e fd5c 503e 550a df3e a9bc 5a3d
00000090: acaf a03e f2a6 893e 4bf3 573e e1e2 e23b
000000a0: 431f 043e 3394 91be 7e66 793c 09eb ffbd
000000b0: 573e 27be 4f91 813e afad 223e 74b2 683c
000000c0: 8dba f23c 94d5 a93c 80be 80be f092 133c
000000d0: f779 33be 4fa0 38be 6a92 ef3d 4506 10bd
000000e0: 0bb4 27bd a71f 5ebe 284c 0d3d f71f 613d
000000f0: 2537 f23d 0e3b d53d 0b83 2b3f a165 9c3e
00000100: 5765 d53e 6225 de3d 2342 eb3e 7c9d d53e
00000110: f59a bb3d b3db 123e e6ab 043d edbf a33e
00000120: e3cf 893e 0e43 283e a813 2c3f f5a0 e13d
00000130: a2c1 b03e daa9 4a3e d8a4 a13e f670 383e
-0.005515404 0.04501339 0.3201339 0.078388065 0.12297412 0.004429407 0.33112863 -0.08520057
0.3216319 0.12764178 0.21801828 0.5529557 0.037097882 0.45479384 0.44682887 0.07677011
0.37904364 0.009809801 0.07684049 0.18024513 0.3714751 0.06660092 0.41532597 0.09480162
-0.10201699 0.18843256 0.13753325 0.07016592 0.050526835 0.03388044 0.038239576 0.18783739
0.4282838 0.20347972 0.4356257 0.053402577 0.31384027 0.26885182 0.21088903 0.0069240187
0.1290255 -0.2843338 0.01522219 -0.12496001 -0.16332375 0.25306174 0.15886568 0.014202703
0.02962997 0.020731725 -0.2514534 0.009007201 -0.17526995 -0.18029903 0.11697848 -0.03516223
-0.040943187 -0.21691762 0.034496456 0.054962125 0.11826924 0.104116544 0.6699683 0.30546287
0.4167888 0.10846974 0.45948896 0.41721714 0.09160415 0.14341621 0.032390498 0.31982365
0.26916417 0.1643183 0.67217493 0.11017028 0.3452273 0.19791356 0.31571078 0.18011841

encoder.lstm.bias_hh_l0_reverse f4 [80]
00000000: 2364 55bd 4b6a e13d 98a8 e33e 20f8 f73e
00000010: c07e 143d 5f29 8b3e cdf3 b63e d252 ec3c
00000020: 5f44 d53d 4260 d7bd 2139 353d 9a06 8d3e
00000030: 580e 623e dd1f f03e 9dc7 963e b52e 4ebd
00000040: 2cc9 c03e 31bf 803e f3b5 673e 299d c2bd
00000050: 479b a93e c482 de3d e7e6 143f 389f c23e
00000060: 3967 9fbc d8a6 2c3e 446e b23e c4b1 69bd
00000070: bbc6 c7bc d89d e13c d483 a73d f2b0 953e
00000080: 9f3b 083f 19bf f73e 3cf9 9d3d 92db 623e
00000090: c2fa 013e 8c78 083e 092b 403e 1b5f 053e
000000a0: 4119 f63c 1fee 6cbe d0c8 c93c 016c 0bbd
000000b0: a03b 4bbe 2788 4fbc 28cb 73bd 55b7 c4bc
000000c0: 600e d53d 8632 1e3e e01e 3abe 2824 c5bd
000000d0: 57ff 98be 8122 a1be a29e 413e 1a5a 403b
000000e0: 7cb5 ee3d 22a8 0fbe 40ac 533d acf6 0bbe
000000f0: f190 283e fdd4 c13e e6fc cf3e b7ea e73e
00000100: 9a25 213e eabb 673e e7f9 d13d cb28 c53c
00000110: ea55 183e a4ce 833e 2f8d 903e ae08 9a3e
00000120: eabc a73e 976a d73e deb5 1c3f d3ca 243e
00000130: 135a df3d a8e0 ce3e 2fd8 ae3e 2194 9f3e
-0.05209745 0.11006602 0.44464564 0.48431492 0.03625369 0.2718 0.3573288 0.028848086
0.104134314 -0.105164066 0.044243935 0.275441 0.22075784 0.4689931 0.29449168 -0.050337512
0.37653482 0.25145867 0.22628002 -0.09502632 0.3312628 0.10864785 0.5816483 0.380121
-0.0194584 0.16860521 0.3484975 -0.057054296 -0.024386754 0.027541086 0.08179441 0.2923656
0.53215975 0.48387983 0.07713553 0.22154072 0.12693313 0.13327235 0.18766417 0.13024561
0.030041339 -0.23137711 0.024631888 -0.034038547 -0.19846964 -0.012666739 -0.059519917 -0.0240132
0.104031324 0.1544896 -0.1817584 -0.09626037 -0.2988231 -0.31471637 0.1890817 0.002935058
0.11655709 -0.14028981 0.051677942 -0.13668317 0.16461541 0.3785781 0.40622634 0.4529626
0.15737 0.22630277 0.10252743 0.024067303 0.14876524 0.25743592 0.28232715 0.30084747
0.32761317 0.4207351 0.6121501 0.16092996 0.10905852 0.40405774 0.3414931 0.311677

decoder.lstm.weight_ih_l0 f4 [160, 40]
00000000: 1c29 b53d 7f56 573e 7e40 d13e 49f1 03be
00000010: a8a6 7ebd fa10 a43e 49a9 843e 1955 f7bd
00000020: 464d 41bd 4f93 4f3e 8959 8bbd f1ec 5b3e
00000030: 3482 e5be 1a53 4bbe 8f09 b9be 926d 1bbe
00000040: 8638 21be cec1 3fb9 e04b 0dbe 31a6 473e
00000050: f6be d73e 6687 3abc f81d 7d3e f193 2d3e
00000060: 2ed2 ad3d 085a 20be 4a76 90be ce77 283e
00000070: b0d6 8f3d 12a1 d439 3dbd aabe 6206 afbe
00000080: 875c e8bd 06be 8dbe e4af 7cbe 1dd4 293e
00000090: e53b 8abd 85a7 9c3d b439 58be d262 cdbe
000000a0: 473b a9bd 4e3c 043e 1ae3 0dbe 3419 213e
000000b0: 7826 ad3d 98d5 293e b6d4 723d f3e2 0cbe
000000c0: 8a82 0fbc a0c5 33bd 4920 96bc 3ba4 1d3e
000000d0: a5a5 023e d4dc c33d fc58 2cbe 0373 0d3e
000000e0: a2de 093e 42dc 24be 9462 babc 1182 dfbd
000000f0: 90fc 463e fda3 87bd 5c9b d03d 13ce 16be
00000100: 8507 e53d fdaa ab3d e181 233e f7c5 7a3d
00000110: 72d6 f3bc 802d 62bd d086 8b3d 21ca 9ebd
00000120: 51e5 58be 76e8 3a3c 70b1 27bb 0d7b 6dbe
00000130: ae43 51be aec3 2b3d 50ba a53d dcd0 443e
00000140: f549 253c 1a1f c9bd 2ac1 293e 94fe 883d
00000150: 7699 873c 4a7c 1fbe 96d7 9ebc 0af3 dabc
00000160: 8e80 dc3d 91a2 07be 86fb e8bc 4859 7bbd
00000170: f1e8 743d c91e 0e3e e3cd 03be de85 753d
00000180: 06a9 253e 92b2 1cbe de82 e3bd 4042 eebd
00000190: 973c 6c3c 4b13 21bd caf4 c33d 4ab1 d43c
000001a0: 57d3 273e adab f63d 7d3f 81bd 9047 21bd
000001b0: b01a f1bd a82d 87bd dbbe 6d3c 1db6 7abd
000001c0: 726b d8bd 6b38 463d cbd8 58bd 7a64 2c3b
000001d0: 5729 17be c77d 7c3d 7fc3 1b3e ea04 bdbd
000001e0: d426 8c3d 133b 3c3d 2cbf 923d 769c 81be
000001f0: b886 11bd 43b9 18be cf20 613d 7dae a1bd
00000200: aec7 08bd 927c 4d3d af93 2d3d f5ef 32be
00000210: c870 273e 777f 0c3d 959f 093e 1cb6 293e
00000220: 8075 e5bc 2c93 9e3d 4973 f23d 997b b23c
00000230: da12 bb3d c904 febd 829d d23d c092 e6bc
00000240: 7fbb 51be c4b7 afbc a1d6 993d 109a 873e
00000250: b318 a6bc 12d4 f5bd 721e 07be 2d0e 3d3d
00000260: 1937 373e e0d6 37be 32aa c03d dcff 733c
00000270: a54a 99bd e360 25be 66e1 1e3c 5ac5 103e
00000280: 1847 183e cf8c 2bbd 4b34 033d f080 d33d
00000290: b173 6c3c e701 cbbd ef4a 39be 60b3 40be
000002a0: f20b 8f3e 9d68 11bd b321 95bd 3e34 23be
000002b0: 9bb3 563e f36d c2bc 6dc3 f6bc 420e 083e
000002c0: 89c4 673e 71de d83d 032d c33d 37c2 73bb
000002d0: 110c 95bd a64d 2bbe bb9d 353d cc70 68be
000002e0: 0750 31bd c347 803e b550 b93d f1aa 233e
000002f0: 8f9c 663d efbb 32bd 6f31 76bd e4ab 023e
00000300: 14ce 5cbe e676 33be 82ad 79bd 514b 25bc
00000310: 6e48 3cbd 1956 d23d de26 ea3d 67dc a43e
00000320: fc76 92bc 92f8 eb3d 9272 5c3e b4b2 aabd
00000330: 723b 013e 5050 413e 5748 593d b27c 41bc
00000340: 4cba bb3c adbb ce3d 2a19 1abd 1330 c3bc
00000350: b280 41be 2c16 17bd 9c75 06be 3954 18bd
00000360: 9394 2bbd f900 27be ae57 cbbc 4d9c b7bd
00000370: 25a5 303d 970b 90bc 0744 833d 78b5 783d
00000380: 4067 393d 205b f7bc 292b 883d c9e5 353d
00000390: 5102 41be d649 18be 928b 0dbe 23a3 c53d
000003a0: 917b 8d3d bdea 0bbe 33f9 7d3c 011d 0c3e
000003b0: ff40 efbd 450d 123c 07c6 373e 1be9 c13d
000003c0: bfd9 123e 6e59 6c3d 44cc e0bd fba6 b4bd
000003d0: 8326 e43b 8c80 523e 7af1 ee3d 9d3c 67bd
000003e0: 481b 08bd ea1d 323d 5df4 c63c f2c3 bc3d
000003f0: 27b9 483c a7ed 7f3d 7155 f8bd 8b3f 823d
0.088457316 0.2102909 0.40869516 -0.12885012 -0.062170655 0.32044202 0.25910404 -0.12076778
-0.047192834 0.20271038 -0.06804187 0.21477105 -0.448259 -0.1985592 -0.36140105 -0.15178517
-0.15744218 -0.00018287377 -0.13798475 0.1949699 0.4213788 -0.011384821 0.24718463 0.16950966
0.08487354 -0.15659344 -0.28215247 0.16451952 0.0702337 0.00040555798 -0.33347502 -0.34184557
-0.11345773 -0.2768404 -0.24676472 0.16584821 -0.06749705 0.07649139 -0.21115762 -0.40114456
-0.082632594 0.1291363 -0.13856164 0.1573227 0.08454603 0.16585386 0.05928489 -0.1375845
-0.00875915 -0.04388964 -0.018325942 0.1539468 0.12758501 0.09563604 -0.1683082 0.13813405
0.13463834 -0.16099647 -0.022752084 -0.1091348 0.19432282 -0.06623075 0.101858824 -0.14727049
0.11183075 0.08382223 0.15967514 0.06122395 -0.029765341 -0.055219173 0.06812823 -0.07753397
-0.21181227 0.011407962 -0.0025587939 -0.23191471 -0.20435974 0.04193466 0.08092177 0.19220299
0.0100884335 -0.09820385 0.16577592 0.06689182 0.016552668 -0.15574756 -0.019389909 -0.026727218
0.10766707 -0.13245608 -0.028440248 -0.061364442 0.059792463 0.13878931 -0.12871508 0.05994212
0.16177759 -0.15302494 -0.11108945 -0.1163373 0.014418743 -0.03932504 0.09568174 0.025963444
0.16389214 0.12044463 -0.063109376 -0.039374888 -0.11772668 -0.06600505 0.0145108355 -0.061208833
-0.105673686 0.048393648 -0.052941125 0.0026305006 -0.14761864 0.061643388 0.15211295 -0.09229453
0.068433434 0.045954775 0.071653694 -0.25314683 -0.03552887 -0.14914422 0.05496293 -0.07894609
-0.033393554 0.050167628 0.04237717 -0.17474349 0.16351616 0.034301247 0.13439782 0.16573375
-0.02801013 0.077429146 0.11838395 0.021787452 0.09134455 -0.124032564 0.102839485 -0.028146148
-0.2048168 -0.021449931 0.0751164 0.26484728 -0.02027545 -0.1200334 -0.13195208 0.046156097
0.17892112 -0.17953062 0.09407462 0.014892545 -0.074849404 -0.1615024 0.009697294 0.14137784
0.1487087 -0.041882332 0.032032292 0.10327327 0.01443188 -0.09912472 -0.18094991 -0.18818426
0.279388 -0.035500158 -0.07281818 -0.15937898 0.20966952 -0.023734068 -0.030122483 0.13286689
0.22633566 0.10589302 0.0953007 -0.0037194618 -0.07277692 -0.1672884 0.044339877 -0.22699279
-0.04328921 0.2505475 0.09048597 0.15983178 0.05630165 -0.04363626 -0.060105737 0.12760884
-0.21562988 -0.17525825 -0.060956486 -0.010088758 -0.04596751 0.10270328 0.114331946 0.32199404
-0.017879002 0.115220204 0.2152808 -0.08334866 0.12620333 0.18878293 0.053047504 -0.011809515
0.022915982 0.1009439 -0.037621655 -0.023826635 -0.1889675 -0.03688638 -0.13130802 -0.037189696
-0.04188974 -0.16308965 -0.024822082 -0.08965359 0.043126244 -0.017583651 0.064094596 0.060719937
0.045264482 -0.030194819 0.06648857 0.044408593 -0.1884854 -0.14871916 -0.13822773 0.096502565
0.06908334 -0.13663764 0.015501308 0.13682939 -0.11682319 0.0089142965 0.17946635 0.094682895
0.14340876 0.057702474 -0.109764606 -0.088209115 0.0069625988 0.20556849 0.11667152 -0.05645429
-0.033229142 0.04348556 0.024286443 0.09217061 0.012251175 0.062482502 -0.12125672 0.06359776

decoder.lstm.weight_hh_l0 f4 [160, 40]
00000000: 9f8c 28bb 5371 47be 3aa8 713e da2f a6be
00000010: 39a9 70be 3387 d7bd 578f 253e 43fe 363e
00000020: 8170 04be aeed be3c 16a1 963d 0440 313e
00000030: 19f4 8bbe c17b 933e 95cb 413d bf08 133e
00000040: 232b babd e298 673e df82 14be 7c1c d73b
00000050: 6597 c1bb fa87 eb3d fb41 25be 9959 d1bd
00000060: b6be 9b3e f601 883e d560 44be ac2d 2cbe
00000070: 1337 2b3e 6ce4 d0bd 21f4 1e3e cb58 063c
00000080: 674c 11be 1d83 0cbc a64c 32bd 83e9 d6bd
00000090: 22f4 38be fb64 12bd c5bd a4bd e225 e03d
000000a0: 85a4 d0bd f9bf d9bd 7114 72bd 75ec f73d
000000b0: 5ed5 603d c501 ef3c e619 8fbd aa82 0ebd
000000c0: 374d 013e 1613 b1bd 568f fe3c a09f 0e3d
000000d0: ef29 0dbe 576c a93d 74e1 3fbd d4dc 4cbe
000000e0: 7f61 bbbd 7a7f 713e f749 003e 2d0f 38bd
000000f0: a369 9a3e 1a56 f03d aca5 dfbd cdde 3c3c
00000100: 8929 c83d 2785 473c fbed fa3d 2b50 153e
00000110: 7823 2a3e f9b6 be3d e6b4 6f3e 2182 a1bc
00000120: 381d e3bd 6ece a63e 4e94 a5bd 5eaa 58be
00000130: 42ce e53d 89a4 a0bc a5c5 8c3d 0cc2 113d
00000140: 00ee 9abd 160c dc3d 6c15 fa3d e669 e4bc
00000150: ad99 8cbd c5a7 8c3e 70f1 c8bc d30c 87bc
00000160: d911 70bd d633 d0bd d03f 623d eecc 8abd
00000170: abd1 90bd 70f2 0d3e 73ff d03c 24be acbd
00000180: d756 0bbe 07ed 3f3e 315a 4e3d bcf9 12bd
00000190: ebac 123e 6345 ea3d dc76 2ebe 0711 f5bd
000001a0: d4d1 5bbd 38d6 52bc 7870 ff3d 78bc 2f3e
000001b0: 625e 09bd 4cdd c1bd 0de7 8ebb ea38 f23c
000001c0: cb33 e9bd f85b 0f3e db85 42bc 0c93 01be
000001d0: 49e7 2cbc ce49 41bd 2863 c03d 2a70 083e
000001e0: 45e1 eabc 3325 aa3d 9506 013d 9d8c ba3d
000001f0: 7da5 1a3e 9c4f fb3d 4445 85bd d3af 1ebb
00000200: b0b5 66be a829 3ebd 33fd a2bd 2083 adba
00000210: a787 36be 536d fdbc 74f5 b6bc ce6e fd3d
00000220: 5ffa 923d ee06 cc3d ccb6 2cbe f8a8 343e
00000230: 803a a13d 1ab8 35be 9b63 a33d 7e87 3c3d
00000240: 2fe6 a0bc 18ab 0e3e a5db 763e eb07 103e
00000250: d4ed e5bd 85e4 123e 0e8c d43d 7dd1 a2bd
00000260: 6823 8cbd d6ff f43d ba4a fb3c e03c 50be
00000270: 4f86 c23d f69c 183e d350 8a3d 768d 9fbd
00000280: 569d a83b 5dfe 87bc a8fc 9fbd 0966 f9bc
00000290: 6c7d 203e 7cbe 3c3e 8877 de3d 58cc ac3d
000002a0: dfae e9bc 0490 df3d 4fc3 15be 3e54 cb3d
000002b0: c56c 70bd 35f1 8b3d 72e9 99bd ff1c 0b3e
000002c0: d4a8 dcbd 72c0 84bd 8bbd 8cbd 8ec1 7fbd
000002d0: 0075 4f3e b4f7 92bd 7dff de3d 72f8 943e
000002e0: c754 adbd ef86 cc3d e651 c83c 1109 1abe
000002f0: c74b c0ba efd6 a7bd 4514 d33d 167b 36be
00000300: a0ef 5a3d 68bb 0d3e 9ab1 393e 2e4b 15bd
00000310: faac e43b 73c1 953b 9f9f 813d 30c6 72bd
00000320: a4e2 b9bd 84e3 cfbc 42ac d0bd 6f2e cbbd
00000330: b116 4cbd 4e64 ea3d 58b7 d1bd 38bf 113e
00000340: 76f8 be3d fafa 2dbe 5631 7f3d ab33 6dbc
00000350: f4b1 ec3c d014 643b f9b7 553c 6c64 06be
00000360: ce66 9a3c d705 673d 4eb7 6d3d 9de6 26be
00000370: 9aa3 9a3c 0c21 083e 5959 2b3e 1251 1d3d
00000380: 250a 4cbd fdb3 173d b802 d53d 559b 653e
00000390: 86d9 153d ea6e 073e 1b7e c9bd c5f7 7fbc
000003a0: b8c8 96bd 4d8f 373e 39f2 013e 81ef 45be
000003b0: 7b96 2a3d 1b64 b63d 7abb a53d 47f0 8f3d
000003c0: bd2b b53d f73f b1bc 59e3 c33d 5ad1 93bd
000003d0: 5956 203d 077b c5bc 8e0b 713d d07b bdbd
000003e0: f3e5 a03d c4a2 bfbd 4c1d 6abc fadf 69bd
000003f0: 76d4 c9bd cfd2 c3bc 8647 cbbd 9abb 14be
-0.0025718582 -0.19476824 0.2359933 -0.32458383 -0.23502053 -0.10523834 0.16167961 0.1787043
-0.12933542 0.023306694 0.073549435 0.17309576 -0.2733467 0.28805354 0.04731329 0.14358805
-0.09090259 0.22616914 -0.14503048 0.006564675 -0.00590794 0.11500545 -0.16138451 -0.102221675
0.30418938 0.26563996 -0.19177563 -0.16814297 0.16720228 -0.10199818 0.15522815 0.008199881
-0.14189301 -0.008576182 -0.04353013 -0.104937576 -0.1806188 -0.035740834 -0.08044008 0.109447256
-0.101876296 -0.10632319 -0.059101526 0.121056475 0.054890983 0.029175648 -0.069873616 -0.03479258
0.12627111 -0.086462185 0.031074207 0.0348202 -0.13785528 0.08272617 -0.04684587 -0.20006114
-0.09149455 0.23583785 0.12528215 -0.044936348 0.3015872 0.117351726 -0.10920271 0.011527729
0.09773547 0.012177742 0.122524224 0.14581363 0.16615093 0.09312243 0.23408851 -0.01971537
-0.110895574 0.32579368 -0.080849275 -0.2115874 0.11220981 -0.019609706 0.06873635 0.03558545
-0.07564926 0.10744493 0.12211117 -0.027882528 -0.06865249 0.27471748 -0.024529189 -0.016485607
-0.05861077 -0.10166137 0.055236638 -0.067773685 -0.07071241 0.13862014 0.025512433 -0.08434704
-0.13607346 0.18742763 0.050378982 -0.035882697 0.14323775 0.11439016 -0.17037529 -0.11966138
-0.053666905 -0.012868457 0.124726236 0.17161739 -0.033537276 -0.09466037 -0.0043610395 0.029568154
-0.11386832 0.13999927 -0.011872734 -0.1265375 -0.01055319 -0.047189526 0.093939126 0.13324037
-0.02867187 0.083078764 0.031500418 0.09108851 0.15102191 0.12271044 -0.06507352 -0.0024213686
-0.22530246 -0.046426445 -0.0795845 -0.0013237931 -0.17825185 -0.030935919 -0.022333838 0.1237465
0.07176661 0.09962259 -0.16866606 0.17642581 0.07872486 -0.1774601 0.079779826 0.046027653
-0.01964101 0.13932455 0.24107225 0.1406552 -0.11227003 0.14344986 0.10378276 -0.07950113
-0.06842691 0.11962859 0.03067528 -0.20335722 0.094982736 0.14903626 0.06753697 -0.077906534
0.005145709 -0.016600782 -0.07811862 -0.030444162 0.15672845 0.18432039 0.108626425 0.08437413
-0.028525768 0.10916141 -0.14625286 0.09928177 -0.05869748 0.06833116 -0.07515229 0.1358528
-0.10774389 -0.064820185 -0.0687209 -0.062440448 0.20259476 -0.07176152 0.10888574 0.290958
-0.084634356 0.09986674 0.024453115 -0.15042521 -0.0014671021 -0.08195292 0.103066005 -0.17820391
0.05345118 0.13841021 0.18134156 -0.03644865 0.006978628 0.00457018 0.063292734 -0.059271038
-0.090764314 -0.025377043 -0.101891056 -0.09920966 -0.049826328 0.11444913 -0.10240048 0.142331
0.09324734 -0.16990271 0.06230291 -0.014477651 0.028893448 0.0034802444 0.013044351 -0.13124245
0.01884785 0.056402054 0.05803614 -0.1629891 0.01887684 0.13293856 0.16733302 0.038407393
-0.049814362 0.037036885 0.10400909 0.22422536 0.0365844 0.13225904 -0.09838506 -0.015623038
-0.07362503 0.17925759 0.12690057 -0.19329645 0.041647416 0.08905812 0.08092399 0.07028251
0.08846233 -0.021636946 0.095648475 -0.07217665 0.039144848 -0.024106516 0.05884891 -0.09252131
0.07856359 -0.09357217 -0.0142892115 -0.057098366 -0.09854977 -0.023904232 -0.099257514 -0.1452469
