models/202-seed-100-synctwin/itr-0-nsc.pth.pth (torch, 349933 bytes, 20 tensors)

B f4 [400, 200]
0	0x38d1b717	1e-04
1	0xbf911e13	-1.1337303
2	0xbf5aad78	-0.8542094
3	0xbf877d22	-1.0585063
4	0x3e55f797	0.2089523
5	0x400b668b	2.1781337
6	0xbf605e78	-0.8764415
7	0xbf8454af	-1.0338343
8	0xbf8ab2af	-1.083578
9	0xbf555041	-0.8332558
10	0xbf8d6c99	-1.1048766
11	0xbf987646	-1.1911094
12	0x3f21b704	0.63169885
13	0xbf95aa57	-1.1692609
14	0xbf931536	-1.1490848
15	0xbf8916ff	-1.0710143
16	0xbf92c01e	-1.146488
17	0xbf8367fd	-1.026611
18	0xbf8cd164	-1.1001401
19	0x3dedd165	0.116122045
20	0xbf24e766	-0.64415586
21	0xbf897095	-1.0737482
22	0x3fa1fb94	1.26549
23	0xbf65bb4f	-0.89738935
24	0xbf95c704	-1.170136
25	0xbf966bff	-1.1751708
26	0x40bcccab	5.899984
27	0xbf846b21	-1.0345193
28	0xbf227770	-0.634635
29	0xbf8b3609	-1.0875865
30	0x3ffd11b1	1.9771024
31	0xbf70d89f	-0.9408054
32	0xbf67bd86	-0.90523565
33	0xbf9c37c4	-1.2204518
34	0xbf950a3f	-1.1643752
35	0xbefc6bde	-0.49301046
36	0xbe408d19	-0.18803824
37	0xbf73cfc8	-0.95238924
38	0xbf490ef2	-0.7853843
39	0xbf30db14	-0.69084287
40	0xbf1e01d3	-0.61721534
41	0xbf921ac1	-1.1414415
42	0x3f317050	0.69312
43	0xbf5d7922	-0.8651296
44	0xbf989e3e	-1.1923292
45	0xbf9d96ee	-1.2311685
46	0xbf943341	-1.1578141
47	0xbf8197cd	-1.0124451
48	0x3f3b8894	0.73255277
49	0x403ce122	2.951241
50	0xbf89de7e	-1.0771024
51	0xbf94121d	-1.1568028
52	0x3f83a02a	1.0283253
53	0x3f5a581b	0.8529069
54	0xbf62a6a5	-0.8853553
55	0xbf9aa119	-1.2080413
56	0x3e6a4541	0.22877981
57	0x4042c29b	3.0431278
58	0xbf1447bd	-0.57921964
59	0xbf8c10a7	-1.0942582
60	0xbf940106	-1.1562812
61	0xbf963b8d	-1.1736923
62	0xbf701a14	-0.9378979
63	0xbf964095	-1.1738459
64	0xbf8ccd3a	-1.100013
65	0xbf655634	-0.8958466
66	0xbf95a73c	-1.1691661
67	0xbf851689	-1.0397502
68	0xbf715318	-0.94267416
69	0xbf9273f5	-1.1441637
70	0xbf91748f	-1.1363696
71	0xbf8a6bf5	-1.0814196
72	0xbf50f1f1	-0.81619173
73	0xbef45be7	-0.47726366
74	0xbf750489	-0.95710045
75	0xbf9dbf14	-1.2323937
76	0xbf8c344f	-1.0953463
77	0xbf8f2c56	-1.1185405
78	0xbf7f8a07	-0.9981999
79	0x4068091d	3.6255562
80	0xbe385218	-0.18000066
81	0xbf86e2a1	-1.0537912
82	0x3e6886f3	0.22707729
83	0xbf770c98	-0.9650359
84	0xbf66146f	-0.8987493
85	0xbf89b9f9	-1.0759879
86	0xbf8179d1	-1.01153
87	0xbf8b34db	-1.0875505
88	0xbf724305	-0.94633514
89	0xbf98b55f	-1.193035
90	0xbf91a53b	-1.1378549
91	0xbf945cd5	-1.159083
92	0xbf96989b	-1.1765321
93	0x3ffa08d0	1.9533939
94	0xbf9938f1	-1.1970502
95	0xbf96be97	-1.1776913
96	0x3ecd92ad	0.40150967
97	0xbf1b15a2	-0.60579884
98	0xbf8eefdc	-1.1166949
99	0xbf885a31	-1.0652524
100	0xbf64238a	-0.8911673
101	0xbf85f155	-1.0464274
102	0xbd89c5e5	-0.067271985
103	0xbf96a19d	-1.176807
104	0xbf5a9e74	-0.8539803
105	0xbd90a037	-0.070618086
106	0xbf9cf279	-1.2261497
107	0xbf94003c	-1.1562572
108	0xbf938786	-1.1525733
109	0x40923cf5	4.569941
110	0xbf9b9cd6	-1.2157238
111	0xbe4add47	-0.19810973
112	0x3eaa58a7	0.3327076
113	0xbf162866	-0.58655393
114	0x3f53f49d	0.82795125
115	0x40168ffa	2.3525376
116	0xbf5bf87d	-0.8592604
117	0xbf9ec295	-1.2403132
118	0x40b37a94	5.608713
119	0xbf88a7a0	-1.0676155
120	0xbf6ea29a	-0.9321686
121	0xbdc9f978	-0.098620355
122	0xbdd027d1	-0.101638444
123	0xbf9951de	-1.1978109
124	0xbf94071b	-1.1564668
125	0x40205598	2.5052242
126	0xbf66ab60	-0.9010525
127	0x3f462f86	0.77416265
128	0xbf248dc9	-0.64278847
129	0xbf8f581d	-1.1198765
130	0x3f9231da	1.1421463
131	0x40189838	2.3842907
132	0xbf9449ed	-1.158506
133	0xbf87f52f	-1.0621699
134	0x4000f833	2.0151489
135	0xbf8bcc09	-1.0921642
136	0xbf905bc7	-1.1278008
137	0xbf8f2456	-1.1182964
138	0xbf82fb2f	-1.0232905
139	0xbf8a0d86	-1.0785377
140	0xbfa4226d	-1.2823006
141	0xbf85da38	-1.045722
142	0xbf4f75f4	-0.8103936
143	0xbf81672e	-1.0109613
144	0xbf955721	-1.1667215
145	0x404c9976	3.1968665
146	0xbf890562	-1.0704768
147	0xbe86a920	-0.26300907
148	0xbf56b973	-0.83876723
149	0x3c86b7b7	0.016445024
150	0x3eb0d9fe	0.34541315
151	0xbf9f9d44	-1.2469869
152	0xbf689561	-0.90852934
153	0xbf1b9f17	-0.60789627
154	0xbf914132	-1.1348021
155	0x40051ff9	2.0800765
156	0x408fd509	4.4947553
157	0xbf86a607	-1.0519418
158	0x3e1bc57a	0.1521205
159	0xbf4eddc8	-0.8080716
160	0xbf77647e	-0.96637714
161	0xbf8225da	-1.0167801
162	0xbf84dac4	-1.0379262
163	0xbf9147a7	-1.1349992
164	0xbf9582e5	-1.1680571
165	0xbf763335	-0.96171886
166	0xbf9722f7	-1.1807545
167	0xbf890c77	-1.0706929
168	0xbf91d3f5	-1.1392809
169	0xbf816915	-1.0110193
170	0xbf7f4055	-0.9970754
171	0xbf9922c1	-1.1963731
172	0x3f3d82d6	0.74027765
173	0xbfa40330	-1.2813473
174	0xbf8ec9cb	-1.1155332
175	0xbf916f88	-1.1362162
176	0xbf7c4c80	-0.9855423
177	0xbf92440b	-1.1427015
178	0x3f23c135	0.63966686
179	0xbf90b8c1	-1.1306382
180	0xbf962fc7	-1.173333
181	0xbf8c8b34	-1.0979981
182	0xbf864b66	-1.049176
183	0xbf8a3334	-1.0796876
184	0xbf416762	-0.75548375
185	0xbf85cc6e	-1.0453012
186	0xbf93ae9e	-1.1537664
187	0xbf8e5551	-1.1119787
188	0xbf90ff41	-1.1327897
189	0x3f97e394	1.1866326
190	0xbefea33f	-0.49733922
191	0xbf83b346	-1.0289085
192	0xbf7d35e3	-0.9891035
193	0xbeb5485c	-0.35406768
194	0xbf95003a	-1.1640694
195	0xbf99d95b	-1.2019457
196	0x3e759c4b	0.23985402
197	0x40046ec5	2.0692608
198	0xbea2f8c1	-0.3183041
199	0x40f96901	7.794068
200	0xbfa354d0	-1.2760258
201	0x38d1b717	1e-04
202	0xbf5dc5bc	-0.86629844
203	0x3fd77de4	1.6835294
204	0xbf711276	-0.94168794
205	0xbfa68a46	-1.3010948
206	0x3eb7c3ad	0.35891476
207	0x3e6786fe	0.22610089
208	0x3eb52cfd	0.35385886
209	0xbe90e262	-0.28297716
210	0x3ef7e404	0.4841615
211	0x3f847f61	1.0351373
212	0xbfa14370	-1.2598705
213	0x3f03a009	0.5141607
214	0x4043cb21	3.059273
215	0x3ff13dae	1.8846948
216	0x3d442eb6	0.04789611
217	0x3f02cb64	0.510916
218	0x3f98f98a	1.1951153
219	0xbf953b46	-1.1658714
220	0xbf42dc22	-0.76117146
221	0x3f874f14	1.0571008
222	0xbf96bd6f	-1.177656
223	0x3dd05956	0.101732895
224	0x3fee87a5	1.8635145
225	0x4014820d	2.3204377
226	0xbfb89de0	-1.442318
227	0x3e91edde	0.2850179
228	0xbdb5617d	-0.08856485
229	0x3f6d5167	0.92702335
230	0xbf9f1b67	-1.2430238
231	0xbebecdf5	-0.37266508
232	0xbe9bcf4c	-0.30431592
233	0x3feb2efa	1.8373711
234	0x3fcb82fa	1.5899346
235	0xbf4739de	-0.77822673
236	0xbf522a5b	-0.8209588
237	0x3eb03508	0.3441546
238	0xbdc9085a	-0.09816046
239	0xbef6aca9	-0.48178604
240	0xbf5ea48d	-0.86969835
241	0x40129faa	2.2909951
242	0xbf9ad39d	-1.2095829
243	0xbf11e1b3	-0.56985015
244	0x400dd2c5	2.2159894
245	0x3fa233a2	1.2672007
246	0x3f635496	0.8880094
247	0x3e48a628	0.19594634
248	0xbf98aa21	-1.1926919
249	0xbfa492ec	-1.2857337
250	0x3ee7ff5f	0.4531202
251	0x40239a7e	2.5563045
252	0xbf885133	-1.064978
253	0xbf9cc312	-1.2247031
254	0xbf1174ed	-0.5681904
255	0x4074664e	3.8187442

encoder.attn_v f4 [20]
0	0x3f02367d	0.5086439
1	0x3fc698e9	1.5515414
2	0x3fbc8579	1.4728233
3	0x3f00447f	0.50104517
4	0x3f01695f	0.5055141
5	0x3f03b56c	0.514487
6	0x3f0b8376	0.5449747
7	0x3efdc7f7	0.49566624
8	0x3ef6f4c0	0.48233604
9	0x3ef3897e	0.47565836
10	0x3ef111e2	0.47083956
11	0x3fbb0b04	1.4612737
12	0x3f0a19ab	0.53945416
13	0x3fbefa3f	1.4920119
14	0x3fc78b6c	1.5589423
15	0x3fc4ee0d	1.5385147
16	0x3fc38950	1.527628
17	0x3fc1ea3e	1.514961
18	0x3ef1b914	0.47211516
19	0x3fd155ec	1.6354346

encoder.lstm.weight_ih_l0 f4 [40, 10]
0	0x3d2ae53c	0.04172252
1	0x3ecf4669	0.40483406
2	0x3daa7bb8	0.08324379
3	0x3ea1bfc6	0.31591624
4	0x3ee8dfd6	0.45483273
5	0x3e1bab80	0.15202141
6	0x3deb5a01	0.11491776
7	0xbe05d82f	-0.13070749
8	0xbd0ca86d	-0.03434031
9	0x3d1473c3	0.03624321
10	0xbe5a31c7	-0.21308051
11	0x3eb75ff8	0.35815406
12	0x3e407af4	0.18796903
13	0x3eb19407	0.34683248
14	0x3de51cc2	0.11187126
15	0x3e738441	0.2378092
16	0x3ee1c66e	0.44096702
17	0x3eb1575f	0.3463697
18	0x3bcf6668	0.0063293464
19	0x3d515da7	0.051114704
20	0xbdab48e9	-0.08363516
21	0x3ed80553	0.42191562
22	0x3e198220	0.14991045
23	0x3ee8f34d	0.45498124
24	0x3da73188	0.08163744
25	0x3eea7c81	0.45798114
26	0x3e8dce0e	0.2769627
27	0x3e269b99	0.16270293
28	0xbb7063f8	-0.003668068
29	0x3e9d80d1	0.30762342
30	0x3e5c05d1	0.21486594
31	0x3d8e7c76	0.06957333
32	0x3ed512cd	0.41615906
33	0x3e5d3766	0.21603164
34	0xbb1b300b	-0.002367976
35	0xbc0f752d	-0.008755964
36	0x3ef96054	0.48706305
37	0x3e9386df	0.28813836
38	0xbdd62902	-0.1045704
39	0x3f07c5f0	0.53036404
40	0x3e3ce82c	0.18447942
41	0xbd3db7ac	-0.04631774
42	0x3e91b209	0.28456143
43	0x3e80e115	0.25171724
44	0x3ea59145	0.32337394
45	0x3d3d3a7f	0.046198364
46	0xbdec5ed1	-0.11541522
47	0x3e21cf9c	0.15801853
48	0x3ec382cd	0.3818573
49	0x3e903746	0.2816717
50	0x3e63828c	0.22217768
51	0x3ea85ddb	0.32884106
52	0x3e5ff4de	0.21870753
53	0x3e837f05	0.25682846
54	0x3ed957ba	0.42449743
55	0x3e419826	0.18905696
56	0x3e8abfb0	0.2709937
57	0x3db0a1eb	0.086246334
58	0x3ed28b13	0.4112173
59	0x3ee46042	0.4460469
60	0x3b968266	0.0045931814
61	0x3e0686d7	0.13137375
62	0x3e828b8e	0.25497097
63	0x3f1dca3f	0.6163673
64	0x3f45b381	0.77227026
65	0x3e32a301	0.17444994
66	0x3e4669f0	0.1937635
67	0x3e1f2a3c	0.15543455
68	0xbd155773	-0.03646035
69	0x3ddece8a	0.10879238
70	0x3ee4160e	0.44548076
71	0x3e98392e	0.29731125
72	0xbce976ec	-0.02849909
73	0x3ee94fda	0.45568734
74	0x3e41da1e	0.18930861
75	0xbe160e3c	-0.14653867
76	0x3ee67c77	0.45016834
77	0x3e1ba685	0.15200241
78	0x3e7c37a1	0.24630596
79	0x3e6d15f7	0.2315291
80	0x3cc2990e	0.023754623
81	0x3eef3338	0.46718764
82	0x3e922747	0.2854559
83	0xbb9ced07	-0.004788998
84	0x3f2d10c4	0.6760371
85	0x3da1cd4b	0.07900485
86	0x3e08b3b5	0.13349803
87	0x3ee67dc9	0.4501784
88	0x3e94ea22	0.2908488
89	0x3d1a8523	0.037724625
90	0x3defc33e	0.11707161
91	0x3dd142cf	0.10217821
92	0x3edee9f9	0.43537882
93	0xbd870500	-0.065927505
94	0x3e053d58	0.13011682
95	0x3daef1f7	0.08542245
96	0xbca103cf	-0.019655136
97	0x3f08a813	0.5338146
98	0x3dc215c7	0.0947681
99	0x3df2ea35	0.11861078
100	0x3e4bc39f	0.19898842
101	0x3dce4723	0.10072162
102	0x3e1f4376	0.15553078
103	0x3e010497	0.12599407
104	0xbe13448b	-0.14381616
105	0x3ebfa6d2	0.3743196
106	0x3c3d9c87	0.011572964
107	0x3e6c59f0	0.23081183
108	0x3ebb57bd	0.36590376
109	0x3e72c386	0.23707399
110	0xbdfda2b3	-0.12384548
111	0x3deb5372	0.11490525
112	0x3e3b4f27	0.18291913
113	0x3e8c6bc4	0.2742597
114	0x3eb24ddd	0.3482503
115	0x3ec2ddca	0.38059837
116	0x3dcce37f	0.10004329
117	0x3ecef8e6	0.4042427
118	0x3d86dc29	0.06584961
119	0xbcdac793	-0.026706493
120	0x3d8a7ac0	0.06761694
121	0x3edea64a	0.43486243
122	0x3ea343ae	0.31887573
123	0x3e89f0e6	0.26941603
124	0x3caa1cb6	0.020765644
125	0x3bc4e063	0.0060081943
126	0x3e215337	0.157544
127	0x3e5f5feb	0.21813934
128	0xbdd309e5	-0.103046216
129	0x3ec90690	0.3926282
130	0x3baaf992	0.0052177394
131	0x3d0e23db	0.034702163
132	0xbd312bd9	-0.043254707
133	0x3e2d9587	0.16951571
134	0xbcedb834	-0.029018499
135	0x3ed24a84	0.41072476
136	0x3ed6a483	0.41922387
137	0x3e4a46ac	0.19753522
138	0x3d2aa206	0.041658424
139	0x3ed50e18	0.41612315
140	0x3eaeed83	0.34165582
141	0x3edd3630	0.43205404
142	0xbdde32a0	-0.108495
143	0x3df77bf3	0.12084188
144	0x3db43661	0.087994345
145	0x3d2a3bbd	0.041560877
146	0x3d993eb5	0.074826635
147	0x3e179adf	0.14805172
148	0x3ef01dd5	0.4689776
149	0xbe4b4c93	-0.1985343
150	0xbdca7b6b	-0.09886821
151	0x3e2ce4c3	0.1688414
152	0x3bf2e791	0.007412859
153	0x3e0df21a	0.13861886
154	0xbd8002df	-0.062505476
155	0xbdff8129	-0.12475807
156	0x3e3b6e59	0.18303813
157	0x3d94b5e5	0.07261256
158	0x3e8bc727	0.2730038
159	0x3ea8806d	0.3291048
160	0x3c7c67a0	0.0154055655
161	0x3ebf7261	0.37391952
162	0x3e9e3fcc	0.30908048
163	0x3dab9f14	0.08379951
164	0xbde8ce00	-0.113674164
165	0x3bbf8360	0.0058445185
166	0x3eb4962c	0.35270822
167	0xbd7f602e	-0.062347583
168	0xbbc0c49c	-0.0058828127
169	0xbd7ee8bd	-0.062233675
170	0x3ec00eb5	0.3751122
171	0x3e6eda40	0.23325443
172	0xbd477961	-0.04869974
173	0x3ed66f32	0.4188171
174	0xbdf184b6	-0.11792891
175	0xbe3d300b	-0.18475358
176	0xbde58fbe	-0.11209057
177	0x3e9d0a9b	0.30672154
178	0x3cce1f69	0.025161462
179	0xbc95e21c	-0.018296294
180	0x3dce1bf5	0.10063926
181	0x3d161064	0.036636725
182	0x3ee6b311	0.45058492
183	0x3e63853c	0.22218794
184	0x3d310171	0.043214265
185	0x3ec8a5b6	0.39188927
186	0xbe0244ec	-0.12721604
187	0x3d3985e9	0.045293722
188	0x3f0d9312	0.55302536
189	0xbd9f395e	-0.07774614
190	0x3e987a0f	0.29780623
191	0xbd193f12	-0.037413664
192	0xbd139805	-0.03603365
193	0x3dadd01d	0.0848696
194	0xbd4f8de7	-0.050672438
195	0x3db3e099	0.08783073
196	0x3caa8f36	0.020820241
197	0x3d76a389	0.060214553
198	0x3e1f3bde	0.15550181
199	0x3d321c7b	0.043484192
200	0xbebd80e0	-0.37012386
201	0xbe02920f	-0.1275103
202	0xbe5fa9eb	-0.21842162
203	0xbea5a0ca	-0.32349235
204	0xbec6da45	-0.388384
205	0x3e2fcb53	0.17167406
206	0xbea1c333	-0.31594238
207	0x3e650c4e	0.22367975
208	0xbe21e9b8	-0.15811813
209	0xbe7c7110	-0.24652505
210	0xbdf7aae7	-0.12093144
211	0x3e3bab19	0.18326987
212	0xbdf2fe4d	-0.1186491
213	0x3eaebfe4	0.34130776
214	0x3e0eaccc	0.13933104
215	0xbe1b26ae	-0.15151474
216	0x3ec53de5	0.38523784
217	0x3e2abf99	0.16674651
218	0x3e743078	0.23846614
219	0x3de797fc	0.113082856
220	0x3e74f7b9	0.23922624
221	0x3d2c32a0	0.042040467
222	0xbdf3bb02	-0.11900903
223	0x3e84a786	0.2590906
224	0x3d5fb240	0.05461335
225	0x3e355caa	0.1771113
226	0xbdea005a	-0.11425848
227	0x3e909a8e	0.28242916
228	0xbe19be0f	-0.15013908
229	0x3e0fd34a	0.14045444
230	0xbecfc01d	-0.40576258
231	0xbeb4d0a2	-0.35315424
232	0xbd95d541	-0.073160656
233	0xbe859b4d	-0.26095048
234	0xbe8930d0	-0.26795053
235	0xbec63494	-0.3871199
236	0x3d72ed01	0.059308056
237	0xbec7b134	-0.39002383
238	0xbea33921	-0.31879523
239	0xbed7cb41	-0.42147258
240	0xbee00a67	-0.43757936
241	0xbe22b4a4	-0.15889221
242	0xbe8d6dce	-0.27622837
243	0xbda84a9e	-0.08217357
244	0xbe054904	-0.13016135
245	0x3dd7d3f5	0.105384745
246	0xbe717fed	-0.23583956
247	0xbe420f81	-0.18951227
248	0xbeceb9c6	-0.4037611
249	0xbe729b21	-0.2369199
250	0x3de47f5a	0.11157103
251	0xbeb2ca40	-0.3491993
252	0xbecb1115	-0.3966147
253	0x3d5e362d	0.054250885
254	0xbc6f1a4c	-0.014593672
255	0x3e298742	0.16555503

encoder.lstm.weight_hh_l0 f4 [40, 10]
0	0xbd9fecef	-0.07808863
1	0x3dca1d7f	0.09868907
2	0xbdcdf967	-0.10057335
3	0xbea47ee4	-0.3212806
4	0x399bf152	0.000297437
5	0xbe3d4c16	-0.18486056
6	0xbd8f676b	-0.07002147
7	0x3e1b49c8	0.15164864
8	0xbd576897	-0.05258998
9	0xbdc64272	-0.09680642
10	0xbd0c8a4c	-0.034311578
11	0x3e4141df	0.18872784
12	0xbc984798	-0.018588826
13	0xbe9c6e4c	-0.305529
14	0x3d17c923	0.037057053
15	0xbe8b5a71	-0.2721744
16	0xbee745e0	-0.45170498
17	0xbe41c77b	-0.18923752
18	0xbf18e29b	-0.5972077
19	0xbeecdae7	-0.4626076
20	0xbdbf923e	-0.09354065
21	0x3d7779d4	0.06041892
22	0x3e4c93b4	0.1997822
23	0xbef8f5bd	-0.48624983
24	0xbe90298d	-0.281567
25	0xbdae872b	-0.08521875
26	0xbe4802ab	-0.19532268
27	0xbe2322e4	-0.15931278
28	0xbeb1e3dc	-0.34744155
29	0xbf0425c0	-0.516201
30	0xbe56e816	-0.20986971
31	0x3e5969c7	0.21231757
32	0x3ec15e6c	0.3776735
33	0xbef42247	-0.47682402
34	0x3d033826	0.03203597
35	0x3d59c168	0.053162962
36	0xbefb0b31	-0.49031976
37	0xbc66f417	-0.0140962815
38	0xbe0584a2	-0.13038877
39	0xbe37539e	-0.17902991
40	0xbea45e5e	-0.32103246
41	0x3e93af96	0.288449
42	0x3ebdb520	0.3705225
43	0xbecd67e4	-0.40118325
44	0xbededd88	-0.4352839
45	0xbea1cc94	-0.31601393
46	0xbdd94613	-0.10609069
47	0xbcaf2cb7	-0.021383626
48	0x3d2b90a8	0.041886
49	0xbe925d43	-0.28586778
50	0xbe92bb24	-0.28658402
51	0xbdac3a4f	-0.08409559
52	0x3cf9aa85	0.030476818
53	0xbcc3b31f	-0.023889123
54	0xbef84d5e	-0.48496526
55	0xbe9cd41e	-0.30630583
56	0xbec01c4a	-0.37521583
57	0xbeee4186	-0.46534365
58	0xbe45df94	-0.1932357
59	0xbe42a193	-0.19006948
60	0xbf0f324e	-0.55936134
61	0xbe11be1e	-0.1423268
62	0x3daba2ea	0.08380683
63	0xbe3b4e59	-0.18291606
64	0xbe78380c	-0.2424013
65	0x3e05e50e	0.13075659
66	0xbeb33102	-0.34998327
67	0xbea2ac3d	-0.31772032
68	0xbe941d69	-0.28928688
69	0xbddf48f7	-0.10902589
70	0xbe914cfb	-0.28379044
71	0x3ded275d	0.115797736
72	0xbd42bd89	-0.047544036
73	0xbe74dbea	-0.23912016
74	0x3d277d2b	0.040890854
75	0xbd995b1c	-0.07488081
76	0xbe36c5da	-0.17848912
77	0xbdaeec1c	-0.08541128
78	0xbe1d337b	-0.1535167
79	0xbe1ac71e	-0.1511502
80	0xbea8eafd	-0.32991782
81	0x3ea13adf	0.31490228
82	0x3e8474c7	0.25870344
83	0x3d9ffe48	0.07812172
84	0xbe9d0350	-0.3066659
85	0xbeb6105a	-0.3555935
86	0xbc978e8a	-0.018500585
87	0x3d49a029	0.049225006
88	0xbe9221f3	-0.28541526
89	0xbee9d3cf	-0.4566941
90	0xbe1ee799	-0.15518035
91	0x3d366eff	0.044539448
92	0xbb86e4ad	-0.0041166157
93	0xbeb81815	-0.35955873
94	0xbc348d04	-0.011019949
95	0x3d1cd81b	0.03829203
96	0xbed45aa3	-0.414754
97	0xbeb56605	-0.35429397
98	0xbeb0f5b5	-0.3456246
99	0xbb05fbcc	-0.0020444272
100	0x3b5ec4b4	0.0033991756
101	0x3ecaaaef	0.39583537
102	0xbd2f4d65	-0.04279842
103	0x3dfb30c5	0.122651614
104	0xbea8e0ad	-0.32983914
105	0x3da7807c	0.08178803
106	0xbe50e78e	-0.20400831
107	0x3e04c6be	0.12966439
108	0xbe76231e	-0.24036834
109	0xbdbf7d22	-0.09350039
110	0xbf0772ac	-0.5290935
111	0xbe137e10	-0.14403558
112	0x3e620f50	0.22076154
113	0xbe5f74f3	-0.21821956
114	0xbe693a79	-0.22776212
115	0xbdeb9958	-0.115038574
116	0xbd26ffba	-0.040771224
117	0xbdd92b14	-0.106039196
118	0xbd9b3a38	-0.07579464
119	0xbe0e64a4	-0.13905579
120	0xbd550834	-0.052009776
121	0x3d3c840d	0.04602437
122	0x3eba22c3	0.36354646
123	0xbe8e1047	-0.27746794
124	0xbe0d43a3	-0.13795333
125	0x3d1c5337	0.038165297
126	0xbc947b44	-0.018125184
127	0xbeac96f2	-0.33708912
128	0x3d5be910	0.053689063
129	0xbe9996ce	-0.29997867
130	0xbe86a732	-0.26299435
131	0x3eb4520f	0.35218856
132	0x3ed6ff58	0.41991687
133	0xbea445b8	-0.3208444
134	0xbe9a86e3	-0.30181035
135	0xbe8d6bc8	-0.27621293
136	0xbed128aa	-0.40851337
137	0xbd4da05d	-0.050201762
138	0x3d5aedd1	0.053449456
139	0xbcc59473	-0.024118638
140	0xbeaf19ad	-0.34199277
141	0x3eb93e1c	0.36180198
142	0x3e6407c4	0.22268587
143	0x3df6a72b	0.120436035
144	0xbe8c7695	-0.2743422
145	0xbecbc572	-0.39799076
146	0xbef05c97	-0.4694564
147	0xbe6f4480	-0.23365974
148	0x3e000471	0.12501694
149	0xbe48bf6a	-0.19604269
150	0xbeb33b16	-0.35006016
151	0x3c9ec481	0.01938081
152	0x3c044477	0.008072964
153	0xbe88760d	-0.26652566
154	0x3dca3ac3	0.09874489
155	0x3d1c4737	0.038153853
156	0xbedf04ef	-0.43558452
157	0xbe2780ba	-0.16357699
158	0xbd7e3aff	-0.06206798
159	0xbe691d26	-0.22765025
160	0xbf18d77a	-0.5970379
161	0x3ee3bfab	0.4448217
162	0xbd8db7fe	-0.06919859
163	0xbe5043ab	-0.20338313
164	0x3d46684d	0.048439313
165	0xbe884080	-0.2661171
166	0x3dda48af	0.106583945
167	0xbee20d2f	-0.44150683
168	0xbee95c19	-0.45578077
169	0xbef066d9	-0.46953467
170	0xbca2ed88	-0.019888654
171	0x3e0a7675	0.1352175
172	0x3ee228c5	0.4417173
173	0xbe9483d9	-0.29006842
174	0xbed4965f	-0.41520974
175	0x3d54b0e3	0.051926505
176	0xbdfc812d	-0.12329326
177	0xbe8dbea0	-0.27684498
178	0xbe0e7e6c	-0.13915414
179	0x3dc82c73	0.09774103
180	0xbe644df3	-0.2229536
181	0xbddf1b27	-0.10893851
182	0x3e99b74b	0.30022654
183	0xbf01215b	-0.5044152
184	0xbe131310	-0.1436274
185	0x3d6f4da7	0.058423664
186	0x3da9c708	0.08289915
187	0xbcbcf6bc	-0.02306687
188	0x3bf00680	0.0073249936
189	0xbed92476	-0.4241063
190	0xbf006293	-0.5015041
191	0x3da7a3b7	0.08185523
192	0x3e5e72a5	0.21723421
193	0xbdfde5a7	-0.12397318
194	0x3d8d5855	0.069016136
195	0xbdf62eca	-0.12020643
196	0x3d90a652	0.07062973
197	0xbd0b2d98	-0.03397903
198	0xbf173977	-0.5907206
199	0xbe0a1963	-0.13486247
200	0x3e27a186	0.1637021
201	0xbe23ad9b	-0.15984194
202	0xbed1e9e4	-0.40998757
203	0xbdbf1e67	-0.09331971
204	0x3e444b57	0.19169365
205	0xbd9e3863	-0.07725599
206	0x3eb23d2c	0.34812295
207	0x3db95561	0.09049488
208	0x3eaf4f54	0.3424021
209	0x3c4ab213	0.012371558
210	0xbcb036fc	-0.021510594
211	0x3dedad4f	0.116053216
212	0x3c5c5f27	0.01345042
213	0xbd91d62b	-0.071209274
214	0xbe802060	-0.250247
215	0xbcfbec5f	-0.030752359
216	0xbed32aa0	-0.41243458
217	0xbe21b257	-0.15790688
218	0xbea1c3f9	-0.31594828
219	0x3d46b265	0.048509974
220	0xbdd0b48f	-0.10190689
221	0xbd697ed8	-0.057005733
222	0x3ec5fd0b	0.3866962
223	0xbe8d9278	-0.2765081
224	0x3d93ae72	0.07211007
225	0xbea4f1b5	-0.32215658
226	0xbee04571	-0.4380298
227	0xbd8a7a35	-0.067615904
228	0x3d7245eb	0.05914871
229	0xbeb653f7	-0.35610935
230	0xbd9856a5	-0.07438401
231	0xbdd923a2	-0.106024995
232	0xbee0c68e	-0.43901485
233	0x3e12db05	0.14341362
234	0xbc98b70c	-0.018641971
235	0x3e17a83b	0.14810269
236	0x3b71aee3	0.0036877922
237	0x3ed6ddd5	0.4196612
238	0x3e3d6b4e	0.18497965
239	0x3be353fc	0.006937502
240	0x3e214716	0.15749773
241	0xbcc45bad	-0.023969496
242	0xbe8ff936	-0.2811982
243	0x3bb843e7	0.005623329
244	0x3e9ad3d1	0.30239728
245	0xbe2264df	-0.15858792
246	0x3c8f6ff0	0.01750943
247	0x3e9a7246	0.3016531
248	0xbde77f4b	-0.11303576
249	0x3e17d08d	0.1482565
250	0x3edcb623	0.4310771
251	0xbe8ec9c4	-0.2788831
252	0xbcd2bcd3	-0.025724804
253	0x3e8d0e3f	0.2754993
254	0x3e036b42	0.12833884
255	0x3eb18f78	0.3467977

encoder.lstm.bias_ih_l0 f4 [40]
0	0x3e695145	0.22784908
1	0x3e1f17c8	0.15536416
2	0xbd536db1	-0.05161828
3	0x3e542ed4	0.20720989
4	0x3eeeb42c	0.46621835
5	0x3df8c338	0.1214661
6	0xbd6784d9	-0.056523178
7	0x3eaac235	0.33351293
8	0x3e731725	0.23739298
9	0x3ed4b27e	0.4154243
10	0x3c958288	0.018250719
11	0x3ec26cad	0.37973538
12	0x3da42f49	0.080168314
13	0x3e17f08a	0.14837852
14	0x3e98c9f7	0.29841587
15	0x3ede922d	0.43470898
16	0x3dc4fa15	0.09618012
17	0x3eb46303	0.3523179
18	0x3caed2cc	0.02134075
19	0x3d60ef8b	0.054915946
20	0x3df5fac3	0.120107196
21	0x3bc30623	0.0059516593
22	0x3eb3ce4a	0.35118324
23	0xbdd7f0fd	-0.10544012
24	0xbe15d30b	-0.14631288
25	0xbeb2122d	-0.34779492
26	0xbed86a1c	-0.42268455
27	0xbe452e72	-0.19255999
28	0x3d02a9af	0.031900104
29	0xbdaed11e	-0.0853598
30	0x3e57db0a	0.2107965
31	0x3da1be9b	0.07897683
32	0x3ea120e7	0.31470415
33	0x3ec4bfe6	0.38427657
34	0x3ec50900	0.3848343
35	0x3d6b5382	0.057452686
36	0x3f0579a3	0.5213873
37	0x3e2f319f	0.17108773
38	0x3eae06f9	0.33989695
39	0x3f1ab905	0.6043857

encoder.lstm.bias_hh_l0 f4 [40]
0	0x3e9e03e0	0.3086233
1	0xbd8c6096	-0.0685436
2	0x3dc4c606	0.096080825
3	0x3e96aa76	0.29426926
4	0x3e5fb471	0.21846177
5	0x3e7a6216	0.2445148
6	0x3e2c210a	0.16809478
7	0xbdb16b31	-0.08663023
8	0x3e4fb24d	0.2028286
9	0x3e34b5ca	0.17647472
10	0x3ece0c7e	0.40243906
11	0x3e85ba2f	0.2611861
12	0x3db2d909	0.087328024
13	0xbd21831c	-0.039431676
14	0x3e188cc3	0.14897446
15	0xba7d36aa	-0.00096593297
16	0x3c4c2773	0.012460577
17	0x3e475b16	0.1946834
18	0xbe031b0a	-0.12803283
19	0x3ccebc6e	0.025236335
20	0xbe31e621	-0.17372943
21	0x3e58a906	0.21158227
22	0x3eb96e64	0.36217034
23	0x3dbe1ca1	0.09282804
24	0xbe68c18e	-0.22730085
25	0xbedab075	-0.4271275
26	0xbd1637e4	-0.036674395
27	0xbe988b1c	-0.29793632
28	0xbd862283	-0.06549551
29	0xbe40aa0a	-0.18814865
30	0x3dce2e6f	0.1006745
31	0x3f11a0e9	0.56886154
32	0x3e75e89c	0.24014515
33	0x3dffb64e	0.12485944
34	0x3ecddd8a	0.40208083
35	0x3e85b2ce	0.2611298
36	0x3d0567a7	0.032569554
37	0x3e85846e	0.26077598
38	0x3f099d1b	0.5375535
39	0x3eb170de	0.34656423

encoder.lstm.weight_ih_l0_reverse f4 [40, 10]
0	0x3e61953e	0.22029588
1	0x3d07e14d	0.033173848
2	0x3ee0016b	0.43751082
3	0xbde06c21	-0.10958124
4	0x3ea1c363	0.3159438
5	0x3e23ce9d	0.15996785
6	0xbe3b5179	-0.18292798
7	0x3e7c267f	0.2462406
8	0x3e52895f	0.20560215
9	0x3e5212b4	0.20514947
10	0xbd7a4487	-0.06110051
11	0xbd024977	-0.031808343
12	0x3df9b85e	0.121933684
13	0x3df4adc2	0.11947204
14	0x3ec33cad	0.3813223
15	0x3d89d915	0.06730858
16	0x3e8544ef	0.26029155
17	0x3dafd662	0.08585812
18	0xbba8cdca	-0.005151485
19	0xbbd6ff53	-0.0065611987
20	0x3e0bf120	0.136662
21	0x3d0e8142	0.03479124
22	0x3ef40b3c	0.4766482
23	0x3ef22304	0.4729234
24	0x3e6d3007	0.23162852
25	0x3dfd7bc5	0.12377123
26	0x3ea4440f	0.32083175
27	0x3e02c007	0.12768565
28	0x3d3b1515	0.045674402
29	0x3dc0b8d5	0.09410254
30	0xbdd040a7	-0.101685815
31	0x3d184526	0.03717532
32	0x3dbeea89	0.09322078
33	0x3e0b0e22	0.1357961
34	0x3ea0433f	0.31301305
35	0x3e90ac51	0.28256467
36	0xbc07ce70	-0.008288965
37	0x3dd05c32	0.10173835
38	0xbd1c6161	-0.038178805
39	0x3e7b005d	0.24511857
40	0xbd86b5ab	-0.06577619
41	0x3b4d8afe	0.0031363363
42	0xbdb322ac	-0.087468475
43	0x3ebffb04	0.37496197
44	0x3e8d2aaf	0.27571627
45	0x3e4ac076	0.1979998
46	0x3d8c3c5e	0.068474516
47	0x3e61a0c3	0.22033982
48	0x3e5e8821	0.21731617
49	0x3e730d1e	0.23735473
50	0x3dddaf9a	0.10824509
51	0x3e6cd4ea	0.23128095
52	0x3dac6d2b	0.0841926
53	0x3d40cc97	0.047070112
54	0x3ea29609	0.31755093
55	0x3eb2919c	0.34876716
56	0x3e4a9954	0.19785053
57	0x3e9403f2	0.2890926
58	0x3e9e3612	0.30900627
59	0x3d452cce	0.048138432
60	0xbda03e90	-0.07824433
61	0xbdb0f0f3	-0.086397074
62	0xbd070fc4	-0.03297402
63	0x3edca57b	0.43095002
64	0xbd5c465d	-0.05377804
65	0x3e23a132	0.1597946
66	0x3e913c18	0.2836616
67	0x3ed34469	0.4126313
68	0x3e99edad	0.30064145
69	0x3e328cc1	0.17436506
70	0xbbbbdb8b	-0.0057329587
71	0x3ed4f96c	0.41596544
72	0x3ee3c16f	0.44483516
73	0xbd8d8c1b	-0.069114886
74	0x3c587958	0.013212524
75	0x3ea66534	0.32499087
76	0x3eab77c0	0.334898
77	0x3f0634b3	0.5242416
78	0x3ef4cf0a	0.47814208
79	0x3e8fa883	0.28058252
80	0xbd5924e2	-0.05301369
81	0x3e50bde0	0.20384932
82	0xbc5d7140	-0.01351577
83	0x3e26cdc3	0.1628943
84	0x3f0bc13a	0.54591715
85	0x3ebc1e9e	0.3674211
86	0x3e553b3c	0.20823377
87	0xbd17c17b	-0.03704975
88	0x3daa63ef	0.08319842
89	0x3ead1153	0.3380228
90	0x3e187da1	0.14891674
91	0x3e8c320f	0.27381942
92	0x3e851cb7	0.2599847
93	0x3e81a1b9	0.25318697
94	0x3e20ffd2	0.15722588
95	0x3dd64057	0.104614906
96	0x3e789631	0.24276043
97	0xbd2c87cd	-0.042121697
98	0x3ebdc3ed	0.37063542
99	0x3edf4337	0.43605968
100	0x3ea7ac17	0.32748482
101	0x3e6a34a5	0.22871645
102	0x3e6a3be7	0.22874413
103	0xbd520df2	-0.05128283
104	0xbcf93cd2	-0.03042451
105	0x3ed3a708	0.41338372
106	0xbdf5958c	-0.119914144
107	0xbdecdc0e	-0.115654096
108	0x3ecdc17b	0.40186676
109	0xbc92ae22	-0.017905299
110	0x3eb479de	0.35249227
111	0xbd89959a	-0.06717987
112	0x3e48295f	0.19547032
113	0x3e51ecfb	0.20500557
114	0x3d0a3683	0.033743393
115	0x3ea822fd	0.32839194
116	0x3e31a715	0.17348893
117	0x3e273cbf	0.16331767
118	0x3e47d142	0.1951342
119	0x3e7814d3	0.24226694
120	0x3e08c546	0.13356504
121	0x3ebe1c0e	0.3713078
122	0x3c0cd3b3	0.008595395
123	0x3e9cefa2	0.30651575
124	0x3e3dcbd2	0.18534783
125	0x3e88f03b	0.2674578
126	0x3d4ac50d	0.04950433
127	0x3ed729b1	0.42023996
128	0x3e76ac6a	0.24089208
129	0x3ede9d63	0.43479452
130	0x3bd3e46d	0.0064664395
131	0x3e2d23a9	0.16908135
132	0x3dbbc014	0.09167495
133	0x3d459c40	0.048244715
134	0x3e5518dd	0.20810266
135	0xbd9095b7	-0.07059806
136	0x3ed09176	0.40735978
137	0x3dd89a31	0.10576285
138	0x3e377a7c	0.17917818
139	0x3e0aa550	0.13539624
140	0x3ec63d0f	0.3871846
141	0xbe24d58e	-0.1609709
142	0x3e36198c	0.17783183
143	0x3e1ee694	0.15517646
144	0x3e604515	0.21901353
145	0xbd936fc3	-0.07199051
146	0x3dc73577	0.097269945
147	0x3d033d94	0.032041147
148	0x3e23fd42	0.16014579
149	0x3e566e34	0.20940477
150	0x3e9fe089	0.31225994
151	0x3ea66e5f	0.3250608
152	0xbd823fef	-0.063598506
153	0xbdbead24	-0.09310368
154	0x3cc56f3a	0.024100889
155	0x3e2d2773	0.1690958
156	0x3c9989d6	0.018742483
157	0xbd1d8fde	-0.03846728
158	0x3edb3f30	0.42821646
159	0x3e531f9c	0.20617527
160	0x3cdaf07e	0.026726004
161	0x3e1f1efd	0.15539165
162	0x39de5c35	0.0004241184
163	0x3e992482	0.29910666
164	0x3e869686	0.26286715
165	0x3eade003	0.3395997
166	0x3e4908b5	0.19632228
167	0xbd2a1c37	-0.041530814
168	0x3e91e18f	0.284924
169	0x3e3fcbcb	0.18730085
170	0xbd90e2f5	-0.070745386
171	0x3d755c56	0.05990251
172	0x3ea9cdc6	0.33164805
173	0xbde601c2	-0.11230804
174	0x3ead0375	0.337917
175	0x3e9eed60	0.31040478
176	0x3e2639ca	0.16232982
177	0x3e5304e7	0.20607339
178	0xbdf9d042	-0.12197925
179	0xbdf8a0fe	-0.12140082
180	0xbca2cfc6	-0.019874465
181	0xbd8b3d38	-0.06798786
182	0x3cd678d2	0.026180658
183	0x3d0d82e5	0.03454866
184	0xbc76d589	-0.015065559
185	0xbd3ebc7b	-0.046566468
186	0x3e0c9b32	0.13731077
187	0x3e7c14ac	0.2461726
188	0x3e8729ed	0.26399174
189	0x3e60b7c7	0.21945105
190	0xbd8cbae8	-0.06871587
191	0x3eb841cf	0.35987708
192	0xbda243d4	-0.079230934
193	0x3b1dac71	0.0024059082
194	0x3e309d71	0.17247559
195	0xbd9ab0bd	-0.075532414
196	0x3d95ad5f	0.073084585
197	0x3dba5b13	0.09099402
198	0x3da80ccd	0.082055666
199	0xbe02c6bb	-0.12771122
200	0x3c394828	0.011308707
201	0x3d850472	0.064949885
202	0x3da1d48b	0.079018675
203	0xbe768a5d	-0.24076219
204	0xbde7b0a7	-0.11312991
205	0xbe5e1448	-0.21687424
206	0xbe0642ae	-0.13111374
207	0xbd8006ac	-0.062512726
208	0xbe71d9e9	-0.23618282
209	0xbe7fc8cc	-0.24978942
210	0xbb202c14	-0.0024440335
211	0x3e8578ac	0.26068628
212	0x3eb4780d	0.3524784
213	0x3e6ef3ca	0.23335186
214	0xbe265f04	-0.16247183
215	0x3e058bbd	0.13041587
216	0xbd685d10	-0.056729376
217	0x3e34416d	0.17603083
218	0xbe13648f	-0.14393829
219	0x3e983c54	0.29733527
220	0xbe815f0b	-0.25267825
221	0xbec1f19d	-0.3787965
222	0xbee46015	-0.44604555
223	0xbed1f95d	-0.41010562
224	0xbee76cf3	-0.4520031
225	0xbd9c04b5	-0.07618085
226	0xbe4cd042	-0.20001319
227	0xbe42e088	-0.19030964
228	0xbecaadac	-0.39585626
229	0xbd14888e	-0.03626304
230	0x3dacc147	0.08435302
231	0xbb99e9c6	-0.0046970574
232	0xbd8a3f56	-0.067503616
233	0x3e16908d	0.14703579
234	0x3ec12e6e	0.37730736
235	0xbc7122c1	-0.014717759
236	0xbaac583e	-0.0013148857
237	0x3eb3a12f	0.3508391
238	0x3e717fca	0.23583904
239	0x3ca77670	0.020442218
240	0x3e12b38e	0.14326307
241	0x3d1bbf8f	0.03802448
242	0x3e5755b1	0.21028782
243	0x3e99cda6	0.3003971
244	0x3ec5a3e9	0.38601616
245	0xbd0d6196	-0.034516893
246	0xbc998f80	-0.018745184
247	0x3dddb00b	0.10824593
248	0xbe656207	-0.22400676
249	0x3ca1aafd	0.019734854
250	0x3e9a5372	0.3014179
251	0xbd411bdb	-0.047145706
252	0x3e56ca6a	0.20975652
253	0x3e004d70	0.1252954
254	0x3dcf3df4	0.101192385
255	0x3d937e29	0.072017975

encoder.lstm.weight_hh_l0_reverse f4 [40, 10]
0	0xbdfa77c1	-0.122298725
1	0x3e9ae78b	0.30254778
2	0xbd26e38a	-0.040744342
3	0x3eb89faa	0.36059314
4	0x3ee01008	0.4376223
5	0x3ed78386	0.42092532
6	0x3e06803b	0.13134854
7	0x3eb6e191	0.3571897
8	0xbdf14d76	-0.117823526
9	0x3db4fe9f	0.088376276
10	0xbee2caa3	-0.44295225
11	0xbd297268	-0.041368872
12	0xbc85fa35	-0.01635466
13	0x3e341a9c	0.17588276
14	0x3ed48068	0.41504216
15	0x3e9c4604	0.30522168
16	0x3de0aa54	0.109699875
17	0x3e262c16	0.16227755
18	0xbeb5d9f0	-0.35517836
19	0xbd377bce	-0.044795804
20	0xbcac6235	-0.021042923
21	0x3e6912a1	0.22761013
22	0xbea4beec	-0.32176912
23	0xbcb9a29e	-0.02266055
24	0x3ebff0e5	0.37488475
25	0x3e9d0574	0.30668223
26	0xbdb4aded	-0.08822236
27	0x3db20a62	0.086933866
28	0xbe231951	-0.15927626
29	0x3d2a6063	0.041595828
30	0xbe6425ee	-0.22280094
31	0x3e1e8614	0.15480834
32	0xbca774b7	-0.020441396
33	0x3e2b222c	0.16712254
34	0x3e8cb2d7	0.27480194
35	0x3c8da29c	0.017289452
36	0x3e92de17	0.28685066
37	0x3e332155	0.17493184
38	0xbdf8d178	-0.12149328
39	0x3ed094ff	0.40738675
40	0xbea724e0	-0.3264532
41	0x3deefb98	0.116690814
42	0xbe9a5b3d	-0.30147734
43	0x3eebc2ea	0.46047145
44	0x3ed149b4	0.40876544
45	0x3e997cd8	0.2997806
46	0x3ea4ea3c	0.32209957
47	0x3daa59b5	0.083178915
48	0xbe3f5962	-0.1868644
49	0x3eb91d62	0.3615523
50	0xbef0b407	-0.4701235
51	0x3e869c2a	0.2629102
52	0xbecab1dc	-0.3958882
53	0x3e0d1906	0.13779077
54	0x3e931dfb	0.2873381
55	0x3eeef89d	0.46674052
56	0x3ddeca69	0.108784504
57	0x3f071a1c	0.52774215
58	0xbeda431a	-0.4262932
59	0x3e8715ea	0.26383907
60	0x3de26d74	0.11056033
61	0xbdd22272	-0.10260476
62	0xbee41400	-0.4454651
63	0xbd9f3861	-0.07774425
64	0x3ed9fb54	0.4257456
65	0x3e81a8ad	0.25324002
66	0x3eedd1e7	0.46449205
67	0x3eaff9b7	0.34370205
68	0xbecbfdf5	-0.3984219
69	0x3d06832d	0.032839943
70	0xbee10d24	-0.43955338
71	0x3df4d0ea	0.1195391
72	0xbee7753e	-0.45206636
73	0x3ded7eae	0.11596428
74	0x3ec1182d	0.37713757
75	0x3c2c62fd	0.0105216475
76	0x3e5c956e	0.21541378
77	0x3e1d0443	0.15333657
78	0xbe5104a8	-0.20411932
79	0xbd5f7751	-0.05455715
80	0xbec5e123	-0.38648328
81	0x3eec2d22	0.46128184
82	0xbe577343	-0.21040063
83	0x3c0a947e	0.008458255
84	0xbd1b44af	-0.0379073
85	0xbdb6b740	-0.08921671
86	0x3eaea05c	0.3410672
87	0x3e9f2cf3	0.3108898
88	0xbe97ba1a	-0.29634172
89	0x3e4ac5d1	0.19802023
90	0xbd4de32e	-0.050265484
91	0x3e6a80f0	0.22900748
92	0xbc6964b9	-0.014245206
93	0xbe1611fa	-0.14655295
94	0x3e2d7772	0.16940096
95	0x3debddc4	0.11516908
96	0x3ecdb948	0.4018042
97	0xbc84e6c9	-0.016223328
98	0xbd1b2dbc	-0.037885413
99	0x3e19b148	0.15009034
100	0xbdf63f9d	-0.12023852
101	0x3e9c21f2	0.30494648
102	0xbe8f8204	-0.28028882
103	0x3e92e37e	0.28689188
104	0x3e5c7264	0.21528012
105	0xbdabb935	-0.08384935
106	0x3da02286	0.07819085
107	0x3daff59f	0.085917704
108	0xbeb2f220	-0.34950352
109	0x3e9108d3	0.28327045
110	0xbe9788f2	-0.29596668
111	0x3d8a303d	0.06747482
112	0xbeb124aa	-0.34598285
113	0x3de09440	0.109657764
114	0x3ee6505a	0.44983178
115	0xbd3d2670	-0.046179235
116	0x3e7c46c6	0.24636373
117	0x3e26a946	0.1627551
118	0x3c5e20ae	0.013557596
119	0x3edfdd14	0.43723357
120	0xbd81b5b2	-0.06333484
121	0x3dd7b8c5	0.10533289
122	0xbd2725d6	-0.040807568
123	0xbd7dbd35	-0.06194802
124	0x3eb7a5de	0.35868734
125	0x3ed17072	0.409061
126	0x3e15b08f	0.14618133
127	0x3ea2d07f	0.31799695
128	0x3c77ced2	0.015124993
129	0xbdc82d3b	-0.09774252
130	0xbe834bae	-0.25643677
131	0x3c0d4cc4	0.008624259
132	0xbe08f3d0	-0.13374257
133	0x3c1cfb09	0.009581336
134	0x3ec68f93	0.38781413
135	0xbdbfed54	-0.093714386
136	0x3e4e017d	0.20117755
137	0x3e16e4c7	0.14735709
138	0xbea8f0da	-0.32996255
139	0x3ee27352	0.44228607
140	0x3e390900	0.1806984
141	0x3eeebf70	0.4663043
142	0x3e2c3745	0.16817959
143	0xbca9c929	-0.020725803
144	0x3ee51567	0.4474289
145	0x3e36ae08	0.17839825
146	0xbd60767d	-0.0548005
147	0x3f024b89	0.5089651
148	0xbed7dec9	-0.4216216
149	0x3e85694b	0.26056895
150	0xbe82852e	-0.25492233
151	0x3d88298c	0.066485494
152	0xbe986fca	-0.29772788
153	0x3ecdf4bd	0.40225783
154	0x3ef33ee7	0.47508928
155	0x3ea0a4e4	0.31375802
156	0x3bdfa3f7	0.006824966
157	0xbd764ba8	-0.060130745
158	0x3cc518ec	0.024059735
159	0x3e202932	0.15640715
160	0xbe91c518	-0.28470683
161	0x3e3c213e	0.18372056
162	0xbd7334b8	-0.05937645
163	0x3e1d6966	0.15372238
164	0x3e5c5716	0.21517596
165	0x3e9ba696	0.30400532
166	0x3d091629	0.0334684
167	0x3f09dac2	0.5384942
168	0xbc8204f4	-0.015871502
169	0x3ed44362	0.4145766
170	0xbce902bc	-0.028443687
171	0x3eb6a91b	0.35675892
172	0xbe8634aa	-0.26212054
173	0xbd2e710c	-0.04258828
174	0x3e6336b6	0.2218884
175	0x3dd44229	0.103641815
176	0x3cb463fc	0.022020333
177	0x3e96f7a7	0.2948582
178	0x3d82a1be	0.06378506
179	0x3eca3eec	0.3950113
180	0xbeed08fa	-0.4629591
181	0x3effb78e	0.4994473
182	0xbd670eb5	-0.05641051
183	0x3e2d8e57	0.1694883
184	0x3ea24828	0.31695676
185	0x3d17e5ec	0.037084505
186	0x3ed31bcd	0.41232148
187	0x3d32721d	0.04356586
188	0x3d96ac99	0.07357139
189	0xbcebc39e	-0.028779801
190	0xbdb41045	-0.08792166
191	0x3e62f8c7	0.22165214
192	0xbea8d922	-0.3297816
193	0x3ee60c15	0.44931093
194	0xbcc17146	-0.023613583
195	0x3eab1b8d	0.33419457
196	0x3e655634	0.22396165
197	0x3e700b2f	0.23441766
198	0xbe75174b	-0.23934667
199	0x3db9307b	0.0904245
200	0x3ed48571	0.41508058
201	0x3e2047f0	0.15652442
202	0x3ce54e5b	0.027991464
203	0x3e1c8026	0.1528326
204	0xbe73648d	-0.23768826
205	0xbdf00e3e	-0.117214665
206	0xbec63697	-0.38713524
207	0xbe8580e5	-0.260749
208	0xbdd04dbb	-0.10171076
209	0xbe8be92d	-0.27326337
210	0xbe2bf573	-0.1679285
211	0x3e469790	0.19393754
212	0xbeac625b	-0.3366879
213	0x3d844970	0.064593196
214	0x3e90bdd6	0.28269833
215	0x3e69c82b	0.22830264
216	0x3e84d358	0.25942492
217	0x3e0827df	0.1329646
218	0xbd695f9b	-0.056975942
219	0x3e205422	0.15657094
220	0x3d2af58c	0.041738078
221	0xbe981563	-0.29703817
222	0x3ec9d162	0.3941756
223	0xbe2313b5	-0.15925486
224	0xbea8030c	-0.32814825
225	0xbe66f21d	-0.22553296
226	0xbec45229	-0.38343933
227	0x3c1c0c6f	0.009524449
228	0xbcf33224	-0.029686995
229	0xbe91e799	-0.28497007
230	0x3dbd8e07	0.09255605
231	0xbdb2cdf7	-0.08730691
232	0xbebcd07d	-0.36877814
233	0xbc50a47a	-0.012734527
234	0xbd89b464	-0.0672386
235	0xbcd8f350	-0.026483208
236	0x3e855908	0.26044488
237	0x3e079c6e	0.13243267
238	0xbd798e4c	-0.06092672
239	0x3e044dab	0.12920253
240	0xbe8cc8f2	-0.2749706
241	0x3ed13313	0.4085928
242	0x3e3e6169	0.18591847
243	0x3d0454c7	0.032307412
244	0xbe016639	-0.12636651
245	0xbd3581ec	-0.044313356
246	0x3e40d8ad	0.18832655
247	0x3eadc4c2	0.33939177
248	0xbee7b255	-0.45253244
249	0x3ea85480	0.32876968
250	0xbed25b15	-0.41085115
251	0x3de1a3bc	0.11017558
252	0x3e1d18a3	0.1534143
253	0x3cc2461b	0.02371507
254	0x3e9f6592	0.3113218
255	0x3e08d6d2	0.13363197

encoder.lstm.bias_ih_l0_reverse f4 [40]
0	0x3dc35de4	0.095393926
1	0x3df240e0	0.1182878
2	0xbab92038	-0.0014123982
3	0x3eef0770	0.46685362
4	0x3ed633f9	0.41836527
5	0x3e6f5abc	0.23374456
6	0x3e7cd982	0.24692348
7	0xbc91ce0b	-0.017798444
8	0xbd408200	-0.046998978
9	0x3e383928	0.17990553
10	0x3e93633b	0.28786644
11	0xbe4bd7d3	-0.19906549
12	0x3e488d83	0.19585232
13	0xbc42b81e	-0.011884717
14	0x3ceafee5	0.028685996
15	0x3eae61ff	0.3405914
16	0x3ec3b242	0.38221937
17	0x3e28e016	0.16491732
18	0x3cf6788f	0.030086784
19	0xbdee98a1	-0.116502054
20	0xbe7a324e	-0.24433252
21	0x3eb06bbb	0.34457192
22	0xbdb88390	-0.090094686
23	0x3ed1a73c	0.40947902
24	0x3ec1c60d	0.37846413
25	0xbdc807c4	-0.09767106
26	0x3e0b8b59	0.13627376
27	0xbcf88fad	-0.030341947
28	0xbf065d23	-0.52485865
29	0xbdb18a53	-0.086689614
30	0x3eafb98d	0.34321252
31	0x3ec49060	0.383914
32	0x3f11bbe3	0.5692732
33	0x3db3a1b0	0.08771074
34	0x3ebc79f2	0.36811787
35	0x3e2f838a	0.17140022
36	0x3ead5313	0.33852443
37	0x3edb27ae	0.4280371
38	0x3f146170	0.5796118
39	0x3eba07ef	0.36334178

encoder.lstm.bias_hh_l0_reverse f4 [40]
0	0x3dbdd80e	0.09269725
1	0x3de78303	0.113042854
2	0x3f02048c	0.5078819
3	0x3ebabc09	0.36471584
4	0xbde275ee	-0.110576496
5	0x3ee847af	0.4536719
6	0xbd8b182d	-0.067917205
7	0xbd961ce8	-0.07329732
8	0x3daaee2f	0.08346211
9	0x3e0c2f6d	0.13689966
10	0x3e5e45da	0.21706334
11	0x3eb4e140	0.35328102
12	0xbdc3d28e	-0.095616445
13	0xbd445609	-0.047933612
14	0x3ea11eeb	0.314689
15	0xbdd03677	-0.10166638
16	0x3e1a3111	0.1505778
17	0x3e52dfd1	0.20593192
18	0x3dd8dcb3	0.1058897
19	0x3cd8898c	0.026432775
20	0xbed319db	-0.41230664
21	0xbdfb9fc3	-0.122863315
22	0xbb45471b	-0.0030102197
23	0x3ee484e4	0.44632638
24	0x3e393ed1	0.18090369
25	0x3e955197	0.2916381
26	0x3d19fea1	0.03759635
27	0xbd37b1f1	-0.044847433
28	0xbe034362	-0.12818673
29	0xbdef89f7	-0.116962366
30	0x3f039706	0.5140232
31	0x3e45147e	0.19246098
32	0x3eade631	0.33964685
33	0x3dfb4d8a	0.12270649
34	0x3e38cb8b	0.18046395
35	0x3e46d5d2	0.19417503
36	0x3ea8cca5	0.3296863
37	0x3edbaad3	0.42903766
38	0x3e724bd2	0.23661736
39	0x3e93e01d	0.28881922

decoder.lstm.weight_ih_l0 f4 [80, 20]
0	0x3ab51fb0	0.0013818648
1	0x3da39a2a	0.07988389
2	0x3de6ad26	0.11263494
3	0xbdb2a86f	-0.087235324
4	0x3d621993	0.05520017
5	0xbdb79003	-0.08963015
6	0x3c715444	0.014729563
7	0x3c03fec2	0.008056344
8	0x3dd3236d	0.10309491
9	0xbc4a635b	-0.01235279
10	0x3df44ba9	0.119284935
11	0xbe34d5d0	-0.17659688
12	0xbdf87092	-0.12130846
13	0x3d3cbcb4	0.0460784
14	0x3c94bb06	0.018155586
15	0x3df8330a	0.1211911
16	0xbd81fe06	-0.06347279
17	0xbde6b99d	-0.11265872
18	0xbbc2a108	-0.0059396066
19	0xbdb44e6c	-0.0880402
20	0x3e237904	0.15964133
21	0x3e65895f	0.22415684
22	0x3e463403	0.19355778
23	0xbe1fae1f	-0.15593766
24	0xbe810ba1	-0.25204185
25	0x3db33c0f	0.0875169
26	0x3d9f262c	0.077709526
27	0xbd78cf69	-0.060744677
28	0xbe27c3bb	-0.16383259
29	0xbdad60ed	-0.08465753
30	0x3e167f01	0.14696886
31	0xbcc54d75	-0.024084786
32	0x3e1554f4	0.14583188
33	0x3d3e0d52	0.046399422
34	0x3bda5fd0	0.006664254
35	0x3e8166d3	0.2527376
36	0x3e008e21	0.12554218
37	0xbe0b30f1	-0.13592888
38	0xbddf9877	-0.10917752
39	0x3d9f46d9	0.07777185
40	0xbeb69fe3	-0.3566886
41	0x3e53292d	0.20621176
42	0x3e380e9c	0.17974323
43	0xbe8e3dee	-0.27781624
44	0xbe08c547	-0.13356505
45	0xbe3b9174	-0.18317205
46	0xbe7956b2	-0.24349478
47	0xbdeedfbb	-0.11663767
48	0xbd7721fa	-0.060335137
49	0xbe3d7d7b	-0.18504898
50	0xbe90e055	-0.28296152
51	0x3e3007e2	0.17190507
52	0xbe337dbb	-0.17528431
53	0xbd8de281	-0.06927968
54	0xbd18a26d	-0.037264276
55	0x3da19f2f	0.0789169
56	0x3c39e4de	0.01134607
57	0x3e96e61f	0.29472443
58	0xbe23faf6	-0.16013703
59	0x3e9e32ad	0.30898038
60	0x3d4cfaca	0.05004386
61	0x3d7ff3e6	0.06248846
62	0x3e977997	0.29584953
63	0x3dac0e6f	0.084011905
64	0xbe80eeb7	-0.25182125
65	0xbd1815c7	-0.037130143
66	0xbe4d1f71	-0.20031525
67	0xbd0a27ce	-0.033729367
68	0x3df1315a	0.11776991
69	0x3d47a9e5	0.04874601
70	0x3c32d877	0.010915867
71	0x3e72e40a	0.23719802
72	0x3dc5f146	0.0966516
73	0x3e42ae7c	0.19011873
74	0x3dfdfc63	0.124016546
75	0x3d25e841	0.040504698
76	0xbd93f3ff	-0.07224273
77	0x3d1a253d	0.03763317
78	0x3de89715	0.113569416
79	0x3d8e1132	0.069368735
80	0xbe75da2e	-0.2400901
81	0x3dd0e431	0.10199774
82	0xbe112a76	-0.14176354
83	0xbe341b7d	-0.17588611
84	0x3e140cba	0.1445798
85	0x3e0881e4	0.133308
86	0xbe2e5d6e	-0.17027828
87	0xbe4ac721	-0.19802524
88	0x3d56a002	0.05239869
89	0x3e4ff7db	0.20309393
90	0xbd2bdf23	-0.041960847
91	0xbd81bd15	-0.06334893
92	0x3dc4afc7	0.09603839
93	0x3c0fadae	0.008769436
94	0x3e3adb3a	0.18247691
95	0x3cd63062	0.026146118
96	0xbc4f78ed	-0.012663108
97	0xbd8a360a	-0.067485884
98	0xbe47b975	-0.1950434
99	0xbe041cfa	-0.12901679
100	0xbe8b2db3	-0.27183303
101	0xbd7408d9	-0.05957875
102	0x3ae99d0f	0.0017823296
103	0xbe277286	-0.16352281
104	0xbe9ed972	-0.31025273
105	0xbd998927	-0.07496863
106	0xbd2d3a8e	-0.04229217
107	0xbe83f0ab	-0.25769553
108	0x3b6b7abb	0.0035931307
109	0xbd385928	-0.0450069
110	0x3da5b6f3	0.080915354
111	0x3e20e469	0.15712132
112	0x3dc64602	0.09681322
113	0x3e487976	0.19577584
114	0xbe44a14f	-0.1920216
115	0xbdb1ed4a	-0.086878374
116	0xbde2c97a	-0.11073585
117	0x3e19a3f5	0.15003951
118	0xbddb4e8d	-0.10708342
119	0xbdf5e416	-0.120063946
120	0x3d88d74a	0.06681688
121	0xbe15a142	-0.14612296
122	0x3d31018d	0.04321437
123	0xbdf0a001	-0.11749268
124	0xbc2fda0a	-0.010733137
125	0xbda3162e	-0.07963215
126	0xbe485783	-0.19564633
127	0xbe322142	-0.173955
128	0xbe0d3cef	-0.13792776
129	0xbe0048b5	-0.12527736
130	0xbe28cd80	-0.16484642
131	0xbd32a463	-0.043613803
132	0x3cb5aaa1	0.022176089
133	0xbe034e7b	-0.12822907
134	0x3e40ced9	0.18828906
135	0x3d7f3229	0.062303696
136	0x3dee150e	0.116251096
137	0x3e45b3a9	0.19306816
138	0xbe82f0f8	-0.2557447
139	0xbdf06d9c	-0.11739656
140	0xbda3ebbb	-0.080039464
141	0x3bc7dab3	0.006099069
142	0x3e30228f	0.17200683
143	0x3da912b2	0.08255519
144	0xbdd15757	-0.10221737
145	0xbbe348f0	-0.006936185
146	0xbe032cec	-0.12810105
147	0xbe2ebd48	-0.17064393
148	0x3cd0aece	0.025473978
149	0xbe94b750	-0.29046106
150	0x3e41fe2c	0.18944615
151	0xbdcfa781	-0.10139371
152	0x3e4084fb	0.18800728
153	0xbd906623	-0.07050731
154	0xbe7c74f6	-0.24653992
155	0x3e594dd5	0.21221097
156	0xbcf728f4	-0.030170895
157	0x3e2fb2e0	0.17158079
158	0x3d11c5ad	0.03558891
159	0xbe12a1af	-0.1431949
160	0x3e1549f1	0.14578988
161	0xbcbb4588	-0.022860304
162	0xbe113123	-0.141789
163	0xbca81d24	-0.020521708
164	0x3df06dae	0.1173967
165	0xbd7e49c8	-0.062082082
166	0x3d4e4b1b	0.050364595
167	0x3e3934b6	0.18086514
168	0x3e221875	0.15829642
169	0xbd8274e6	-0.06369953
170	0x3e5ec94d	0.21756478
171	0xbd2ba256	-0.041902862
172	0xbc1daa19	-0.009623074
173	0xbdb14016	-0.086548015
174	0xbcebda90	-0.028790742
175	0x3d9066ec	0.07050881
176	0xbe68cb91	-0.22733904
177	0xbda9cc04	-0.08290866
178	0xbe2deb91	-0.16984393
179	0x3e57a0eb	0.21057479
180	0x3d924c08	0.07143408
181	0x3e994b1a	0.2994011
182	0x3e583ed6	0.2111772
183	0xbe0aab01	-0.13541795
184	0xbd12f832	-0.03588123
185	0x3e1c78d5	0.15280469
186	0xbe08166e	-0.13289806
187	0xbe300ca9	-0.1719233
188	0xbdfd4150	-0.12365973
189	0x3dc48290	0.09595215
190	0xbdb903ff	-0.09033965
191	0x3e0d6a47	0.13810073
192	0xbd0cb710	-0.03435427
193	0x3d60a45e	0.054844253
194	0x3e856092	0.2605024
195	0x3e47319d	0.1945252
196	0x3e8ef8bd	0.27924147
197	0xbdf507b0	-0.11964357
198	0xbeb9365c	-0.36174285
199	0x3e4fda2b	0.20298068
200	0xbe1ecd24	-0.15507942
201	0x3e591a6e	0.21201488
202	0xbe047bbc	-0.12937826
203	0x3ddba9bf	0.10725736
204	0xbe32fb2e	-0.1747863
205	0x3dcaf0f5	0.0990924
206	0x3e0aa480	0.13539314
207	0x3dadd974	0.084887415
208	0xbcdd6b25	-0.02702863
209	0xbbc548e6	-0.006020653
210	0xbe077c29	-0.13230957
211	0x3e3c48da	0.18387166
212	0x3d8dbadf	0.069204085
213	0xbd664a07	-0.05622294
214	0x3d5cfa44	0.05394961
215	0x3b79c425	0.0038111296
216	0xbcfe8c6e	-0.031072821
217	0x3dc68749	0.09693772
218	0x3e03a490	0.12855744
219	0x3e5af1cc	0.213813
220	0xbe4275b5	-0.18990214
221	0x3dc7e199	0.09759826
222	0x3e1a0ee6	0.15044746
223	0xbdf6542e	-0.12027775
224	0xbea0370e	-0.31292003
225	0xbe602aa9	-0.21891274
226	0xbecd2c1d	-0.40072718
227	0x3dcce202	0.10004045
228	0xbea462c5	-0.32106605
229	0xbd62c18d	-0.055360366
230	0xbea40c82	-0.32040793
231	0x3caba771	0.020953866
232	0xbd50d048	-0.050979882
233	0x3e72b0e6	0.23700294
234	0x3e505b1b	0.20347254
235	0x3de87bf2	0.11351766
236	0x3de67e44	0.11254552
237	0x3ce49702	0.027904037
238	0xbed1f7dc	-0.41009414
239	0xbc3f0185	-0.011658077
240	0xbea1975f	-0.315608
241	0xbd861ab6	-0.065480635
242	0x3e4acec0	0.19805431
243	0xbe02f61e	-0.12789199
244	0xbe74acd7	-0.23894058
245	0x3cf34895	0.029697696
246	0x3e09ffc3	0.13476472
247	0xbdd6f2fb	-0.104955636
248	0xbe949587	-0.2902033
249	0xbd1a16fd	-0.03761958
250	0x3deb973c	0.11503455
251	0x3ddaa143	0.106752895
252	0xbe430818	-0.19046056
253	0xbd5e95ba	-0.05434201
254	0xbe2bee8e	-0.1679022
255	0x3e919592	0.28434426
