models/104-seed-100-synctwin_ls+lh_no_lasso/best-nsc.pth.pth (torch, 399383 bytes, 20 tensors)

B f4 [400, 200]
0	0x38d1b717	1e-04
1	0x3f85b989	1.0447246
2	0x4033a379	2.8068526
3	0x3f333ee0	0.70017815
4	0xbf4f7f50	-0.8105364
5	0x408c67f9	4.387692
6	0xbf81a1d2	-1.0127509
7	0xbea7ac82	-0.327488
8	0x3f3edcbc	0.74555564
9	0xbf323f42	-0.69627774
10	0x3ce5abd6	0.02803604
11	0x3f94cd7b	1.1625208
12	0xbf3636f1	-0.71177584
13	0xbeecffbc	-0.4628886
14	0x3f0b3292	0.5437404
15	0xbd6bc9ad	-0.05756538
16	0xbf1186e6	-0.56846464
17	0x40203afa	2.5035996
18	0xbf03629d	-0.51322347
19	0x3fcfd4cb	1.6236814
20	0x3f16b2e2	0.58866704
21	0x404e4021	3.222664
22	0xbef921b1	-0.48658517
23	0xbe7cbbab	-0.24680965
24	0xbf5f144f	-0.87140363
25	0xbf1aac95	-0.6041959
26	0x3fe6aafd	1.8020931
27	0x3d298fd6	0.04139694
28	0xbf6245ed	-0.8838795
29	0xbf3e8a84	-0.7443011
30	0x3fb7b7a1	1.4352914
31	0x3f8d62c5	1.1045767
32	0xbf50eaaf	-0.816081
33	0x402b64dc	2.678031
34	0xbf7933da	-0.97344744
35	0xbec24e8e	-0.37950557
36	0xbf73cdf7	-0.9523615
37	0x40610a58	3.5162563
38	0xbf25d159	-0.64772564
39	0xbf3dcc3b	-0.74139756
40	0xbf6903f5	-0.9102166
41	0x3e8002d1	0.2500215
42	0x409a49f7	4.821529
43	0xbed52aa4	-0.41634095
44	0x4003b40f	2.057865
45	0xbcf0aff3	-0.029380774
46	0x3ea3401b	0.31884846
47	0x3e2eb505	0.17061241
48	0xbeae1301	-0.33998874
49	0xbf45df27	-0.7729363
50	0x409b0cce	4.845313
51	0xbf1d9b1b	-0.615648
52	0x407879f7	3.8824441
53	0xbf1b50ae	-0.6066998
54	0xbe38f1e2	-0.18061021
55	0xbee07bde	-0.43844503
56	0x3f7895bc	0.97103477
57	0xbe2988fc	-0.16556162
58	0xbf683aa2	-0.90714467
59	0x40c228f8	6.067501
60	0x3f8d7b4f	1.1053256
61	0x3e237b87	0.1596509
62	0xbdb64aaa	-0.0890096
63	0xbf566904	-0.8375399
64	0x3e3943cf	0.18092273
65	0xbf14a80f	-0.5806894
66	0xbea56e8d	-0.32310906
67	0xbe0a883b	-0.1352853
68	0xbed0ab34	-0.40755618
69	0xbf3f67aa	-0.74767554
70	0x3f3c09f0	0.73452663
71	0x3f7cb7cb	0.98717946
72	0xbf294a47	-0.66128963
73	0xbf48ff99	-0.7851501
74	0x3f05cd61	0.5226651
75	0x3f25bbb3	0.6473953
76	0xbefb30ea	-0.49060756
77	0xbf40f9db	-0.7538125
78	0xbe8d9eb2	-0.27660137
79	0xbf2fb3cd	-0.6863373
80	0x3fa74c02	1.3070071
81	0x3d5bf9a1	0.05370486
82	0x4018c565	2.387048
83	0xbf5bbd5f	-0.8583583
84	0xbf3f296b	-0.74672574
85	0x40191c34	2.3923464
86	0x4004137d	2.0636895
87	0x40c79115	6.23646
88	0xbeebe1dc	-0.46070755
89	0xbf4080e8	-0.75196695
90	0xbe6c3c30	-0.23069835
91	0xbf1d4531	-0.614337
92	0xbd08f41d	-0.03343593
93	0xbf50a21f	-0.8149738
94	0x3d7a1aee	0.06106084
95	0xbf158a8c	-0.5841453
96	0x3f193fce	0.59862983
97	0xbf507441	-0.8142739
98	0xbea06fb8	-0.31335235
99	0x3c97dd63	0.018538183
100	0xbe98fa35	-0.29878393
101	0x40b3ae5d	5.6150346
102	0xbe8285ab	-0.25492606
103	0x3e475cc0	0.19468975
104	0xbef86bc0	-0.48519707
105	0xbe879324	-0.26479447
106	0xbed7379a	-0.42034608
107	0xbf62ae07	-0.88546795
108	0x3d0fc05d	0.03509556
109	0x4045547f	3.0832822
110	0x3f945e27	1.1591233
111	0x3f207f9a	0.62694705
112	0x4022b75f	2.542442
113	0x4037c6b3	2.8715026
114	0x3e40c2bd	0.18824287
115	0xbf314d0e	-0.692582
116	0xbf127ca1	-0.5722142
117	0x3fa01b68	1.2508364
118	0xbf2138aa	-0.6297709
119	0x408f0389	4.4691815
120	0xbe60a3ee	-0.21937534
121	0x401e6a3b	2.4752338
122	0x4021f31a	2.5304627
123	0xbd907b4b	-0.07054766
124	0x3fb903c8	1.4454279
125	0x3f58faf4	0.84757924
126	0xbf592369	-0.84819657
127	0xbf51433d	-0.8174322
128	0xbf45e318	-0.7729964
129	0x3e74cf81	0.23907281
130	0x40a2a248	5.0823097
131	0x3e03919a	0.12848511
132	0x3e8246fc	0.25444782
133	0x406c83e3	3.6955497
134	0x3d93ee4a	0.072231844
135	0xbf4371d6	-0.76345575
136	0xbf289565	-0.6585296
137	0xbe0bbf92	-0.13647297
138	0xbe0ff07b	-0.1405658
139	0xbefc793d	-0.49311247
140	0xbf31401a	-0.69238436
141	0xbd8c6915	-0.0685598
142	0xbe8d7455	-0.27627817
143	0xbf26c1ee	-0.65139663
144	0x4039e90f	2.9048498
145	0xbf06dc70	-0.5268011
146	0xbf26cd6c	-0.651572
147	0xbf202fbf	-0.62572855
148	0x3fa35033	1.275885
149	0xbebc33d2	-0.36758286
150	0xbe63779c	-0.22213596
151	0x407ac3c4	3.9181986
152	0xbefa00a5	-0.48828617
153	0x3de00af4	0.10939589
154	0xbe64e49e	-0.22352836
155	0x3f6b0433	0.9180328
156	0xbe40839d	-0.18800206
157	0xbf58c059	-0.846685
158	0x3f324736	0.6963991
159	0xbf43c412	-0.76471055
160	0xbf2bc9f6	-0.6710504
161	0xbf224534	-0.63386846
162	0xbf5f01aa	-0.87111914
163	0x400fc55d	2.246421
164	0x4012144f	2.2824895
165	0xbf4fecf5	-0.8122094
166	0x3f180f99	0.593988
167	0x3f3a4808	0.7276616
168	0xbdb7032e	-0.08936153
169	0xbf6181d6	-0.8808874
170	0x3ff4cadb	1.9124407
171	0x4087cb9f	4.243606
172	0xbf070cb6	-0.5275377
173	0xbf035db1	-0.51314837
174	0x3f35c442	0.7100259
175	0xbeb5b87d	-0.35492316
176	0xbf53c53c	-0.8272283
177	0xbf2cfe52	-0.6757556
178	0x3fdccbfa	1.7249749
179	0x3f51442c	0.8174465
180	0xbefc9638	-0.49333358
181	0xbe8ddfed	-0.27709904
182	0xbe0dc1f8	-0.13843524
183	0xbf41fbb4	-0.75774693
184	0x3fbf1612	1.492861
185	0x3fce86ea	1.6134923
186	0xbf0a453e	-0.54011905
187	0x3f853e4f	1.040964
188	0xbefee54d	-0.49784318
189	0xbf45ee0a	-0.77316344
190	0xbeefb70c	-0.4681934
191	0xbf2b8445	-0.669987
192	0x3d2f0048	0.042724878
193	0xbf08b71c	-0.534044
194	0xbe578ea4	-0.21050507
195	0xbf5bb9b4	-0.85830235
196	0xbf3d9a92	-0.7406398
197	0x3f250c2b	0.6447169
198	0x3fce8446	1.6134117
199	0xbf4bac17	-0.79559463
200	0x3ff35a68	1.9011965
201	0x38d1b717	1e-04
202	0xbee5a684	-0.44853604
203	0x3f9c3e8e	1.220659
204	0xbda9b6ea	-0.08286841
205	0xbe428870	-0.1899736
206	0xbeb816d4	-0.35954916
207	0xbf66de97	-0.90183395
208	0xbf399f5d	-0.72508794
209	0x3fb791db	1.4341387
210	0x3fb36448	1.4014978
211	0xbf546e27	-0.8298058
212	0x3ed0b997	0.40766594
213	0xbea9d734	-0.33172
214	0xbf6491dc	-0.89285064
215	0x402f1e23	2.7362144
216	0xbfa59fc8	-1.2939386
217	0x4018eeb2	2.3895688
218	0x3effc848	0.4995749
219	0xbf347bbc	-0.70501304
220	0x3db3ffe5	0.087890424
221	0xbed77dc0	-0.42088127
222	0xbf711073	-0.94165725
223	0xbf86057d	-1.0470425
224	0x3ee4a710	0.4465871
225	0xbedf9fd9	-0.43676642
226	0x3ec2c441	0.38040355
227	0x3fbda77c	1.4816737
228	0x3bed8199	0.0072481153
229	0x3f76c182	0.9638902
230	0xbe8407a3	-0.25787076
231	0x4030229c	2.7521124
232	0x3e98ac26	0.2981884
233	0x402ac117	2.6680353
234	0xbf36a74f	-0.7134904
235	0xbec73e77	-0.38914844
236	0xbef3ee61	-0.47642806
237	0xbdbc7449	-0.09201867
238	0xbf824c3c	-1.0179515
239	0x3ed55c68	0.41672063
240	0xbb9d2072	-0.0047951275
241	0xbf7bc692	-0.9834987
242	0x3fc2615c	1.5185962
243	0xbf56f664	-0.8396971
244	0xbf1cefe7	-0.6130356
245	0x3feb1873	1.8366836
246	0xbf40d4dd	-0.75324804
247	0xbf6fbebf	-0.9365043
248	0xbf722714	-0.9459088
249	0x3f59468d	0.84873277
250	0x406562d8	3.584158
251	0xbf768b11	-0.9630595
252	0x40496278	3.146635
253	0x400cfb1e	2.202827
254	0x405e85ce	3.4769168
255	0x4029a18e	2.6504855

encoder.attn_v f4 [40]
0	0x3f8c71b0	1.0972195
1	0x3f50d2a4	0.8157141
2	0x3f8734e2	1.0563014
3	0x3f5256b8	0.8216357
4	0x3f5c9337	0.8616213
5	0x3f7f3c8b	0.99701756
6	0x3f8964c5	1.0733877
7	0x3f8fa00d	1.1220719
8	0x3f742f5b	0.9538476
9	0x3f77c599	0.96785885
10	0x3f856bde	1.0423543
11	0x3f79afd2	0.97533906
12	0x3f8509a0	1.0393562
13	0x3f6ed39e	0.9329165
14	0x3f91cd8d	1.1390854
15	0x3f6bca91	0.92105967
16	0x3f8a4424	1.0802045
17	0x3f6bea4c	0.92154384
18	0x3f90f586	1.1324928
19	0x3f8b9170	1.0903759
20	0x3f742a52	0.95377076
21	0x3f4cb57c	0.79964423
22	0x3f76cbd3	0.9640476
23	0x3f50dcbf	0.8158683
24	0x3f5f2dec	0.87179446
25	0x3faae114	1.3349938
26	0x3f7e55d5	0.9934972
27	0x3f8dcf21	1.1078836
28	0x3f99c986	1.2014625
29	0x3f929642	1.1452105
30	0x3f70dfc4	0.9409144
31	0x3f61b3f7	0.8816523
32	0x3f6c9e07	0.9242863
33	0x3f8b9943	1.0906147
34	0x3f720409	0.9453741
35	0x3f83bd85	1.0292212
36	0x3f7566ad	0.95859796
37	0x3f80e037	1.0068425
38	0x3f6dac15	0.928407
39	0x3f4f3949	0.80946785

encoder.lstm.weight_ih_l0 f4 [80, 2]
0	0xbe264722	-0.16238073
1	0x3e64c3df	0.22340344
2	0xbd3ce6c4	-0.046118513
3	0x3d923934	0.07139817
4	0x3e03dd22	0.12877324
5	0x3e26722d	0.16254492
6	0xbe26d099	-0.16290511
7	0xbd61a339	-0.055087302
8	0xbe981516	-0.29703587
9	0xbe951a26	-0.29121512
10	0xbe90b94e	-0.28266376
11	0x3da3eb8e	0.08003913
12	0x3e2d85f1	0.16945626
13	0x3e61f14a	0.220647
14	0x3df09acd	0.11748276
15	0x3e8ceba0	0.27523518
16	0x3dcfb1b6	0.101413175
17	0x3dd2d953	0.102953576
18	0x3e1e95a1	0.15486766
19	0xbd0be4b3	-0.03415365
20	0xbe34238c	-0.17591685
21	0x3e6e9bc6	0.2330161
22	0xbc7d6960	-0.015467018
23	0x3e361bb5	0.17784007
24	0xbdf0aeca	-0.11752088
25	0x3e35b2f7	0.17744051
26	0x3e62da6c	0.22153634
27	0x3bcd9c53	0.006274739
28	0xbcea8d15	-0.028631726
29	0x3e02d2c5	0.12775715
30	0xbc4ef2da	-0.0126311425
31	0x3c8c7027	0.017143322
32	0x3e35c519	0.17750968
33	0x3de786bb	0.11304995
34	0xbed04b9a	-0.4068268
35	0xbe08bb62	-0.13352731
36	0x3c06990c	0.0082152
37	0xbba3a35a	-0.0049938383
38	0xbd86e6c5	-0.065869845
39	0x3e663a3c	0.22483152
40	0xbcb7e17b	-0.022446385
41	0xbde1f69c	-0.11033365
42	0xbccb9d13	-0.024855172
43	0x3c96c7a5	0.018405745
44	0xbe5a30d1	-0.21307684
45	0xbdc3d3ae	-0.09561859
46	0xbe376891	-0.17910983
47	0x3d1a956b	0.037740152
48	0xbc59b77a	-0.013288373
49	0xbe262247	-0.16224013
50	0xbd8f79ab	-0.07005628
51	0x3d9732bc	0.07382724
52	0xbba4118d	-0.005006975
53	0x3c42a843	0.011880937
54	0x3e0d95c4	0.13826662
55	0x3e46ca30	0.19413066
56	0x3d9642c0	0.0733695
57	0x3db44cc2	0.08803703
58	0x3ec5d04a	0.38635474
59	0x3e4ad2c0	0.19806957
60	0x3cc85fe7	0.024459792
61	0x3e39f9a8	0.18161643
62	0xbe030f2b	-0.12798755
63	0x3de943f3	0.113899134
64	0xbdaa95e5	-0.08329371
65	0xbcc50416	-0.0240498
66	0x3da578ae	0.080796584
67	0x3d525351	0.051348988
68	0x3ddda00c	0.10821542
69	0x3b1d6cd1	0.0024021158
70	0xbc9fc142	-0.019501332
71	0x3dd39fca	0.10333212
72	0xbea8cecd	-0.32970276
73	0x3e1c0103	0.15234761
74	0xbe842b35	-0.25814214
75	0xbebbbca5	-0.36667362
76	0x3d9562b6	0.07294218
77	0x3d218d01	0.039441112
78	0xbc3ea83f	-0.011636793
79	0x3ceafb16	0.02868418
80	0xbd809164	-0.06277731
81	0x3e50c652	0.20388153
82	0x3bfaa7ec	0.0076494124
83	0xbe274b99	-0.16337432
84	0x3e384b9a	0.1799759
85	0x3b31baa4	0.0027119303
86	0xbc51c706	-0.012803799
87	0x3e4a780e	0.1977236
88	0x3de2b31e	0.1106932
89	0xbe1dd868	-0.15414584
90	0xbe480177	-0.19531809
91	0xbdc2f283	-0.09518912
92	0x3df77b77	0.12084096
93	0xbe5bbe7e	-0.21459386
94	0xbe200867	-0.15628205
95	0xbdc716ca	-0.097211435
96	0xbd8877ca	-0.06663473
97	0x3e6a62d4	0.22889262
98	0xbe2d4c3b	-0.16923611
99	0xbd1aa334	-0.0377533
100	0x3deff2a8	0.11716205
101	0x3d1a10eb	0.03761379
102	0xbe4fd043	-0.2029429
103	0xbd140dac	-0.03614585
104	0xbdec0bd0	-0.115256906
105	0x3e12a547	0.14320861
106	0xbe2ab4e7	-0.16670571
107	0x3da5b8b5	0.08091871
108	0x3e233d86	0.15941438
109	0xbcf12f78	-0.02944158
110	0xbe26e1fb	-0.16297142
111	0x3cdc57de	0.026897367
112	0x3df2936b	0.11844524
113	0x3e0f3775	0.13985999
114	0x3e8867a6	0.26641577
115	0x3e0b925c	0.1363005
116	0x3e02f1af	0.12787507
117	0x3e2a7838	0.16647422
118	0x3e1fca94	0.15604621
119	0xbca97c48	-0.020689145
120	0xbe1eb1ef	-0.15497564
121	0x3eb24053	0.348147
122	0x3cce2797	0.025165362
123	0x3d89b8db	0.067247115
124	0xbef2ec12	-0.47445732
125	0xbec9c05a	-0.39404565
126	0xbc9797bd	-0.018504972
127	0x3e08e6a1	0.13369228
128	0xbf033cf5	-0.5126489
129	0xbde4c084	-0.11169532
130	0xbe8d967c	-0.27653873
131	0xbe0bb6c0	-0.13643932
132	0xbcb0a50f	-0.021563081
133	0x3e4794da	0.19490376
134	0xbba961c7	-0.0051691267
135	0x3ea687a4	0.3252536
136	0x3df3633e	0.11884163
137	0x3da904cc	0.08252868
138	0x3eaee16e	0.34156364
139	0x3ee77a99	0.45210722
140	0x3e1b65a4	0.15175492
141	0x3e6d08cc	0.23147887
142	0xbe6ac156	-0.22925314
143	0xbcc58ce7	-0.024115039
144	0xbe3e460f	-0.18581413
145	0xbe575fbc	-0.21032614
146	0x3d9f9d54	0.0779368
147	0x3daf19c0	0.08549833
148	0x3ed222ac	0.41042078
149	0x3d366cec	0.04453747
150	0xbde02a42	-0.1094556
151	0x3e705841	0.23471166
152	0xbe0ffe6e	-0.14061901
153	0x3e3c5465	0.18391569
154	0xbed9e634	-0.42558444
155	0xbea91531	-0.3302398
156	0xbdbb4526	-0.091440484
157	0xbd4b6c1b	-0.049663644
158	0x3b4dbd92	0.003139351
159	0x3de70586	0.112803504

encoder.lstm.weight_hh_l0 f4 [80, 20]
0	0xbd009df9	-0.031400654
1	0x3d94b6e4	0.07261446
2	0x3d241ece	0.04006844
3	0xbc2dcb7a	-0.010607595
4	0xbde94692	-0.11390413
5	0xbd988780	-0.074477196
6	0x3e2584e8	0.16163981
7	0xbe533f03	-0.20629506
8	0x3cad0ce5	0.021124313
9	0xbef145ba	-0.4712351
10	0x3eb6964a	0.35661536
11	0x3d5c1fa8	0.053741127
12	0xbe11537f	-0.14192007
13	0x3e30c319	0.17261924
14	0xbdd06fd4	-0.101775795
15	0xbe6ba09c	-0.23010486
16	0xbdb3ba4d	-0.087757684
17	0x3d875af8	0.06609148
18	0x3b0532e8	0.0020324532
19	0xbd5e93cb	-0.054340165
20	0xbd30c43e	-0.0431559
21	0xbe56af2d	-0.20965262
22	0x3dd99193	0.10623469
23	0xbd86f2cd	-0.06589279
24	0x3dd5d409	0.10440833
25	0x3ea04282	0.3130074
26	0xbe9288af	-0.28619906
27	0xbe4818d0	-0.19540715
28	0x3e851dc9	0.25999287
29	0xbe836c81	-0.2566872
30	0x3d769919	0.0602046
31	0xbe63f525	-0.22261484
32	0xbe204e7a	-0.15654936
33	0xbe3e59fd	-0.18589015
34	0xbd3b538a	-0.045733966
35	0xbd7e72df	-0.06212127
36	0xbe7e7b96	-0.24851832
37	0xbe4c39f6	-0.19943985
38	0x3ba066e8	0.00489508
39	0x3cd69c7c	0.026197664
40	0xbd0c2a9b	-0.03422032
41	0x3cc9e1c0	0.024643779
42	0x3e1c259c	0.15248722
43	0xbe6dddb3	-0.23229103
44	0x3ec3cd00	0.3824234
45	0x3e74b282	0.2389622
46	0xbe732a5d	-0.23746629
47	0x3da2cb7b	0.07948967
48	0x3e367245	0.17817028
49	0xbe5eb432	-0.21748427
50	0xbe9e5b4d	-0.30929032
51	0xbe5830e8	-0.21112406
52	0xbe6c316d	-0.2306573
53	0xbd877b1d	-0.06615279
54	0x3e3c3952	0.18381241
55	0xbe046dd9	-0.12932529
56	0x3e516891	0.20450045
57	0xbe7c37e7	-0.246307
58	0x3d755cae	0.05990284
59	0x3e16a2d2	0.14710549
60	0x3e993027	0.2991955
61	0xbdb77c26	-0.08959226
62	0xbe2b0518	-0.16701162
63	0x3cbe8519	0.023256825
64	0x3e475c83	0.19468884
65	0x3e22c89d	0.1589684
66	0xbe9449c1	-0.2896252
67	0x3c477ce1	0.01217577
68	0xbe0f01d4	-0.13965541
69	0xbe0b368c	-0.13595027
70	0xbdf5e610	-0.120067716
71	0xbec7ed79	-0.39048365
72	0x3d843b0b	0.06456574
73	0xbdf42f4f	-0.11923086
74	0x3de2f8e0	0.110826254
75	0xbdb849a0	-0.08998418
76	0x3deb60cf	0.11493074
77	0xbed35ea2	-0.41283137
78	0xbdc52966	-0.09627037
79	0x3c60a892	0.013712065
80	0xbdadc241	-0.084843166
81	0x3e144ed1	0.14483191
82	0xbe12f609	-0.14351667
83	0xbc80e3d1	-0.015733631
84	0x3e5bc1f4	0.21460706
85	0x3e9bb57a	0.30411893
86	0xbdd2c2cb	-0.1029106
87	0xbe23fcb6	-0.1601437
88	0xbeb02b06	-0.34407824
89	0xbccf2670	-0.025286883
90	0x3e4273dd	0.18989511
91	0xbeadda5d	-0.3395566
92	0xbe0d9d03	-0.13829426
93	0x3d2953f6	0.041339837
94	0x3e55436d	0.20826502
95	0x3ec6d116	0.38831395
96	0xbefc585d	-0.49286166
97	0xbece7225	-0.4032146
98	0x3e29beab	0.1657664
99	0xbcdfde6b	-0.027327737
100	0xbdc187e6	-0.09449749
101	0x3c8aec9b	0.016958525
102	0xbe5ee38e	-0.21766493
103	0xbe0d4cef	-0.13798879
104	0x3e51876d	0.20461817
105	0x3e401423	0.18757682
106	0x3d1d5aa0	0.038416505
107	0xbe574cab	-0.2102534
108	0x3d42961f	0.047506448
109	0xbeac6e7b	-0.3367804
110	0x3ae3701b	0.0017352136
111	0xbe3b5250	-0.18293118
112	0xbe8ad814	-0.2711798
113	0x3d4ea82c	0.05045335
114	0x3d96f68a	0.07371242
115	0xbcd271b9	-0.025688993
116	0xbe714328	-0.23560774
117	0xbedea062	-0.43481737
118	0xbde139f7	-0.10997384
119	0xbdc706c0	-0.09718084
120	0xbdd87365	-0.10568885
121	0x3e096a8a	0.13419548
122	0xbd99a28e	-0.07501708
123	0x3df14b0e	0.11781894
124	0xbe7647f2	-0.24050882
125	0xbe1382f8	-0.1440543
126	0xbe0944b5	-0.13405116
127	0xbd6e141c	-0.058124647
128	0x3def59e7	0.116870694
129	0x3e2678ca	0.16257015
130	0x3e7144c5	0.2356139
131	0x3e035f32	0.12829283
132	0x3d341a75	0.043970544
133	0x3de3a116	0.11114709
134	0xbdc451b5	-0.09585897
135	0xbe4b7bfd	-0.19871517
136	0x3ed05bca	0.4069503
137	0xbe92eb10	-0.28694963
138	0xbdba1a42	-0.090870395
139	0x3e537da3	0.20653395
140	0x3dfb44a9	0.12268955
141	0x3da0ac4b	0.07845362
142	0xbe56a0ab	-0.20959727
143	0x3dda75cb	0.106669985
144	0xbe976f1f	-0.29576966
145	0xbe41ec50	-0.18937802
146	0xbd5dcd5c	-0.054150924
147	0xbe7622ef	-0.24036764
148	0x3d2b7150	0.04185611
149	0x3e70b193	0.23505239
150	0x3cd965af	0.026537744
151	0x3e1c577c	0.15267748
152	0x3e4af0b9	0.19818391
153	0xbdfa6d3b	-0.12227865
154	0xbddef873	-0.10887232
155	0x3cc7ba02	0.024380688
156	0xbe7befab	-0.24603145
157	0xbe480607	-0.19533549
158	0x3d75148e	0.059834056
159	0xbe0ea825	-0.1393133
160	0x3d29c5f4	0.04144855
161	0xbd99c2f0	-0.075078845
162	0xbd47c888	-0.048775226
163	0xbeb6c7df	-0.35699365
164	0x3ef43250	0.47694635
165	0x3e82eae6	0.25569838
166	0xbe525162	-0.20538858
167	0xbe6a5667	-0.22884522
168	0x3de8a76e	0.1136006
169	0x3dbfd33c	0.09366462
170	0xbe52efce	-0.2059929
171	0xbe3f918a	-0.18707862
172	0xbd6e4266	-0.05816879
173	0xbe21f22c	-0.15815037
174	0x3eb002ce	0.3437714
175	0x3b0c5dec	0.0021418286
176	0xbe0d1725	-0.1377836
177	0x3e03910a	0.12848297
178	0xbe25b3b5	-0.16181834
179	0x3db73494	0.08945575
180	0xbea05d99	-0.3132141
181	0xbd3a047d	-0.045414437
182	0x3d21f664	0.039541617
183	0xbe104bae	-0.1409137
184	0x3dc236d0	0.09483111
185	0x3e58e4fa	0.21181098
186	0x3e7b2380	0.24525261
187	0xbdf27d7a	-0.11840339
188	0xbe5282b4	-0.20557672
189	0xbd8ef207	-0.06979757
190	0x3cdf1c1b	0.027235081
191	0xbd831efe	-0.06402396
192	0xbeb2e625	-0.3494121
193	0x3e730460	0.23732138
194	0x3e2e66e5	0.17031439
195	0xbe8156fd	-0.2526168
196	0xbd619299	-0.055071447
197	0xbe42a595	-0.19008477
198	0x3dc4b245	0.09604315
199	0x3c7f2d34	0.015574742
200	0x3c37056c	0.011170726
201	0x3daf736d	0.085669376
202	0xbe070a8c	-0.13187617
203	0xbdf624a4	-0.120187074
204	0x3de3bd82	0.1112013
205	0x3e4aca1e	0.19803664
206	0xbe9282bd	-0.2861537
207	0xbea03f88	-0.3129847
208	0x3e3a6778	0.18203533
209	0xbe62509b	-0.22101061
210	0xbe22ab32	-0.15885618
211	0xbd2b2f48	-0.041793138
212	0xbe9dbba3	-0.30807218
213	0xbe9d95d7	-0.3077838
214	0x3e95b37e	0.29238504
215	0x3eca7f20	0.39550114
216	0xbe16a90e	-0.14712927
217	0xbeb3a724	-0.35088456
218	0x3e41734f	0.18891643
219	0x3ed78f96	0.42101735
220	0xbceee5f9	-0.029162394
221	0xbe6b9b73	-0.23008518
222	0xbcf5a320	-0.02998501
223	0xbd8de41c	-0.06928274
224	0xbd384b4c	-0.044993684
225	0x3e155a02	0.14585117
226	0xbe2f6e06	-0.17131814
227	0xbdb03921	-0.086046465
228	0x3d022dfd	0.03178214
229	0xbd62f0db	-0.05540548
230	0x3cb06ba3	0.0215357
231	0xbddde1f0	-0.1083411
232	0x3cc2942e	0.023752298
233	0x3d08c0eb	0.033387106
234	0xbe03e7de	-0.12881419
235	0xbdb66587	-0.089060836
236	0xbe2a18cd	-0.16611023
237	0x3d65dbac	0.0561177
238	0x3e32d55a	0.174642
239	0xbe1f4224	-0.15552574
240	0x3e08a9d9	0.13346042
241	0x3d9ac986	0.07557969
242	0xbe079a38	-0.13242424
243	0xbe6e5b6a	-0.23277059
244	0x3f0bce4f	0.54611677
245	0x3d86b867	0.06578141
246	0xbcd0487f	-0.025425194
247	0x3e206d62	0.15666726
248	0x3e8ab270	0.27089262
249	0xbe30fb81	-0.17283441
250	0x3e19a6d3	0.15005045
251	0xbe1900fc	-0.14941782
252	0xbe6e4667	-0.23269044
253	0xbe8d31bd	-0.2757701
254	0x3e49c4be	0.19703957
255	0xbd54635a	-0.05185256

encoder.lstm.bias_ih_l0 f4 [80]
0	0x3cc0f06b	0.02355214
1	0x3dfc9bd8	0.12334412
2	0x3d89499d	0.06703494
3	0x3d81ea93	0.063435696
4	0x3e344af0	0.17606711
5	0x3d9f327b	0.077733
6	0x3dec2418	0.11530322
7	0x3ddd7086	0.10812478
8	0x3e76b337	0.24091803
9	0x3d559f0a	0.052153625
10	0x3e849f6f	0.25902888
11	0x3d0a4cef	0.033764776
12	0xbd15545b	-0.0364574
13	0x3dd09da9	0.10186321
14	0x3d3b1feb	0.045684736
15	0x3d83e8e8	0.06440908
16	0x3d753b01	0.059870724
17	0xbc81a037	-0.015823467
18	0x3df1a2e0	0.11798644
19	0x3d55c4b3	0.05218954
20	0x3e3bab0b	0.18326966
21	0x3e8de019	0.27710035
22	0x3ea55747	0.3229315
23	0x3d8d5902	0.069017425
24	0x3d0860ca	0.03329543
25	0x3ec8511c	0.39124382
26	0x3e444862	0.19168237
27	0x3dbd3a7a	0.09239669
28	0x3ca8e6fb	0.020617953
29	0x3de2501d	0.11050437
30	0x3ec6a0d7	0.38794586
31	0x3e14f46f	0.14546369
32	0x3ee5c83d	0.44879332
33	0x3d896eb9	0.06710572
34	0x3d6060f6	0.05477997
35	0x3e1ccc67	0.15312348
36	0x3e70a856	0.23501715
37	0x3cc19697	0.023631377
38	0x3e206647	0.15664016
39	0x3e87f670	0.26555204
40	0xbe3d0aa8	-0.18461096
41	0xbd244178	-0.0401015
42	0x3e051eb6	0.12999997
43	0xbe86b720	-0.26311588
44	0xbd0444d5	-0.032292206
45	0xbcf09f68	-0.029372886
46	0xbdeb1412	-0.114784375
47	0xbdaeea36	-0.08540766
48	0x3df0bba7	0.11754542
49	0xbcef8a00	-0.029240608
50	0xbea2a84a	-0.3176902
51	0x3d72b5b6	0.059255324
52	0xbde793ae	-0.113074645
53	0xbe1f3afc	-0.15549845
54	0x3bb11ef2	0.0054053003
55	0x3c9899bf	0.018628
56	0xbdc528e0	-0.09626937
57	0x3e15031d	0.14551969
58	0x3b200ab9	0.0024420454
59	0x3e89f2f4	0.2694317
60	0x3e2006af	0.1562755
61	0x3e0466df	0.12929867
62	0x3edc787c	0.43060672
63	0x3ea6cc31	0.3257766
64	0x3d3851f5	0.045000035
65	0x3e99ccd9	0.300391
66	0x3ccae9dc	0.024769716
67	0x3dcf920d	0.10135279
68	0x3ebca1e6	0.3684227
69	0x3e7cfd4c	0.24706
70	0x3e8ad117	0.27112648
71	0x3ea543ee	0.3227839
72	0x3ee41007	0.44543478
73	0x3e76b105	0.24090965
74	0x3e46e4b8	0.19423187
75	0xbd303bba	-0.04302571
76	0x3cd68537	0.026186569
77	0x3e29a3e8	0.16566432
78	0x3ec1d481	0.3785744
79	0x3e532d83	0.2062283

encoder.lstm.bias_hh_l0 f4 [80]
0	0xbdcd870c	-0.10035524
1	0x3e0a4dab	0.1350619
2	0xbe471003	-0.19439702
3	0xbd08e010	-0.033416808
4	0x3e7c8cab	0.24663036
5	0x3e9938b1	0.29926065
6	0xbd5cb397	-0.053882208
7	0xbde681da	-0.11255236
8	0x3e8bef0c	0.27330816
9	0x3e8a0fea	0.26965266
10	0x3dee76a1	0.116437204
11	0x3d852dbd	0.065028645
12	0x3e502621	0.20327045
13	0x3d5bd831	0.053672973
14	0x3e56f8e5	0.20993383
15	0xbd5eec3a	-0.054424502
16	0x3dae540d	0.08512125
17	0xbbf7bd99	-0.0075604436
18	0x3c4a593b	0.012350376
19	0xbd484432	-0.04889316
20	0xbd87f20d	-0.066379644
21	0xbdb53712	-0.088483945
22	0x3ddb8991	0.10719598
23	0x3de0afc4	0.10971025
24	0xbae878dd	-0.0017736215
25	0x3e7fcac0	0.24979687
26	0x3dc91512	0.09818472
27	0xbde33844	-0.11094716
28	0x3e968f5c	0.2940625
29	0x3e8b751e	0.2723779
30	0x3ea0c3d3	0.31399402
31	0x3e79811f	0.24365662
32	0x3eb9e47a	0.36307126
33	0x3e564611	0.20925166
34	0xbe07a546	-0.1324664
35	0xbe556466	-0.2083908
36	0xbbe7d4ce	-0.007074929
37	0x3e368c49	0.17826952
38	0x3e696ff0	0.22796607
39	0xbd8adfd9	-0.06780977
40	0x3e02a4e7	0.12758218
41	0xbe9df3e8	-0.30850148
42	0xbd07c636	-0.033148013
43	0xbdfc1b5f	-0.12309908
44	0x3d9f033a	0.07764287
45	0x3d948a2c	0.07252917
46	0xbd989cc9	-0.074517794
47	0xbdf35a84	-0.11882499
48	0xbde54200	-0.11194229
49	0xbe0e4ee7	-0.13897286
50	0xbe41e194	-0.18933707
51	0xbd97251e	-0.073801264
52	0x3dbb6a0c	0.09151086
53	0xbe5baa6e	-0.21451733
54	0x3e37d4a9	0.17952217
55	0x3d48eaf3	0.04905219
56	0x3c7ba777	0.015359751
57	0x3e4e27a2	0.20132306
58	0xbe3a4b47	-0.18192779
59	0x3ccdac4e	0.025106575
60	0xbd28593d	-0.04110073
61	0x3e211385	0.15730102
62	0x3ed7f9ec	0.42182863
63	0x3e57d685	0.21077926
64	0x3debbcf0	0.11510646
65	0x3e592a97	0.21207653
66	0xbcba075d	-0.02270859
67	0xbe08a43b	-0.13343899
68	0x3ea17ee8	0.31542134
69	0xbc63809a	-0.0138856415
70	0x3eb603ac	0.35549676
71	0x3d448e2c	0.04798715
72	0x3eebd219	0.4605873
73	0x3d8d4456	0.068978
74	0x3b113700	0.0022158027
75	0x3e48100e	0.19537374
76	0x3e546509	0.20741667
77	0x3ea98601	0.3311005
78	0x3e7103d6	0.2353662
79	0xbd9b8b69	-0.0759495

encoder.lstm.weight_ih_l0_reverse f4 [80, 2]
0	0x3e09d685	0.13460739
1	0xbbd36bec	-0.0064520743
2	0xbf1ded69	-0.61690384
3	0xbe6500de	-0.22363612
4	0xbde33d02	-0.11095621
5	0xbe6db6bc	-0.23214239
6	0xbdca7733	-0.09886017
7	0x3d66dcbe	0.05636286
8	0xbe47e13b	-0.19519512
9	0xbd84f683	-0.06492331
10	0x3b95ca89	0.004571263
11	0x3dcce628	0.10004836
12	0x3c5b99f2	0.013403403
13	0x3d8fc23b	0.070194684
14	0xbc93a0d9	-0.018021034
15	0x3d23b395	0.039966185
16	0xbe2136dc	-0.15743583
17	0xbe2a2714	-0.1661647
18	0x3e07ba3e	0.1325464
19	0x3e8a6181	0.27027515
20	0x3e46dcd4	0.19420177
21	0x3e250a4e	0.16117212
22	0x3e0b7431	0.13618542
23	0x3d886523	0.06659915
24	0x3cc45fa6	0.02397139
25	0x3ec2ddea	0.38059932
26	0x3c20e20d	0.00981952
27	0xbe8e9347	-0.2784674
28	0xbb54063b	-0.0032352346
29	0x3e0f9491	0.14021517
30	0xbe458d9b	-0.192923
31	0xbd354e12	-0.044263907
32	0xbd7010a0	-0.058609605
33	0xbdc1a3bd	-0.09455059
34	0x3f031f1f	0.5121936
35	0x3eabc3c7	0.33547804
36	0x3e394f34	0.1809662
37	0xbe823022	-0.25427347
38	0xbe61cbab	-0.2205035
39	0x3edf40d8	0.4360416
40	0xbdfa4315	-0.12219826
41	0xbd4912f0	-0.049090326
42	0xbf0d7644	-0.55258584
43	0x3e5e8d5e	0.21733615
44	0xbe9d976d	-0.3077959
45	0x3e0e239a	0.13880768
46	0x3e28a381	0.16468622
47	0x3d9b24a8	0.07575351
48	0x3c176a8c	0.009241711
49	0x3e3fbb5b	0.18723814
50	0x3da043a6	0.07825403
51	0x3e9eb23e	0.30995363
52	0x3d81512a	0.06314309
53	0xbd2ef693	-0.04271562
54	0x3dc86e76	0.09786694
55	0xbd182662	-0.03714598
56	0x3e2d9d96	0.16954646
57	0x3dcb9c4f	0.09941923
58	0x3eef914e	0.46790546
59	0x3beb73d4	0.0071854386
60	0x3ea1ff5e	0.31640142
61	0xbdb32cfd	-0.08748815
62	0x3e3cb8be	0.18429849
63	0x3e18bb2b	0.14915149
64	0x3deba492	0.11505999
65	0x3e5f2a5a	0.217935
66	0xbe7a0f72	-0.24419954
67	0xbd44b6f9	-0.04802606
68	0x39c3fea8	0.00037383032
69	0x3e041622	0.12899068
70	0xbe90e0cd	-0.2829651
71	0xbdea5750	-0.11442435
72	0x3dc116c9	0.09428174
73	0x3e78ce02	0.24297336
74	0xbdb84332	-0.089971915
75	0xbe8763df	-0.26443383
76	0xbe28a34b	-0.16468541
77	0xbea30b82	-0.31844717
78	0xbdc1e931	-0.09468306
79	0x3e21ab01	0.15787889
80	0xbe60de59	-0.21959819
81	0xbe11e9b3	-0.14249305
82	0x3e8c7df3	0.27439842
83	0x3be5033d	0.0069889114
84	0xbe7d29f6	-0.24723038
85	0x3d8de984	0.06929305
86	0x3e5e49c2	0.21707824
87	0xbe188800	-0.1489563
88	0x3d9522a5	0.072819985
89	0x3d7b130c	0.06129746
90	0x3e1a1ce6	0.15050086
91	0x3df4785a	0.11937018
92	0xbe1a517d	-0.15070148
93	0xbc9412ed	-0.01807543
94	0xbe4e0546	-0.20119199
95	0x3e1fb3af	0.15595888
96	0xbe20de01	-0.15709688
97	0x3e4e608f	0.20154022
98	0x3e16f627	0.14742337
99	0x3d00c97a	0.031442143
100	0xbe28dcca	-0.16490474
101	0xbe39587c	-0.1810016
102	0xbc7ea4d9	-0.015542232
103	0xbd8705da	-0.06592913
104	0xbe3949ba	-0.1809453
105	0xbd14862a	-0.03626076
106	0xbd51ace2	-0.051190265
107	0x3d037f84	0.03210403
108	0xbe008afd	-0.1255302
109	0xbcf8d266	-0.030373763
110	0x3dcdcfe6	0.10049419
111	0x3e0cc86d	0.13748331
112	0x3cd684b1	0.026186319
113	0x3e8b0bac	0.27157342
114	0xbe85442c	-0.26028574
115	0x3d916816	0.07099931
116	0xbc8a3bc8	-0.016874209
117	0xbe4e4fa4	-0.20147568
118	0x3e45346c	0.19258279
119	0xbdbd9bc4	-0.092582256
120	0x3d11ad5f	0.03556573
121	0xbd4faf0e	-0.050704055
122	0xbebaaa8c	-0.36458242
123	0x3db1878e	0.08668433
124	0xbe3d20d4	-0.18469554
125	0x3d1a1fd8	0.037628025
126	0xbe882f97	-0.26598808
127	0x3dc5dee0	0.09661651
128	0xbbf6d5e1	-0.0075328206
129	0xbd6e1422	-0.05812467
130	0x3c3fbe8f	0.011703148
131	0x3e9f8c15	0.31161562
132	0xbde2ba93	-0.110707425
133	0x3e1e27b7	0.15444838
134	0xbe173b01	-0.14768602
135	0xbe58993b	-0.21152203
136	0xbd9c4a2f	-0.07631337
137	0xbc846faf	-0.016166536
138	0x3e93ca97	0.288655
139	0x3e998bc5	0.29989448
140	0x3e4f5e4f	0.2025082
141	0x3e2dd980	0.16977501
142	0x3e69cc7f	0.22831915
143	0x3e41beee	0.1892049
144	0x3ef2e0a3	0.4743701
145	0x3ecf6ab6	0.405111
146	0xbd85f2d4	-0.065404564
147	0xbe8fde4d	-0.2809929
148	0x3e00aaa5	0.12565096
149	0xbd036ff3	-0.032089185
150	0xbe0b8636	-0.13625416
151	0xbe2058c7	-0.15658866
152	0xbdead876	-0.11467068
153	0xbdd8b6c5	-0.105817355
154	0x3eb90b8d	0.36141625
155	0x3e0db90c	0.13840121
156	0xbeb36949	-0.35041264
157	0xbe4b8cb3	-0.19877891
158	0xbc359b68	-0.011084415
159	0x3e5c8001	0.21533205

encoder.lstm.weight_hh_l0_reverse f4 [80, 20]
0	0x3eb8b4b1	0.36075357
1	0xbe07161f	-0.13192032
2	0x3d66266d	0.05618899
3	0xbdea81dc	-0.1145055
4	0xbe8ae72f	-0.27129504
5	0xbe0e69a4	-0.13907486
6	0x3ddb891b	0.1071951
7	0x3df22bbb	0.11824747
8	0x3dacdfd6	0.08441131
9	0x3daf9906	0.08574109
10	0xbd2c9bc1	-0.042140726
11	0xbe3fb8d3	-0.18722849
12	0xbe392438	-0.18080223
13	0x3d8c1609	0.0684014
14	0xbd812aa8	-0.06306964
15	0xbe14ec2c	-0.14543217
16	0x3c3e412e	0.01161222
17	0xbe61c8c8	-0.22049248
18	0xbd11991c	-0.035546407
19	0x3d38c70e	0.04511171
20	0x3e9c1976	0.30488175
21	0x3e0e580c	0.13900775
22	0x3efcb11e	0.4935388
23	0x3dbd3564	0.09238699
24	0x3e63402e	0.22192451
25	0xbf059a92	-0.5218898
26	0xbe231e29	-0.15929474
27	0xbdf49342	-0.1194215
28	0x3dacf026	0.08444242
29	0x3ed12949	0.4085181
30	0x3d56f37c	0.0524783
31	0xbdc0222b	-0.09381517
32	0x3e9662e7	0.29372332
33	0x3d47fec2	0.04882694
34	0xbd973969	-0.07383997
35	0xbd6ea3a6	-0.058261536
36	0xbddfaf5e	-0.109221205
37	0xbe92a8ea	-0.28644496
38	0x3ec8961b	0.3917702
39	0x3cff5de4	0.0311727
40	0x3bcc4ed3	0.0062349825
41	0x3d338d28	0.04383579
42	0x3c96aa1c	0.018391661
43	0x3e9c5fb6	0.30541772
44	0xbe2f7a0a	-0.17136398
45	0x3e8e1564	0.27750695
46	0xbdb85232	-0.090000525
47	0x3e42ec4b	0.19035451
48	0x3e0f0a74	0.13968831
49	0x3ef0308a	0.46912032
50	0xbedba8aa	-0.42902118
51	0x3b01bc22	0.0019795974
52	0x3e86f04a	0.263552
53	0xbdc1b12e	-0.094576225
54	0x3d7fcbe6	0.062450312
55	0x3e559a28	0.20859587
56	0x3e0f98c8	0.14023125
57	0xbf217184	-0.63063836
58	0x3e8a11cd	0.26966706
59	0xbdde7741	-0.1086259
60	0xbd06501f	-0.032791253
61	0xbeb2764e	-0.34855884
62	0x3e3f4002	0.18676761
63	0xbdc1e848	-0.09468132
64	0xbdabd178	-0.08389562
65	0x3e305cfd	0.17222972
66	0x3e195ed0	0.14977574
67	0x3cf38ab2	0.029729221
68	0x3e251455	0.16121037
69	0xbdbdf1b6	-0.09274618
70	0x3d45c46d	0.04828303
71	0x3ccf588b	0.025310775
72	0x3e958dca	0.2920974
73	0x3db9baa3	0.09068801
74	0xbd2249d7	-0.0396212
75	0x3ddd852c	0.10816416
76	0xbe0c4c2a	-0.1370093
77	0xbe3b650d	-0.18300267
78	0x3c81e388	0.015855566
79	0xbe77804d	-0.24170037
80	0x3e8c247b	0.27371582
81	0xbee1a12a	-0.4406827
82	0x3e1681ed	0.14698
83	0xbcae92e8	-0.021310285
84	0xbdf5aafb	-0.119955026
85	0xbe49dcbe	-0.19713113
86	0x3f00dc3a	0.5033604
87	0x3d6c7bcf	0.05773526
88	0xbe0b119c	-0.13580936
89	0xbe1bbf82	-0.15209773
90	0x3e962527	0.2932522
91	0x3db20f00	0.08694267
92	0x3c81b467	0.015833093
93	0xbe8f22a0	-0.27956104
94	0x3ebd0687	0.36919042
95	0xbe3f77a3	-0.18697982
96	0x3d76d326	0.06025996
97	0x3f0e0412	0.5547496
98	0x3da67829	0.081283875
99	0xbe56955a	-0.2095541
100	0x3c630fa9	0.013858714
101	0xbed5dca5	-0.417699
102	0x3f259c40	0.64691544
103	0xbe869533	-0.26285705
104	0xbebeab71	-0.37240174
105	0x3ec5a2fc	0.3860091
106	0x3e873f5b	0.26415524
107	0x3efa71b6	0.4891488
108	0x3e20111d	0.15631528
109	0x3e08a630	0.13344646
110	0x3dc71e1d	0.097225405
111	0x3d844888	0.06459147
112	0xbdbd547d	-0.092446305
113	0xbf0285f2	-0.50985634
114	0x3df0e407	0.11762243
115	0xbd7eb7da	-0.062187053
116	0x3daf543c	0.08560988
117	0xbd1cc917	-0.03827771
118	0x3f1ba8db	0.6080453
119	0x3e030295	0.12793954
120	0xbda9d3ff	-0.08292388
121	0xbd6dbe83	-0.058043014
122	0x3e04bc47	0.12962447
123	0x3ed64070	0.41846037
124	0xbd59006b	-0.052978914
125	0xbeb952d4	-0.36196005
126	0x3d9d2a46	0.07674079
127	0xbde72ffe	-0.11288451
128	0xbd334b83	-0.043773185
129	0x3e69f32c	0.22846669
130	0xbea1c8dd	-0.3159856
131	0xbe7d4fd5	-0.24737485
132	0xbcbff454	-0.023431934
133	0x3e6477b3	0.22311287
134	0xbddaac1c	-0.106773585
135	0x3e7c06c6	0.24611959
136	0x3e9387cb	0.2881454
137	0x3d5bd2a0	0.053667665
138	0xbe104408	-0.14088452
139	0x3eba522a	0.3639081
140	0xbda88d26	-0.08230047
141	0x3d0996e8	0.03359118
142	0x3d4c55d2	0.049886532
143	0x3e7dc089	0.24780478
144	0x3e208f2c	0.15679616
145	0xbf503050	-0.8132372
146	0xbd1c632e	-0.038180523
147	0xbd3e71e8	-0.04649535
148	0xbd7fac2b	-0.06242005
149	0x3d77d131	0.060502235
150	0x3e4eb923	0.20187812
151	0x3ea20cdc	0.31650436
152	0x3e491c38	0.19639671
153	0x3c8648d8	0.016392156
154	0xbd6ffed4	-0.058592632
155	0xbda7e3a8	-0.08197719
156	0xbea1a6ec	-0.31572664
157	0xbe00dbf2	-0.12583902
158	0x3e83bfe0	0.25732327
159	0x3e39f7c6	0.18160924
160	0x3dd08d4c	0.101832
161	0x3e6091bb	0.21930592
162	0x3e1fa8b6	0.15591702
163	0xbbb26495	-0.005444119
164	0xbd394617	-0.04523286
165	0x3e06ff05	0.1318322
166	0xbe22489b	-0.1584801
167	0xbda0bd74	-0.07848635
168	0x3d9494b2	0.07254924
169	0xbe7a9259	-0.2446989
170	0xbede066e	-0.4336428
171	0x3d8a633e	0.0675721
172	0xbf158a2d	-0.58413965
173	0xbd03be06	-0.032163642
174	0x3e291643	0.16512398
175	0x3d25824d	0.040407468
176	0x3d2dc211	0.042421404
177	0xbdf6db5c	-0.12053558
178	0x3e24d1eb	0.16095702
179	0xbe325b33	-0.17417602
180	0xbd09e7b7	-0.033668246
181	0xbe0691a2	-0.13141492
182	0x3e50a7f6	0.20376572
183	0xbdd72f06	-0.10507016
184	0xbe53b502	-0.20674518
185	0x3e85680b	0.2605594
186	0xbb12189b	-0.0022292498
187	0x3e55c1ed	0.20874758
188	0x3e656a94	0.22403938
189	0xbb59499a	-0.0033155442
190	0xbe8ed08e	-0.2789349
191	0x3eb3d2ed	0.3512186
192	0xbef2d1d3	-0.47425708
193	0x3c2934b9	0.0103275115
194	0xbe234965	-0.15945967
195	0xbdf17cb7	-0.117913656
196	0x3ce7af62	0.028281871
197	0xbdeb1152	-0.11477913
198	0x3e4f03a9	0.2021624
199	0xbe3c5ad4	-0.18394023
200	0x3d197fdd	0.037475456
201	0xbc9e12bf	-0.019296048
202	0x3d8e3498	0.06943625
203	0xbe7ceaf8	-0.24699008
204	0x3dbb829a	0.0915577
205	0xbd8580c9	-0.065187044
206	0x3e4ac176	0.19800362
207	0x3ebc29d4	0.36750662
208	0x3e4549d8	0.1926645
209	0x3e2a2d27	0.16618787
210	0xbdf5ab08	-0.11995512
211	0x3e144991	0.14481188
212	0x3c8be1b2	0.017075393
213	0xbe89f2b8	-0.26942992
214	0x3e305b27	0.17222272
215	0xbda121d8	-0.07867783
216	0xbede5a1b	-0.4342812
217	0x3e971eab	0.29515585
218	0x3d879379	0.06619925
219	0xbec0fcd3	-0.3769289
220	0x3e1e9773	0.15487461
221	0x3df5752d	0.1198524
222	0x3e23c208	0.15991986
223	0xbd0c142b	-0.03419892
224	0xbe817210	-0.25282335
225	0x3e2b7808	0.16745007
226	0xbe2b4f95	-0.16729577
227	0x3e29df8d	0.16589184
228	0xbd51edd7	-0.051252212
229	0x3eeee139	0.46656206
230	0xbe8549af	-0.2603278
231	0xbe1df249	-0.15424456
232	0xbbd86012	-0.0066032493
233	0xbdc14e47	-0.09438758
234	0x3d8fb85c	0.07017586
235	0xbe936f49	-0.2879584
236	0xbe292cfa	-0.16521063
237	0xbe67bf55	-0.22631581
238	0x3e9eac26	0.30990714
239	0xbe970d18	-0.29502177
240	0x3d3cfa60	0.046137214
241	0x3e947e2f	0.2900252
242	0x3ec18abd	0.3780116
243	0xbbb3f5d9	-0.005491954
244	0xbd5560c3	-0.052094232
245	0x3e4daa18	0.20084417
246	0x3e1d3f3b	0.15356152
247	0x3ea9984f	0.33124015
248	0x3ea9b44a	0.33145362
249	0x3ea2df1f	0.31810853
250	0xbeca4081	-0.39502338
251	0xbcc358c6	-0.023846041
252	0x3e05ceae	0.13067123
253	0x3bcbb2bf	0.0062163766
254	0xbd10e290	-0.035372317
255	0x3dbc4860	0.09193492

encoder.lstm.bias_ih_l0_reverse f4 [80]
0	0x3caa562a	0.02079304
1	0x3d31c527	0.04340091
2	0x3d90635d	0.07050202
3	0x3d39d313	0.04536731
4	0x3e157733	0.14596252
5	0x3c8324f8	0.016008839
6	0x3d16e347	0.036837842
7	0xbe1be77a	-0.1522502
8	0x3ea3d4b4	0.31998217
9	0x3e185475	0.14875968
10	0xbc191ebc	-0.009345707
11	0x3ea848ab	0.3286794
12	0xbe3cd7bc	-0.18441671
13	0x3ecbf2c6	0.3983366
14	0x3e5fd754	0.21859485
15	0x3da2015e	0.07910417
16	0x3e6d8e20	0.23198748
17	0xbda29821	-0.079391725
18	0x3d08c9a7	0.033395436
19	0x3e07e77c	0.13271898
20	0x3eb4582e	0.35223526
21	0x3ea5d58f	0.32389495
22	0x3e07eca6	0.13273868
23	0x3e584be8	0.21122706
24	0xbdb5fd03	-0.08886149
25	0x3e96083c	0.29303157
26	0xbca81b0b	-0.020520708
27	0x3da845ee	0.08216463
28	0x3e742005	0.2384034
29	0x3e4edff3	0.20202617
30	0xbdecd43b	-0.11563917
31	0x3d7cd69a	0.061728097
32	0x3e507426	0.20356807
33	0x3da8a331	0.08234251
34	0x3ec5c49c	0.38626564
35	0xbb0996fe	-0.002099454
36	0x3e8a0f17	0.26964638
37	0x3eb6734f	0.35634848
38	0x3e1c8eda	0.15288869
39	0x3cf4f6cc	0.029902838
40	0x3e60df14	0.21960098
41	0x3a72a2c3	0.0009255821
42	0x3d427757	0.047477093
43	0xbdc325f6	-0.09528725
44	0xbe0f9680	-0.14022255
45	0x3e05bb9b	0.13059847
46	0x3d6d3c3e	0.05791878
47	0x3d1b0f61	0.037856463
48	0xbbf18d77	-0.0073716003
49	0xbd92515a	-0.07144423
50	0xbe17d7b4	-0.14828378
51	0x3d72c331	0.05926818
52	0x3c2750f5	0.010212173
53	0xbe100b73	-0.14066868
54	0xbd4f0f3c	-0.050551638
55	0x3ccf994d	0.025341654
56	0xbdb9713f	-0.09054803
57	0xbe3b67ea	-0.18301359
58	0x3e35f271	0.17768265
59	0x3e16a6f8	0.14712131
60	0x3e0ee087	0.13952838
61	0x3e76c9a7	0.24100362
62	0x3eca23de	0.3948049
63	0x3e5a38dc	0.21310753
64	0x3ea80e65	0.32823482
65	0x3df627c9	0.12019307
66	0x3e9f16f4	0.310722
67	0x3e933e83	0.2875863
68	0x3e26e4d2	0.16298226
69	0x3e34eec6	0.1766921
70	0xbd730d8f	-0.059339102
71	0x3d533dc6	0.051572584
72	0x3d8e474c	0.069471925
73	0x3e14b948	0.14523804
74	0x3ec5ffc7	0.38671705
75	0x3dab60e4	0.0836809
76	0x3e892c47	0.26791593
77	0x3e3f6236	0.18689808
78	0x3e8334af	0.25626132
79	0x3e24b76f	0.160856

encoder.lstm.bias_hh_l0_reverse f4 [80]
0	0xbcd34363	-0.025788968
1	0x3dde1cd3	0.108453415
2	0x3e47b18b	0.19501321
3	0x3ee71004	0.45129406
4	0x3d72a7e2	0.059242137
5	0x3e911715	0.28337923
6	0x3d8119c2	0.06303741
7	0xbd1c7954	-0.038201645
8	0x3dd1e3bb	0.10248514
9	0xbdac20be	-0.084046826
10	0xbe3b83e0	-0.18312025
11	0x3d519239	0.05116484
12	0xba4683e9	-0.0007572757
13	0x3ed337df	0.41253564
14	0x3d87b1f4	0.06625739
15	0xbd449ee6	-0.0480031
16	0x3e6afc64	0.22947842
17	0x3e2626c3	0.16225724
18	0x3e3b38f0	0.18283439
19	0xbe11f95d	-0.14255281
20	0x3e9fc18c	0.31202352
21	0x3ebb5cbb	0.36594185
22	0x3e991ebc	0.2990626
23	0x3efe3b2b	0.49654517
24	0xbbce882c	-0.006302854
25	0x3e8be16c	0.2732042
26	0x3e430381	0.19044305
27	0xbd388c33	-0.04505558
28	0x3e2769de	0.16348979
29	0x3e48621d	0.19568677
30	0xbd93a0fe	-0.07208441
31	0x3e2a3f18	0.16625631
32	0x3e9d693c	0.3074435
33	0x3eb9b95c	0.3627423
34	0x3ce38778	0.027774557
35	0x3e2a0609	0.16603865
36	0x3da97428	0.08274108
37	0x3e6210e4	0.22076756
38	0x3e04c686	0.12966356
39	0x3e1ce6e5	0.15322454
40	0x3df70637	0.12061732
41	0x3d5cb306	0.053881668
42	0x3d6901fd	0.05688666
43	0xbb8f0f3e	-0.0043658307
44	0xbe3393d7	-0.17536865
45	0xbe0a5f9a	-0.13513032
46	0xbe245147	-0.1604663
47	0xb9bc8477	-0.00035956848
48	0x3d894724	0.06703022
49	0x3d7f3c52	0.062313385
50	0xbda0f287	-0.078587584
51	0xbd3c6991	-0.045999113
52	0xbde81f97	-0.1133415
53	0xbe8cd812	-0.275086
54	0x3cb08c6b	0.021551332
55	0x3d81ec64	0.06343916
56	0x3d891e31	0.06695212
57	0xbdd9e12a	-0.1063865
58	0x3e478a7e	0.19486424
59	0xbd365e19	-0.044523332
60	0x3e3e55e7	0.18587457
61	0x3f03f57a	0.5154644
62	0x3e0635ac	0.13106412
63	0x3eb8a169	0.36060646
64	0x3d8cef0a	0.068815306
65	0x3e73bd30	0.23802638
66	0xbd3d65ba	-0.046239592
67	0xbdd831d1	-0.10556377
68	0x3e616d22	0.22014287
69	0x3e94d843	0.29071245
70	0x3e432c1c	0.19059795
71	0x3d0583b3	0.0325963
72	0x3e02fdbe	0.12792107
73	0x3ecda5f2	0.4016567
74	0x3ea74439	0.32669237
75	0x3e09aad7	0.13444076
76	0x3d0208bf	0.031746622
77	0x3ec93cf3	0.39304313
78	0x3e906825	0.28204456
79	0x3e95b77e	0.29241556

decoder.lstm.weight_ih_l0 f4 [160, 40]
0	0x3d5fde90	0.05465561
1	0x3d02f99e	0.031976335
2	0x3e6221bd	0.22083183
3	0xbe71f680	-0.23629189
4	0xbdedfc4a	-0.11620386
5	0x3d63c553	0.055608105
6	0x3dae0f03	0.08498957
7	0xbe0d9379	-0.13825788
8	0xbcb0eeab	-0.02159818
9	0x3e305c3e	0.17222688
10	0xbd9be9a2	-0.07612921
11	0xbd2395ed	-0.039937902
12	0xbdb4843b	-0.088142835
13	0xbdd38ee4	-0.103299886
14	0xbcc4c59c	-0.024020009
15	0x3e3bb3e9	0.18330349
16	0xbd3e7e45	-0.04650714
17	0x3e471382	0.19441035
18	0x3dd1452b	0.10218271
19	0x3e42e3e1	0.19032241
20	0xbd45974f	-0.048240002
21	0x3e886d97	0.2664611
22	0x3e8b3649	0.27189854
23	0xbe61ada9	-0.22038902
24	0x3cb06503	0.021532541
25	0xbd406e8f	-0.046980437
26	0x3e1eb8d9	0.15500201
27	0x3d982648	0.074291766
28	0x3cad1169	0.021126466
29	0xbe32cf25	-0.17461832
30	0xbe3d5919	-0.1849102
31	0xbdfa58dd	-0.122239806
32	0xbc5a2004	-0.013313297
33	0xbdb82af4	-0.08992568
34	0xbdac72cb	-0.084203325
35	0xbd707670	-0.0587067
36	0xbe3f9c80	-0.18712044
37	0xbd6caad7	-0.057780113
38	0x3dbfa20c	0.0935708
39	0xbdd546db	-0.10413905
40	0xbd656d13	-0.056012224
41	0x3d8111f4	0.063022524
42	0x3d0d70db	0.034531455
43	0xbd67f595	-0.05663069
44	0x3e2d38a1	0.16916133
45	0x3ea04521	0.3130274
46	0xbd16fd69	-0.036862765
47	0xbd8a53d4	-0.0675427
48	0xbe1a7714	-0.15084487
49	0xbd220143	-0.039551985
50	0xbea44d47	-0.32090208
51	0x3dedc8f0	0.116105914
52	0x3d5f3ef9	0.054503415
53	0x3d820214	0.063480526
54	0xbcc7ba7d	-0.024380917
55	0x3e887044	0.26648152
56	0xbdb60075	-0.08886806
57	0xbdd1d8b1	-0.10246409
58	0xbe068a51	-0.13138701
59	0xbd07eff9	-0.03318784
60	0x3ea81962	0.32831866
61	0x3dbff894	0.093735844
62	0x3e033629	0.12813629
63	0xbe394990	-0.18094468
64	0xbcae970c	-0.02131226
65	0x3db0cc3c	0.086327046
66	0x3e52164e	0.20516321
67	0x3d64413d	0.05572628
68	0x3def4c2b	0.1168445
69	0x3d927fa4	0.07153252
70	0xbd45e1f3	-0.048311185
71	0x3db250d1	0.08706821
72	0xbe1d9a97	-0.15391003
73	0xbe305210	-0.17218804
74	0x3cc843a0	0.024446309
75	0xbdf4ed91	-0.11959375
76	0xbe96ee2c	-0.29478586
77	0x3d6752b7	0.056475367
78	0x3e63e6cc	0.22256011
79	0x3d14c449	0.036320005
80	0xbd9139f8	-0.07091135
81	0xbdfa86be	-0.12232731
82	0x3dc2a4ee	0.09504114
83	0x3dcdef4d	0.100554086
84	0xbd25acfd	-0.040448178
85	0xbdb25c4b	-0.0870901
86	0xbd26aafa	-0.0406904
87	0xbd612316	-0.0549651
88	0x3d88aa6d	0.06673131
89	0xbe20c97e	-0.15701863
90	0x3ae021c8	0.0017099911
91	0xbd32331b	-0.04350577
92	0x3d41aabc	0.047281966
93	0x3dd37073	0.10324182
94	0xbe216fe1	-0.15765335
95	0x3d587042	0.052841432
96	0x3dda6f82	0.106658
97	0xbe02250c	-0.12709445
98	0xbd9145bc	-0.07093379
99	0xbd7dd13f	-0.06196713
100	0xbd8a1436	-0.06742136
101	0xbc66e7f4	-0.014093388
102	0xbc52ba82	-0.01286185
103	0x3d7878f1	0.060662214
104	0x3dfcd625	0.12345532
105	0x3e10ff05	0.14159782
106	0xbde92b63	-0.113852285
107	0xbb8431ec	-0.0040342715
108	0xbdcd0e57	-0.10012501
109	0xbda8ace0	-0.08236098
110	0xbce86eb7	-0.028373105
111	0x3d78b833	0.06072254
112	0xbdc7fec6	-0.09765391
113	0x3dff4212	0.12463774
114	0xbd71e906	-0.05906012
115	0x3d87d811	0.06633008
116	0xbe0cce87	-0.13750659
117	0x3c5f269b	0.013620044
118	0x3e115a62	0.14194635
119	0xbdc06750	-0.09394705
120	0x3d80ecc4	0.062951595
121	0x3d90e543	0.07074978
122	0x3d1e18c5	0.03859784
123	0xbe1e6da9	-0.1547152
124	0xbdce9e27	-0.10088759
125	0xbe6a54c6	-0.22883901
126	0x3d13e79c	0.03610955
127	0xbe03908a	-0.12848106
128	0xbdfd280b	-0.12361153
129	0x3d26b73a	0.040702082
130	0x3d8acd15	0.067773975
131	0xbdccac52	-0.09993805
132	0x3dfa8060	0.12231517
133	0x3cce99d3	0.025219833
134	0x3e3504e1	0.17677642
135	0x3cae3c0e	0.02126887
136	0xbd132eb0	-0.035933197
137	0xbd082336	-0.033236705
138	0x3da5689e	0.08076595
139	0xbd85f18d	-0.06540213
140	0x3d282093	0.04104669
141	0xbc132dfc	-0.0089831315
142	0x3c966813	0.018360173
143	0x3dc919bc	0.098193616
144	0xbdd98d1c	-0.106226176
145	0xbd7e594e	-0.062096886
146	0xbcdb3631	-0.026759239
147	0x3d3f929f	0.04677069
148	0x3c8bc3e5	0.017061183
149	0xbdb2cf86	-0.08730988
150	0xbe132d14	-0.14372665
151	0xbcfa8a2d	-0.030583465
152	0x3dcfdd5b	0.10149642
153	0xbe8413e3	-0.25796422
154	0xbe0cfdc3	-0.13768677
155	0x3dd765d2	0.105174676
156	0xbdb9888b	-0.09059247
157	0xbdd8866d	-0.10572515
158	0x3c5d2d03	0.013499501
159	0xbc20e7ea	-0.009820918
160	0x3c17472b	0.009233276
161	0xbc2a9809	-0.010412225
162	0x3da3bfd8	0.07995576
163	0x3be99cca	0.0071292864
164	0x3de0d5c9	0.10978276
165	0xbcd6e9bb	-0.026234498
166	0xbdfc9a71	-0.12334145
167	0xbde4fad2	-0.11180653
168	0x3dbfc8c0	0.09364462
169	0xbe044967	-0.12918626
170	0xbd767a85	-0.060175437
171	0xbdb188bf	-0.0866866
172	0x3dc049e7	0.09389096
173	0xbdbeac0e	-0.093101606
174	0xbdfb8300	-0.12280846
175	0x3d53935a	0.051654197
176	0x3d0381d5	0.03210624
177	0x3d454aca	0.048167028
178	0xbde9d6a9	-0.11417896
179	0x3cc76d99	0.024344252
180	0xbe07c4fe	-0.1325874
181	0xbd7b050c	-0.06128411
182	0xbc605993	-0.013693231
183	0xbe0a5675	-0.13509543
184	0xbe2bcf48	-0.1677829
185	0x3e913696	0.28361958
186	0x3c60c1d3	0.013718086
187	0x3e7b1f2b	0.24523608
188	0x3de14468	0.109993756
189	0x3d234659	0.03986201
190	0xbe02475e	-0.12722537
191	0x3cd46008	0.025924698
192	0xbd45293c	-0.048135027
193	0xbe007689	-0.12545218
194	0x3c9ba7ad	0.019000852
195	0x3d2c2c7f	0.042034622
196	0xbd8c8772	-0.06861772
197	0x3e453915	0.19260056
198	0xbd851d62	-0.06499745
199	0x3d3c46dc	0.045966014
200	0x3da37ef7	0.07983201
201	0xbc495512	-0.012288349
202	0x3d2b4ebb	0.04182313
203	0xbd10c171	-0.03534073
204	0x3d6d7bfd	0.057979573
205	0x3e2f90f3	0.17145137
206	0x3ba5bcaf	0.005057893
207	0xbd5fa682	-0.054602154
208	0xbe011736	-0.1260651
209	0xbc18a8c9	-0.009317585
210	0xbe2b9649	-0.16756548
211	0xbe1b9aaa	-0.15195718
212	0x3d8b668f	0.06806671
213	0xbe6d41b6	-0.23169598
214	0x3d3884af	0.045048412
215	0x3e77b06b	0.24188392
216	0xbe6e5f6e	-0.23278591
217	0xbe020ec7	-0.1270095
218	0xbd591acd	-0.053004075
219	0xbd37042a	-0.044681706
220	0xbd9dd91b	-0.07707425
221	0xb8b6d12a	-8.717396e-05
222	0x3e1e6a7d	0.1547031
223	0x3e84d01b	0.25940022
224	0x3e4313f8	0.19050586
225	0x3d9433c8	0.07236439
226	0x3d769ce4	0.060208216
227	0x3d4a6b2c	0.049418613
228	0xbd56acca	-0.05241088
229	0x3c7ed831	0.015554474
230	0xbdfe7d7c	-0.12426278
231	0xbd56de88	-0.052458316
232	0x3e0a3a95	0.1349891
233	0xbe5eb3fe	-0.21748349
234	0xbcb60cd4	-0.022222914
235	0x3ca11280	0.019662142
236	0xbe3e9092	-0.18609837
237	0xbe4c2e2f	-0.19939493
238	0x3dd690e0	0.104768515
239	0x3c9888a2	0.01861984
240	0x3e8e46a8	0.2778828
241	0xbd2c434b	-0.042056363
242	0xbddb274e	-0.10700856
243	0xbe134b48	-0.14384186
244	0xbd160413	-0.03662498
245	0x3e84514a	0.2584327
246	0xbb97df1a	-0.00463475
247	0xbd9fffb6	-0.07812445
248	0x3ca48218	0.020081565
249	0x3de206e1	0.11036468
250	0xbd099292	-0.033587046
251	0xbd865459	-0.06559057
252	0x3da98432	0.082771674
253	0x3c870f01	0.016486647
254	0x3c86777e	0.0164144
255	0x3e240103	0.16016011
