models/102-seed-100train_treated-40-19/itr-0-decoder_Y.pth.pth (torch, 1943 bytes, 2 tensors)

lin.weight f4 [5, 40]
000000 09 13 ae 3e 55 21 86 3e cb 15 72 be 8e be 20 3e
       0.33998898 0.26197305 -0.23641126 0.15697691
000010 33 a3 42 3e f4 80 83 be cf c9 8c be a8 11 63 be
       0.19007568 -0.2568432 -0.27497718 -0.22174704
000020 fc 8e da bd d7 6c be be c9 71 62 3e e4 ff 50 3e
       -0.10671803 -0.37192413 0.22113718 0.20410115
000030 f3 4f 27 3e 78 02 41 bc 8b 1a 5a be 0e 20 c4 3c
       0.16339092 -0.011780374 -0.21299188 0.023941066
000040 d6 fe c4 3d 97 1a 8c 3e b5 45 3d be 30 4d ee 3e
       0.096189186 0.27364036 -0.18483622 0.46543264
000050 54 ec ac bd 09 96 5d 3e 73 2d a7 bd 78 da e7 bd
       -0.084435135 0.21639265 -0.081629656 -0.113209665
000060 3b ee ad bd ca d7 45 be bd fe 7c 3e e5 0b 35 bd
       -0.084927045 -0.19320598 0.2470655 -0.044200797
000070 4b e0 78 be 08 b8 98 bd 14 48 81 3e 12 d2 73 be
       -0.24304311 -0.07456976 0.25250304 -0.23810604
000080 4f e3 89 3e ff d6 1a 3e f6 a8 2e 3e 6b a3 a0 be
       0.26931235 0.15121077 0.17056641 -0.31374678
000090 ae a6 af be 04 1e 2d be f4 e6 36 bd b6 fe 81 be
       -0.34306854 -0.16905981 -0.044653848 -0.25389642
0000a0 9f ca a2 3e ec 17 83 3e d9 24 91 be 9e 8f ac 3e
       0.31795213 0.25604188 -0.28348425 0.3370332
0000b0 a1 8e 98 3e a1 78 81 be 64 e2 5a be a5 d1 c6 bd
       0.29796317 -0.25287345 -0.21375424 -0.09707955
0000c0 00 b2 ca bd 27 32 90 be 3a ba 79 3d a3 52 38 3e
       -0.09897232 -0.28163263 0.060968615 0.18000273
0000d0 5d 0d 04 3e a9 08 b2 bd 41 b9 91 be 7a 20 01 3e
       0.12895723 -0.08693058 -0.2846165 0.12610045
0000e0 10 bb 6b 3e 8c 11 23 3e e2 f0 a2 be 52 71 76 3e
       0.23020577 0.15924662 -0.31824404 0.24066666
0000f0 2e ce 2a be c6 b7 ad 3d 32 34 6f be 27 8d ea bd
       -0.16680214 0.084823176 -0.23359755 -0.11452704
000100 f6 c5 74 bd 77 0e 15 be 4b fc 97 3e e6 4b b4 bd
       -0.059759103 -0.14556299 0.29684672 -0.08803539
000110 96 f2 e5 bd ec 58 18 be 78 f8 40 3d 17 6a 66 be
       -0.1122791 -0.14877671 0.04711196 -0.22501408
000120 17 0a 9e 3e 02 af 25 3d 1a 20 69 3e 01 bc 57 bd
       0.30867073 0.040450104 0.22766152 -0.05266953
000130 ee ca 4d be e1 87 c1 bd 78 d9 a2 be 32 65 4d be
       -0.20096943 -0.09449745 -0.3180654 -0.20058134
000140 92 76 fa 3d c4 56 b2 3c 7f e0 0f be 49 9f a9 3e
       0.12229647 0.021769889 -0.14050482 0.33129337
000150 f0 30 8b 3d 1e 66 20 bd 33 11 02 bd 8a ca 8c be
       0.067964435 -0.039159887 -0.031754684 -0.27498275
000160 f2 d4 99 be 68 57 7f be 1a f6 8c 3e 54 3d cb 3e
       -0.30045277 -0.24935687 0.2753151 0.39695227
000170 2b 3d 37 3e 75 0a 7d be f8 ca 95 be c3 e8 92 3e
       0.17894427 -0.2471102 -0.29256415 0.28693208
000180 d5 4f 9e 3e 76 3e 8d 3e 83 f4 ac bd 69 5e e5 3d
       0.30920282 0.27586716 -0.084450744 0.11199648
000190 9d ba 59 be 06 bf cf 3d df d7 9c be 57 0b 98 be
       -0.21262594 0.10143857 -0.30633447 -0.29696152
0001a0 10 bd a2 be c0 41 45 bd f8 6e d6 3d 5a 4a 17 be
       -0.31784868 -0.048158407 0.10470384 -0.14774457
0001b0 87 a1 cb bb 4c 99 72 be 5a 66 6a 3e 60 dd ed bd
       -0.006214324 -0.2369129 0.22890607 -0.116144896
0001c0 54 74 da 3d fb cf 95 3e 22 41 98 3e 4f 7d 5e be
       0.10666719 0.2926024 0.29737192 -0.21727489
0001d0 9d 43 24 bd cd 80 a8 bc b9 ad d8 bd 95 de d8 bd
       -0.040103544 -0.02056923 -0.1058001 -0.10589329
0001e0 73 66 98 3e 54 99 3b 3e d0 80 4b be 30 c3 ba 3d
       0.29765663 0.18320209 -0.19873357 0.0911926
0001f0 a5 f5 75 3e af 89 ff bd 33 02 73 bd 44 40 fe 3c
       0.24019487 -0.12477433 -0.05932827 0.031036504
000200 7b ca c8 bd ff 26 9f bd c2 06 73 3e 93 c9 6c 3e
       -0.09804245 -0.0777111 0.23733047 0.2312377
000210 17 a1 61 3e 87 b4 db bd 68 c7 9b be 43 74 9b 3e
       0.22034107 -0.10727792 -0.30425572 0.30362138
000220 54 07 48 3e 37 97 30 3e 42 6b 63 be 3a 23 b2 3d
       0.19534045 0.17245184 -0.22208884 0.08698125
000230 ed dc d8 bd 89 5c 67 3d eb f1 18 be 9a c2 59 be
       -0.10589013 0.056484733 -0.14936034 -0.21265641
000240 2b 4a 4f be cf ab 99 be 46 83 4b 3e ff cf 1f be
       -0.20243137 -0.30013892 0.19874296 -0.15606688
000250 10 6d 60 be 29 3f 8c be 78 ab 97 bc ee 77 80 be
       -0.21916604 -0.27391937 -0.01851438 -0.250915
000260 cb d0 87 3e 54 8b 76 3e 4b af 7f 3e df 17 42 be
       0.26526484 0.24076587 0.24969213 -0.18954419
000270 02 4f 7d be 74 1f 83 be e1 67 cf bd 68 2a 6f bd
       -0.2473717 -0.25609934 -0.10127235 -0.05839005
000280 20 7d 4e 3e 79 ad 0f 3e 97 0b 63 be 76 90 6d 3e
       0.20164919 0.14031018 -0.2217239 0.23199639
000290 52 18 a4 3e 9d 28 1b be c3 2b 92 be 90 2f 10 be
       0.32049805 -0.15152211 -0.28549013 -0.14080644
0002a0 f6 ff 5a be da a1 d9 bd 86 fa 67 3e d8 5b b7 3e
       -0.21386704 -0.10626574 0.22654161 0.3581226
0002b0 03 3f 8e 3e 8c b6 a2 be 91 fe 9d be 0c c0 81 3e
       0.2778245 -0.31779897 -0.3085828 0.25341833
0002c0 a5 37 63 3d a5 0b 9c 3b 41 57 36 be 79 96 fe 3d
       0.05547299 0.0047621303 -0.17806722 0.12431044
0002d0 ab 93 46 be eb bc 69 3c a2 af 8a bd 96 61 8a bd
       -0.19392268 0.014266233 -0.067717806 -0.06756894
0002e0 42 0e 03 be 61 74 a2 be c9 59 3e 3e 1a 84 08 be
       -0.12798408 -0.31729415 0.18588938 -0.13331643
0002f0 91 66 24 be 48 b6 a3 be 44 5c ff 3d f9 b4 3a be
       -0.16054751 -0.31975007 0.1246877 -0.18233098
000300 aa 4f 5f 3e 74 98 3a 3d 7c ad 41 3e a7 9c 1a be
       0.21807733 0.045555547 0.18913835 -0.1509882
000310 94 47 48 be 3f ba 3a be 31 da 94 be 0f 69 6c 3d
       -0.19558555 -0.1823511 -0.29072717 0.05771738

lin.bias f4 [5]
000000 2e c4 2d 3c a3 13 e4 bc 57 97 c5 3c 18 30 dc bd
       0.010605855 -0.027841395 0.024120016 -0.10751361
000010 12 60 d5 3c
       0.026046786
