models/102-seed-100train_treated-40-16/itr-0-decoder_Y.pth.pth (torch, 1943 bytes, 2 tensors)

lin.weight f4 [5, 40]
000000 63 05 8b be ec 44 34 3e b1 e4 e2 bb 49 de 6a be
       -0.27152547 0.17604417 -0.006924235 -0.22936358
000010 d2 2c e8 bb 7d a4 61 3e 11 6e e5 3c 76 eb 55 3e
       -0.007085421 0.22035404 0.028006585 0.20890602
000020 19 85 8a 3e d5 17 ae be 53 ce 2b 3d 40 a2 9e bd
       0.2705467 -0.34002557 0.041944813 -0.077457905
000030 b5 77 20 3e 0e ca 3b bd a7 39 12 be 10 fe d2 3d
       0.15670665 -0.04584699 -0.14279805 0.10302365
000040 57 ee 92 be 7a 20 95 3e 4f 8d b0 bc ee 86 1f 3e
       -0.28697464 0.2912634 -0.021551756 0.15578815
000050 d1 04 77 be 60 d5 24 3e fd be 1a bd 0b 7d 93 3e
       -0.24122931 0.16097021 -0.037779797 0.28806338
000060 84 3b aa be 56 ba a8 3e cc 4a 23 be 1e 50 ad be
       -0.33248532 0.32954663 -0.15946501 -0.33850187
000070 c1 81 a5 3d 3f ae 64 3e 97 27 b3 be 85 3a 24 be
       0.08081389 0.22332095 -0.34991142 -0.16037948
000080 67 d4 43 3e 0d 3f 1a 3e 16 d6 99 3e 4e 1f 9c 3e
       0.19123994 0.15063114 0.30046147 0.30492634
000090 f7 0e 66 be 27 ed a0 3e 07 d8 05 3e 05 34 99 3d
       -0.22466646 0.31430933 0.13070689 0.07480625
0000a0 d9 d7 83 be d4 0d a4 3e 6a c8 6a be f0 fe 96 be
       -0.25750616 0.320418 -0.22928014 -0.29491377
0000b0 c7 f0 8d bd 6e fa 1e 3e 86 98 f9 3d d7 db 99 3e
       -0.0693069 0.15525219 0.12187295 0.30050537
0000c0 07 7c 76 3e 1c b6 f9 bd 66 e5 59 3d 98 ce 3e be
       0.2407075 -0.12192938 0.053197287 -0.18633497
0000d0 30 0c 98 3e 3f bd af be c3 37 8b be 38 d4 2c bc
       0.29696798 -0.3432407 -0.2719098 -0.010548644
0000e0 63 e0 72 be a5 ee b5 3e 21 75 12 3e d9 8a f1 3d
       -0.23718409 0.35533634 0.14302494 0.11794061
0000f0 a3 e9 0c be 7f d4 0c 3e ac 0a 80 bd bd a5 65 3d
       -0.13761 0.13752936 -0.062520355 0.056066263
000100 59 d2 91 bd df de 04 3e 1f ed 11 be 48 3b 94 be
       -0.07120199 0.12975644 -0.14250611 -0.28951478
000110 83 d1 42 3e 67 82 0a 3e 3f d1 cd be d5 f0 54 be
       0.19025235 0.13526307 -0.40198705 -0.20794995
000120 5f fc 9c 3e c6 e7 52 3e 7c fe 85 3e 98 05 95 3e
       0.30661294 0.20596227 0.2617072 0.2910583
000130 6e 03 52 be ba ba 2c 3e 2c c3 21 bc eb a2 81 3c
       -0.20509121 0.16868106 -0.009873193 0.015824756
000140 f7 ec 39 be f0 89 07 3e f3 c4 61 be c0 4c 91 be
       -0.18156801 0.13236213 -0.22047786 -0.28378868
000150 66 b7 37 be a0 92 9f 3e 17 15 38 3e 34 ed 85 3d
       -0.17941055 0.31166553 0.17976795 0.065393835
000160 6f 99 2d 3e da d7 a8 be ea 6a 63 3e 1c 32 b5 bc
       0.16953062 -0.32977182 0.22208753 -0.02211862
000170 ca fe 9a 3e da 87 8c be 49 34 cc bd 86 38 e0 3c
       0.30272514 -0.27447397 -0.0997091 0.027370702
000180 73 8e 4c be 16 e0 9f 3e 7f 2f 98 3c c2 13 3a 3e
       -0.19976215 0.31225652 0.018577335 0.181716
000190 02 f5 50 be 30 fa 89 3e 67 a4 8c bc 3b 1e 25 3e
       -0.20405963 0.2694869 -0.017168237 0.16124813
0001a0 26 34 93 bd ca a6 6f 3e 7b 9c 2d be 27 38 9a be
       -0.07187681 0.23403469 -0.16954224 -0.30120966
0001b0 c3 15 68 3e e8 bf 59 3e 25 18 92 be 2a 6e a3 be
       0.22664551 0.21264613 -0.28534046 -0.31919986
0001c0 26 02 12 3e 54 1c f6 3c 98 4d 00 3e b1 2a 83 3e
       0.14258632 0.030042805 0.125296 0.25618508
0001d0 a2 f5 3d be cf fe 23 3e ee 8f ab 3d d3 22 3a 3e
       -0.18550733 0.1601517 0.08377062 0.18177347
0001e0 02 ea 88 bd fb a4 53 3e 0c 91 97 be a1 aa 79 be
       -0.066852584 0.20668404 -0.2960285 -0.24381496
0001f0 ec 69 93 be 19 3a 55 3e 71 d2 0d 3d 1f 3a 59 3e
       -0.2879175 0.20822944 0.03462452 0.21213578
000200 2f 9d 8c 3e cc dc 70 be 59 0c db 3d 2d d3 20 be
       0.27463672 -0.23521727 0.106957145 -0.15705557
000210 03 64 a4 3e d0 98 02 be bf e6 5f bd d9 f5 0b be
       0.32107553 -0.12753606 -0.054663416 -0.13668002
000220 34 f1 e1 bd 1c 50 2a 3e 8d 8a b8 bd 89 54 a4 3e
       -0.11032334 0.16632122 -0.090108015 0.32095745
000230 73 db 88 be 0c bc 76 3e 5f 88 5d bd 0c 65 3e ba
       -0.26729926 0.24095172 -0.05408513 -0.0007262982
000240 11 80 d4 bd 36 e0 fe 3d ef db b0 be 8f 84 7b be
       -0.10375989 0.124451086 -0.34542796 -0.24562286
000250 fa 51 76 3e fe 2c 46 3e c7 cf 74 be 1f 92 31 be
       0.24054709 0.193531 -0.23907386 -0.17340897
000260 63 90 c0 3e 1b 3d 46 3e ec 81 80 3e b7 75 8a bc
       0.37610158 0.19359247 0.25099123 -0.016901834
000270 96 75 15 be 03 a4 cb 3d 6a 34 08 3e aa 67 92 3e
       -0.14595637 0.09943392 0.13301244 0.28594714
000280 ae a8 82 be 10 46 95 3e 4d ae a1 be 6a 54 9b be
       -0.25519317 0.29155016 -0.31578293 -0.3033784
000290 ef be 11 be d0 3a ab 3e 22 49 a0 3e c9 50 72 3e
       -0.14232992 0.33443308 0.31305796 0.2366363
0002a0 05 33 23 3d 72 cb 3c be de da fd 3d 36 02 1c be
       0.039843578 -0.18436983 0.12395261 -0.15235218
0002b0 04 f1 ea 3d c8 fa 96 be fd 06 47 bd 37 a8 90 bd
       0.11471751 -0.29488206 -0.04859065 -0.070633344
0002c0 38 60 86 be e9 fc 14 3e a0 31 00 be a3 09 4c 3e
       -0.26245284 0.14549603 -0.1251893 0.19925551
0002d0 43 59 22 be da ce 50 3e 4d 02 cf bd e2 e7 1b 3e
       -0.15854363 0.20391408 -0.10107861 0.15225175
0002e0 1f e5 9f bd 55 c4 80 3e 7a 66 67 be 38 9d 91 be
       -0.07807373 0.2514979 -0.22597685 -0.2844026
0002f0 37 6d 06 3e 8f b7 28 3e 5e 39 9a be 68 92 ab be
       0.131276 0.16476272 -0.30121893 -0.33510137
000300 06 ff ce 3d ec ce 5e 3e b3 7f 39 3e ed ea b0 3d
       0.101072356 0.21758622 0.1811512 0.086385585
000310 60 e5 6b be 77 d6 31 bd 74 3c 79 3e 22 08 93 3e
       -0.23036718 -0.04341742 0.24339467 0.28717142

lin.bias f4 [5]
000000 62 d5 e5 bd 2b e1 54 3d 76 86 cb bd 6c 68 97 3d
       -0.1122234 0.05197255 -0.09937756 0.07392964
000010 7e a1 3c 3c
       0.011513112
