models/204-seed-100-synctwin/itr-0-decoder_Y.pth.pth (torch, 1559 bytes, 2 tensors)

lin.weight f4 [5, 20]
00000000: 92f6 2c3e 4472 2cbe ee41 e1bd 346a 0dbe
00000010: ba87 cc3d c62e 4d3e 4415 9bbc e182 103e
00000020: 4149 7b3b 60a9 2cbe fc43 673e c627 b0bd
00000030: f53a 5bbe cd76 c5bd 5098 213d 08c6 b13d
00000040: b94b 67bd 0e50 803d c926 1cbd 6d01 dc3d
00000050: 5672 9d3e 02c4 96be 0a56 4cbe 2bcb 873e
00000060: 733c 873e 868b d03e 328f 993c 1b3d 4c3e
00000070: 6638 943e a3da 9c3e 5904 513e 0d25 98be
00000080: 6b01 d83e 9698 92be 7d75 12be 008d c0be
00000090: a9a5 a6bd 58e3 473c 5bce a83e 2761 25be
000000a0: dd6e c03e 17b8 f7be 4d5e 0bbe 530e d83e
000000b0: 69cf b73e 9fed 203e e27c a13e ae64 ee3e
000000c0: 25aa eb3e 6dae 8d3e 1c03 8f3e a647 9abe
000000d0: a272 973e 9536 8bbe 5d3b 65be b887 f6be
000000e0: c79e b7be 8efd 9dbe cda0 253e cbe3 ccbe
000000f0: 355b efbb cf90 85be b765 94bd 0fbe 8c3e
00000100: 7ecd 51bd 7232 3a3e 1d7f e43d 1af3 8f3e
00000110: be66 02be f60a ae3d a0fe 873e 648b 93be
00000120: f649 363e a5a2 a93c 3511 ba3c f5a9 85be
00000130: f516 b43c 4ec1 ef3d 524e 903e 2f0d 2a3e
00000140: 3cb0 52bf cde1 503f 6820 2b3f b6af 20bf
00000150: 6c9e 25bf f199 3ebf 703d 18bf 8835 c1be
00000160: d297 2ebf f6f1 47bf 9461 07bf 6b9a 1c3f
00000170: 8126 e1be bab5 263f a91d 043f e9b9 0b3f
00000180: 73e6 473f 0f6d 463f f7e4 30bf 5afc 213f
0.16890934 -0.16840464 -0.10998903 -0.13810045 0.09986825 0.20037374 -0.018931039 0.14112426
0.0038343223 -0.16861486 0.22584528 -0.08601336 -0.21409209 -0.096418 0.039451897 0.086803496
-0.0564687 0.06265269 -0.038122926 0.107424594 0.30751294 -0.29446417 -0.19954696 0.26522192
0.26413307 0.40731448 0.018745039 0.19945185 0.2894928 0.30635557 0.20411815 -0.29715768
0.42188582 -0.2863204 -0.1430263 -0.37607574 -0.08137066 0.012200199 0.32969937 -0.16150342
0.37584582 -0.48382637 -0.13610192 0.4219843 0.3590043 0.15715645 0.3154059 0.46561188
0.46028247 0.2767214 0.2793206 -0.30132788 0.29579645 -0.2719008 -0.22385927 -0.4815042
-0.35863325 -0.3085751 0.16174622 -0.40017542 -0.007304574 -0.26087043 -0.07245963 0.27488753
-0.051221363 0.18183306 0.111570574 0.2811516 -0.12734506 0.084981844 0.2656145 -0.28817284
0.17801651 0.020707438 0.022713283 -0.2610623 0.021983603 0.11706792 0.28184754 0.16606592
-0.8230016 0.81594545 0.66846323 -0.62768114 -0.6469486 -0.74453646 -0.59468746 -0.37736154
-0.6820041 -0.7810358 -0.5288327 0.61173123 -0.4397469 0.6512104 0.5160776 0.5458055
0.7808601 0.7751016 -0.6909937 0.6327568

lin.bias f4 [5]
00000000: a617 c5bd 49c9 89be bbb0 c0be 7066 793c
00000010: 4779 e23e
-0.09623651 -0.2691138 -0.37634835 0.015222177 0.44233152
