models/207-seed-100-synctwin_lss_no_lasso/itr-0-pre_decoder_Y.pth.pth (torch, 3303 bytes, 2 tensors)

lin.weight f4 [25, 20]
00000000: 898d 32bd 797c c03e bda7 bf3d aac9 53be
00000010: ecc9 49be 18dc b1be 143b 97be 5a9f 66be
00000020: 8260 f6bd d6f0 80be f72e c6be dd9e 6abc
00000030: 8a48 07be 93c6 663e f92e 22bd 8dc2 623e
00000040: 75ab 683e 6b4b 663d 535f a0be dadd 4f3d
00000050: 0412 acbe 4891 e03e c5d1 223e 60a2 dbbe
00000060: 36d0 46be 633b 90be 31db 00bf 2c07 a1bd
00000070: 7f7c 8abe d59f c8be d679 d6be c6a5 c43c
00000080: 040b 89bd 3093 1c3e b21f 663e a0ba 6b3e
00000090: 1f19 653e 49ab 9a3e 726e dbbe dacb 9b3e
000000a0: c813 88be d42b 043f cb8c b43e 4a39 4bbe
000000b0: 47fe 7cbe 1940 08bf 9b03 93be 6b74 51be
000000c0: 083b 8cbe 1165 acbe 1735 15bf 7aaa c83e
000000d0: 99dd 01bf 0bb8 a23e be31 cb3e 2d79 503e
000000e0: 858a 9d3e 0b9c f03e d57c 0bbf 6ffa 463e
000000f0: 2be9 e9be 4ace 283f 650c ea3e ee58 82be
00000100: 604a 9cbe c070 d0be b34d d4be 538f 17bf
00000110: e079 b4be e83d a8be 8cdc b5be f346 c63e
00000120: 7c92 6abe 8208 a33e a17d 2b3f d1e9 2b3f
00000130: cd22 cb3e dacd b03e a563 edbe a56e 603e
00000140: 9116 ddbe b907 f33e 223d fe3e 6c47 f9be
00000150: fe0f c3be 62eb f4be 8266 acbe 31a5 b1be
00000160: 11d1 00bf d505 24bf 4c8c f0be c795 923e
00000170: 9c29 83be 5cde b23e 16f1 033f e3ff 1c3f
00000180: 2ec1 d33e a881 0a3f 95ef e8be bfb3 e83e
00000190: 7d92 babe d2af 933e 307b 053f f0e6 abbe
000001a0: 6f93 febe d894 f2be ce6b cfbe dbdf babe
000001b0: 6097 05bf 7f67 2cbf 89ae 15bf aaec da3e
000001c0: 6f33 68be 4cdc 163f 5317 043f 331f 933e
000001d0: 0039 763e 9d1b 013f 29b4 97be 08e5 153f
000001e0: 1a15 1ebf 570d 9f3e 4896 d13e af35 0abf
000001f0: 660f abbe c464 d5be ea87 9abe a9a3 e4be
00000200: 5797 bdbe f63a adbe 48d5 87be fcc0 103f
00000210: 0a6e 09bf c78e c33e 0e10 063f 5aa8 0f3f
00000220: d577 9a3e 542f e73e 2a9d 08bf a8c4 5d3e
00000230: 28ff 04bf 6283 f23e 36c1 813e 7897 2ebe
00000240: ed9e e3be d241 0abf 2552 dabe 4a24 bdbe
00000250: 5e78 c8be aebf f9be f191 ecbe cc56 dc3e
00000260: dbb0 95be 8c0c f33e 1b3e d53e 22c0 313e
00000270: a0a8 983e b743 d03e dcf0 62be 511b 5e3e
00000280: 59c3 95be 670c 0b3f 2807 783e abb0 4ebe
00000290: 9f79 34be c304 bdbe 72e7 2bbe 1f0a 82be
000002a0: bf2a 03bf 7676 f3be 0f5a 87be a3a7 e83e
000002b0: 532d cebe 6d5a 403e 0a23 023e f941 6e3e
000002c0: 6c00 d23e 0d91 e83e 76b5 5fbe 73b0 813e
000002d0: d13c 8dbe 4121 113e eb6d c33e 2012 9abe
000002e0: 7693 9cbd f830 83be 05d4 b0be 86c5 d9bd
000002f0: a79b aebe a2b0 99be 247a 99be affe 963d
00000300: 703b 0ebe 3352 8a3d 0588 d53e 2e70 1a3e
00000310: cc1f 4d3e 5bf6 143e 2dac a2be e8ce 803e
00000320: b09f 58be e0e3 803e 035b ad3e 2098 0ebe
00000330: ef69 6ebe 286e 7dbe a25a 34be 9099 4ebd
00000340: 8400 933d db7b 81bd a404 1cbe fdf5 af3d
00000350: b32b cbbe 2f11 ab3e f5e6 cb3d f8f7 783e
00000360: 8de1 07bc 993c ab3e 7d05 5cbe 73fd c63d
00000370: 9f92 143b 2458 853e 5c1e 17bd e47b 21bd
00000380: 0d85 c43b 2d57 8bbe 018b 98be 78ec 9abd
00000390: d800 c23d 5912 023d a7a3 10bd 9bbf 913e
000003a0: 6a89 5fbe 1918 503e 6fee 2d3e ce81 6abc
000003b0: 75d2 9c3e 1a3f 163e 8a92 97bd 5699 8b3d
000003c0: ea8e 803e 865d a83d 6357 41bd 8932 a5be
000003d0: d469 5cbe e0fa 93be b81d 36be d15e 2fbe
000003e0: efdb 2d3d 4efd bebd fed6 bbbc 49a9 a7bd
000003f0: eff4 c23d 1ea6 843e 5c3c 8d3e 04c7 533d
-0.04359201 0.37594965 0.093581654 -0.20682397 -0.19705933 -0.3473823 -0.2953726 -0.22521725
-0.12030126 -0.25183743 -0.38707706 -0.0143201025 -0.13211265 0.22536688 -0.039595578 0.22144528
0.22721656 0.056224268 -0.31322727 0.050748684 -0.33607495 0.4386084 0.15900333 -0.4289732
-0.19415364 -0.28170308 -0.5033446 -0.07862696 -0.27048108 -0.39184442 -0.41889828 0.024004828
-0.06691554 0.15290523 0.22473028 0.2302041 0.22372864 0.30208805 -0.428577 0.30428964
-0.26577592 0.51629376 0.35263667 -0.19846073 -0.24706374 -0.53222805 -0.28713688 -0.20454566
-0.27388787 -0.33670858 -0.58284134 0.39192563 -0.50728756 0.3178104 0.39686388 0.20358725
0.30769745 0.4699405 -0.54487354 0.1943147 -0.45685706 0.6593977 0.4571258 -0.25458473
-0.30525494 -0.4071102 -0.4146553 -0.5920307 -0.35249233 -0.3285973 -0.35519826 0.38726005
-0.22907442 0.31842428 0.6698857 0.6715365 0.39674988 0.34532052 -0.46365085 0.21917208
-0.4318128 0.4746683 0.49656016 -0.48687303 -0.3809814 -0.47835833 -0.33671957 -0.34696344
-0.5031901 -0.640714 -0.46982038 0.28629896 -0.25617683 0.34935272 0.5153974 0.6132795
0.41358322 0.5410409 -0.45495287 0.45449635 -0.36439887 0.28845078 0.52141094 -0.3357463
-0.49721858 -0.47379184 -0.40511936 -0.36498913 -0.52184105 -0.6734542 -0.58469445 0.42758685
-0.2267587 0.58929896 0.5159809 0.2873474 0.24045181 0.5043276 -0.2962964 0.585526
-0.6175095 0.31064865 0.40934968 -0.53988165 -0.33410186 -0.4167844 -0.3018182 -0.44656113
-0.37029526 -0.33834046 -0.26529908 0.5654447 -0.5368353 0.38194868 0.5236825 0.5611626
0.3016955 0.45153296 -0.53364813 0.2165705 -0.5195184 0.47365862 0.2534272 -0.17049968
-0.44457188 -0.54006684 -0.42640796 -0.3694175 -0.39154333 -0.48779052 -0.46205094 0.4303497
-0.29236493 0.4747051 0.41648945 0.17358449 0.2981615 0.40676662 -0.22162193 0.21690108
-0.292506 0.543158 0.2422148 -0.20184581 -0.1762452 -0.36917695 -0.16787508 -0.25398347
-0.512371 -0.47551316 -0.26435897 0.45440397 -0.40268955 0.18784495 0.12708679 0.23267354
0.41015947 0.45423165 -0.21846566 0.25329933 -0.27585462 0.14172842 0.38169798 -0.30091953
-0.076453134 -0.25623298 -0.34536758 -0.10633378 -0.34103128 -0.30017573 -0.29975998 0.07372796
-0.13889861 0.067539595 0.41705337 0.15081856 0.20031661 0.14547102 -0.31771985 0.25157857
-0.21154666 0.25173855 0.338585 -0.13925219 -0.23282598 -0.24749053 -0.17612699 -0.050439417
0.07177833 -0.06322452 -0.15236145 0.085918404 -0.39681777 0.33411548 0.09956161 0.24313343
-0.008293522 0.3344467 -0.21486469 0.0971631 0.00226704 0.26043808 -0.036894187 -0.039424792
0.005997306 -0.27214947 -0.29793552 -0.07564634 0.09472817 0.03175578 -0.03531232 0.28466496
-0.21829763 0.20321693 0.16985486 -0.014313174 0.30629316 0.14672509 -0.07400997 0.06816356
0.25109035 0.08220963 -0.04720248 -0.32265118 -0.21524745 -0.2890234 -0.17784774 -0.17126013
0.042446073 -0.09325658 -0.022929665 -0.081865855 0.095193736 0.25907987 0.27585113 0.051703468

lin.bias f4 [25]
00000000: ac0f 2e3d dfc4 4c3e 4d0f 053e 0bcb 173e
00000010: 1241 383e 2d91 d53e 3b54 843e 5808 b23e
00000020: d141 7b3e 8ed2 a73e fb85 6cbc bd7e 4c3d
00000030: 3de9 d5bd e7d4 45bd 68b6 373c 67cd f43d
00000040: f970 2a3b e492 e33b 8d71 bf3e d9af ba3e
00000050: 3638 e03e f42c 823e e0b5 9c3e 6c35 033e
00000060: 0797 b73e
0.042495415 0.19996975 0.12994118 0.14823548 0.17993572 0.41712323 0.25845513 0.3477199
0.24536826 0.32777828 -0.01443624 0.049925555 -0.10444877 -0.048298743 0.011212923 0.1195324
0.0026007278 0.006945001 0.3739132 0.36462286 0.43792886 0.25424922 0.3060751 0.12813348
0.35857412
