models/102-seed-100train_treated-40-10/itr-0-encoder.pth.pth (torch, 25798 bytes, 11 tensors)

attn_v f4 [40]
0	0x3f5a5053	0.85278815
1	0x3f6e9894	0.93201566
2	0x3f510e1c	0.81662154
3	0x3f4fad6e	0.8112401
4	0x3f8fa9b3	1.1223663
5	0x3f8b7d39	1.089759
6	0x3f563e71	0.8368903
7	0x3f50a1f5	0.81497127
8	0x3f9997ba	1.1999428
9	0x3f999252	1.1997778
10	0x3f5c21e3	0.8598921
11	0x3f5e4fad	0.86840326
12	0x3f97828b	1.1836714
13	0x3f5734e2	0.8406507
14	0x3f5204a7	0.8203835
15	0x3f97b58b	1.1852278
16	0x3f87221f	1.0557288
17	0x3f5e01c6	0.86721456
18	0x3f830eb4	1.0238862
19	0x3f577dd3	0.8417637
20	0x3f5b3805	0.85632354
21	0x3f954021	1.1660196
22	0x3f48d262	0.7844602
23	0x3f57e067	0.84326786
24	0x3f576262	0.84134495
25	0x3f96ef82	1.1791842
26	0x3f94b6ae	1.161825
27	0x3f5adf39	0.8549686
28	0x3f5c23ab	0.85991925
29	0x3f9c1249	1.219308
30	0x3f6132d4	0.8796818
31	0x3f8d7f7e	1.1054533
32	0x3f9677dd	1.1755329
33	0x3f956f35	1.1674563
34	0x3f918c02	1.1370852
35	0x3f719f2a	0.9438349
36	0x3f8d61fc	1.1045527
37	0x3f955c89	1.1668864
38	0x3f9079fc	1.1287227
39	0x3f67758f	0.90413755

grud.zl.weight f4 [40, 44]
0	0xbd4da021	-0.05020154
1	0x3dc81b19	0.097707935
2	0xbda199f9	-0.07890696
3	0x3e0d58f3	0.13803463
4	0xbe13b688	-0.14425099
5	0xbdc47bb6	-0.095939085
6	0xbd455b47	-0.048182752
7	0x3e5430d6	0.20721754
8	0x3e29eaa0	0.16593409
9	0xbd9bb139	-0.07602162
10	0x3dacfed9	0.08447046
11	0x3e0886a4	0.13332611
12	0x3df321dd	0.11871693
13	0x3dabd916	0.08391015
14	0xbe107abf	-0.14109324
15	0xbdaf6943	-0.08564999
16	0xbcdad516	-0.026712935
17	0xbe07e2f2	-0.13270167
18	0xbe064c15	-0.1311496
19	0x3d8c96f0	0.068647265
20	0xbc8e43c8	-0.017366305
21	0xbe1f721f	-0.15570877
22	0xbe005a00	-0.12534332
23	0xbe5dfe58	-0.21679056
24	0x3c97b7fd	0.01852035
25	0xbcd7bf73	-0.026336407
26	0xbe1cf86e	-0.15329143
27	0xbd5dda10	-0.05416304
28	0x3d004671	0.03131718
29	0xbe149e69	-0.14513554
30	0xbd5eb8a6	-0.054375313
31	0x3e8425fb	0.25810227
32	0x3e4932ab	0.19648235
33	0xbd5684fd	-0.05237292
34	0x3e10668d	0.1410162
35	0x3c235054	0.009967882
36	0xbe247a33	-0.1606224
37	0xbbcf5348	-0.0063270666
38	0xbe2ee4f1	-0.17079522
39	0xbda720ff	-0.081605904
40	0x3d7e760d	0.0621243
41	0x3c06b30f	0.008221402
42	0x3d4066b4	0.046972945
43	0x3e5c01b5	0.21485026
44	0xbe8314e8	-0.25601888
45	0x3e051848	0.12997544
46	0x3e17781a	0.14791909
47	0x3da4cd7c	0.080470055
48	0x3ece9ab2	0.40352398
49	0xbe960e5b	-0.29307827
50	0x3d9010fe	0.07034491
51	0xbe6cff11	-0.23144175
52	0xbe6d005b	-0.23144667
53	0x3ed1caf6	0.4097516
54	0x3f05d43b	0.52276963
55	0x3f1c02fe	0.60942066
56	0xbe2c4318	-0.16822469
57	0xbe284baa	-0.16435114
58	0xbe90a931	-0.28254083
59	0x3e5b2dbc	0.21404165
60	0x3e62e055	0.22155888
61	0x3dcc05e6	0.099620625
62	0x3d2695ed	0.040670324
63	0x3dac3c6e	0.084099635
64	0xbdf4b414	-0.1194841
65	0xbe5472bc	-0.20746893
66	0xbef1bbda	-0.47213632
67	0xbdf3fc34	-0.11913338
68	0xbd80b14a	-0.06283815
69	0x3dbec35b	0.09314605
70	0xbe25d6ab	-0.1619517
71	0x3e25c48d	0.1618826
72	0xbea40bcf	-0.3204026
73	0x3ec39bc0	0.38204765
74	0x3d80f9e8	0.06297666
75	0x3ecdbbd4	0.40182364
76	0xbe8970c9	-0.2684386
77	0x3e8f8358	0.28029895
78	0xbe99daa5	-0.30049625
79	0x3ea4aef7	0.32164738
80	0xbda2c641	-0.0794797
81	0x3cc9d344	0.024636872
82	0x3edd05d0	0.43168497
83	0x3e9c80c8	0.30567002
84	0xbe3c91fd	-0.18415065
85	0x3e894666	0.26811522
86	0xbe80b687	-0.25139257
87	0xbdcb0070	-0.09912193
88	0xba975a21	-0.0011547246
89	0xbd9763da	-0.07392092
90	0x3d142d7a	0.036176182
91	0xbd396590	-0.045262873
92	0x3d81fb65	0.06346778
93	0x3dd52f8e	0.10409461
94	0xbda090d4	-0.07840124
95	0x3e446d03	0.1918221
96	0xbe19bf74	-0.1501444
97	0xbde59573	-0.11210146
98	0xbc90fcb3	-0.017698621
99	0xbdd5c554	-0.10438028
100	0xbdd98534	-0.106211096
101	0xbe1657d4	-0.14681941
102	0x3c5a4211	0.0133214155
103	0xbde9664f	-0.11396467
104	0xbea5e211	-0.32399037
105	0x3e1bc8ec	0.15213364
106	0xbee62715	-0.44951692
107	0xbe9706e1	-0.29497436
108	0x3e5309cb	0.20609204
109	0x3d096843	0.033546697
110	0xbd970c11	-0.07375348
111	0xbd814ad2	-0.06313099
112	0x3db3358b	0.08750447
113	0xbcc97d48	-0.024595872
114	0xbdc227ae	-0.094802245
115	0x3e078fa7	0.13238393
116	0x3df68ad2	0.120381966
117	0xbe28dcde	-0.16490504
118	0xbea790ef	-0.32727763
119	0x3d98d0a0	0.07461667
120	0xbd998c68	-0.074974835
121	0x3e11fa8a	0.1425573
122	0x3cd6baec	0.026212178
123	0x3c6ed0a6	0.014576113
124	0x3d5797a1	0.05263484
125	0xbe3e93df	-0.18611096
126	0x3df3bb0a	0.11900909
127	0x3dee82ab	0.11646017
128	0x3e0f292e	0.13980553
129	0x3cef9472	0.029245589
130	0xbcb5a319	-0.022172498
131	0x3dddc96a	0.10829432
132	0xbe90b155	-0.28260294
133	0xbd1dc988	-0.038522273
134	0xbd108f53	-0.035292935
135	0x3d785e8f	0.060637053
136	0xbe6d3906	-0.23166284
137	0xbf32bcbe	-0.6981925
138	0xbdd60de4	-0.10451868
139	0x3e520498	0.20509565
140	0x3da941fc	0.08264539
141	0xbf243611	-0.64145
142	0xbbd906f1	-0.006623142
143	0xbd03a988	-0.0321441
144	0x3e9e1244	0.3087331
145	0x3deab34b	0.11459979
146	0x3dab1e0e	0.08355342
147	0xbe090b99	-0.1338333
148	0xbea3f664	-0.3202392
149	0xbdaa2c3a	-0.08309217
150	0xbec12051	-0.37719968
151	0x3c6d8c56	0.014498791
152	0x3b9d3378	0.0047973953
153	0xbdaa3326	-0.08310537
154	0x3e3d993e	0.18515489
155	0xbe83611f	-0.25660035
156	0xbdb5b049	-0.08871514
157	0xbe0835e0	-0.13301802
158	0x3d4ea3dc	0.050449237
159	0xbd756fa4	-0.059920922
160	0xbdd8c6f9	-0.10584826
161	0xbeafc5d0	-0.34330606
162	0xbe40a08c	-0.18811244
163	0xbd3df5b8	-0.046376914
164	0x3eaddeb1	0.33958963
165	0xbe87c58a	-0.26517898
166	0xbbaaf2c7	-0.0052169296
167	0xbca4d45e	-0.020120796
168	0xbe273a10	-0.16330743
169	0x3e889e45	0.2668325
170	0xbe91ac90	-0.28451967
171	0xbe5d4927	-0.21609937
172	0xbdfa64f4	-0.122262865
173	0xbe51d04f	-0.2048962
174	0x3e61c888	0.22049153
175	0x3e3601a6	0.17774066
176	0x3e3914d0	0.18074346
177	0x3d660625	0.056158204
178	0x3ceeb03a	0.029136766
179	0x3c65b16d	0.014019352
180	0x3d5d9cc2	0.054104574
181	0x3d9e22a5	0.07721452
182	0x3aa47e0a	0.001254977
183	0xbd05b70b	-0.032645267
184	0x3d517b36	0.051142894
185	0xbe1ed738	-0.15511787
186	0x3e380969	0.1797234
187	0x3e35b186	0.17743501
188	0xbc0fc520	-0.008775026
189	0xbbd058ea	-0.0063582556
190	0x3df55e8e	0.119809255
191	0xbc7c64c3	-0.015404883
192	0x3b783cb2	0.0037877974
193	0xbcd6cb17	-0.026219888
194	0xbe900eab	-0.2813619
195	0x3dbf3b1f	0.09337448
196	0x3d401f19	0.046904657
197	0xbe1680c3	-0.14697556
198	0x3bee2ee4	0.0072687734
199	0xbe5c954b	-0.21541326
200	0xbe284c92	-0.1643546
201	0x3e107f21	0.14110996
202	0x3db50098	0.08838004
203	0x3e3391f6	0.17536148
204	0x3d0e2654	0.03470452
205	0xbe193e41	-0.14965154
206	0xbcd244eb	-0.025667628
207	0x3e0ba5ac	0.13637418
208	0x3e6b5682	0.22982219
209	0xbe2ecd10	-0.17070413
210	0xbce512b1	-0.027963014
211	0x3d6b7db9	0.057492945
212	0x3dd192cc	0.102330774
213	0x3e6c1645	0.2305537
214	0xbe6d31fb	-0.23163597
215	0xbcd8c0f0	-0.026459187
216	0x3e0a958f	0.13533615
217	0xbd1c3ea5	-0.03814568
218	0x3e95b552	0.292399
219	0x3de512c6	0.111852214
220	0x3cbb85fa	0.022891033
221	0xbdf77dc0	-0.12084532
222	0xbcaad983	-0.02085567
223	0xbda2bb62	-0.07945897
224	0x3c79d514	0.015248556
225	0x3e29d96b	0.16586845
226	0x3e56f1ec	0.20990723
227	0xbe79d708	-0.24398434
228	0xbe35e550	-0.17763257
229	0x3e6323b2	0.22181585
230	0x3ca4e780	0.020129919
231	0x3e910bc1	0.2832928
232	0xbe0c5aa2	-0.13706449
233	0xbe29be41	-0.16576482
234	0xbd0ec345	-0.034854192
235	0x3e064b5e	0.13114688
236	0x3daa1193	0.08304133
237	0x3dc2dd49	0.09514863
238	0x3eb01043	0.34387407
239	0x3d86646c	0.06562123
240	0xbe24055e	-0.16017672
241	0xbe0a69e2	-0.13516954
242	0xbe0496a8	-0.12948096
243	0xbd453c47	-0.048153188
244	0x3c5eb0d0	0.01359196
245	0x3de070e7	0.109590344
246	0x3da5de9e	0.080991015
247	0x3d5e4506	0.054265045
248	0x3d92cf30	0.07168424
249	0x3e0fedb0	0.14055514
250	0xba6d547b	-0.0009053421
251	0xbd535c57	-0.051601734
252	0x3cf72d8c	0.030173086
253	0x3e68f033	0.22747879
254	0xbd3a536d	-0.045489717
255	0x3de331ce	0.11093484

grud.zl.bias f4 [40]
0	0x3d924f11	0.07143987
1	0xbdefe6f4	-0.11713973
2	0xbd74dc86	-0.05978062
3	0x3e7dc348	0.24781525
4	0x3e9e93e9	0.30972221
5	0xbe9c3fda	-0.30517465
6	0x3e239ca9	0.1597773
7	0x3d4263ef	0.047458585
8	0x3e553f12	0.2082484
9	0x3e961b93	0.29317912
10	0x3de3949e	0.11112331
11	0x3e8ec1e2	0.27882296
12	0x3de90449	0.113777705
13	0x3d42cfbb	0.04756139
14	0xbdbbd498	-0.091714084
15	0x3ebd1510	0.36930132
16	0x3d7f712e	0.062363796
17	0x3df42d02	0.11922647
18	0x3ce8b3ab	0.028405985
19	0x3d164a65	0.036692042
20	0x3ddd07bf	0.10792493
21	0x3e95daa5	0.29268375
22	0x3e3767a6	0.17910632
23	0x3c2ab7ba	0.01041978
24	0x3d57d1cf	0.052690323
25	0x3e487510	0.19575906
26	0xbd3b8f6c	-0.045791075
27	0x3e615ad4	0.22007304
28	0x3e4e49ae	0.20145294
29	0x3ee1f362	0.44131
30	0x3dc25f3f	0.09490823
31	0x3ec4e6cf	0.38457343
32	0x3cedad57	0.029013319
33	0x3e4e3075	0.20135672
34	0x3d61af90	0.05509907
35	0x3e4da11f	0.20080994
36	0x3dfc8147	0.12329345
37	0x3ec251e3	0.379531
38	0x3e251937	0.161229
39	0x3d152117	0.03640851

grud.rl.weight f4 [40, 44]
0	0x3da7e9d7	0.08198898
1	0x3d3b1766	0.04567661
2	0x3e047f83	0.12939267
3	0x3e345519	0.17610587
4	0x3e0cfc80	0.13768196
5	0x3d302b32	0.043009944
6	0x3db7c637	0.08973353
7	0x3e207052	0.15667847
8	0x3e8a16b7	0.26970455
9	0x3e40424d	0.18775292
10	0xbd9a63d7	-0.07538574
11	0x3d9ebc9b	0.077508174
12	0xbd3b593a	-0.04573939
13	0xbd9dc12b	-0.077028595
14	0x3dee816d	0.1164578
15	0x3ced2b63	0.028951352
16	0x3d9696a7	0.073529534
17	0xbe0ba6a0	-0.13637781
18	0x3d6407c8	0.055671483
19	0x3d5cbac4	0.05388905
20	0x3e278b66	0.1636177
21	0x3e14c388	0.14527714
22	0x3d115ee5	0.03549089
23	0xbe265274	-0.16242391
24	0x3d19a265	0.037508387
25	0x3dbef534	0.093241125
26	0x3d13f925	0.036126275
27	0x3d8b45c2	0.068004146
28	0xbca0bc1b	-0.019620946
29	0xbdbc0f3f	-0.091825955
30	0xbde4219b	-0.11139222
31	0x3c4b916a	0.012424806
32	0x3e107ac2	0.14109328
33	0x3da34f98	0.07974166
34	0xbd87b0f7	-0.0662555
35	0xbd5411c9	-0.051774774
36	0xbdab90df	-0.08377241
37	0xbb282faf	-0.0025663187
38	0xbdf19296	-0.11795537
39	0x3c687d4f	0.014190032
40	0x3d214871	0.039375726
41	0x3dba194e	0.09086858
42	0xbd1d8bdb	-0.038463455
43	0x3bd3a3e4	0.0064587463
44	0xbd428c77	-0.04749724
45	0xbdf3fcf9	-0.11913485
46	0xbdee2806	-0.116287276
47	0xbd405666	-0.046957396
48	0xbe15d71c	-0.14632839
49	0x3c4e9391	0.012608425
50	0x3d1969ab	0.03745429
51	0xbd46f4f2	-0.04857344
52	0x3c8d64b6	0.017259937
53	0xbde7299f	-0.112872355
54	0xbc4c056d	-0.0124524655
55	0x3e38254a	0.17982975
56	0xbdb23819	-0.08702106
57	0xbdf4b392	-0.11948313
58	0x3c531d25	0.012885367
59	0xbe85dade	-0.26143545
60	0xbe36c77b	-0.17849533
61	0x3e1bba49	0.15207781
62	0xbeda0ff5	-0.425903
63	0xbe5a6b2e	-0.21329948
64	0x3d3b001c	0.0456544
65	0xbe0a5d57	-0.13512169
66	0xbdfb65cc	-0.122752756
67	0xbc1ea596	-0.009683033
68	0x3cb39c4d	0.021925116
69	0xbddf5674	-0.109051615
70	0xbe4e3ff6	-0.20141587
71	0x3e76d140	0.2410326
72	0x3e338416	0.17530856
73	0xbe07b5f8	-0.1325301
74	0xbde5a99d	-0.11213992
75	0xbc4df46c	-0.012570482
76	0x3dd06399	0.10175247
77	0x3ba6a415	0.005085478
78	0x3db6e787	0.08930879
79	0x3e692461	0.22767784
80	0x3de772a7	0.11301165
81	0xbdb99eb8	-0.09063476
82	0x3db3dd1a	0.08782406
83	0x3e0a9fb6	0.13537487
84	0x3e4ecf83	0.20196347
85	0xbe013585	-0.12618072
86	0x3e82e4f6	0.25565308
87	0x3d2c995d	0.042138446
88	0xbb95b410	-0.0045685843
89	0x3e6605f2	0.22463205
90	0x3e49184d	0.19638176
91	0xbdc1afdf	-0.09457373
92	0x3ea0d3ac	0.31411493
93	0x3e76e908	0.24112332
94	0xbcb9cfa4	-0.022682019
95	0x3dc8e129	0.09808571
96	0x3ec7cc7f	0.39023206
97	0x3e83849d	0.25687113
98	0xbe179269	-0.14801945
99	0x3e3428d4	0.175937
100	0x3e650dd5	0.22368558
101	0x3e067379	0.13129987
102	0xbd8a12c1	-0.06741858
103	0x3e14fdb2	0.14549902
104	0x3d93c47b	0.0721521
105	0xbb0d7e6a	-0.0021590241
106	0xbd82f4ed	-0.06394372
107	0x3e3de640	0.18544865
108	0xbe1a35d0	-0.1505959
109	0x3b3c1efa	0.0028704987
110	0xbcbde240	-0.023179173
111	0xbe63c2dd	-0.22242303
112	0x3e373498	0.17891157
113	0x3e9f9126	0.31165427
114	0x3dff43ed	0.12464128
115	0xbe7b5238	-0.24543083
116	0xbc82e741	-0.015979411
117	0x3e175536	0.14778599
118	0x3e8f7785	0.28020874
119	0xbd0df5d3	-0.034658264
120	0x3df7e64c	0.121044725
121	0x3d50ed2b	0.05100743
122	0xbe6b029f	-0.22950219
123	0xbe453c44	-0.19261271
124	0x3d3760a3	0.044769894
125	0x3e8c6160	0.2741804
126	0xbe342ba1	-0.17594768
127	0xbd98341a	-0.074318126
128	0xbe1f39c7	-0.15549384
129	0x3e4650b6	0.19366726
130	0x3c5b7b82	0.013396146
131	0xbbd4ff84	-0.0065001864
132	0xbe0be613	-0.13661985
133	0xbe1fced0	-0.15606236
134	0xbe1d3df0	-0.15355659
135	0x3e4a71f5	0.19770034
136	0x3be7352a	0.007055898
137	0xbd611ed4	-0.05496104
138	0xbd5ad117	-0.05342206
139	0xbcf21bf1	-0.02955434
140	0x3d39d468	0.045368582
141	0xbe23bd5e	-0.15990207
142	0x3e60ba37	0.21946035
143	0x3e483b36	0.19553837
144	0x3e37cea4	0.17949921
145	0x3e22501f	0.15850876
146	0xbdace37b	-0.08441826
147	0x3cc85e06	0.024458896
148	0xbe1034de	-0.14082667
149	0xbd27f627	-0.041006234
150	0xbce5452f	-0.02798709
151	0x3e229daf	0.15880464
152	0xbe51722a	-0.20453706
153	0xbd50749b	-0.050892454
154	0x3db332cc	0.08749923
155	0xbc2a825f	-0.010407059
156	0xbd9f7809	-0.07786567
157	0xbe2195c6	-0.1577979
158	0xbe56f8fc	-0.20993418
159	0x3e68da4e	0.22739527
160	0x3d919166	0.07107811
161	0xbdc83895	-0.09776417
162	0x3e2f0a6c	0.1709382
163	0x3df1c608	0.118053496
164	0x3ee9c89f	0.45660874
165	0xbe341390	-0.17585588
166	0xbd9b9da8	-0.0759843
167	0x3d0dd044	0.034622446
168	0xbca5f55e	-0.020258602
169	0x3edaba17	0.427201
170	0xbdf13895	-0.1177837
171	0xbdd3fa3c	-0.10350463
172	0xbe1bcb53	-0.15214281
173	0xbd0c5261	-0.03425825
174	0x3ebffb32	0.37496334
175	0x3ec7c0d8	0.39014316
176	0x3c321f07	0.010871655
177	0x3e175035	0.1477669
178	0xbe2b3475	-0.1671923
179	0x3d6ddc3c	0.05807136
180	0xbdab273d	-0.083570935
181	0xbd9ccf7b	-0.07656761
182	0xbe076eba	-0.13225833
183	0xbdb74e05	-0.08950428
184	0x3da912aa	0.08255513
185	0xbc4cf5bb	-0.012509759
186	0xbc643378	-0.013928287
187	0x3e199640	0.14998722
188	0x3d49b48f	0.04924446
189	0x3d8188cd	0.06324921
190	0x3df1f5fc	0.11814496
191	0xbe4d562b	-0.20052402
192	0x3d0ebb58	0.034846634
193	0x3d834b02	0.06410791
194	0xbebed31e	-0.37270445
195	0xbdc4b121	-0.09604097
196	0x3d889006	0.06668095
197	0xbe12fadf	-0.14353512
198	0x3d9fbb96	0.07799451
199	0xbdaa20cd	-0.083070375
200	0xbd2868e0	-0.04111564
201	0x3d34f284	0.044176593
202	0xbdb43c80	-0.08800602
203	0x3dcc6e50	0.09981978
204	0x3c82fb54	0.015988983
205	0x3d174f32	0.03694076
206	0xbe607869	-0.21920933
207	0x3e874a75	0.26423994
208	0x3e2e2e11	0.1700976
209	0xbe205513	-0.15657453
210	0xbc5b82fc	-0.013397928
211	0x3e209471	0.15681626
212	0xbd25c627	-0.040472176
213	0xbde73738	-0.11289829
214	0xbb36e18a	-0.0027905428
215	0x3e0159bc	0.12631887
216	0xbda8db25	-0.082449235
217	0xbcdb69d8	-0.026783869
218	0x3d86a4dc	0.06574413
219	0x3d37e3bd	0.044894923
220	0x3e8d599f	0.27607438
221	0x3e71e925	0.23624094
222	0x3e05906c	0.13043374
223	0xbd6e5616	-0.058187567
224	0xbd3a95fc	-0.045553192
225	0x3d91af4a	0.07113512
226	0xbe934d16	-0.2876975
227	0x3e558b7c	0.2085399
228	0x3e1ff1e7	0.15619622
229	0xbda1a51e	-0.07892822
230	0xbd8ee15a	-0.06976576
231	0xbe424718	-0.18972433
232	0x3e1718b9	0.14755525
233	0x3e062368	0.13099444
234	0x3dd79246	0.10525946
235	0xbe159c16	-0.14610323
236	0xbe7d435a	-0.24732724
237	0x3ced3236	0.028954607
238	0xbe97450e	-0.29544872
239	0xbd96bca7	-0.07360201
240	0x3e6fad22	0.23405889
241	0x3e136743	0.1439486
242	0x3e166a10	0.14688897
243	0xbc6393ae	-0.01389019
244	0x3db42224	0.08795574
245	0x3c97659d	0.01848107
246	0x3e3b96ff	0.18319319
247	0xbe9abc34	-0.30221713
248	0xbded60d5	-0.11590735
249	0xbe0af6a1	-0.13570644
250	0xbdced876	-0.100998804
251	0xbe092a3d	-0.13395019
252	0x3e903049	0.2816184
253	0xbed41e71	-0.41429475
254	0x3d99cb9e	0.0750954
255	0xbd5b888e	-0.053597026

grud.rl.bias f4 [40]
0	0x3e4b7c4c	0.19871634
1	0x3d569da6	0.05239644
2	0xbe407968	-0.18796313
3	0x3ec3b678	0.3822515
4	0x3e79d678	0.2439822
5	0x3ecab548	0.39591432
6	0xbe196b35	-0.14982302
7	0x3e6c647d	0.23085208
8	0x3db60de8	0.08889371
9	0x3e8dce88	0.27696633
10	0xbdab2f07	-0.08358579
11	0xb9d7c4bf	-0.00041154583
12	0xbcc2765b	-0.023738077
13	0x3d800a9a	0.06252022
14	0x3cc330b9	0.023826944
15	0x3e663c6e	0.2248399
16	0x3e17a3b6	0.14808545
17	0xbd56b952	-0.05242283
18	0x3eac75df	0.33683679
19	0xbb3eddb5	-0.0029123847
20	0x3d8cc20b	0.06872948
21	0x3e161d59	0.14659633
22	0x3d898f43	0.06716778
23	0xbcf6dc3a	-0.03013431
24	0x3db425b1	0.087962516
25	0x3e757ac6	0.23972616
26	0x3deaa746	0.11457686
27	0x3daab9c0	0.0833621
28	0x3d8b8d01	0.06814004
29	0x3e01bb41	0.12669088
30	0x3e3d4c02	0.18486026
31	0xbd200cf7	-0.039074864
32	0x3e549798	0.20760953
33	0x3e1c1767	0.15243302
34	0x3ca5b5ae	0.020228233
35	0x3dbfc6f3	0.093641184
36	0xbc3d7453	-0.011563378
37	0x3d2fb585	0.04289772
38	0x3e0ad14a	0.135564
39	0xbddfa699	-0.10920448

grud.hl.weight f4 [40, 44]
0	0x3e1c319b	0.15253298
1	0x3e6422d8	0.22278917
2	0xbc3bbcfe	-0.0114586335
3	0xbd8dec4d	-0.069298364
4	0x3d5fe83a	0.054664828
5	0xbd4377ec	-0.04772179
6	0x3de85890	0.11345017
7	0x3d5421e4	0.051790133
8	0x3d96f8c9	0.07371671
9	0x3e11b407	0.14228831
10	0x3da265b0	0.079295516
11	0xbdcc3df2	-0.09972753
12	0xbc31e2f4	-0.0108573325
13	0x3df316e7	0.11869603
14	0x3c80d737	0.015727622
15	0x3df8e5d5	0.12153212
16	0x3e379481	0.17927743
17	0x3e19cf18	0.15020406
18	0xbcebecfd	-0.028799528
19	0xbd122467	-0.035679247
20	0x3e0aeb7d	0.13566394
21	0x3cd9b18b	0.026573917
22	0x3d730a5f	0.059336063
23	0xbe320966	-0.17386398
24	0xbd429d2f	-0.047513183
25	0xbcc37088	-0.02385737
26	0xbbb54446	-0.0055318205
27	0xbbe045e8	-0.006844271
28	0xbe408165	-0.1879936
29	0xbb0653f8	-0.0020496827
30	0xbd6a9eaf	-0.05728024
31	0xbd30f972	-0.04320664
32	0x3e08d6ac	0.13363141
33	0x3dd3d4b9	0.10343308
34	0x3cacfa65	0.021115491
35	0xbd9422f1	-0.07233227
36	0xbe304e81	-0.17217447
37	0xbd7937e9	-0.060844336
38	0xbdb71bad	-0.089408256
39	0xbdef9913	-0.116991185
40	0xbdaf18c0	-0.085496426
41	0xbda5bef7	-0.08093064
42	0xbd8fdb5e	-0.07024263
43	0x3e06da29	0.13169159
44	0x3dce5653	0.10075059
45	0x3e624b21	0.22098972
46	0x3da86fac	0.08224425
47	0x3e8e63b1	0.27810434
48	0xbcd4515d	-0.025917703
49	0x3d7f689b	0.06235562
50	0xbe858c46	-0.26083583
51	0x3dba207a	0.09088226
52	0x3decc6b9	0.11561341
53	0xbdb2fe4e	-0.08739911
54	0xbeb71718	-0.35759807
55	0xbea95063	-0.33069143
56	0x3d625518	0.055256933
57	0x3d2ed1f8	0.04268071
58	0xbd85aba3	-0.06526878
59	0xbe1ea73c	-0.15493482
60	0xbdf49048	-0.11941582
61	0xbe328d39	-0.17436685
62	0xbe1c2c4b	-0.15251271
63	0x3dfd05f6	0.123546526
64	0xbc8efcf9	-0.017454611
65	0x3db8ddf8	0.09026712
66	0x3dfd0d4e	0.12356053
67	0xbe20bea3	-0.15697722
68	0x3d9b2e5d	0.075772025
69	0x3c407848	0.011747427
70	0x3d1e1a70	0.03859943
71	0xbc1b568b	-0.009481083
72	0xbda0afc2	-0.07846023
73	0xbd4bc02c	-0.049743816
74	0x3d9c8911	0.07643331
75	0xbe1947da	-0.14968815
76	0x3d52f366	0.051501654
77	0xbe2b5739	-0.16732492
78	0xbe2239d6	-0.15842375
79	0xbccd831d	-0.025086934
80	0xbe5552f6	-0.20832428
81	0x3e81d472	0.25357395
82	0xbe67f66f	-0.226526
83	0xbdbee90b	-0.09321793
84	0xbd7d60d7	-0.06185993
85	0x3e0118c5	0.12607105
86	0x3e45db66	0.19321975
87	0x3e20e7ec	0.15713471
88	0x3e38aabd	0.18033881
89	0x3de70dd0	0.112819314
90	0xbd29aabe	-0.041422598
91	0x3c2b3955	0.010450681
92	0x3e228884	0.15872389
93	0x3da4c83d	0.08046005
94	0xbda18cc6	-0.078881785
95	0x3cc6b389	0.02425553
96	0xbdc3beee	-0.09557901
97	0x3e6a70b6	0.22894558
98	0xbe413a70	-0.18869948
99	0x3d27e0d5	0.0409859
100	0x3d57d36f	0.052691873
101	0xbde03fdb	-0.109496795
102	0x3d750bbb	0.05982564
103	0xbd9385e9	-0.07203276
104	0x3e67f489	0.22651877
105	0xbdba891b	-0.09108182
106	0xbe812653	-0.25224552
107	0x3e12a111	0.14319254
108	0x3e59a1cb	0.21253125
109	0x3e02067b	0.12697785
110	0x3e1aa5ce	0.15102312
111	0x3e1359e1	0.14389755
112	0x3e171521	0.14754154
113	0xbddaedbd	-0.10689876
114	0xbcdc693b	-0.026905647
115	0x3dca09e1	0.098651655
116	0x3ddcf202	0.10788347
117	0xbbe73148	-0.0070554353
118	0x3cce25ae	0.025164451
119	0xbe296c11	-0.1654513
120	0xbdabb35e	-0.08383821
121	0x3dc8e801	0.09809876
122	0xbe1f43e8	-0.15553248
123	0x3de806a0	0.113293886
124	0x3c3a2e3d	0.011363563
125	0xbe7de5f6	-0.24794754
126	0x3d5b1535	0.05348702
127	0x3c3e59eb	0.011618118
128	0xbd36e40b	-0.044651072
129	0x3da2160a	0.0791436
130	0xbe00770d	-0.12545414
131	0xbc0c1df1	-0.00855206
132	0x3e85f575	0.2616383
133	0x3d93840a	0.07202919
134	0xbc623666	-0.013806915
135	0xbe34a12f	-0.17639612
136	0xbd45ce3f	-0.048292395
137	0x3daa18dc	0.08305523
138	0xbcb4a61c	-0.022051863
139	0x3df5f9fb	0.120105706
140	0x3dd7dc77	0.10540097
141	0x3e3ff2e3	0.18744998
142	0x3c04d451	0.008107261
143	0xbd9b9ae1	-0.075979
144	0xbd5b4fc6	-0.053542875
145	0xbcc2e832	-0.02379236
146	0x3a9685dd	0.0011483986
147	0x3e09c62e	0.13454506
148	0x3d214529	0.039372597
149	0x3e303bea	0.17210355
150	0xbe9c2600	-0.30497742
151	0xbcb6d505	-0.022318373
152	0x3df1a05f	0.117981665
153	0x3ddb8876	0.10719387
154	0xbcf480b1	-0.029846521
155	0x3d4bf925	0.04979815
156	0xbd027a25	-0.031854767
157	0xbda1e393	-0.079047345
158	0xbd4f3b26	-0.050593518
159	0xbd52cd4c	-0.051465318
160	0x3e1fa95f	0.15591954
161	0x3d9dd38b	0.07706364
162	0xbdca74dc	-0.098855704
163	0xbdca74bc	-0.098855466
164	0x3e0a2e58	0.13494241
165	0x3b2e1111	0.0026560465
166	0x3d0a956e	0.033833914
167	0x3c7c6185	0.01540411
168	0x3dae6a1d	0.08516333
169	0xbe9e6e64	-0.30943596
170	0x3e13ba0c	0.1442644
171	0xbca42cc6	-0.02004088
172	0x3de1f41a	0.11032887
173	0xbd84d3a7	-0.06485682
174	0xbcc36b32	-0.023854826
175	0xbe300002	-0.17187503
176	0x3cd0013d	0.025391215
177	0xbe67d0e0	-0.22638273
178	0xbd4174e8	-0.04723063
179	0xbe543ace	-0.20725557
180	0xbcaf91bb	-0.021431794
181	0xbb39c91c	-0.002834863
182	0xbb0b427e	-0.002124935
183	0x3d2a4ca3	0.041576993
184	0x3e37118c	0.17877787
185	0xbe0ec2b6	-0.13941464
186	0x3e5614b1	0.2090633
187	0xbda227dd	-0.079177596
188	0xbe1d02c4	-0.15333086
189	0x3d8aa9a0	0.06770635
190	0x3e5ca76e	0.21548244
191	0x3c0dab78	0.008646838
192	0x3c4639f4	0.012098778
193	0xbd6e9f7a	-0.058257557
194	0x3e912cbb	0.2835444
195	0xbdc78dc0	-0.097438335
196	0xbe361ca4	-0.17784363
197	0xbdadbd9b	-0.0848343
198	0xbccd8f7e	-0.025092836
199	0xbd9bd73b	-0.07609411
200	0xbe099b54	-0.13438159
201	0xbdb6634e	-0.089056596
202	0xbde49796	-0.11161725
203	0x3d94c6e5	0.072644986
204	0x3e46238e	0.193495
205	0x3d447b73	0.047969293
206	0xbcdac6f5	-0.026706198
207	0x3e65e089	0.22448935
208	0x3ce51ba7	0.027967287
209	0x3e5146c5	0.20437153
210	0x3d7d7063	0.06187476
211	0xbdc657b1	-0.096846946
212	0x3d1a167a	0.03761909
213	0x3d74e6d4	0.059790447
214	0x3dd9735a	0.10617705
215	0x3e4eaa35	0.20182116
216	0x3c670c8e	0.014102114
217	0xbdfc067a	-0.12305923
218	0xbd79b5c0	-0.060964346
219	0xbe3b22a4	-0.18274933
220	0xbdd82fb5	-0.105559744
221	0x3cce2259	0.025162863
222	0xbdab6598	-0.08368987
223	0x3d44b5b7	0.04802486
224	0xbe021711	-0.12704112
225	0xbe25cc2d	-0.16191168
226	0x3e008acc	0.12552947
227	0x3ebc749c	0.36807716
228	0x3d3da5ef	0.046300825
229	0xbe3bc236	-0.18335804
230	0x3e679d90	0.22618699
231	0xbd7aec53	-0.061260533
232	0x3d88873d	0.0666642
233	0x3c8b2be6	0.016988706
234	0x3e89c327	0.26906702
235	0xbe4bc942	-0.19900993
236	0xbebced1f	-0.3689966
237	0x3c20c6ea	0.00981305
238	0xbd30b288	-0.04313901
239	0x3caae7e0	0.02086252
240	0x3e553f5b	0.2082495
241	0xbd5203c6	-0.05127313
242	0xbdb29713	-0.08720221
243	0x3dbd0674	0.092297465
244	0xbe6d88cc	-0.23196715
245	0xbea8b7b4	-0.32952654
246	0xbb7572ba	-0.0037452416
247	0x3e8df14a	0.2772315
248	0x3e983450	0.2972741
249	0xbe85c672	-0.26127964
250	0xbde7315a	-0.1128871
251	0x3e278131	0.16357876
252	0xbe004394	-0.12525779
253	0xbd412948	-0.04715851
254	0x3d9bf7a5	0.07615594
255	0x3da9238b	0.082587324

grud.hl.bias f4 [40]
0	0xbdd02ba3	-0.10164573
1	0xbc250eeb	-0.0100743575
2	0xbe4a3b13	-0.19749098
3	0x3de5098a	0.1118346
4	0xbe4b9f3f	-0.19884966
5	0x3e037f2d	0.12841482
6	0x3e252aa6	0.1612955
7	0xbdc4fed4	-0.09618917
8	0xbd7cee4e	-0.061750703
9	0xbddfb93a	-0.10924001
10	0x3dd93234	0.106052786
11	0x3dd97c1c	0.10619375
12	0xbdd98dcb	-0.10622748
13	0xbd839a16	-0.06425874
14	0xbe43cbc0	-0.19120693
15	0xbe009a97	-0.12558971
16	0x3d2a620b	0.041597407
17	0xbc256184	-0.01009405
18	0xbd8d2846	-0.06892447
19	0x3dc8db9b	0.098075114
20	0x3e3d1651	0.18465544
21	0xbe16a475	-0.14711173
22	0xbd33e56e	-0.043919973
23	0x3d553663	0.05205382
24	0xbdbc03dc	-0.091804236
25	0x3d53b54f	0.05168658
26	0xbe07a1fa	-0.13245383
27	0xbe6bf23f	-0.23041628
28	0xbde59171	-0.11209381
29	0x3cb51e09	0.022109048
30	0x3ddf8156	0.10913341
31	0xbe61ecb9	-0.22062959
32	0x3dd4a416	0.103828594
33	0xbc00f77e	-0.007871507
34	0x3d8dbf11	0.06921209
35	0x3e121e0b	0.14269273
36	0xbd171bcd	-0.036891747
37	0xbdad010d	-0.08447466
38	0x3dbaedf4	0.09127417
39	0xbe43783c	-0.19088835

grud.gamma_x_l.weight f4 [2, 2]
0	0xbf0696d4	-0.52573895
1	0x3ecb9ce2	0.3976813
2	0x3f04beef	0.5185384
3	0xbd6ee950	-0.058327973

grud.gamma_x_l.bias f4 [2]
0	0x3f18719f	0.5954837
1	0xbc09ec00	-0.008418083

grud.gamma_h_l.weight f4 [40, 2]
0	0xbf14b349	-0.5808607
1	0x3f1dc74f	0.61632246
2	0x3e6f3f54	0.23364002
3	0xbec9e68b	-0.39433703
4	0x3f03d4e5	0.51496726
5	0x3ce93100	0.028465748
6	0x3f20d4e5	0.6282485
7	0x3f092c83	0.53583544
8	0xbe9dea6c	-0.30842912
9	0xbf17f519	-0.59358364
10	0x3cbce5a0	0.023058712
11	0xbea57fa4	-0.32323945
12	0x3f0c057f	0.54695886
13	0x3f0a8555	0.541097
14	0xbe481c58	-0.19542062
15	0xbedf53b4	-0.43618548
16	0xbee65ad1	-0.44991162
17	0xbf0359b0	-0.5130873
18	0xbe01832c	-0.12647694
19	0x3dda9930	0.106737494
20	0x3b709600	0.00367105
21	0xbbb50c00	-0.005525112
22	0xbd908798	-0.070571125
23	0x3ea78296	0.32716817
24	0xbf185064	-0.59497666
25	0x3f141d55	0.5785726
26	0xbe4fc070	-0.20288253
27	0x3e0b54f8	0.13606632
28	0x3f0f3d3b	0.55952805
29	0xbf19e986	-0.60121953
30	0x3f2e5165	0.6809295
31	0x3eeddac2	0.4645596
32	0x3e2f53ac	0.17121762
33	0x3e66bb7c	0.22532457
34	0x3d38edc0	0.04514861
35	0x3dd8b168	0.105807126
36	0xbf125e8e	-0.5717553
37	0xbef74556	-0.48295087
38	0x3ed3c592	0.41361672
39	0x3f348949	0.7052198
40	0x3f124889	0.5714193
41	0x3ee0e4fe	0.43924707
42	0x3de5fc10	0.11229718
43	0x3f1e8dcb	0.6193511
44	0x3d7b50a0	0.061356187
45	0xbf11ca6c	-0.56949496
46	0x3ea13afe	0.3149032
47	0x3ec23ab2	0.37935406
48	0xbca0e9a0	-0.019642651
49	0x3f0c7b4b	0.5487563
50	0xbf1162ba	-0.5679127
51	0x3edd269a	0.43193513
52	0xbe9b705b	-0.30359158
53	0x3ce39340	0.027780175
54	0xbe72f9e8	-0.23728144
55	0xbee2ec34	-0.44320834
56	0xbf32b8b5	-0.6981309
57	0x3e48a530	0.19594264
58	0x3f0ba521	0.5454884
59	0xbf1453b6	-0.5794023
60	0x3f1b9471	0.6077338
61	0xbefddd47	-0.49582884
62	0xbd1bfb60	-0.038081527
63	0xbe68548a	-0.22688499
64	0x3efd2e8e	0.4944958
65	0xbf08dd81	-0.5346299
66	0xbecbd303	-0.39809427
67	0xbef3e527	-0.47635767
68	0xbe864818	-0.26226878
69	0xbf2ff7c0	-0.6873741
70	0xbec98921	-0.39362434
71	0xbea31431	-0.31851342
72	0x3ea0afce	0.31384128
73	0xbf229fcc	-0.6352508
74	0x3f0dd707	0.5540623
75	0x3f28ee63	0.6598875
76	0xbea75312	-0.32680565
77	0xbf0b8f11	-0.54515177
78	0x3f1ff01f	0.6247577
79	0x3ed741da	0.42042428

grud.gamma_h_l.bias f4 [40]
0	0xbf1b05ec	-0.6055591
1	0xbc6771b6	-0.014126232
2	0xbdb65978	-0.089037836
3	0xbe4bf120	-0.199162
4	0x3da28d7e	0.07937144
5	0xbc793f79	-0.015212887
6	0x3eed0556	0.46293133
7	0xbe916d6a	-0.2840379
8	0x3ce2cb1b	0.027684739
9	0x3eb502e0	0.35353756
10	0x3e2edf64	0.17077404
11	0x3e0405d2	0.12892845
12	0xbeb76a4f	-0.35823295
13	0x3ef20a22	0.47273356
14	0xbeefbde2	-0.46824557
15	0x3e8437cf	0.2582383
16	0xb9a9e0fa	-0.00032401812
17	0xbede79cb	-0.43452296
18	0x3d97029c	0.073735446
19	0x3c9e1338	0.019296274
20	0xbe03c6f4	-0.12868863
21	0x3ef21f90	0.47289705
22	0x3da0f4ca	0.0785919
23	0xbf003cc6	-0.5009273
24	0xbef091e5	-0.4698631
25	0xbf13980a	-0.5765387
26	0xbe3bfddc	-0.18358558
27	0xbc52e216	-0.012871286
28	0x3eaedcf1	0.3415294
29	0xbde5a850	-0.11213744
30	0x3ef1b955	0.4721171
31	0xbbc11476	-0.0058923317
32	0xbf11d137	-0.5695986
33	0xbe0d6f30	-0.13811946
34	0xbe5315e4	-0.2061382
35	0x3d9fbf02	0.07800104
36	0x3d237940	0.039910555
37	0xbc4e617a	-0.012596482
38	0xbedb5690	-0.4283948
39	0x3eea8a34	0.45808566
