models/102-seed-100-robust_1_lasso_5/itr-0-encoder.pth.pth (torch, 4345 bytes, 9 tensors)

attn_v f4 [10]
1.1431803 0.88152015 1.1564233 1.7203064 0.8878418 0.68691224 0.5022587 0.53409106
1.9656254 0.07702182
00000000: bb53 923f 4eab 613f ae05 943f 0033 dc3f
00000010: 9a49 633f 7bd9 2f3f 0794 003f 31ba 083f
00000020: 9d99 fb3f 9ebd 9d3d

lstm.weight_ih_l0 f4 [20, 2]
-0.5097669 0.20762773 -0.3634734 0.2785631 -0.13465407 -0.047319625 0.23402451 -0.3991197
-0.032250747 -0.30099472 -0.40749797 -0.18109272 0.18781316 0.43472806 -0.1340319 0.052959614
0.7865467 -0.14081134 0.00095239165 -0.09278127 0.106834285 0.846277 0.22579275 0.35358915
0.15459558 0.4801805 0.16540837 0.22097729 -0.22424 0.13436787 -0.49946868 -0.8262695
0.1742662 0.03022761 -0.19368257 0.0338046 0.3842706 -0.18103133 -0.31461483 0.31966966
00000000: 1580 02bf 5d9c 543e 2f19 babe d39f 8e3e
00000010: c2e2 09be 39d2 41bd 1fa4 6f3e 6b59 ccbe
00000020: 5c19 04bd fb1b 9abe 93a3 d0be 5f70 39be
00000030: 1852 403e ad94 de3e a93f 09be 2eec 583d
00000040: 205b 493f d930 10be eca9 793a 1b04 bebd
00000050: efcb da3d 9ca5 583f 3736 673e a309 b53e
00000060: 4e4e 1e3e 38da f53e d060 293e df47 623e
00000070: 2c9f 65be bb97 093e 5cba ffbe 6686 53bf
00000080: d772 323e e59f f73c b954 46be b176 0a3d
00000090: 1ebf c43e 4760 39be 3215 a1be beab a33e

lstm.weight_hh_l0 f4 [20, 5]
-0.04629341 -0.14748664 0.14639117 -0.30575565 -0.7171867 -0.9121109 0.33871272 0.24585707
0.4579921 -0.58177274 -0.8014595 0.5539384 -0.3759337 -0.008391202 0.083646126 -0.5567189
0.2583924 -0.23379365 0.5451127 0.15097156 -1.0483682 0.96402043 0.08987844 0.6350971
0.013846385 -0.0816741 0.196656 -0.13443965 -0.53091437 -0.3328289 -0.5069348 0.6732799
-0.09592403 0.1979754 -0.5942637 -1.3427782 0.6328819 -0.5554533 0.5025332 0.13866201
-1.14445 0.45561433 -0.43155158 -0.7053877 0.39869013 -1.2118049 0.5702201 0.24375115
0.723025 -0.5256637 0.16289802 -0.39202318 0.37033218 0.20378064 -0.3100555 0.038071398
0.13925378 0.11679916 -0.5490397 0.38833082 0.13250525 0.15336537 0.049389295 -0.0033779095
-0.42345348 0.27109686 -0.3265506 -0.036542606 0.64738464 0.36842683 -0.80308795 -0.39218426
-0.19153677 0.12892652 0.25302175 -0.18838835 -0.28183165 -0.06732845 -0.678175 0.20749897
-1.2831529 0.7344924 -0.5799825 0.59458405 -0.48642287 -1.2645415 0.6042077 -0.034515895
0.03058968 -0.17264627 -1.3309741 -0.04984374 -0.6039838 0.3026253 -0.30603468 -0.4721538
1.3109918 -0.12118803 0.33846813 0.05381505
00000000: 299e 3dbd bd06 17be 91e7 153e 018c 9cbe
00000010: 8c99 37bf 1a80 69bf c16b ad3e f5c1 7b3e
00000020: f17d ea3e 0fef 14bf 732c 4dbf e8ce 0d3f
00000030: 627a c0be 417b 09bc a94e ab3d 2185 0ebf
00000040: 024c 843e 9a67 6fbe 828c 0b3f 4a98 1a3e
00000050: ee30 86bf 0bca 763f 3012 b83d b995 223f
00000060: f3db 623c c044 a7bd 3160 493e 8caa 09be
00000070: 01ea 07bf 8d68 aabe 7bc6 01bf 125c 2c3f
00000080: d173 c4bd 10ba 4a3e aa21 18bf 28e0 abbf
00000090: 8c04 223f 3032 0ebf 04a6 003f 6afd 0d3e
000000a0: 567d 92bf 4846 e93e 54f4 dcbe 4a94 34bf
000000b0: 1d21 cc3e 6c1c 9bbf f2f9 113f e799 793e
000000c0: 2b18 393f e591 06bf bdce 263e 43b7 c8be
000000d0: 2e9c bd3e dfab 503e 98bf 9ebe c1f0 1b3d
000000e0: 8b98 0e3e 6634 ef3d de8d 0cbf 4cd3 c63e
000000f0: 75af 073e d00b 1d3e 6e4c 4a3d eb5f 5dbb
00000100: e5ce d8be 35cd 8a3e a431 a7be b3ad 15bd
00000110: 00bb 253f 71a2 bc3e 2c97 4dbf 60cc c8be
00000120: 3722 44be 5005 043e 118c 813e e0e8 40be
00000130: 3d4c 90be 80e3 89bd e09c 2dbf 9c7a 543e
00000140: 5b3e a4bf b207 3c3f bc79 14bf a936 183f
00000150: 6b0c f9be 7fdc a1bf 5bad 1a3f 8a60 0dbd
00000160: 3597 fa3c 2fca 30be 5c5d aabf f328 4cbd
00000170: af9e 1abf b4f1 9a3e 94b0 9cbe 25be f1be
00000180: 94ce a73f 6e31 f8bd b24b ad3e 2b6d 5c3d

lstm.bias_ih_l0 f4 [20]
0.4898973 0.81106615 -0.06481746 0.34838423 0.34388015 0.08892212 0.24409872 0.49470076
0.80524576 0.124055386 -0.45474678 -0.4072546 -0.25375772 0.12196541 -0.072746485 -0.030165544
0.69047123 0.51135445 0.93633795 0.99906176
00000000: d2d3 fa3e 08a2 4f3f 04bf 84bd 6b5f b23e
00000010: 0f11 b03e cd1c b63d 04f5 793e 6b49 fd3e
00000020: 9624 4e3f c010 fe3d 92d4 e8be ad83 d0be
00000030: 88ec 81be 00c9 f93d 1cfc 94bd bb1d f7bc
00000040: b9c2 303f 20e8 023f d8b3 6f3f 83c2 7f3f

lstm.bias_hh_l0 f4 [20]
-0.06906514 0.60890484 0.41157344 0.2491456 0.105396494 0.010058431 0.7274247 0.18477304
0.030649496 0.27645302 0.28890222 -0.23639289 -0.26954746 0.60384154 -0.095353015 -0.042836245
0.3137156 0.89743316 0.6303546 0.5801422
00000000: 0672 8dbd 30e1 1b3f c1b9 d23e 0620 7f3e
00000010: 1eda d73d 1ecc 243c 8138 3a3f 2535 3d3e
00000020: a714 fb3c 408b 8d3e feea 933e fa10 72be
00000030: 2002 8abe 5c95 1a3f 7148 c3bd 0f75 2fbd
00000040: 559f a03e 2ebe 653f eb5e 213f 3384 143f

lstm.weight_ih_l0_reverse f4 [20, 2]
-0.09323484 -0.2937116 0.34252653 -0.20981286 -0.06217684 0.57446665 -0.19621298 0.025098758
0.60953754 -0.14863087 0.1349785 -0.30723202 -0.08427487 -0.094843596 0.038828485 0.21364649
-0.17642803 0.018119138 -0.24551234 -0.24431257 -0.22918808 -0.16595517 -0.10392855 -0.39333948
-0.5280933 0.1385079 -0.5553482 0.21995783 0.004428234 -0.24296267 -0.4312036 0.050650086
-0.30327877 0.44302866 0.39894316 0.1341766 0.025809886 -0.22114469 -0.20830455 -0.21683863
00000000: e8f1 bebd 5e61 96be a35f af3e 2fd9 56be
00000010: 24ad 7ebd 3f10 133f 0eec 48be e99b cd3c
00000020: a70a 1c3f b132 18be ce37 0a3e 844d 9dbe
00000030: 4e98 acbd 5c3d c2bd 9e0a 1f3d 25c6 5a3e
00000040: 8da9 34be 966e 943c 9667 7bbe 132d 7abe
00000050: 48b0 6abe 27f0 29be 7ed8 d4bd cb63 c9be
00000060: 1f31 07bf 04d5 0d3e 4d2b 0ebf a03c 613e
00000070: b81a 913b 35cb 78be b8c6 dcbe 7776 4f3d
00000080: 5b47 9bbe a7d4 e23e 4742 cc3e 9765 093e
00000090: 416f d33c c173 62be ca4d 55be f20a 5ebe

lstm.weight_hh_l0_reverse f4 [20, 5]
0.7535017 -0.2899257 -0.59188324 0.3131324 0.10785655 0.13850966 -0.10044215 -0.34118298
-0.14276214 0.52285695 0.15687215 -0.45648497 -0.085130975 0.5627653 0.6252504 0.3921181
-0.0126914475 -1.3943958 -0.3747564 0.23048516 0.26809675 -0.34087843 -0.3584088 -0.25924316
0.1419016 0.92028254 -0.24773757 -0.4704148 -0.016695766 0.040058978 0.4516758 -0.55753744
-0.87783873 0.2998736 0.30454698 0.35335794 -0.61975414 -0.49721968 0.55173856 -0.13334072
-0.008542997 -0.56053203 -1.4173039 -0.1179636 -0.009308694 0.1331853 -0.14525692 -0.69144887
0.11865249 -0.3874955 0.20881264 -0.23411459 -0.25176528 0.026594616 -0.011187362 -0.025726018
-0.22030024 -0.3073229 -0.23036547 -0.4836706 -0.5424288 0.35614887 -0.3530158 0.050915778
-0.7012643 0.060718104 -0.34366494 -0.20944634 -0.050333582 0.12868905 0.711174 0.3273727
0.38539293 -0.033026427 -0.29860136 0.13851768 0.020973153 -1.0490443 -0.10733687 0.6959234
-0.09249552 -0.06999585 -1.1848989 0.52060103 -0.07986556 -0.62422615 -0.5112138 -1.0439583
0.29069632 0.19449292 0.2534077 -0.21446198 -0.8290998 0.4879141 -0.022095188 0.50572044
-0.8318361 -1.1369029 0.41298616 0.0656067
00000000: 7de5 403f 2471 94be a985 17bf e452 a03e
00000010: e5e3 dc3d 7ad5 0d3e 9db4 cdbd 89af aebe
00000020: 3d30 12be f4d9 053f 18a3 203e 66b8 e9be
00000030: 2659 aebd 6311 103f 6910 203f b4c3 c83e
00000040: caef 4fbc 907b b2bf 12e0 bfbe 4d04 6c3e
00000050: fa43 893e 9e87 aebe 5c81 b7be 85bb 84be
00000060: a74e 113e a397 6b3f ebae 7dbe 35da f0be
00000070: 8fc5 88bc e214 243d 0d42 e73e c6ba 0ebf
00000080: 0aba 60bf 0889 993e 95ed 9b3e 55eb b43e
00000090: 35a8 1ebf 9493 febe bd3e 0d3f 788a 08be
000000a0: edf7 0bbc 077f 0fbf 376a b5bf e696 f1bd
000000b0: 7e83 18bc ba61 083e 3bbe 14be cb02 31bf
000000c0: 1400 f33d cf65 c6be fbd2 553e bcbb 6fbe
000000d0: 61e7 80be f4dc d93c 324b 37bc 5fbf d2bc
000000e0: 6396 61be 6d59 9dbe ede4 6bbe aca3 f7be
000000f0: 9ddc 0abf 2559 b63e 7dbe b4be 108d 503d
00000100: 0f86 33bf 8cb3 783d daf4 afbe 1a79 56be
00000110: 962a 4ebd 10c7 033e 800f 363f 659d a73e
00000120: 3952 c53e b846 07bd 47e2 98be 94d7 0d3e
00000130: e4cf ab3c 1547 86bf 6fd3 dbbd 0928 323f
00000140: 4b6e bdbd fc59 8fbd c4aa 97bf 1c46 053f
00000150: 8e90 a3bd 49cd 1fbf e8de 02bf 6da0 85bf
00000160: 26d6 943e 2729 473e a7be 813e ec9b 5bbe
00000170: e23f 54bf e0cf f93e f800 b5bc e576 013f
00000180: 36f3 54bf 0986 91bf ec72 d33e ce5c 863d

lstm.bias_ih_l0_reverse f4 [20]
0.21950343 0.7368261 0.35098228 0.06887294 0.5841738 0.6187569 0.34368497 0.06328916
1.1412421 0.9048686 -0.5183402 -0.10070743 -0.45556292 -0.24844658 0.11708873 0.5478004
1.1100479 1.0560895 0.5712867 0.6706131
00000000: 82c5 603e a3a0 3c3f f3b3 b33e 420d 8d3d
00000010: 6a8c 153f da66 1e3f 7af7 af3e bf9d 813d
00000020: 3914 923f 78a5 673f f1b1 04bf b23f cebd
00000030: 8b3f e9be c868 7ebe 37cc ef3d a63c 0c3f
00000040: 0d16 8e3f f12d 873f d83f 123f 4dad 2b3f

lstm.bias_hh_l0_reverse f4 [20]
0.008927236 0.72981876 -0.0665925 0.28861627 0.43589163 0.7145559 0.99566734 0.027079046
0.66187114 0.4279624 -0.2619528 -0.12221535 -0.41201526 0.31815258 0.010094422 0.64290375
0.9760486 0.3336677 1.1225106 0.91447747
00000000: 8b43 123c 67d5 3a3f a661 88bd 83c5 933e
00000010: 302d df3e 23ed 363f 0ee4 7e3f e0d4 dd3c
00000020: 6370 293f e31d db3e ad1e 86be 0b4c fabd
00000030: aaf3 d2be e5e4 a23e 1363 253c 5795 243f
00000040: 52de 793f 7ed6 aa3e 6dae 8f3f 321b 6a3f
