models/100-seed-100-prognostic-linear/itr-6-encoder.pth.pth (torch, 18635 bytes, 9 tensors)

attn_v f4 [40]
0	0x3f99726e	1.1988046
1	0x3f975587	1.1822976
2	0x3f8c1f03	1.0946964
3	0x3f4ffa59	0.81241375
4	0x3f8f37d3	1.1188911
5	0x3f5ae4ca	0.85505354
6	0x3f82e344	1.0225606
7	0x3f9b6f99	1.2143432
8	0x3f5a460a	0.8526312
9	0x3fa62386	1.2979591
10	0x3f8ce8a4	1.1008496
11	0x3f80e57c	1.0070033
12	0x3f9661e6	1.1748626
13	0x3f88888d	1.0666672
14	0x3f7b3b7b	0.98137635
15	0x3f9cb615	1.2243067
16	0x3f8e77dc	1.1130328
17	0x3f45a1fb	0.7720029
18	0x3f9abb1e	1.2088354
19	0x3f73c465	0.9522155
20	0x3f83d253	1.0298561
21	0x3f602bec	0.8756702
22	0x3f9a0c68	1.2035036
23	0x3f804e3e	1.0023878
24	0x3f8e9b00	1.1141052
25	0x3f68db3f	0.90959543
26	0x3f8e8121	1.1133157
27	0x3f84986d	1.0359017
28	0x3fa71049	1.3051845
29	0x3f86eabc	1.0540385
30	0x3f71669a	0.9429718
31	0x3f7745a3	0.9659063
32	0x3f8d3d4a	1.1034329
33	0x3f708ba5	0.9396308
34	0x3f92581d	1.143314
35	0x3f8532d3	1.0406135
36	0x3f684eb2	0.9074508
37	0x3f8f77e7	1.1208466
38	0x3f4ca15a	0.799337
39	0x3f63346f	0.8875188

lstm.weight_ih_l0 f4 [80, 3]
0	0x3e6524d9	0.22377338
1	0xbd89cf3d	-0.06728981
2	0xbd8db8dc	-0.06920025
3	0xbcfc5b92	-0.030805383
4	0xbe1f09c7	-0.15531074
5	0x3d2b48f9	0.04181764
6	0xbb81d08e	-0.0039616292
7	0x3e17898d	0.14798565
8	0x3e30fc87	0.17283832
9	0xbd21c9cc	-0.03949909
10	0xbe2d2745	-0.16909511
11	0xbdc343a3	-0.09534385
12	0xbe7ae8f4	-0.24502927
13	0xbde4cbe1	-0.11171699
14	0x3eb8156e	0.3595385
15	0x3ddcb1ec	0.107761234
16	0x3d62599f	0.05526125
17	0xbe575d27	-0.21031629
18	0x3e3c6cf8	0.18400943
19	0x3e198ed9	0.14995898
20	0xbd95bf36	-0.07311861
21	0x3cce7d70	0.025206298
22	0xbe370c28	-0.17875731
23	0x3e6050c1	0.21905805
24	0x3d7b1556	0.061299644
25	0xbe8262c9	-0.25465992
26	0xbe44a1d4	-0.19202358
27	0xbd534fcb	-0.05158977
28	0x3df45be1	0.11931587
29	0x3e16bbc8	0.1472007
30	0x3d5bb1b2	0.05363626
31	0xbd844116	-0.06457727
32	0x3e84ce9c	0.2593888
33	0x3e0c526a	0.13703313
34	0x3db8e923	0.09028842
35	0x3cb5185f	0.022106348
36	0x3c794651	0.015214519
37	0x3e00926a	0.12555853
38	0x3d1c13af	0.03810471
39	0x3e045504	0.12923056
40	0x3c4906c9	0.012269684
41	0x3d889686	0.06669335
42	0xbe1c70af	-0.1527736
43	0x3e7d42f1	0.24732567
44	0x3e549498	0.20759809
45	0xbdd6d72b	-0.10490259
46	0x3e07674e	0.13223001
47	0x3dc83b7f	0.09776973
48	0x3d883d36	0.066523
49	0xbe4f730d	-0.20258732
50	0x3e3b1f74	0.18273717
51	0xbe5d012a	-0.21582475
52	0xb9c52e3c	-0.00037609215
53	0xbdcb0849	-0.0991369
54	0xbe17a52d	-0.14809103
55	0x3cdc9644	0.026927121
56	0x3b588f08	0.0033044238
57	0xbdc151b3	-0.09439411
58	0xbca2a401	-0.019853594
59	0xbc39581d	-0.011312512
60	0x3b9478d7	0.004531007
61	0xbd71b471	-0.059009973
62	0xba572c65	-0.00082082144
63	0xbc692046	-0.014228886
64	0xbe9a74c7	-0.3016722
65	0xbe2091a6	-0.1568056
66	0xbd8a5178	-0.0675382
67	0x3dcee97e	0.10103129
68	0x3ea13e6a	0.3149293
69	0x3c20b8da	0.009809697
70	0xbd9308c8	-0.07179409
71	0xbdd8d811	-0.105880864
72	0xbdfbd070	-0.12295616
73	0x3cd4adad	0.025961721
74	0x3e859c87	0.26095983
75	0x3e3070ae	0.17230484
76	0xbda685ba	-0.08130975
77	0x3d76cdfb	0.060255032
78	0x3e4c3fde	0.19946238
79	0x3e807894	0.25091994
80	0x3bf5da38	0.0075028203
81	0xbe1dac10	-0.15397668
82	0x3dcb20ef	0.09918391
83	0xbe2268c0	-0.15860271
84	0x3e424838	0.18972862
85	0xbd767629	-0.06017128
86	0xbd61ba09	-0.055109058
87	0xbd6e6606	-0.058202766
88	0xbc60d176	-0.013721814
89	0xbea8539e	-0.32876295
90	0x3b4d3729	0.0031313396
91	0xbc95e52a	-0.01829775
92	0x3e87e97e	0.26545328
93	0x3dd18654	0.10230699
94	0x3e272a7c	0.163248
95	0xbcc98574	-0.024599768
96	0xbe17d748	-0.14828217
97	0xbd6911d7	-0.05690178
98	0xbc0cf3a8	-0.008603014
99	0x3e008c3f	0.125535
100	0xbe037404	-0.12837225
101	0x3e431332	0.19050291
102	0x3d554d23	0.052075516
103	0x3d83ce83	0.06435873
104	0x3df6e61f	0.12055611
105	0xbe4816b7	-0.19539915
106	0xbd95ef4d	-0.073210336
107	0xbe06f1c0	-0.13178158
108	0xbe94a597	-0.29032585
109	0xbdaa4fb5	-0.08315984
110	0x3d88e15e	0.066836104
111	0xbe48b544	-0.19600397
112	0xbe32be81	-0.17455484
113	0x3d4d16dd	0.050070632
114	0xbd39964b	-0.045309346
115	0xbea14035	-0.314943
116	0xbdd65ea0	-0.10467267
117	0xbe3e0343	-0.18555932
118	0x3e65c592	0.22438648
119	0xbde23bf1	-0.11046589
120	0xbe962626	-0.2932598
121	0xbe779934	-0.24179536
122	0xbe2d742d	-0.16938849
123	0xbe5341d7	-0.20630585
124	0xbe207154	-0.15668231
125	0x3c4370ba	0.011928732
126	0xbbbb8db0	-0.0057236776
127	0xbb8d108c	-0.004304951
128	0x3e06edbf	0.1317663
129	0x3e70a82d	0.23501654
130	0x3d984575	0.07435123
131	0x3dee6afe	0.11641501
132	0x3cebf6ac	0.028804146
133	0x3cd85680	0.026408434
134	0xbe0e7284	-0.13910872
135	0x3e827173	0.2547718
136	0x3e91133f	0.28334996
137	0xbd3c9ed1	-0.046049897
138	0x3e2f43cd	0.17115708
139	0x3db9ba53	0.09068742
140	0x3e410d46	0.1885272
141	0xbe1a2a52	-0.15055206
142	0xbe482b01	-0.19547655
143	0xbd87dce0	-0.066339254
144	0x3e72db30	0.23716426
145	0x3e1d9eb4	0.15392572
146	0x3dacf8ea	0.08445914
147	0xbe085473	-0.13313465
148	0x3d843ed4	0.06457296
149	0x3e0435a7	0.12911092
150	0xbc05b9a1	-0.008161933
151	0x3e22da7f	0.15903662
152	0x3d9bad30	0.07601392
153	0xbe2af32e	-0.16694328
154	0xbe23d027	-0.15997373
155	0xbe04fbe3	-0.12986712
156	0xbe6e4e71	-0.2327211
157	0x3d15a03f	0.036529776
158	0xbdbefc3a	-0.09325452
159	0x3de5e52e	0.11225353
160	0x3e3010ea	0.17193952
161	0xbde2d467	-0.11075669
162	0x3e81096a	0.25202495
163	0x3e5eb38f	0.21748184
164	0xbde887e4	-0.11354044
165	0xbe9aa467	-0.30203554
166	0xbc8b7fe9	-0.017028766
167	0x3d3f4c45	0.046703596
168	0x3b812b9a	0.0039419653
169	0xbe930b57	-0.2871959
170	0xbe5e93cf	-0.21736072
171	0x3e9fbccc	0.31198728
172	0xbc28dac5	-0.010306065
173	0xbdd23f7b	-0.10266014
174	0xbe3e2591	-0.18569018
175	0xbdb3164c	-0.08744487
176	0x3d002ee0	0.031294703
177	0x3da6abb1	0.08138216
178	0x3e2ca519	0.16859855
179	0x3e368c29	0.17826904
180	0xbd44d698	-0.048056215
181	0x3e1d3e8c	0.15355891
182	0xbe26775c	-0.1625647
183	0xbc60c0bd	-0.013717827
184	0x3c67e43a	0.014153535
185	0xbebf319e	-0.37342542
186	0x3d92d636	0.07169764
187	0x3ead1cec	0.33811128
188	0x3d9db99a	0.07701416
189	0xbd83dcfa	-0.06438632
190	0xbde828ae	-0.11335884
191	0xbe2c1919	-0.16806449
192	0xbd8c0430	-0.06836736
193	0x3cffd703	0.031230455
194	0x3d9b240c	0.07575235
195	0xbd85da3a	-0.06535764
196	0x3e1903cb	0.14942853
197	0xbcfb3aaf	-0.030667631
198	0xbe042c5b	-0.12907545
199	0x3e80d68c	0.25163686
200	0x3e19421e	0.14966628
201	0x3d81f3b3	0.0634531
202	0x3c4f973b	0.0126703335
203	0x3c9d2708	0.01918365
204	0x3d655e6d	0.055998255
205	0xbe1fa0e7	-0.15588723
206	0xbdfecc3f	-0.124413006
207	0xbd7bcbbf	-0.061473604
208	0xbe8576a0	-0.26067066
209	0xbe0bc559	-0.13649501
210	0x3e8e87c7	0.27837965
211	0x3e8d5c0a	0.27609283
212	0x3eaf53a4	0.342435
213	0x3e84fa20	0.2597208
214	0x3dad8d41	0.08474208
215	0x3e282e9a	0.16424027
216	0xbd7a3acc	-0.06109123
217	0x3e561e28	0.20909941
218	0xbe30d704	-0.17269522
219	0xbd0e8be5	-0.034801383
220	0x3d580fcb	0.052749436
221	0x3ec299bc	0.38007915
222	0xbdc52077	-0.09625333
223	0x3e5d43c3	0.2160788
224	0x3de5432b	0.11194452
225	0xbd5eb495	-0.054371435
226	0xbe21e4ae	-0.1580989
227	0xbe66eb0a	-0.22550598
228	0xbd631c27	-0.05544677
229	0x3d3568f4	0.044289544
230	0xbd309126	-0.043107174
231	0xbe30e45f	-0.17274617
232	0xbe1c1b4d	-0.1524479
233	0xbe0d101c	-0.13775676
234	0xbe1c4435	-0.15260394
235	0xbb496bb9	-0.0030734374
236	0xbdea7d6f	-0.11449706
237	0xbdf593a4	-0.11991051
238	0x3e153dc4	0.14574343
239	0x3c55d02b	0.013050119

lstm.weight_hh_l0 f4 [80, 20]
0	0x3ded7a90	0.115956426
1	0xbc17a2f2	-0.009255158
2	0x3e8f7b9b	0.2802399
3	0xbe3ecd4b	-0.18633
4	0x3c9ed719	0.019389676
5	0x3e459da5	0.19298418
6	0x3e34a98a	0.17642799
7	0x3e3ab36a	0.18232504
8	0xbddd75a2	-0.10813452
9	0x3e4e8e1c	0.20171398
10	0x3e2b8e11	0.16753413
11	0xbcbacf9a	-0.02280407
12	0xbe25b2b2	-0.16181448
13	0x3ea726d8	0.32646823
14	0x3e4f09b2	0.20218542
15	0xbdd2ed78	-0.102992
16	0x3dfb2eff	0.12264823
17	0x3d4a1702	0.04933835
18	0xbd8e0f9a	-0.069365695
19	0xbde9b290	-0.11411011
20	0xbd7de545	-0.061986227
21	0x3e52b548	0.20576966
22	0x3d3fd932	0.046837993
23	0xbe415c6e	-0.18882915
24	0x3d931ab6	0.07182829
25	0x3e75ca29	0.24002899
26	0x3d8c48ab	0.06849798
27	0xbd4dee6b	-0.0502762
28	0x3de15fd2	0.110046044
29	0x3e1a55ff	0.15071867
30	0x3e9844bc	0.2973994
31	0xbcd79d99	-0.026320266
32	0x3c9b4859	0.018955396
33	0x3bcbb977	0.0062171775
34	0x3e7956a1	0.24349453
35	0x3e35d5bd	0.17757316
36	0xbdf22d8f	-0.11825096
37	0x3df95662	0.12174679
38	0x3cc85633	0.024455165
39	0xbe32031d	-0.17384
40	0xbd1eb7fe	-0.038749687
41	0x3db1dac2	0.08684303
42	0xbd61c21c	-0.055116758
43	0x3ea168b2	0.3152519
44	0x3e179cc6	0.14805898
45	0x3ce4f579	0.027949082
46	0x3de6692e	0.1125053
47	0x3cf4ab1b	0.029866746
48	0x3ea88401	0.3291321
49	0x3b19def5	0.002347884
50	0xbd0eb026	-0.034835957
51	0xbd6f10f7	-0.05836579
52	0x3d6f9a7f	0.05849695
53	0x3e73074e	0.23733255
54	0x3e0f8914	0.14017135
55	0xbde1a42e	-0.11017643
56	0xbe60c4b1	-0.21950032
57	0xbc3e3f8a	-0.011611829
58	0xbdadea52	-0.08491959
59	0x3d163259	0.03666911
60	0xbded8ef0	-0.11599529
61	0x3d30429b	0.04303227
62	0x3daaacaf	0.08333718
63	0xbdebfd69	-0.115229435
64	0x3e4aae47	0.19793044
65	0x3e98090f	0.2969441
66	0x3e9b3d8d	0.30320397
67	0x3e8d5ddd	0.27610675
68	0xbe40cb95	-0.1882766
69	0x3aa04b0c	0.0012229397
70	0x3e4b146a	0.19832006
71	0xbea0ad24	-0.31382096
72	0xbd959454	-0.07303682
73	0x3ea8365f	0.32853982
74	0xbe051622	-0.12996724
75	0xbda43aa6	-0.08018999
76	0x3e1ad18f	0.15119003
77	0xbc07265a	-0.00824889
78	0xbc210f53	-0.009830314
79	0x3dbe1c05	0.09282688
80	0xbe7c84cc	-0.24660033
81	0x3da78fdb	0.08181735
82	0x3eaaf5af	0.33390567
83	0x3e750403	0.23927312
84	0xbcaa9904	-0.020824917
85	0xbd29a880	-0.04142046
86	0x3bd2850f	0.006424553
87	0x3e361d9d	0.17784734
88	0xbe03c88d	-0.12869473
89	0xbca23e66	-0.019805145
90	0x3ee19213	0.44056758
91	0xbeca3601	-0.39494327
92	0x3e1115e7	0.14168511
93	0x3ec06af8	0.3758161
94	0xbde5722f	-0.112034194
95	0xbe1581b9	-0.14600267
96	0x3c8c9273	0.017159676
97	0x3e0ca14b	0.13733403
98	0x3dd5b3a2	0.10434653
99	0x3be5b742	0.0070103714
100	0xbe5b5cec	-0.21422166
101	0xbd67100e	-0.056411795
102	0x3d80ae42	0.06283237
103	0xbe72c622	-0.23708394
104	0x3d0e9d0e	0.034817748
105	0x3e85be49	0.2612174
106	0x3e244841	0.16043188
107	0x3e0174ba	0.12642184
108	0x3d5d3341	0.054003958
109	0x3eb58d05	0.35459152
110	0x3c41db47	0.011832065
111	0xbc031ab6	-0.008001974
112	0xbb40bdea	-0.0029410073
113	0xbdba8e8e	-0.091092214
114	0xbdbec28f	-0.09314453
115	0x3dda8591	0.10670007
116	0xbdc72658	-0.0972411
117	0x3deff21f	0.11716103
118	0x3dc6ce1e	0.097072825
119	0xbe343eaa	-0.1760203
120	0xbe1330e4	-0.14374119
121	0xbe26b3fc	-0.16279596
122	0x3e6776df	0.2260394
123	0xbc4b22c5	-0.012398426
124	0xbd5b8361	-0.05359209
125	0xbd9af44e	-0.07566129
126	0x3d1a74f0	0.037709177
127	0xbd869cff	-0.065729134
128	0x3b683941	0.0035434517
129	0x3d714d69	0.058911715
130	0xbe10d426	-0.14143428
131	0x3e17982c	0.14804143
132	0x3e1ceecc	0.15325469
133	0xbe2354ae	-0.15950271
134	0x3e23809e	0.15967032
135	0x3ec03bbe	0.3754558
136	0x3b1b98f6	0.0023742295
137	0xbdad65cf	-0.08466684
138	0x3eb22a95	0.34798113
139	0xbe45652e	-0.19276878
140	0xbdbe647a	-0.09296508
141	0x3d73ebf6	0.0595512
142	0x3e20b8ef	0.15695547
143	0xbe4dd5f9	-0.20101155
144	0xbe2e3a13	-0.17014341
145	0x3e6c6838	0.23086631
146	0x3ea109cf	0.31452796
147	0x3cdac1e0	0.026703775
148	0x3d7317f9	0.059349034
149	0xbdb4fd96	-0.0883743
150	0x3de8301f	0.11337303
151	0x3cf58c0b	0.029974004
152	0x3daa3979	0.08311743
153	0x3eab04dc	0.33402145
154	0x3e474777	0.19460855
155	0x3cdff86b	0.027340135
156	0xbdf9d12c	-0.121980995
157	0xbe70ae17	-0.2350391
158	0xbcef718f	-0.029228954
159	0xbe30e55d	-0.17274995
160	0x3d8d4bf0	0.068992496
161	0x3bda77d2	0.0066671157
162	0x3e6114eb	0.21980636
163	0xbe1644fd	-0.14674754
164	0xbe1eff9b	-0.15527193
165	0x3e8c170b	0.2736133
166	0x3df24380	0.11829281
167	0x3d9d9115	0.07693688
168	0x3dd09f7b	0.101866685
169	0x3db06826	0.08613615
170	0x3ea5f0f6	0.324104
171	0x3d03d637	0.032186713
172	0x3d08acf3	0.033368062
173	0x3ea8169f	0.3282976
174	0xbd05b494	-0.032642916
175	0x3e4a5031	0.19757153
176	0xbb552b0d	-0.003252688
177	0xbd23d94c	-0.040002152
178	0xbd5f8627	-0.054571297
179	0x3e5fb2d8	0.21845567
180	0x3e6ce2c6	0.23133382
181	0xbd741ae2	-0.05959595
182	0x3e59256f	0.21205686
183	0xbdbdb2e0	-0.09262633
184	0xbdb3cfad	-0.087798454
185	0xbea013d9	-0.31265143
186	0x3d5e9f42	0.0543511
187	0x3ea9b81c	0.33148277
188	0xbd1b964e	-0.03798514
189	0x3bdf64e5	0.0068174475
190	0xbcb067cf	-0.021533875
191	0xbe106553	-0.14101152
192	0x3ebc6b6b	0.36800703
193	0x3dc4cb11	0.09609044
194	0xbe4561de	-0.19275615
195	0xbda05bda	-0.07830019
196	0x3e6afd92	0.22948292
197	0xbe17d427	-0.14827023
198	0x3e8881e2	0.26661593
199	0xbdc50756	-0.0962054
200	0xbdab5641	-0.08366061
201	0x3d958e53	0.07302537
202	0x3e556941	0.20840932
203	0x3e08dc62	0.1336532
204	0xbe441f07	-0.19152461
205	0x3d52062d	0.05127542
206	0x3e83f5e0	0.25773525
207	0x3d9a0ec7	0.0752235
208	0x3dd49c65	0.103813924
209	0xbd9d1e63	-0.076718114
210	0x3e494517	0.19655262
211	0x3d4868bd	0.04892801
212	0xbcd8780f	-0.026424436
213	0x3e21429f	0.1574807
214	0x3e2f4934	0.17117769
215	0xbd55a86c	-0.052162573
216	0xbde698ea	-0.11259635
217	0xbd679f83	-0.056548607
218	0x3dd13d94	0.10216823
219	0xbe628681	-0.22121622
220	0xbe9d0089	-0.3066447
221	0x3d8055e5	0.06266383
222	0xbd8f5535	-0.06998674
223	0x3e444fed	0.19171114
224	0x3e5ed374	0.2176035
225	0xbce1c5b8	-0.0275601
226	0x3e9146f0	0.28374434
227	0xbe332df0	-0.17497993
228	0xbe13134d	-0.14362831
229	0x3e5aab3b	0.21354382
230	0x3de45527	0.11149054
231	0x3d1f0c75	0.03883024
232	0xbe1870e8	-0.1488682
233	0x3e885cea	0.26633388
234	0xbe2fe280	-0.17176247
235	0xbd1c8aab	-0.03821818
236	0x3e372c8e	0.1788809
237	0xbe3e4907	-0.18582545
238	0x3e9a4fa6	0.30138892
239	0x3e0571db	0.13031714
240	0xbd2d8e52	-0.042372055
241	0xbd132914	-0.035927847
242	0x3e1ad662	0.15120843
243	0xbe7935ef	-0.2433698
244	0x3e841881	0.25799945
245	0x3e85f8ca	0.26166373
246	0x3e3f8579	0.1870326
247	0x3dec6060	0.115418196
248	0xbe65aded	-0.22429629
249	0x3e915859	0.28387716
250	0x3da9ad87	0.08285051
251	0xbe23b476	-0.15986809
252	0x3d7e0ea8	0.062025696
253	0x3ea7a464	0.32742608
254	0x3e3a6928	0.18204176
255	0xbd4a330d	-0.049365092

lstm.bias_ih_l0 f4 [80]
0	0xbceb4ed3	-0.02872411
1	0x3e6785a3	0.22609572
2	0xbc10a029	-0.008827248
3	0x3e3b0895	0.18264993
4	0x3d534076	0.051575147
5	0x3e8eaf43	0.2786809
6	0xbc640ad4	-0.013918597
7	0xbd9494dc	-0.07254955
8	0x3cb96908	0.02263309
9	0x3e33f751	0.17574812
10	0x3e814dba	0.25254613
11	0x3ea76800	0.32696533
12	0x3de3cb94	0.11122814
13	0x3e30c0bf	0.17261027
14	0xbd69e627	-0.057104256
15	0x3dfa91da	0.1223485
16	0x3e512bff	0.2042694
17	0x3e3435a8	0.17598593
18	0x3cdec31b	0.027192643
19	0x3e7e582e	0.24838325
20	0xbc98b595	-0.018641273
21	0xbdf86024	-0.12127712
22	0x3e407a87	0.1879674
23	0xbc6bc202	-0.014389517
24	0x3da75789	0.08170993
25	0xbd8c5074	-0.06851283
26	0xbca1fd7e	-0.019774195
27	0x3e13215f	0.14368199
28	0x3e683b1e	0.22678801
29	0xbe097632	-0.13423994
30	0x3e5bcf63	0.2146583
31	0x3ebb164a	0.36540443
32	0x3d893776	0.067000315
33	0x3e4cab39	0.19987191
34	0xbcaf3d48	-0.021391526
35	0x3cd305dc	0.02575963
36	0xbc42025c	-0.011841383
37	0x3e205677	0.15657984
38	0x3d90db1f	0.07073044
39	0x3e650b21	0.22367527
40	0xbe2f1405	-0.1709748
41	0x3e36da0d	0.17856617
42	0x3e13b5d6	0.14424834
43	0x3dcff30e	0.10153781
44	0x3e21ac3b	0.15788357
45	0x3cae6e0c	0.021292709
46	0x3e1f7f7f	0.1557598
47	0xbe134eee	-0.14385578
48	0xbe524a1b	-0.20536081
49	0x3e665a0c	0.22495288
50	0xbc4106c1	-0.011781395
51	0xbcd61501	-0.026133062
52	0x3d93d694	0.07218662
53	0x3e8f6ed0	0.2801423
54	0xbe06b33a	-0.13154307
55	0xbd95e48c	-0.073189825
56	0xbe39d265	-0.18146665
57	0xbb3427f3	-0.0027489632
58	0x3e222159	0.15833034
59	0x3e378b0d	0.17924137
60	0x3e0e3cb1	0.1389034
61	0x3d9aeb9e	0.07564472
62	0x3e6c0c47	0.23051558
63	0x3e29c337	0.16578375
64	0x3ea44fae	0.3209204
65	0x3ec05c42	0.37570387
66	0x3e605b84	0.2190991
67	0x3e18ef42	0.1493502
68	0x3ebd2d68	0.36948705
69	0x3d0e5357	0.034747448
70	0x3e8dccba	0.27695256
71	0x3e8e70f2	0.27820545
72	0x3eb91158	0.36146045
73	0x3e689974	0.22714788
74	0x3e826b84	0.25472653
75	0x3c88745f	0.016657053
76	0x3e3fad47	0.18718444
77	0x3e53f0ec	0.20697373
78	0x3e013732	0.12618712
79	0x3d008da7	0.03138509

lstm.bias_hh_l0 f4 [80]
0	0x3d121b0a	0.035670318
1	0x3de41dc4	0.1113849
2	0x3e787a18	0.24265325
3	0x3dcb5ac1	0.09929419
4	0xbe2db73f	-0.16964434
5	0x3e912415	0.2834784
6	0x3e82310d	0.25428048
7	0x3e8f2085	0.27954498
8	0x3dd7ece6	0.10543232
9	0x3e2b2310	0.16712594
10	0x3e4b643a	0.19862452
11	0xbc825973	-0.015911793
12	0x3dbd6b25	0.09248952
13	0x3d990068	0.074707806
14	0x3e2df002	0.16986087
15	0x3e940227	0.28907892
16	0x3e06c189	0.13159765
17	0x3ea8e7fb	0.32989487
18	0x3e59682e	0.21231148
19	0x3bdb2e44	0.006688865
20	0x3eb690a4	0.35657227
21	0x3e4136d6	0.18868575
22	0x3d82a723	0.06379535
23	0x3eaab41f	0.33340546
24	0xbe2d43b1	-0.16920353
25	0x3dd19150	0.10232794
26	0x3e44b2e7	0.19208871
27	0x3e8f7abc	0.28023326
28	0x3de2523b	0.110508405
29	0xbd85a307	-0.065252356
30	0xbbf14609	-0.007363085
31	0x3ebed5d6	0.3727252
32	0x3e019d38	0.1265763
33	0x3e55698e	0.20841047
34	0xbdef701a	-0.116913036
35	0x3e88607c	0.26636112
36	0x3e8f56bc	0.2799586
37	0x3e950b0c	0.2910999
38	0x3e4e63fe	0.20155331
39	0x3ea26671	0.31718782
40	0xbde6f641	-0.11277438
41	0x3d0124e2	0.031529315
42	0x3e3f75ba	0.18697253
43	0xbe539c94	-0.20665199
44	0xba51171d	-0.00079761614
45	0x3cae46ec	0.021274053
46	0x3e1b256f	0.15150999
47	0x3e7cb510	0.24678445
48	0xbe6ffffc	-0.23437494
49	0x3e4c142c	0.1992957
50	0x3e597513	0.21236067
51	0xbea0dcb5	-0.31418386
52	0xbd6d4c99	-0.057934377
53	0x3e1924f9	0.1495551
54	0xbe555a8a	-0.20835319
55	0x3e6bc11b	0.23022883
56	0x3d3d2921	0.0461818
57	0xbe08d519	-0.1336254
58	0x3de7767a	0.113018945
59	0x3be85a5c	0.00709085
60	0x3ebbf3d3	0.3670946
61	0x3e2001c6	0.15625677
62	0x3de78f88	0.11306673
63	0x3dcd7437	0.10031932
64	0x3e3c3265	0.18378599
65	0x3eca4e20	0.3951273
66	0x3de1a9cd	0.11018715
67	0x3e144c8e	0.14482328
68	0x3e2ab70e	0.16671392
69	0xbd1a18b0	-0.0376212
70	0x3e103ec8	0.14086449
71	0x3d935b74	0.07195178
72	0x3e8338fe	0.2562942
73	0xbcb59e4d	-0.02217021
74	0xbd88758d	-0.06663046
75	0x3eb5d956	0.35517377
76	0x3e8ca6a3	0.27470884
77	0x3e982588	0.29716134
78	0x3ea716ff	0.32634732
79	0x3dc12ef9	0.094327874

lstm.weight_ih_l0_reverse f4 [80, 3]
0	0xbd219202	-0.039445885
1	0x3dc0b3ca	0.09409292
2	0x3e1a7d36	0.15086827
3	0xbe52d33d	-0.20588394
4	0xbd3305dc	-0.04370676
5	0x3df6b266	0.120457456
6	0xbe2e7655	-0.17037328
7	0xbd50c343	-0.050967466
8	0xbdb25aaf	-0.08708703
9	0x3e54cfb4	0.20782357
10	0x3e699618	0.22811162
11	0xbe72a836	-0.2369698
12	0xbd9cf2ca	-0.07663496
13	0xbdecaf30	-0.11556852
14	0x3df5b962	0.119982496
15	0xbbf3c0ad	-0.00743874
16	0xbe1a5777	-0.15072428
17	0xbda725d8	-0.08161515
18	0xbbcac1e9	-0.0061876667
19	0x3bbe3e08	0.0058057345
20	0x3d2fcc8b	0.042919677
21	0x3e5298b6	0.20566067
22	0xbd654b9d	-0.055980314
23	0x3e1328ea	0.14371076
24	0x3e067124	0.13129097
25	0xbd5a1a96	-0.05324801
26	0xbe8030e9	-0.25037315
27	0x3e4f1fd3	0.20226984
28	0x3e46e24e	0.19422266
29	0xbd9a0dab	-0.07522138
30	0xbda5dbee	-0.08098589
31	0xbdce384a	-0.1006933
32	0x3d3990af	0.045303997
33	0x3e1c056e	0.15236446
34	0x3e3e30b2	0.18573263
35	0x3d47361a	0.04863558
36	0x3d9c228e	0.07623778
37	0x3e3e4ef4	0.18584806
38	0x3bb78023	0.005599992
39	0x3e6b0cce	0.22954103
40	0xbd6d0fa0	-0.05787623
41	0xbd7923fe	-0.06082534
42	0xbe14724e	-0.14496729
43	0x3ccd214c	0.025040291
44	0x3c86d034	0.0164567
45	0x3d1701e3	0.036867034
46	0x3e12cc10	0.14335656
47	0x3d8dcf1a	0.06924267
48	0x3d2c695e	0.042092673
49	0xbcae99ce	-0.021313574
50	0x3e9382b0	0.28810644
51	0xbdda953f	-0.10672998
52	0xbeb627bc	-0.3557719
53	0x3c46bd26	0.012130057
54	0xbe22b472	-0.15889147
55	0x3b9663d2	0.004589536
56	0xbe5e2176	-0.21692452
57	0xbe39734b	-0.18110387
58	0xbdb5e02b	-0.08880647
59	0xbe81c50d	-0.2534565
60	0x3d437aa4	0.04772438
61	0x3cb27341	0.021783473
62	0x3d2890d6	0.04115375
63	0xbdf643c1	-0.12024642
64	0x3d880a5f	0.06642603
65	0xbd94b55b	-0.07261153
66	0xbcfc49c9	-0.030796902
67	0xbec70228	-0.38868833
68	0x3d1231ba	0.035691954
69	0xbd125982	-0.035729893
70	0xbd840eb2	-0.064481154
71	0x3e06580a	0.13119522
72	0xbdaebf70	-0.085326076
73	0xbda01fa9	-0.07818539
74	0xbdcbad0d	-0.09945116
75	0xbe6b794e	-0.22995493
76	0x3dd7758a	0.10520466
77	0x3db22a4c	0.08699474
78	0x3c578b9f	0.013155847
79	0xbda0fde3	-0.07860925
80	0xbb913547	-0.0044314
81	0x3e826fec	0.25476015
82	0x3e877151	0.2645364
83	0xbd0aa334	-0.03384705
84	0xbeaa28c8	-0.3323424
85	0xbeac5cfb	-0.33664688
86	0xbd8f1bfd	-0.0698776
87	0x3daa43b1	0.08313692
88	0x3e3d973f	0.18514727
89	0x3cac6908	0.021046177
90	0xbe81e7e7	-0.2537224
91	0x3d8df844	0.069321185
92	0x3bb22d99	0.0054375646
93	0x3dc11e00	0.0942955
94	0x3e470a94	0.19437629
95	0x3c986878	0.018604502
96	0x3dbc94fd	0.09208105
97	0x3dcb59c8	0.09929234
98	0x3d9befc0	0.07614088
99	0x3da6b528	0.081400216
100	0x3e3cd52e	0.18440697
101	0x3a9e702e	0.0012087876
102	0xbe2e5f76	-0.17028603
103	0xbe8d49a0	-0.27595234
104	0xbe0260f2	-0.12732294
105	0x3db13ca4	0.086541444
106	0x3e05294e	0.13004038
107	0xbe2f0380	-0.17091179
108	0x3e82b689	0.25529888
109	0x3e712eb0	0.23552966
110	0x3e51d2a4	0.2049051
111	0xbe7f342d	-0.24922247
112	0xbdb33370	-0.08750045
113	0x3d10b347	0.035327222
114	0xbe18cedb	-0.14922659
115	0xbcd6591a	-0.026165534
116	0xbdb4403e	-0.08801316
117	0xbb04153c	-0.0020154258
118	0xbe6b13df	-0.22956799
119	0xbe3e6ac5	-0.18595417
120	0x3e632ed6	0.22185835
121	0x3b77c29b	0.0037805203
122	0x3d4bb34b	0.049731534
123	0x3d6084e1	0.054814223
124	0x3e7bab95	0.24577172
125	0xbdf1c2df	-0.11804747
126	0xbe4e1fb7	-0.20129286
127	0x3d17a27c	0.03702019
128	0x3db0b229	0.08627731
129	0x3da44846	0.080215976
130	0x3d6f7ce6	0.05846872
131	0x3dbecf0f	0.09316837
132	0xbe0900ac	-0.13379163
133	0xbd97d6fc	-0.07414052
134	0xbda92d64	-0.08260611
135	0x3d7e7059	0.06211886
136	0x3d387783	0.04503585
137	0x3e006a4c	0.12540549
138	0xbdcf0ec8	-0.10110241
139	0xbe27d750	-0.16390729
140	0xbe2d1ded	-0.16905947
141	0xbda95e8c	-0.082699865
142	0xbe275bcb	-0.1634361
143	0xbe0abdff	-0.1354904
144	0xbdf8f090	-0.12155259
145	0x3c36d7b6	0.011159828
146	0xbe26105a	-0.16217175
147	0x3dd0fa5d	0.10204003
148	0x3d6bf5f8	0.05760762
149	0x3d8ab88f	0.06773483
150	0x3e4a22a6	0.1973978
151	0xbd49527d	-0.049150933
152	0x3e37e3a2	0.17957929
153	0xbe84f097	-0.25964805
154	0x3d43a912	0.04776866
155	0x3dc75a72	0.09734048
156	0x3d8d5176	0.06900303
157	0x3c8e35ce	0.01735964
158	0x3e6173d1	0.22016837
159	0xbe114ceb	-0.14189498
160	0xbe483e62	-0.19555047
161	0x3dadca2c	0.08485827
162	0xbe4765c5	-0.19472416
163	0xbe134a33	-0.14383774
164	0xbdfcf89c	-0.12352106
165	0xbe13189a	-0.14364854
166	0xbccd34c7	-0.02504958
167	0xbe494957	-0.19656883
168	0xbe835ab5	-0.2565514
169	0x3dc066d6	0.093946144
170	0xbe8e4dd3	-0.2779375
171	0x3d6d9350	0.058001816
172	0xbe807cda	-0.25095254
173	0xbb360a4c	-0.0027777134
174	0x3e23aae5	0.1598316
175	0x3e825a6e	0.25459617
176	0xbe5b2c99	-0.21403731
177	0x3df29b48	0.11846024
178	0xbd928769	-0.07154734
179	0x3e900c54	0.28134406
180	0x3da14da2	0.078761354
181	0x3e05433e	0.13013932
182	0x3e1ccc12	0.15312222
183	0x3d2ef92a	0.04271809
184	0xbe8a8194	-0.27051985
185	0x3d2e0228	0.042482525
186	0xbe36dd4f	-0.1785786
187	0x3cb645c2	0.02225006
188	0xbe300fa0	-0.1719346
189	0xbc66e452	-0.014092522
190	0x3eafee54	0.34361517
191	0xbd85d25b	-0.06534263
192	0x3dbc9bf4	0.09209433
193	0x3c956e35	0.018241027
194	0xbc4d53d7	-0.012532196
195	0xbdbc3fbd	-0.091918446
196	0xbe0134fe	-0.12617871
197	0x3c01b20e	0.007915987
198	0x3d89a202	0.06720354
199	0xbe4a147e	-0.1973438
200	0x3c2cb3eb	0.010540943
201	0x3e65c84a	0.22439685
202	0xbca20c89	-0.019781368
203	0x3bb35124	0.005472319
204	0xbdbe86d8	-0.09303063
205	0xbe308bd5	-0.17240842
206	0xbdd03f7b	-0.10168358
207	0x3e9ffb37	0.3124635
208	0x3dfb22c2	0.12262489
209	0x3e0b4eec	0.13604325
210	0xbc03f9aa	-0.00805513
211	0x3ca4f5cf	0.020136742
212	0xbe4a70b1	-0.19769551
213	0x3e2ea562	0.17055276
214	0x3ca61301	0.020272734
215	0x3e355e2c	0.17711705
216	0x3db82849	0.08992059
217	0x3e26e1f7	0.16297136
218	0x3da7ac29	0.08187134
219	0x3ebd800d	0.37011757
220	0x3eaf8da2	0.34287745
221	0x3e96bb50	0.29439783
222	0xbdb7770b	-0.089582525
223	0xbebcc794	-0.36871016
224	0xbe79d866	-0.24398956
225	0x3e87c668	0.2651856
226	0xbba1ede7	-0.0049416902
227	0xbc4b2469	-0.012398818
228	0x3e551aa3	0.20810942
229	0xbd2a559a	-0.041585542
230	0x3ead284a	0.338198
231	0xbeb50015	-0.35351625
232	0xbe09ea84	-0.13468367
233	0xbe9c4b38	-0.30526137
234	0x3ae91c37	0.0017784898
235	0xbe2538c8	-0.16134942
236	0xbe9064fb	-0.28202042
237	0xbe974b35	-0.29549566
238	0xbed3a803	-0.4133912
239	0xbea82b22	-0.32845408

lstm.weight_hh_l0_reverse f4 [80, 20]
0	0x3e0ac3e6	0.13551292
1	0xbe8833f2	-0.2660213
2	0x3dddc30a	0.108282164
3	0x3e7af5ff	0.24507903
4	0x3c2e70ee	0.010647042
5	0xbc0b2783	-0.008493307
6	0x3df1a600	0.1179924
7	0x3c41bbc5	0.011824553
8	0xbd36fa9e	-0.0446726
9	0x3e42f06a	0.19037023
10	0xbd839ab1	-0.064259894
11	0xbcee7514	-0.029108562
12	0x3e38af4c	0.1803562
13	0x3d862dde	0.06551717
14	0x3e7f2ab1	0.24918629
15	0xbe350310	-0.1767695
16	0x3e0dc038	0.13842857
17	0x3cccc3b0	0.024995655
18	0xbe6f1c96	-0.23350748
19	0xbe70c09f	-0.23510979
20	0x3e00b3a6	0.1256853
21	0xbe5dc82f	-0.21658395
22	0x3e8e5065	0.2779571
23	0x3e0edc2a	0.13951173
24	0xbda15eeb	-0.07879432
25	0x3e3eef92	0.18646076
26	0xbdb219e5	-0.08696345
27	0xbe5c56e6	-0.21517524
28	0x3d89a15d	0.06720231
29	0x3e69b431	0.22822644
30	0x3e233e75	0.15941794
31	0xbd98f0b2	-0.07467784
32	0x3eae2621	0.34013465
33	0xbe3d9eda	-0.18517628
34	0x3d1255c9	0.035726342
35	0xbe607afa	-0.21921912
36	0xbe956c1e	-0.2918405
37	0x3e822450	0.2541833
38	0xbd6ef301	-0.058337215
39	0xbe5deabf	-0.2167158
40	0x3e673fc9	0.22582926
41	0xbe4fbcb0	-0.20286822
42	0x3d9f78b3	0.077866934
43	0x3e3c5c1b	0.1839451
44	0xbdbcc128	-0.09216529
45	0x3e056f43	0.13030724
46	0xbe114479	-0.14186276
47	0xbdacfae3	-0.0844629
48	0x3e957380	0.29189682
49	0x3d87ba09	0.0662728
50	0x3df8b0ce	0.12143098
51	0xbb1a6673	-0.00235596
52	0xbda9b8af	-0.08287179
53	0x3e956b64	0.29183495
54	0x3e1250bc	0.1428861
55	0xbd9f9ec1	-0.07793952
56	0x3d958df0	0.07302463
57	0xbdbcee74	-0.09225169
58	0x3dc382d0	0.09546435
59	0x3e779ce5	0.24180944
60	0x3e829ccd	0.25510255
61	0x3e3ff5a8	0.18746054
62	0x3e994a7a	0.29939634
63	0x3e1a274c	0.15054053
64	0x3dcd7bdf	0.10033392
65	0xbd2bced9	-0.041945312
66	0xbd90a070	-0.07061851
67	0xbdbfa531	-0.0935768
68	0x3d89d7ec	0.06730637
69	0x3d89dc93	0.06731524
70	0xbde739dc	-0.11290333
71	0xbcaf13f8	-0.021371827
72	0xbd37f1bf	-0.04490828
73	0xbdfde272	-0.12396707
74	0x3e882b33	0.26595458
75	0xbdaed46b	-0.08536609
76	0xbdd6dad4	-0.10490957
77	0x3e4c113a	0.19928446
78	0xbd807af8	-0.062734544
79	0xbe052468	-0.13002169
80	0x3e8c3f2a	0.2739194
81	0xbbbb4bd6	-0.0057158275
82	0x3ea77aa6	0.3271076
83	0x3e429d46	0.19005308
84	0x3c6d9238	0.014500193
85	0xbdf37a54	-0.118885666
86	0xbe255d33	-0.16148834
87	0xbc9735d9	-0.018458294
88	0x3e1a55ec	0.15071839
89	0x3d774ee6	0.060377978
90	0xbcfe0cc6	-0.03101195
91	0xbe18c957	-0.14920555
92	0x3e863d93	0.26218852
93	0x3d2be073	0.0419621
94	0x3e8020c2	0.25024992
95	0xbe386a68	-0.18009341
96	0xbd344d5a	-0.04401908
97	0xbd67493b	-0.056466322
98	0xbcbfccde	-0.023413118
99	0xbec73aba	-0.38911992
100	0x3d11091e	0.035409085
101	0xbd69d836	-0.05709096
102	0x3e3a41d3	0.18189172
103	0x3c69598b	0.01424254
104	0x3b93808b	0.0045014075
105	0x3d36c0d9	0.044617508
106	0xbe0fe1d8	-0.14050996
107	0xbd808325	-0.06275014
108	0x3ea64fa8	0.32482648
109	0x3e80771e	0.2509088
110	0xbe15cfbc	-0.14630026
111	0xbdeefd54	-0.11669412
112	0x3db462dc	0.088079184
113	0xbe9d5c5c	-0.30734527
114	0x3e2b17e1	0.16708328
115	0xbd390fcb	-0.045181077
116	0xbdbcf1ef	-0.09225833
117	0x3e06b4e5	0.13154943
118	0x3d81c76b	0.06336864
119	0xbe8211ef	-0.25404307
120	0x3db6cb9e	0.08925556
121	0xbc7a202d	-0.01526646
122	0xbbb8967d	-0.005633174
123	0x3ca7f81a	0.020504046
124	0x3cdf7f79	0.027282463
125	0xbe777f62	-0.24169686
126	0x3e8ffb9d	0.28121653
127	0xbe1dd768	-0.15414202
128	0x3db4e581	0.08832837
129	0x3e94729a	0.28993684
130	0xbd89158b	-0.06693562
131	0xbe8f7311	-0.28017476
132	0xbcd3e1de	-0.025864538
133	0x3d6a3b47	0.057185438
134	0xbcb4f39a	-0.022088815
135	0xbe13eb18	-0.1444515
136	0xbea53c8a	-0.3227275
137	0x3dea6397	0.114447765
138	0xbe2cedc5	-0.16887577
139	0xbd0710ef	-0.032975134
140	0xbe093e77	-0.13402735
141	0x3c0d110f	0.008610024
142	0x3da7e420	0.08197808
143	0x3d1ebafb	0.038752537
144	0x3e218897	0.15774761
145	0xbe96a8e6	-0.29425734
146	0x3ea32382	0.31863028
147	0xbd219268	-0.039446265
148	0xbc8a2207	-0.016861929
149	0xbe0f725d	-0.1400847
150	0xbea57812	-0.3231817
151	0x3aef3bec	0.0018252111
152	0x3e418005	0.18896492
153	0xbca1e8ac	-0.019764267
154	0x3e8eb294	0.2787062
155	0x3d87c19d	0.06628726
156	0xbe48d72f	-0.19613336
157	0x3eb1f16c	0.34754503
158	0xbded613a	-0.1159081
159	0xbe3b250b	-0.1827585
160	0x3ea40514	0.32035124
161	0x3d002d09	0.03129295
162	0x3e0bac5b	0.13639967
163	0xbd81fdc3	-0.06347229
164	0xbdc8dd7f	-0.09807872
165	0xbd81537a	-0.0631475
166	0x3e3404f2	0.17580011
167	0xbda640c1	-0.081178196
168	0xbdfdbf37	-0.12389987
169	0x3d711654	0.058859184
170	0xbe1e3632	-0.15450361
171	0xbe26dbe7	-0.16294824
172	0x3daddc1a	0.08489247
173	0xbe69c3bf	-0.22828577
174	0x3d81bcfd	0.06334875
175	0xbe5ea92b	-0.2174422
176	0xbe4552b3	-0.19269828
177	0x3e86523d	0.26234618
178	0x3d603920	0.05474198
179	0xbd143a45	-0.036188383
180	0x3ca53f66	0.020171832
181	0xbdba633f	-0.09100961
182	0xbe144c3d	-0.14482208
183	0xbe015870	-0.12631392
184	0xbdb9909a	-0.09060784
185	0x3cd5ac18	0.026083037
186	0x3e4751f0	0.1946485
187	0xbde3e765	-0.111281194
188	0x3e38dc3a	0.1805276
189	0x3e264be5	0.16239889
190	0x3e0ef9f2	0.13962534
191	0x3c905730	0.0176197
192	0xbdd391f6	-0.10330574
193	0x3d91cfcc	0.07119712
194	0xbe2ac96d	-0.166784
195	0xbe5cde7a	-0.21569243
196	0xbe52b425	-0.20576532
197	0x3e79dfa9	0.24401726
198	0x3e4002a7	0.18751012
199	0xbe56db3c	-0.20982069
200	0x3e5f3261	0.21796562
201	0xbe3028c5	-0.17203052
202	0xbd13e5c5	-0.036107797
203	0x3e76ef4d	0.24114724
204	0x3d85da0c	0.0653573
205	0xbea3d52d	-0.31998578
206	0xbca9bf2e	-0.020721044
207	0xbe2f8add	-0.17142816
208	0x3d253f73	0.040343713
209	0xbd0ae6d1	-0.03391153
210	0x3cc75f4d	0.024337435
211	0xbe517c42	-0.20457557
212	0x3e545716	0.20736346
213	0xbe974a91	-0.29549077
214	0x3d29bcd6	0.041439854
215	0xbe356d7b	-0.17717545
216	0xbce4c34c	-0.027925156
217	0x3e6337e0	0.22189283
218	0x3d356b48	0.044291764
219	0xbde5014a	-0.111818865
220	0x3e3cec23	0.18449454
221	0xbe92f7dd	-0.2870473
222	0x3e046c50	0.12931943
223	0xbe527b72	-0.20554903
224	0xbe04be7d	-0.1296329
225	0xbeb44ecf	-0.35216376
226	0x3e6caf86	0.23113832
227	0xbdca889f	-0.0988934
228	0x3e1f6336	0.1556519
229	0xbc8cb542	-0.017176274
230	0x3e053aaa	0.1301066
231	0xbe0eb6a0	-0.13936853
232	0x3e1a4c5b	0.1506819
233	0xbde734d9	-0.11289377
234	0x3dc2f69b	0.095196925
235	0xbc8ecee7	-0.017432643
236	0xbe1af3cf	-0.15132068
237	0x3e9875d5	0.297774
238	0xbe96ad88	-0.2942927
239	0xbcf8a8b9	-0.03035389
240	0xbdeb11ee	-0.11478029
241	0x3d8973c6	0.06711535
242	0x3e53589d	0.20639272
243	0xbdca9d09	-0.09893233
244	0xbe41dcb1	-0.18931843
245	0xbe9b9d15	-0.30393282
246	0x3dc9893f	0.09840631
247	0x3e38b243	0.18036751
248	0xbd72f581	-0.059316162
249	0xbd170304	-0.03686811
250	0xbe782c22	-0.24235585
251	0x3cc7f076	0.024406653
252	0xbd23341f	-0.03984463
253	0x3dd5570b	0.10416993
254	0x3ebb928b	0.3663524
255	0xbe4a7161	-0.19769813

lstm.bias_ih_l0_reverse f4 [80]
0	0x3e6f67f0	0.23379493
1	0xbd1aa231	-0.037752334
2	0x3e5cbde0	0.21556807
3	0xbd50996f	-0.050927576
4	0x3ce69441	0.028146865
5	0x3e8dad13	0.27671108
6	0xbd856feb	-0.06515487
7	0x3e21b9a3	0.15793471
8	0xbc499e05	-0.012305741
9	0xbd91a626	-0.071117684
10	0xbdc18c9e	-0.09450649
11	0xbdab55ee	-0.08365999
12	0x3e3be9d1	0.18350913
13	0x3de7f814	0.11326614
14	0xbdf3ca21	-0.119037874
15	0xbdc3c59e	-0.09559177
16	0xbdd77c1b	-0.10521718
17	0xbbed4836	-0.007241274
18	0x3e85daeb	0.26143584
19	0x3e536d66	0.20647201
20	0x3c9b80b1	0.018982263
21	0x3d25adb1	0.04044885
22	0xbdf46054	-0.11932436
23	0x3eaa7ea7	0.33299753
24	0x3e1a753d	0.15083785
25	0x3e504f56	0.20342764
26	0x3e59bada	0.21262684
27	0xbd3dc554	-0.046330765
28	0x3e341702	0.17586902
29	0xbe04f2c7	-0.12983237
30	0x3d901688	0.070355475
31	0xbd79109c	-0.060806856
32	0x3e05a616	0.13051638
33	0x3e2ff679	0.17183866
34	0xbd076459	-0.033054683
35	0xbdafe88b	-0.08589276
36	0x3dbfee41	0.09371615
37	0xbdbb2a3f	-0.09138917
38	0x3e25b956	0.16183981
39	0xbd71e2b8	-0.059054106
40	0xbe0066bf	-0.12539195
41	0xbd675981	-0.056481842
42	0x3e1aab3e	0.15104386
43	0x3e42895a	0.18997708
44	0xbe8d4a33	-0.27595672
45	0xbd7bcbf5	-0.061473805
46	0xbd82afc0	-0.06381178
47	0x3cbd33d2	0.023095999
48	0xbe9b7691	-0.30363896
49	0x3e0f05e4	0.13967091
50	0xbde5fa2b	-0.112293564
51	0xb879e3b2	-5.9578284e-05
52	0xbc9572b1	-0.018243166
53	0x3d92f603	0.07175829
54	0x3e428071	0.18994309
55	0xbba6359e	-0.0050723096
56	0xbdad098d	-0.08449087
57	0x3d5fa500	0.054600716
58	0xbdd6249e	-0.10456203
59	0xbe6180c8	-0.22021782
60	0xbd204ff0	-0.039138734
61	0x3df38512	0.118906155
62	0x3da89ab7	0.082326345
63	0x3e94d880	0.29071426
64	0x3cd2cddd	0.025732929
65	0x3d5daa6e	0.054117613
66	0xbd105581	-0.035237793
67	0x3d9f1535	0.07767717
68	0x3dbc2457	0.09186619
69	0x3b500431	0.003174078
70	0x3e0de4fb	0.1385688
71	0x3ebb8dcd	0.36631623
72	0x3e901591	0.28141454
73	0xbd7b8bf3	-0.061412763
74	0x3e7b2128	0.24524367
75	0x3e912aa8	0.28352857
76	0xbd0c2e68	-0.034223944
77	0x3e808b61	0.25106338
78	0x3ef2aef0	0.47399092
79	0xbdc9ebbe	-0.098594174

lstm.bias_hh_l0_reverse f4 [80]
0	0xbdf06990	-0.117388844
1	0x3dfb5009	0.12271125
2	0xbd9f1aeb	-0.07768806
3	0x3db3e416	0.08783738
4	0x3e22730c	0.158642
5	0x3e90bad1	0.2826753
6	0x3e673c50	0.22581601
7	0x3e3704d3	0.17872934
8	0x3e126865	0.14297636
9	0x3e1ecc87	0.15507708
10	0x3e65f59e	0.22456977
11	0x3e03bcae	0.12864944
12	0x3e13d2ac	0.14435834
13	0x3e0f22fc	0.13978189
14	0xbe077305	-0.1322747
15	0x3e1f92c8	0.15583336
16	0x3d32418b	0.043519538
17	0x3d9df606	0.07712941
18	0x3e79f326	0.2440916
19	0x3e7b502c	0.24542302
20	0x3d7e015a	0.062013008
21	0x3de4bf6a	0.11169322
22	0x3e0a3b27	0.13499127
23	0xbb34ab6b	-0.0027567993
24	0x3e56a81f	0.2096257
25	0x3d40ea1e	0.04709827
26	0x3e8d99f8	0.2765653
27	0x3c64eaea	0.0139720235
28	0x3eccca6c	0.39998186
29	0xbc8eb0c3	-0.01741827
30	0x3e723fcb	0.23657148
31	0xbad9fef2	-0.0016631766
32	0x3dbf8b48	0.09352738
33	0x3e72772a	0.2367827
34	0xbcaee652	-0.02135006
35	0x3e4ca85f	0.19986103
36	0x3e07937d	0.13239856
37	0xbd868ebf	-0.065701954
38	0x3ed22234	0.4104172
39	0xbd1617dd	-0.03664385
40	0x3e142777	0.1446818
41	0x3e3aa16e	0.18225643
42	0xbdbb7fd7	-0.09155243
43	0x3e73e052	0.2381604
44	0xbe4978b0	-0.19674945
45	0x3df04ecf	0.117337815
46	0xbd887a4a	-0.0666395
47	0xbe5f129d	-0.21784444
48	0xbc1eb103	-0.009685758
49	0x3e0c31f4	0.1369093
50	0x3d9462ae	0.07245384
51	0xbd31cf6e	-0.04341071
52	0x3e4e874e	0.20168802
53	0xbe92672d	-0.28594342
54	0x3d9c6d62	0.076380506
55	0xbe846831	-0.25860742
56	0x3d0927f3	0.033485364
57	0x3e7fa6b0	0.2496593
58	0xbb49a4ee	-0.0030768472
59	0x3b5a28d3	0.0033288493
60	0x3c671b83	0.01410568
61	0x3ed01cad	0.40646878
62	0x3dfd440c	0.123664945
63	0x3eb4a141	0.35279277
64	0x3e6cc1e1	0.23120834
65	0x3edd4218	0.43214488
66	0x3cbfe015	0.02342228
67	0x3d84004f	0.06445371
68	0x3ddecd2f	0.108789794
69	0xbd6a237e	-0.057162754
70	0xbaa1cc59	-0.0012344226
71	0x3de62620	0.112377405
72	0x3b5094ea	0.003182704
73	0x3ea78ea1	0.32726005
74	0x3cb1c494	0.021700181
75	0x3d257045	0.04039027
76	0x3eb2b1a2	0.34901148
77	0xbb850deb	-0.004060497
78	0x3e66fc16	0.225571
79	0x3e0aa101	0.1353798
