models/100-seed-100-prognostic-linear/itr-6-decoder.pth.pth (torch, 54807 bytes, 6 tensors)

lstm.weight_ih_l0 f4 [160, 40]
0.08917025 -0.063481376 -0.021382498 0.08174411 0.15138899 -0.08221375 0.16368608 -0.17607097
-0.019062754 -0.03909217 0.19838539 -0.18189152 0.051835857 0.0054395283 0.24242453 0.11769872
-0.07372869 -0.013608466 0.07694102 -0.10900263 0.077186495 0.051666476 0.11773803 -0.11204042
-0.062500544 0.08385157 -0.00430992 0.065014005 0.054694165 -0.0072381133 -0.08850555 -0.09711879
0.1392677 0.059521146 0.18651067 0.07758589 0.051924173 0.19457486 -0.12593316 -0.08590065
0.23727798 0.25095916 0.06427344 -0.3277637 0.1091569 -0.0013775191 0.049503677 0.077092566
-0.020351212 0.15930997 -0.09872655 0.06871037 0.13667046 0.055970285 -0.06309751 0.015549229
0.23526053 -0.18920773 0.13701527 -0.22415763 -0.023738066 -0.014327661 0.0273781 0.13952106
0.1783175 -0.10393715 0.060442172 0.10510348 -0.022909336 -0.039827757 -0.13575473 -0.16845281
-0.17785843 -0.0102668535 0.16763228 0.17837633 0.1737321 0.029269936 -0.02618606 -0.23894157
-0.17260073 -0.16329502 0.10503578 -0.046019815 -0.020298027 0.1071544 0.085340746 -0.18648724
0.027340781 -0.117022894 -0.05474376 0.0012295863 0.07721798 0.08737777 -0.010492746 -0.0147884535
-0.052812938 0.21614076 0.12878889 -0.07602559 -0.059084218 0.052585006 0.14935061 -0.025476113
-0.08573045 -0.01603546 0.034027416 -0.055626895 -0.018945431 0.05814173 0.102267206 -0.20947972
0.2046663 -0.07529141 -0.029415557 0.00697214 -0.0588166 -0.047852978 0.09085846 0.0075425203
0.05339721 -0.09774713 0.059136793 0.08291599 0.1205453 0.109401904 0.08156946 0.12009655
-0.15917791 -0.054313086 0.32504752 -0.25232923 0.121872075 0.0013639623 -0.1344343 0.31289995
0.17924589 -0.19158415 0.18327413 -0.05439485 0.024379993 -0.14006332 0.09582228 -0.12102149
0.042091537 0.13078128 0.14233163 -0.033442862 0.14311914 0.08351605 0.026287775 0.16585012
-0.0037793734 -0.047087073 -0.039563823 0.011594062 -0.11397149 0.20858529 -0.35036328 -0.21861008
-0.006669628 -0.006644028 0.08644212 -0.124937594 0.1496887 -0.0043770224 0.13931648 -0.09032339
-0.018295305 0.20843527 0.015623444 -0.03283484 -0.14653637 0.14255746 -0.008655734 0.08034424
-0.06318203 -0.14562462 -0.10860994 0.10292945 -0.040311474 0.03021405 0.14132276 0.14628108
0.06768865 0.01642342 0.059298206 -0.09235349 0.07663877 0.006695726 0.11709563 -0.09347058
0.08969807 -0.028066725 -0.07336355 -0.03656856 -0.16821916 -0.060857188 -0.092508405 -0.054486338
0.22650991 0.027533341 0.20816927 -0.048992462 0.022339933 0.03319566 0.093626626 0.17966254
-0.12275923 -0.10215337 0.1458694 0.0062669585 0.17307246 0.056338325 -0.086210236 -0.032290675
0.016641911 -0.14301117 0.12400211 -0.16701256 0.06929109 -0.033122677 0.0002747123 0.123837754
-0.09778413 -0.12231445 0.035500884 0.07549759 -0.00043138268 0.16697174 0.1572992 -0.27274552
-0.041261435 -0.37791696 -0.05869988 0.038606048 -0.057519164 -0.020414378 0.027264815 -0.17079505
0.28428897 0.013191738 0.23911664 -0.04217682 -0.106076464 -0.068952575 0.17623584 -0.009514411
-0.011217901 0.059772335 0.2244963 0.09269718 0.06943521 0.24005023 0.21220279 0.06274064
00000000: e49e b63d 8602 82bd 592a afbc 7569 a73d
00000010: b705 1b3e af5f a8bd 539d 273e f34b 34be
00000020: 7e29 9cbc 1c1f 20bd 8a25 4b3e c541 3abe
00000030: d651 543d 123e b23b 233e 783e 070c f13d
00000040: 11ff 96bd 0bf6 5ebc 4193 9d3d c53c dfbd
00000050: f413 9e3d 3aa0 533d a320 f13d 7375 e5bd
00000060: 4900 80bd 5fba ab3d 3b3a 8dbb 1026 853d
00000070: fd06 603d b22d edbb 6642 b5bd 37e6 c6bd
00000080: 319c 0e3e 72cc 733d a7fc 3e3e 5ae5 9e3d
00000090: 71ae 543d a23e 473e 9ff4 00be aeec afbd
000000a0: 00f9 723e b87d 803e cba1 833d a5d0 a7be
000000b0: a78d df3d df8d b4ba 5ec4 4a3d b5e2 9d3d
000000c0: 96b7 a6bc 2722 233e 2531 cabd 06b8 8c3d
000000d0: 57f3 0b3e 1941 653d 4439 81bd 32c2 7e3c
000000e0: 23e8 703e acbf 41be bb4d 0c3e 9489 65be
000000f0: 5576 c2bc 91be 6abc 0a48 e03c 9cde 0e3e
00000100: dd98 363e 00dd d4bd 3692 773d 7e40 d73d
00000110: 5cac bbbc 6e22 23bd 4a03 0bbe e57e 2cbe
00000120: 8520 36be 4e36 28bc cca7 2b3e 49a8 363e
00000130: d4e6 313e 81c7 ef3c 2684 d6bc 19ad 74be
00000140: 3fbe 30be cf36 27be 001d d73d 467f 3cbd
00000150: 0c48 a6bc c473 db3d 21c7 ae3d 83f6 3ebe
00000160: c6f9 df3c b3a9 efbd fe3a 60bd 122a a13a
00000170: 7624 9e3d 1ef3 b23d c4e9 2bbc 454b 72bc
00000180: 6152 58bd 0154 5d3e 3ce1 033e 4eb3 9bbd
00000190: 4b02 72bd 6063 573d 5eef 183e 48b3 d0bc
000001a0: 7293 afbd cc5c 83bc 5560 0b3d 07d9 63bd
000001b0: 7333 9bbc 0626 6e3d 7871 d13d da81 56be
000001c0: 0b94 513e 6232 9abd e5f8 f0bc 8d76 e43b
000001d0: ade9 70bd 7c01 44bd 0014 ba3d 3f27 f73b
000001e0: 08b7 5a3d a62f c8bd 6c39 723d dccf a93d
000001f0: 74e0 f63d 1b0e e03d e40d a73d 2ef5 f53d
00000200: 89ff 22be 6677 5ebd a16c a63e 4c31 81be
00000210: 1198 f93d fbc6 b23a 25a9 09be 6c34 a03e
00000220: 3c8c 373e a32e 44be 37ac 3b3e 22cd 5ebd
00000230: 8db8 c73c c26c 0fbe 793e c43d 1dda f7bd
00000240: 2d68 2c3d 87eb 053e 62bf 113e 62fb 08bd
00000250: d38d 123e 760a ab3d 7659 d73c 9dd4 293e
00000260: 5daf 77bb 60de 40bd ad0d 22bd 05f5 3d3c
00000270: e269 e9bd 6297 553e d162 b3be 52db 5fbe
00000280: e58c dabb 25b6 d9bb 9108 b13d 48df ffbd
00000290: ff47 193e 206d 8fbb fba8 0e3e 78fb b8bd
000002a0: 09e0 95bc 0e70 553e 79f9 7f3c d37d 06bd
000002b0: a10d 16be 95fa 113e c8d0 0dbc 858b a43d
000002c0: 9565 81bd 9f1e 15be e36e debd adcc d23d
000002d0: a51d 25bd 7583 f73c eab6 103e b5ca 153e
000002e0: 59a0 8a3d 688a 863c ade2 723d d423 bdbd
000002f0: caf4 9c3d d267 db3b d5cf ef3d 816d bfbd
00000300: 9fb3 b73d 30ec e5bc a13f 96bd eac8 15bd
00000310: a541 2cbe 6345 79bd 0c75 bdbd 112d 5fbd
00000320: 37f2 673e 9a8d e13c 532a 553e 52ac 48bd
00000330: 3c02 b73c 2cf8 073d 51bf bf3d 75f9 373e
00000340: 3169 fbbd c935 d1bd ca5e 153e 0f5b cd3b
00000350: e839 313e 04c3 663d fe8e b0bd 3a43 04bd
00000360: 9e54 883c 8571 12be d1f4 fd3d 5705 2bbe
00000370: 7de8 8d3d a5ab 07bd 4307 9039 a69e fd3d
00000380: 0c43 c8bd 0080 fabd 6069 113d 7b9e 9a3d
00000390: 342b e2b9 a4fa 2a3e 0b13 213e 4da5 8bbe
000003a0: c001 29bd 557e c1be 496f 70bd 6021 1e3d
000003b0: 3799 6bbd 0e3c a7bc 765a df3c e6e4 2ebe
000003c0: 538e 913e 2922 583c feda 743e 9ac1 2cbd
000003d0: 9e3e d9bd 0237 8dbd 2b77 343e 55e2 1bbc
000003e0: 49cb 37bc d6d3 743d 5ce2 653e 05d8 bd3d
000003f0: 0c34 8e3d bacf 753e b04b 593e 2a7e 803d

lstm.weight_hh_l0 f4 [160, 40]
0.058879413 -0.11680685 0.08073067 -0.16705963 -0.23476298 -0.09188762 -0.114410736 0.022555254
0.19291943 0.056804623 -0.0050128642 -0.09535539 -0.07220606 0.055946276 -0.073047146 -0.13069667
0.19429535 -0.04503205 -0.20987752 -0.092290655 -0.116197966 -0.023240913 0.07569556 0.08680664
-0.23481041 0.079480216 0.015338182 -0.081753105 0.02306839 0.077512085 0.029854104 -0.05960826
-0.05953693 -0.021872351 0.1330265 0.044188518 -0.092501976 0.11678434 0.0668939 0.0287729
0.035073172 -0.16154785 0.03755293 -0.10568483 -0.06555053 0.10407801 -0.01874718 -0.0130181685
0.2592331 0.059702553 -0.031536568 0.031199124 -0.19844373 0.026578171 0.17095634 0.035568275
0.22289214 -0.13845986 -0.052556984 -0.051239196 -0.020537427 0.08834555 0.0009915516 0.043002337
0.0037516013 0.13744299 -0.16135284 -0.020892013 0.010617184 0.184842 0.022953685 0.0029574968
-0.08657105 -0.058209714 0.049939487 0.049192563 0.120810814 -0.28109467 -0.120092504 0.00173347
0.08174389 0.010795282 0.055501785 -0.009694463 -0.084564045 -0.03165932 -0.00880268 0.17081188
0.15150289 0.062481266 -0.11757965 -0.15370432 0.053314373 0.2210631 0.07016497 -0.107172236
0.068058856 -0.022246717 0.05225844 0.1146983 -0.052833766 0.15442346 0.092961274 -0.20320283
0.014090182 0.025301382 -0.0049349074 0.023548959 0.042535122 0.11373563 0.07711322 -0.09405964
-0.06668795 0.028250333 -0.055551965 -0.037565533 0.0957655 0.03177785 -0.11475109 0.10360599
0.25315812 0.023070537 0.11765392 -0.00796915 -0.112980805 0.11222197 0.13430609 0.105403036
-0.10720263 -0.09876698 0.14986773 -0.035969697 0.024682166 -0.06283221 -0.019346552 0.03814706
0.13312878 0.04798991 -0.0770151 0.06676731 -0.017501267 0.09062196 0.06115165 0.039189197
-0.183995 0.095149934 0.15530159 -0.017994154 -0.1368911 0.1202198 0.05961077 0.23949899
0.05813589 -0.08940989 -0.15248103 0.16538171 -0.06841464 -0.031815533 0.18230298 -0.107726105
-0.06727323 0.04926292 0.06569557 0.17288464 -0.024480222 -0.05409511 0.046896517 0.05478834
0.34872946 -0.02183289 0.122152895 -0.038535405 0.12941901 0.04585008 -0.019794572 -0.058705177
-0.0010317335 -0.29808852 -0.25981152 -0.0714201 -0.054963887 -0.052308332 -0.08979729 -0.21726553
-0.20310822 0.04173408 -0.16673361 -0.23973325 -0.049655963 -0.10606511 0.11889435 -0.034100782
-0.108948514 0.039814048 0.15242895 0.16093823 -0.12345996 0.056823313 0.032096952 0.03722012
-0.11658829 -0.10579738 -0.06422651 -0.030316034 0.17297816 -0.07732873 0.072429806 0.019919626
-0.029598575 -0.2502688 -0.07349507 -0.036871307 -0.11116914 -0.16695312 0.17899741 -0.048530966
-0.20798528 -0.12147947 -0.046715762 -0.13055672 -0.17051937 0.082347825 0.05237172 -0.055446636
-0.09389282 -0.08404209 -0.07141687 0.21784687 0.07698186 -0.045506425 -0.11364792 0.076722845
-0.07985015 0.14760464 -0.055082742 -0.12121346 0.10679316 0.028091053 0.07931084 -0.077373445
-0.069533356 0.08548783 0.022164185 -0.17408815 0.085789576 0.15947035 0.008868916 -0.009491458
-0.12156706 0.0190286 0.24981251 -0.0025731116 0.08956513 0.116858624 -0.14559564 -0.24259458
00000000: 8a2b 713d 6e38 efbd 1f56 a53d ae11 2bbe
00000010: b565 70be 942f bcbd 2d50 eabd ccc5 b83c
00000020: ac8c 453e f7ab 683d f442 a4bb b049 c3bd
00000030: c5e0 93bd ec27 653d be99 95bd 59d5 05be
00000040: 5cf5 463e 8773 38bd 22ea 56be e202 bdbd
00000050: 33f9 edbd ba63 bebc 4606 9b3d aec7 b13d
00000060: 2472 70be 86c6 a23d 004d 7b3c 2c6e a7bd
00000070: ecf9 bc3c a8be 9e3d 9890 f43c ca27 74bd
00000080: ffdc 73bd a52d b3bc 1938 083e 05ff 343d
00000090: ad71 bdbd a12c ef3d abff 883d 25b5 eb3c
000000a0: e3a8 0f3d cd6c 25be 1ad1 193d 4a71 d8bd
000000b0: 5b3f 86bd da26 d53d b093 99bc 284a 55bc
000000c0: 33ba 843e aa8a 743d 7d2c 01bd 4e95 ff3c
000000d0: d534 4bbe 77ba d93c 2e0f 2f3e 0ab0 113d
000000e0: d63d 643e 6cc8 0dbe fe45 57bd 31e0 51bd
000000f0: 1b3e a8bc 83ee b43d f3f6 813a 3823 303d
00000100: 6ddd 753b dbbd 0c3e ae39 25be ba25 abbc
00000110: b3f3 2d3c 3947 3d3e 5e09 bc3c 90d2 413b
00000120: 2a4c b1bd 4f6d 6ebd 598d 4c3d 247e 493d
00000130: a96b f73d a4eb 8fbe 0ff3 f5bd 9a35 e33a
00000140: 5769 a73d b2de 303c d755 633d 86d5 1ebc
00000150: ea2f adbd 34ad 01bd 1e39 10bc 4fe9 2e3e
00000160: 9323 1b3e 5bec 7f3d 99cd f0bd aa64 1dbe
00000170: 2c60 5a3d 5e5e 623e a7b2 8f3d 1e7d dbbd
00000180: 7162 8b3d bf3e b6bc f20c 563d f1e6 ea3d
00000190: 3868 58bd 2f21 1e3e 7b62 be3d 6714 50be
000001a0: 82da 663c d844 cf3c 01b5 a1bb bfe9 c03c
000001b0: 4f39 2e3d 3aee e83d 89ed 9d3d 57a2 c0bd
000001c0: b193 88bd 3e6d e73c 758a 63bd 51de 19bd
000001d0: b420 c43d 7e29 023d 9f02 ebbd 612f d43d
000001e0: f19d 813e 6cfe bc3c 8af4 f03d 0a91 02bc
000001f0: 7b62 e7bd a2d4 e53d 8987 093e 8cdd d73d
00000200: 0d8d dbbd 5846 cabd ed76 193e f654 13bd
00000210: 4132 ca3c 2cae 80bd a97c 9ebc 1740 1c3d
00000220: e952 083e 1191 443d 18ba 9dbd 4dbd 883d
00000230: d15e 8fbc 0298 b93d 277a 7a3d da84 203d
00000240: 2f69 3cbe f8dd c23d 6107 1f3e 7a68 93bc
00000250: 2e2d 0cbe cc35 f63d 6c2a 743d 393f 753e
00000260: e61f 6e3d 881c b7bd fd23 1cbe d359 293e
00000270: fa1c 8cbd 0151 02bd a2ad 3a3e 819f dcbd
00000280: 8cc6 89bd eac7 493d 668b 863d ac08 313e
00000290: bf8a c8bc d692 5dbd 9016 403d bd69 603d
000002a0: ab8c b23e e4da b2bc 4c2b fa3d 4dd7 1dbd
000002b0: 6b86 043e 4bcd 3b3d 3a28 a2bc d774 70bd
000002c0: 3b3b 87ba 0f9f 98be 0406 85be b444 92bd
000002d0: d021 61bd 4341 56bd a4e7 b7bd db7a 5ebe
000002e0: 9afb 4fbe 5bf1 2a3d 37bc 2abe a27c 75be
000002f0: 0d64 4bbd aa38 d9bd e27e f33d 43ad 0bbd
00000300: 6620 dfbd 0e14 233d 5616 1c3e fecc 243e
00000310: 93d8 fcbd 90bf 683d 1878 033d 2074 183d
00000320: d7c5 eebd 4cac d8bd 3089 83bd 5559 f8bc
00000330: 3021 313e 865e 9ebd 1456 943d 7c2e a33c
00000340: b678 f2bc 3b23 80be 9584 96bd 5e06 17bd
00000350: a5ac e3bd c2f5 2abe 194b 373e 68c8 46bd
00000360: 18fa 54be 3aca f8bd 0759 3fbd a9b0 05be
00000370: a19c 2ebe faa5 a83d bb83 563d 031c 63bd
00000380: e14a c0bd 421e acbd 0243 92bd 4013 5f3e
00000390: aaa8 9d3d f264 3abd 3ec0 e8bd de20 9d3d
000003a0: 7a88 a3bd ac25 173e 719e 61bd c33e f8bd
000003b0: 5fb6 da3d 351f e63c b96d a23d f875 9ebd
000003c0: 8167 8ebd 3e14 af3d aa91 b53c 2a44 32be
000003d0: 72b2 af3d 324c 233e ee4e 113c 0f82 1bbc
000003e0: 27f8 f8bd dee1 9b3c dace 7f3e a6a1 28bb
000003f0: ec6d b73d 9353 ef3d 0617 15be b76a 78be

lstm.bias_ih_l0 f4 [160]
0.15766644 0.18530245 0.12870556 0.15606162 -0.079146765 0.1149406 0.04733641 -0.15018098
-0.13036379 -0.15440582 0.11693782 0.13457344 0.15818107 0.19495942 -0.045216314 0.27934405
-0.032430798 -0.021817837 0.09010019 0.17254044 -0.072520256 -0.07224487 0.024768785 0.3845271
-0.14432195 0.06783642 -0.07624812 -0.010917987 0.0149167 0.18073241 0.11088222 -0.03805085
0.051093362 0.21493144 0.033343703 -0.07329079 0.17191322 0.03316256 0.15350151 0.12955642
-0.07873086 0.02386601 -0.00032906828 -0.083607204 -0.039429992 -0.011495155 0.014440611 0.1278403
0.025438407 0.21871515 0.20950373 0.011902928 0.0956786 -0.03208112 0.05272419 -0.053714488
0.102196574 0.15266706 0.12354821 -0.01753961 0.20757324 0.045954306 -0.09776053 -0.00013314204
0.15247674 0.034345288 0.06613519 0.12541988 0.07122471 -0.05030164 0.030599933 -0.013642967
-0.11908572 -0.09126347 0.06846093 -0.01805219 0.0039759837 0.23148626 0.0278848 -0.014274806
0.07939591 -0.10558678 0.088288195 0.06915762 0.12998323 -0.039540116 0.14330555 0.12554875
-0.012648926 -0.101648465 0.0028237728 0.102947965 -0.031615164 0.08507461 -0.015223862 -0.10921105
-0.09862015 -0.055485375 -0.072456345 -0.13832247 0.03379546 0.010659636 -0.12142877 -0.119331606
0.12630768 -0.10810467 -0.10407083 -0.14460738 0.021052578 -0.06242095 0.09277958 0.095897816
-0.046105947 -0.107898615 0.103676796 -0.054965544 -0.08519465 0.036894765 0.09604049 0.13869618
0.10012489 0.0835861 0.14788869 0.12881805 0.06603356 0.19533181 0.1423144 -0.03203451
0.018724218 -0.10272491 -0.03683693 0.14666486 0.17647912 0.14417166 -0.051850352 0.1113687
0.19544098 0.10882422 0.009253702 -0.015748344 -0.031760655 0.052075926 0.20044523 0.18399616
0.14322078 0.1699911 0.18971404 0.14528258 0.21644875 0.21533218 0.10822828 0.07201079
0.15898363 0.26988432 -0.07727596 -0.03138775 0.21053615 0.23720485 0.073088236 0.22711878
00000000: 5073 213e edbf 3d3e 64cb 033e 9ece 1f3e
00000010: b317 a2bd fa65 eb3d d3e3 413d 0bc9 19be
00000020: 167e 05be 8f1c 1ebe 197d ef3d 9fcd 093e
00000030: 38fa 213e 71a3 473e be34 39bd 2f06 8f3e
00000040: 28d6 04bd 52bb b2bc 7386 b83d 71ae 303e
00000050: 8085 94bd 1ef5 93bd e8e7 ca3c bce0 c43e
00000060: 22c9 13be d2ed 8a3d f927 9cbd 5be1 32bc
00000070: 2d65 743c eb11 393e 3816 e33d 35db 1bbd
00000080: 4647 513d fd16 5c3e 6893 083d 7b19 96bd
00000090: 050a 303e 77d5 073d 802f 1d3e 70aa 043e
000000a0: a53d a1bd a782 c33c cc86 acb9 413a abbd
000000b0: 5881 21bd 2d56 3cbc 5098 6c3c 91e8 023e
000000c0: 3564 d03c ddf6 5f3e 2588 563e 8004 433c
000000d0: 24f3 c33d 7e67 03bd 52f5 573d b903 5cbd
000000e0: 704c d13d c154 1c3e d806 fd3d 3aaf 8fbc
000000f0: 148e 543e 953a 3c3d ac36 c8bd 0b9c 0bb9
00000100: dd22 1c3e a5ad 0c3d e371 873d 126e 003e
00000110: 43de 913d 1809 4ebd b6ac fa3c c086 5fbc
00000120: 37e3 f3bd 58e8 babd 3e35 8c3d 30e2 93bc
00000130: f848 823b bc0a 6d3e aa6e e43c e0e0 69bc
00000140: 539a a23d e23d d8bd 71d0 b43d 83a2 8d3d
00000150: 531a 053e d1f4 21bd b1be 123e da8f 003e
00000160: 713d 4fbc 122d d0bd 0c0f 393b 62d6 d23d
00000170: e77e 01bd 993b ae3d 816d 79bc 0baa dfbd
00000180: 5cf9 c9bd a244 63bd fe63 94bd 68a4 0dbe
00000190: 1c6d 0a3d c1a5 2e3c a6af f8bd 2164 f4bd
000001a0: cd56 013e fb65 ddbd 1623 d5bd f513 14be
000001b0: 7576 ac3c 1cad 7fbd 3803 be3d 1366 c43d
000001c0: 97d9 3cbd f3f9 dcbd 8054 d43d 8d23 61bd
000001d0: 887a aebd f71e 173d e0b0 c43d 5f06 0e3e
000001e0: 470e cd3d 302f ab3d 2270 173e e1e8 033e
000001f0: 9a3c 873d 1005 483e deba 113e 9e36 03bd
00000200: 8863 993c 7061 d2bd 52e2 16bd 502f 163e
00000210: f1b6 343e bca1 133e 0961 54bd 4615 e43d
00000220: ae21 483e 3cdf de3d d79c 173c ac02 81bc
00000230: 7617 02bd 914d 553d 8441 4d3e 7d69 3c3e
00000240: 78a8 123e 2612 2e3e 6644 423e f5c4 143e
00000250: bea4 5d3e 0a80 5c3e caa6 dd3d 657a 933d
00000260: 9bcc 223e 472e 8a3e dc42 9ebd 7190 00bd
00000270: ca96 573e d4e5 723e 49af 953d d391 683e

lstm.bias_hh_l0 f4 [160]
-0.12264417 0.124906845 -0.14345884 0.10232238 0.044923417 0.16095454 0.11141794 -0.072379336
0.10930818 0.094558254 -0.06674842 0.04743673 0.044363134 -0.0056329085 -0.05297149 0.23925452
0.16511676 0.029009439 0.021769749 0.2148511 -0.009071457 -0.07170986 0.14704652 0.43143517
-0.13607037 0.12132406 -0.12668581 -0.06457278 -0.042337004 0.4122018 0.0436296 0.025341142
0.25960496 0.10531425 0.12822193 0.039358478 0.18122579 -0.06641515 0.09962024 0.1850861
0.033345785 -0.010512741 0.15161762 -0.03320089 0.1588106 0.11954756 0.15717737 0.1889656
0.14524585 0.18966953 -0.031219369 0.21531561 -0.08819045 -0.0014958186 0.17945543 -0.008437187
0.0077786944 0.07430737 -0.07234061 0.059048172 -0.0608971 0.05369049 -0.12908922 -0.043881305
-0.07313734 0.17089647 0.013580914 -0.07601349 0.17211683 -0.11833533 0.090192236 -0.121051416
0.15199167 0.09159076 0.1041535 0.0016314231 0.23746306 0.13623446 0.18708314 -0.1166339
-0.1374547 0.09319922 -0.086829 -0.031259183 -0.05016982 0.16521876 -0.013068733 0.024837343
0.055214163 -0.06379385 -0.014846038 -0.10095765 -0.015258914 -0.074867435 -0.009118813 0.06600384
0.13901503 -0.07085665 0.11035961 -0.11225722 -0.027718632 -0.1516441 0.083338514 0.17766452
-0.04731686 0.07045593 0.09041765 0.1399542 -0.111067876 -0.023578586 0.012677775 0.0620461
0.044135634 0.013869832 0.13642977 0.1488519 -0.064171 -0.11585721 0.09970717 -0.078294046
0.19252138 0.08786595 -0.10474331 0.13827573 -0.06319973 0.11174318 0.114131026 -0.05399917
0.13547231 0.030883264 0.13891359 -0.03124 0.21255542 0.30251777 0.1338986 0.3545677
0.06674525 -0.026542634 0.07082709 0.0969407 0.1063242 -0.04907557 0.11784899 0.3736475
-0.05463417 -0.0006243733 0.10547476 0.12921621 0.11419857 0.26725155 -0.10613142 -0.095503144
0.22031368 0.15320031 -0.030929739 0.033853963 0.12328077 0.15897906 -0.030341605 0.071084976
00000000: de2c fbbd 29cf ff3d e0e6 12be 658e d13d
00000010: 9e01 383d 44d1 243e 172f e43d 9e3b 94bd
00000020: f8dc df3d c2a7 c13d 65b3 88bd 044d 423d
00000030: 1eb6 353d 4394 b8bb a2f8 58bd 23ff 743e
00000040: 5e14 293e 34a5 ed3c 7956 b23c ed01 5c3e
00000050: 73a0 14bc 9edc 92bd 5d93 163e 12e5 dc3e
00000060: 0856 0bbe c078 f83d edb9 01be bc3e 84bd
00000070: 9169 2dbd 1d0c d33e f4b4 323d 3a98 cf3c
00000080: f1ea 843e ffae d73d 9c4c 033e 5b36 213d
00000090: 4193 393e ab04 88bd b205 cc3d 3687 3d3e
000000a0: 9795 083d a23d 2cbc a641 1b3e a8fd 07bd
000000b0: 3f9f 223e 5ad5 f43d 1bf3 203e 3380 413e
000000c0: 54bb 143e bb38 423e c3bf ffbc b27b 5c3e
000000d0: 329d b4bd 580f c4ba 2ac3 373e 213c 0abc
000000e0: 6be4 fe3b 762e 983d 5027 94bd 7fdc 713d
000000f0: 3d6f 79bd 8fea 5b3d f72f 04be e2bc 33bd
00000100: 08c9 95bd 7cff 2e3e 7b82 5e3c f6ac 9bbd
00000110: 653f 303e cb59 f2bd b5b6 b83d cee9 f7bd
00000120: b4a3 1b3e f093 bb3d 6e4e d53d 7ad5 d53a
00000130: 8429 733e 0c81 0b3e b992 3f3e c1dd eebd
00000140: edc0 0cbe 3cdf be3d 67d3 b1bd a109 00bd
00000150: df7e 4dbd 1b2f 293e 3d1e 56bc af77 cb3c
00000160: 3f28 623d 5aa6 82bd cc3c 73bc e2c2 cebd
00000170: 8600 7abc 1954 99bd 1367 15bc 052d 873d
00000180: f559 0e3e 4b1d 91bd 3804 e23d 1de7 e5bd
00000190: 2f12 e3bc 9748 1bbe 62ad aa3d b0ed 353e
000001a0: 53cf 41bd 334b 903d e42c b93d 2750 0f3e
000001b0: 8e77 e3bd e127 c1bc 71b6 4f3c 0d24 7e3d
000001c0: 91c7 343d 4b3e 633c 3fb4 0b3e a26c 183e
000001d0: 166c 83bd 8b46 edbd 4633 cc3d a158 a0bd
000001e0: 5324 453e 10f3 b33d a983 d6bd 2798 0d3e
000001f0: dc6e 81bd 9cd9 e43d 87bd e93d 3c2e 5dbd
00000200: 41b9 0a3e e6fe fc3c 5d3f 0e3e 07eb ffbc
00000210: 21a8 593e 9ce3 9a3e b71c 093e e689 b53e
00000220: bcb1 883d f06f d9bc cb0d 913d d988 c63d
00000230: 81c0 d93d 7703 49bd d05a f13d ba4e bf3e
00000240: 14c8 5fbd fcac 23ba 2703 d83d 4151 043e
00000250: f1e0 e93d 32d5 883e 6e5b d9bd 2797 c3bd
00000260: e999 613e 8be0 1c3e 5d60 fdbc 74aa 0a3d
00000270: a17a fc3d 68cb 223e f58e f8bc 0095 913d

lin.weight f4 [3, 40]
-0.065657794 0.2311794 0.054310232 0.34316686 -0.18781309 -0.26343825 -0.41732875 0.050302815
0.39700755 0.10186681 -0.30880484 -0.08358177 0.18002595 -0.3754757 -0.044046365 0.48131746
-0.34906384 -0.02839773 -0.13697867 0.39562032 -0.00051223545 0.2449359 0.5668983 -0.5857742
-0.14241506 0.15991393 0.14914759 -0.22112796 -0.25911912 -0.7364563 0.099838674 -0.14761609
0.37671164 -0.5923386 0.3367268 -0.31759232 -0.2069991 0.058863383 -0.141723 0.47120044
0.2650639 0.04154245 0.040387888 0.104448125 -0.2814648 -0.0916807 -0.12902983 -0.33554995
-0.06957792 -0.06944652 -0.04724992 -0.3209516 0.22006771 -0.3418495 -0.23486805 0.07971541
-0.24180546 0.186873 0.3790672 -0.09428682 -0.117265545 0.284564 0.12848473 -0.13407701
0.03748052 0.12396576 0.17100823 -0.14578152 -0.1809131 0.00042630997 0.21635386 -0.14899601
0.28745824 -0.23663673 0.13885503 -0.0537621 -0.11080836 0.31967402 0.3841726 -0.03573151
0.23173676 0.032756485 0.08445753 0.17513482 0.08253714 -0.091431946 -0.07241785 0.0820057
0.14950685 -0.41353172 0.027505612 -0.019308265 0.0013285733 0.15403487 -0.16276596 0.017454399
-0.28032216 0.29469094 0.2898285 0.29026446 -0.35505202 -0.16654968 -0.18033284 -0.21121949
-0.37724766 -0.28994054 0.4172176 -0.11454275 -0.036156926 0.39261428 0.28801477 -0.310661
0.082786314 0.08650096 -0.20619039 -0.20014244 -0.17638883 0.22093412 0.23376943 0.21700259
00000000: 9877 86bd 4bba 6c3e 6874 5e3d 91b3 af3e
00000010: 1352 40be 61e1 86be 1dac d5be 530a 4e3d
00000020: 9344 cb3e 8c9f d03d ab1b 9ebe eb2c abbd
00000030: b958 383e 5a3e c0be f669 34bd 3e6f f63e
00000040: 7fb8 b2be 5ba2 e8bc 2344 0cbe bf8e ca3e
00000050: 8a47 06ba 7ad0 7a3e 3f20 113f 4cf5 15bf
00000060: 41d5 11be 7ac0 233e 25ba 183e 5e6f 62be
00000070: 43ab 84be 6688 3cbf 3878 cc3d ac28 17be
00000080: 59e0 c03e 81a3 17bf 7567 ac3e 769b a2be
00000090: 92f7 53be bb1a 713d d61f 11be 2f41 f13e
000000a0: 75b6 873e 6b28 2a3d c56d 253d e6e8 d53d
000000b0: 271c 90be 17c3 bbbd 6520 04be 34cd abbe
000000c0: de7e 8ebd fa39 8ebd 2289 41bd c553 a4be
000000d0: 6e59 613e e606 afbe 4081 70be d541 a33d
000000e0: da9b 77be a35b 3f3e 1915 c23e 7319 c1bd
000000f0: eb28 f0bd 5fb2 913e 8091 033e 7c4b 09be
00000100: 2c85 193d c3e1 fd3d c81c 2f3e c047 15be
00000110: 4941 39be 5b82 df39 de8b 5d3e 6992 18be
00000120: ba2d 933e e650 72be 0330 0e3e a635 5cbd
00000130: 7eef e2bd 50ac a33e 45b2 c43e 345b 12bd
00000140: 674c 6d3e aa2b 063d 12f8 ac3d 8b56 333e
00000150: 3b09 a93d ac40 bbbd cf4f 94bd 9bf2 a73d
00000160: 5318 193e 6eba d3be 7353 e13c 5e2c 9ebc
00000170: 8623 ae3a 51bb 1d3e 1fac 26be 87fc 8e3c
00000180: 6386 8fbe bbe1 963e 6764 943e 8b9d 943e
00000190: 61c9 b5be 008c 2abe 2ca9 38be ec49 58be
000001a0: 9b26 c1be 1673 94be 8c9d d53e 6495 eabd
000001b0: 4919 14bd bd04 c93e ac76 933e f50e 9fbe
000001c0: df8b a93d 6a27 b13d 9323 53be 24f2 4cbe
000001d0: 469f 34be 8e3c 623e 4161 6f3e ed35 5e3e

lin.bias f4 [3]
-0.1145959 -0.06645539 -0.04793298
00000000: 41b1 eabd c319 88bd 5f55 44bd
