models/100-seed-100-prognostic-linear/itr-3-encoder.pth.pth (torch, 18635 bytes, 9 tensors)

attn_v f4 [40]
000000 c1 18 6a 3f 84 97 88 3f 4e 8c 80 3f 97 fc 94 3f
       0.9144402 1.0671239 1.0042818 1.1639584
000010 c7 01 82 3f e5 72 3c 3f 63 ab 83 3f bc 0b 80 3f
       1.0156792 0.73612815 1.0286678 1.0003581
000020 61 3c 9a 3f c0 06 94 3f a2 21 84 3f e0 17 74 3f
       1.2049676 1.156456 1.0322764 0.9534893
000030 34 dc 71 3f bb 5c b0 3f 1c 13 67 3f ab 41 78 3f
       0.9447663 1.3778299 0.90263534 0.969752
000040 3d 62 7e 3f 5b c5 a7 3f e0 23 9f 3f 90 06 68 3f
       0.9936865 1.3107103 1.2432823 0.90635014
000050 e8 6f 5d 3f 25 cf 28 3f b5 01 7a 3f 8b f4 98 3f
       0.8649888 0.6594108 0.97658855 1.1949629
000060 be 29 80 3f 67 d3 8c 3f 09 98 68 3f 80 01 38 3f
       1.0012739 1.1002015 0.9085699 0.7187729
000070 d8 29 a5 3f 66 6d 98 3f 29 f4 59 3f 11 b8 5c 3f
       1.2903395 1.1908386 0.85138184 0.86218363
000080 9f a8 3b 3f 63 a9 9f 3f 23 f4 57 3f ad a4 92 3f
       0.7330417 1.2473568 0.843569 1.1456505
000090 80 35 9b 3f 25 30 3e 3f 9e 55 38 3f 67 c6 96 3f
       1.2125702 0.7429221 0.7200564 1.1779298

lstm.weight_ih_l0 f4 [80, 3]
000000 5d e6 40 be 5c 18 f7 bd e9 90 9e 3d 6c 84 5c be
       -0.18837877 -0.12065193 0.07742483 -0.2153489
000010 da 4d 35 3e d3 df 1a be 42 01 2e 3d 07 46 fc 3d
       0.1770548 -0.15124445 0.04248167 0.12318044
000020 d4 c5 9d 3b fe 27 31 3e c6 3d c5 3d db 24 65 be
       0.0048148427 0.17300412 0.09630923 -0.2237734
000030 18 b8 2a be f1 c4 84 bd 79 cc ac 3d 0d 82 ec bd
       -0.16671789 -0.06482876 0.084374376 -0.11548243
000040 29 e0 ed bd 3c 8e 20 3e 6e 84 19 bd 67 9b 44 3e
       -0.11615021 0.15679258 -0.03747981 0.19199906
000050 31 90 ac bd 28 65 03 3e 99 91 20 3e 65 20 18 be
       -0.0842594 0.12831557 0.15680541 -0.14856108
000060 4d 1c e0 3d 7b ae db bc 0d 43 1a 3e d7 d8 c4 3d
       0.10942898 -0.026816597 0.1506464 0.096116714
000070 22 7b 9f bd 4e 41 1b 3e e0 47 a8 bd b0 a6 c3 bd
       -0.077871576 0.1516163 -0.08216834 -0.095532775
000080 c8 af 02 be 7d 3c a9 bd af 04 73 3e 75 a0 09 3e
       -0.12762368 -0.0826349 0.23732255 0.13440116
000090 6a 09 28 bc f9 a4 16 3e a1 f8 9e 3c cb be 85 be
       -0.010256151 0.1471137 0.019405665 -0.26122126
0000a0 94 d9 f9 bd ef 37 4f 3e d0 e8 92 be 4b be f4 bd
       -0.12199703 0.2023618 -0.28693247 -0.11950358
0000b0 3e b7 99 3d 47 07 8c bd e1 51 47 3e 51 51 89 be
       0.07505654 -0.068373255 0.19464828 -0.26819852
0000c0 99 a4 c0 bc 01 e9 c8 3d 5b da 08 3e e3 12 12 3e
       -0.023515986 0.09810067 0.13364546 0.14265017
0000d0 8b b7 f0 3d 56 a5 55 be b9 53 27 3e a7 f0 3c bd
       0.11753758 -0.20863852 0.16340531 -0.04612794
0000e0 1e 56 4c 3d 3c f9 40 3d 9a 97 4e 3e 03 0c ff bd
       0.049886815 0.04711269 0.20175019 -0.12453463
0000f0 8d 30 ae 3d 18 69 40 bd a6 92 2b be 1e 1b 1f be
       0.08505354 -0.046975225 -0.1675516 -0.15537688
000100 a9 05 14 3e a1 05 84 3e 0a fd 8e 3e 0d bc c8 3d
       0.14455284 0.25785545 0.27927428 0.09801493
000110 79 35 ee bd 36 56 51 3e 3d 7a c2 3d e0 e7 db 3d
       -0.11631293 0.20443043 0.09495971 0.10737586
000120 9d 35 97 be 81 cb 04 be b5 4c b2 bd 58 96 59 3d
       -0.2953309 -0.12968256 -0.08706037 0.053121895
000130 c2 e2 54 3d 03 af 0f 3e 5f 26 36 be 8d b9 4b be
       0.051974066 0.14031605 -0.17788075 -0.19895001
000140 06 97 2c 3d f0 67 54 3e 34 ea 66 3e d0 85 05 3d
       0.042136215 0.20742774 0.22550279 0.032598317
000150 65 20 8e be 27 ff 47 be d1 62 68 3e 87 5f f0 3c
       -0.2775909 -0.19530927 0.22693945 0.029342426
000160 1b 77 63 3e 17 12 a1 3e 67 c8 ac 3e 23 2d 33 3e
       0.22213404 0.31459114 0.33746645 0.17497687
000170 6a 5d 1b be 11 f3 39 3e 22 f3 64 3e fb 80 94 3d
       -0.15172353 0.18159129 0.22358373 0.072511636
000180 67 cb 97 3d 58 53 a0 3d 31 29 63 3e 4c 49 30 be
       0.07411843 0.078283966 0.22183682 -0.1721546
000190 bf c3 9f 3c 2b b8 96 be e6 8e 0a be 57 f1 a6 be
       0.019502519 -0.29437384 -0.13531074 -0.32606003
0001a0 6a 0e b5 be a2 c6 73 bd c5 8b da bd 47 df 28 3e
       -0.3536256 -0.059515603 -0.1067119 0.16491424
0001b0 80 8c f5 bc 77 d0 c0 bc 23 6c f9 3c 88 50 56 3e
       -0.029974222 -0.023536904 0.030447071 0.20929158
0001c0 c2 30 65 bd 28 1d a7 3d f7 45 49 be ca b2 bb 3d
       -0.055954702 0.08159858 -0.19655596 0.09164961
0001d0 5b 75 83 be df 1f 27 3e 95 c0 42 bd 26 a3 0a 3e
       -0.25675473 0.16320752 -0.04754694 0.13538799
0001e0 e1 36 7e bc 5b 39 83 3e 7b 4d 4e 3e 1f 3d af bc
       -0.015516014 0.25629696 0.20146744 -0.02139145
0001f0 0c ae 0e 3e 62 96 15 3e 1d da 53 3e 8d af 75 3e
       0.13933581 0.14608148 0.20688672 0.23992749
000200 7e 86 f4 3d 3c 14 1a 3e ff 4e 5b 3e 16 3c a8 3d
       0.11939715 0.15046781 0.21416853 0.082145855
000210 4e 59 d7 bd f8 22 34 be 2a cf 00 be 81 82 1a 3e
       -0.105150804 -0.17591465 -0.12579027 0.15088846
000220 ca 96 49 3c 00 06 41 3d b4 0c b5 3d 20 ac 1b 3c
       0.012304017 0.047124863 0.088403136 0.009501487
000230 82 d0 eb 3d 0c c9 f0 bd e2 2c 56 3e 05 59 71 be
       0.11514379 -0.11757097 0.20915559 -0.23569115
000240 1d ff b8 3d 0b 27 0a 3e a5 37 3e 3e 9e 12 90 3d
       0.09033034 0.13491456 0.18575914 0.07034801
000250 9b 75 00 3e 5c c3 30 3d 58 3c 4a 3e 32 62 01 bc
       0.12544863 0.04315506 0.19749582 -0.007896947
000260 b7 31 13 3e 11 59 46 3b 29 19 50 3e 53 47 28 be
       0.14374433 0.003026549 0.20322098 -0.16433458
000270 d9 44 40 be ce 15 e0 bd 3d 55 56 bd 73 73 8e be
       -0.18776263 -0.10941659 -0.052327383 -0.27822456
000280 c1 db 2b be 85 77 43 3e 65 f7 5e be e7 55 ab bd
       -0.16783048 0.19088562 -0.21774061 -0.08365994
000290 ea 50 a1 bd 70 a4 6f be a6 66 5b be 63 99 97 bc
       -0.07876761 -0.23402572 -0.21425876 -0.018505758
0002a0 96 3d 17 be eb 27 08 be a3 f3 69 be d6 67 a9 be
       -0.14769587 -0.13296477 -0.22846846 -0.33087033
0002b0 d9 07 1c be d0 94 be bc 19 87 60 be fd ba 09 bd
       -0.15237369 -0.023264319 -0.21926536 -0.03362559
0002c0 ee be 86 bb db 5f 36 bd b4 47 87 be 8e 71 b3 bd
       -0.004112116 -0.04452501 -0.26421893 -0.08761893
0002d0 a9 44 a7 3d ac d4 a1 be 34 b0 3f bc 5d 88 a2 3d
       0.08167393 -0.31607568 -0.011699725 0.079361655
0002e0 f8 d0 88 3d 71 41 02 3e 80 dc b1 bc 75 99 91 3e
       0.066804826 0.12720276 -0.021711588 0.2843739
0002f0 65 5b 24 3c 7f ca 87 3e 4c 49 58 3e 12 55 4e bc
       0.010031556 0.2652168 0.2112171 -0.0125935245
000300 c6 e0 a3 be 52 fd 13 3d 05 3a 9f be 89 3d a4 bd
       -0.32007426 0.036130257 -0.31098953 -0.080195494
000310 a3 0f 4c be 5f 64 a3 be 82 17 0d 3e 3c bc 10 be
       -0.1992784 -0.31912515 0.13778499 -0.14134306
000320 da 25 0a be 1e cd 09 3e 26 96 6f 3e 80 d6 22 3a
       -0.13491002 0.13457152 0.23397121 0.00062117726
000330 d0 bd 72 be 23 7e 07 3e 04 d5 6f 3d 2e f5 89 3e
       -0.2370522 0.13231711 0.058552757 0.2694487
000340 36 e3 04 3e 93 e8 99 3e 3f 52 40 bd 84 69 9e 3e
       0.12977299 0.30060253 -0.046953436 0.30939877
000350 2a a0 03 3e 2d 98 a6 3d b7 89 9f 3b 5f 5c 44 3e
       0.12854066 0.08134494 0.004868712 0.19175862
000360 05 20 ba bd 32 e5 62 3e 60 de b5 bd 71 32 55 be
       -0.090881385 0.22157744 -0.08880305 -0.20820023
000370 47 3d 20 be 34 e1 3c be 0a 02 25 be f5 27 84 bd
       -0.15648375 -0.18445283 -0.16114059 -0.06452934
000380 b1 2d 45 be bc 96 60 3e 69 2a e1 bd c9 78 12 bd
       -0.19255711 0.219325 -0.10994417 -0.03575972
000390 26 e5 ae 3d 73 95 9b bc e5 e9 2c 3e 33 28 3d 3e
       0.085398 -0.018992161 0.16886099 0.18472366
0003a0 01 20 07 3e 66 33 0c 3d b8 8c a8 bc de 47 be bd
       0.13195802 0.034228705 -0.020574912 -0.09291051
0003b0 49 69 87 be 7f a6 9e 3e 89 b4 84 3e 51 96 54 3e
       -0.26447514 0.309864 0.25918987 0.20760466

lstm.weight_hh_l0 f4 [80, 20]
000000 bc 95 06 be af e4 c8 3d 8f 63 37 3d 91 d8 ab bc
       -0.13143057 0.09809243 0.04477268 -0.02097729
000010 03 fe 36 3e bb 29 91 bd 8f 25 07 be 5b fe 08 3c
       0.17870335 -0.070880376 -0.13197921 0.008361424
000020 69 b1 77 bd f5 3a 9c 3e 02 fe 69 3e 09 9b f0 3d
       -0.060471926 0.3051373 0.22850803 0.117483206
000030 2e dd 5b be 39 b3 a3 bc 99 4e 8a 3e 42 a6 b8 3d
       -0.21471092 -0.019982921 0.2701309 0.09016086
000040 9a 3e 84 bd a3 ff 33 be 7c fa cc bd 1f ce 1b be
       -0.06457253 -0.17577986 -0.100087136 -0.15215348
000050 f6 61 04 be 9e 45 df 3d 5e fb 35 be 7b ed 6d bd
       -0.12927994 0.1090195 -0.1777167 -0.058087807
000060 ee 34 2b 3e 15 69 1d 3e 80 8e 2e be c6 2e 8b 3e
       0.1671941 0.15372117 -0.17046547 0.27184123
000070 c3 bd 56 3e 72 af 45 3e a3 6e bf 3d 6e ab 72 3e
       0.20970826 0.19305208 0.09347274 0.23698208
000080 06 d0 74 be 81 1c 7f bd 60 d6 06 3e 0b 9c e7 3d
       -0.2390748 -0.062283043 0.13167715 0.1130906
000090 b3 11 fb bd a9 f8 af 3d 0a 96 0c 3e b8 79 fb 3d
       -0.12259235 0.0859235 0.1372911 0.122790754
0000a0 19 99 01 bd 26 19 b4 3e 61 45 43 3e 6e 8f fd bd
       -0.031640146 0.35175437 0.19069435 -0.12380873
0000b0 86 6d 36 3e 72 1f 70 bd bc 74 64 be 70 23 85 3c
       0.17815217 -0.05862374 -0.22310156 0.01625225
0000c0 6b 89 d4 be b9 13 7a 3e ac 8d 5a 3e bb 74 80 3d
       -0.41511092 0.24421586 0.21343106 0.062722646
0000d0 98 01 af be 31 f1 24 3d 4a 69 44 3e c7 0e ab be
       -0.34180903 0.04026908 0.1918079 -0.33409712
0000e0 92 d1 3c bd 12 9a 72 be 39 6f 69 3e 20 b7 5a bd
       -0.0460983 -0.23691586 0.22796334 -0.053397298
0000f0 8e 7a e7 be 7e 2b 11 3b 77 eb 22 bd cf b5 24 3e
       -0.4521069 0.0022151168 -0.039775338 0.1608498
000100 f5 ab 83 3c ea a5 14 bd 79 ad a8 be 6d 9b 3d bd
       0.016073206 -0.03629104 -0.3294485 -0.046290804
000110 cb 73 8f bd 50 2a 14 be ad 15 80 3e 5a ff 06 3e
       -0.07004508 -0.14469266 0.25016537 0.13183346
000120 cd 93 58 be 04 a4 7f 3e 7b 10 94 3e 42 2e c3 bd
       -0.21150132 0.24964911 0.28918824 -0.09530307
000130 74 9b 33 3e 69 8d 67 bd f9 00 f3 3d bb b7 25 3d
       0.1753977 -0.056531344 0.1186542 0.040458422
000140 95 b6 17 be 33 55 f4 3d e0 11 a5 3e 29 11 ac 3d
       -0.14815743 0.11930313 0.322402 0.084017105
000150 d4 c7 29 3e 6d d9 19 3e 14 a7 21 3e 8a 44 fd bc
       0.16580135 0.15024348 0.15786391 -0.030916471
000160 33 64 d8 3d ab 67 26 3e 81 3b 81 3e b8 a1 92 3e
       0.105659865 0.16250484 0.2524071 0.28639007
000170 52 d4 4e be 21 dd 10 be b5 d8 ae 3e 65 83 84 3c
       -0.20198181 -0.14146854 0.3414971 0.016175935
000180 ad 57 46 bd db d3 7c bc c2 cb 19 be d5 89 03 be
       -0.048423458 -0.01543137 -0.15019134 -0.12845547
000190 90 af 80 be b8 82 80 bc f8 90 18 3e 4b 1d 47 3e
       -0.25133944 -0.015687332 0.14899051 0.19444768
0001a0 27 22 c6 3d 18 33 dc bd fa 07 17 be 2e 3e 6c 3e
       0.09674483 -0.10751933 -0.14749137 0.23070595
0001b0 68 3e 99 3d a8 24 1b 3e 77 fd 33 bc 09 b7 a2 3e
       0.07482606 0.15150702 -0.010985724 0.3178027
0001c0 23 16 51 be a6 24 e5 3e d4 f4 ee 3d 3e ea 7a be
       -0.204186 0.44754523 0.11667791 -0.24503419
0001d0 4a 52 0d 3e db 22 6c 3e 7c 4c aa bc 62 eb 48 be
       0.13800922 0.23060171 -0.020788424 -0.19621041
0001e0 59 26 2f be 59 98 0d 3e 96 91 7d 3e a9 9c 20 3c
       -0.17104472 0.13827647 0.24762568 0.009802976
0001f0 e4 55 cb 3e 6c f8 e1 3d 4d 2c 2a 3e c4 f0 57 3e
       0.39713967 0.11033711 0.16618462 0.21087939
000200 0f 96 4a 3e d3 23 94 3e 01 b8 22 3e 03 08 8f bc
       0.19783805 0.28933582 0.15890504 -0.017459875
000210 54 50 4f 3c 4a dd 93 3e f7 7d 8b 3e d3 78 df bd
       0.012653429 0.28879768 0.2724454 -0.10911717
000220 ec d4 dd bd 5c b4 18 3e 9e 9e bd bb 16 ba 18 be
       -0.10831627 0.14912552 -0.005786731 -0.14914736
000230 48 37 7f be 2e e4 bb 3d af d5 79 3e b2 3a 25 be
       -0.24923432 0.09174381 0.2439792 -0.16135672
000240 cd d8 e2 bd 1a 40 b6 bd 5d 64 8a bd d7 bd cb 3d
       -0.11076508 -0.08898945 -0.06757424 0.099483185
000250 96 d2 3f 3d ad 3a 22 be 67 d3 23 3e a4 88 7e 3e
       0.04683169 -0.15842696 0.15998612 0.24856812
000260 47 10 2c bd 57 8e ef bd de 3e 9d 3c 0a 36 90 3d
       -0.04200771 -0.11697071 0.019195016 0.07041557
000270 7c cf f7 3c 43 cb 23 be 8d cd 1b be f7 4e 54 bd
       0.030250303 -0.15995507 -0.1521513 -0.05183312
000280 e6 aa 1a be 12 45 74 3d d5 df 8b bd 26 3c c5 bd
       -0.15104255 0.059636183 -0.06829802 -0.09630613
000290 ad 06 b9 3e 95 13 3b bd 86 a6 5b 3d 88 57 91 3e
       0.36137906 -0.04567297 0.053625606 0.28387094
0002a0 86 72 dd 3c a7 6e f1 bc 5f ec 3f ba 20 9c 7b 3c
       0.027032148 -0.029471708 -0.0007321294 0.015357047
0002b0 4d 2f 24 be 77 23 b8 3e 7f f9 0c 3f 0f 7c 87 3c
       -0.16033669 0.35964558 0.550682 0.016538648
0002c0 ea 71 2b 3e a6 58 33 be d1 b2 26 3e 62 cc ac be
       0.16742674 -0.17514285 0.1627915 -0.33749682
0002d0 c9 ab 47 bc 4e 94 93 3d b1 7f 82 bd 45 c7 4b 3e
       -0.012186953 0.07206021 -0.063720115 0.19900234
0002e0 ab 07 ff 3d b8 f6 9c 3c 12 66 c7 bd 6d af 81 3d
       0.124526344 0.019160613 -0.09736265 0.06332288
0002f0 2e 68 bb 3d 68 ba bf 3d 1b 74 df 3d c7 82 39 3c
       0.0915073 0.09361726 0.10910817 0.011322684
000300 fb dd a6 3d cd ee fd 3d 57 ad a7 3e 8f 1e c6 bd
       0.08147808 0.12399063 0.32749435 -0.09673797
000310 53 e1 37 3e 57 52 d3 bd ae 78 ac bd 07 f3 09 be
       0.17957048 -0.103184395 -0.08421455 -0.13471614
000320 52 08 6b 3e 17 65 0b 3e 46 06 a9 3c 87 6e 4b 3c
       0.22952393 0.13612781 0.020632874 0.0124164885
000330 f0 c9 ea bd fe d1 c3 bd b4 1f 7e 3e b5 cb 33 3e
       -0.11464298 -0.09561537 0.24816781 0.17558177
000340 d9 77 99 3d 8c 47 ae 3d b9 dd 69 3e a2 02 af 3e
       0.07493562 0.0850974 0.22838487 0.34181696
000350 ef 3b e4 bd 96 31 cc bd ec a1 83 be 9e db a7 be
       -0.11144244 -0.09970395 -0.25709474 -0.32784742
000360 ef 8c 28 be 48 19 74 be c2 35 2e be ca e9 a0 be
       -0.16460012 -0.23837769 -0.17012694 -0.31428367
000370 d5 4f 9b bd 6b b3 6b 3e e3 f6 45 bd df a1 d0 bd
       -0.07583586 0.23017661 -0.048331153 -0.101871245
000380 74 43 f8 bd da d1 5d be d7 f3 2f 3d dc 21 34 3e
       -0.12122241 -0.21662083 0.042957153 0.17591041
000390 d2 43 5c 3e 06 34 d0 bd b6 79 a1 3e 00 98 3b be
       0.21510246 -0.10166173 0.3153817 -0.18319702
0003a0 2b a8 8f be 59 c9 14 be 27 99 4b be e4 3b a5 be
       -0.2805799 -0.14529933 -0.19882642 -0.32272255
0003b0 74 13 51 bd 1c fb a9 bd de 96 d1 bd 1f 3c dd 3d
       -0.051043943 -0.082998484 -0.10233854 0.10802483
0003c0 df bd 91 3d 1f 86 25 3d 56 7c 35 be 2e 5c 16 3e
       0.07116293 0.04041111 -0.17723212 0.14683601
0003d0 26 9d 3a 3e 58 8c 89 3e 79 5c 06 3e 34 00 97 bc
       0.1822401 0.26864886 0.13121213 -0.018432714
0003e0 71 38 22 3e 7f 3d d8 bd 1e b8 81 3e a7 19 38 3e
       0.15841843 -0.105586044 0.25335783 0.17978536
0003f0 c8 f4 4b be 45 5d 3d 3e f6 5c 05 3e 88 30 eb 3b
       -0.19917595 0.18492611 0.13023743 0.0071774162

lstm.bias_ih_l0 f4 [80]
000000 1b 8e 69 3d 79 e2 08 3e a3 e0 84 3d 83 70 d3 bd
       0.057020288 0.13367642 0.064881586 -0.10324194
000010 8a 72 9c bd 2a 9f 7d 3e 9d 47 61 3d d0 10 df bd
       -0.07639034 0.24767748 0.054999936 -0.108918786
000020 4d b8 94 3e fb 11 70 bd 76 ca 03 3e ea 96 9e bd
       0.2904686 -0.058610898 0.12870201 -0.07743628
000030 65 0d 36 3e 2f 5f 9d 3e 56 24 28 3e 87 72 5e 3e
       0.17778547 0.30736682 0.16420111 0.21723376
000040 e2 2c 09 3e 7c f4 70 3e 82 5b 0f 3e ef 76 ca bc
       0.13396028 0.23530763 0.13999751 -0.024714915
000050 5e 21 38 3e 0d a9 d8 bd 1d 81 9c 3e 35 12 34 3b
       0.17981479 -0.10579119 0.30567256 0.0027476673
000060 01 13 e7 3c b0 15 57 3e e1 2d 3d bd 4f 1c 9e 3d
       0.028207304 0.21004367 -0.04618633 0.07720243
000070 5d 23 17 bd e8 a8 14 3e 2a 03 50 3b 31 82 6e be
       -0.03689896 0.14517558 0.0031740167 -0.23291852
000080 b0 a9 de 3d a5 c8 0c 3e ee 42 6b bd 24 4f be 3e
       0.10872209 0.13748415 -0.057436876 0.37169755
000090 02 ab a6 3e 70 33 7b 3e b1 64 5b 3d 1b cc 9a bd
       0.32552344 0.2453134 0.053562824 -0.07558461
0000a0 4e f0 97 bd fd cb 14 bd 3a 58 0f be 12 e4 01 3e
       -0.07418881 -0.03632735 -0.139985 0.12684658
0000b0 f7 52 22 3e 2c 44 a8 be 88 5e c0 bd fe 98 79 3e
       0.15851961 -0.3286451 -0.093930304 0.24374768
0000c0 03 1d 90 3c 3c a9 dc 3d 0a b9 92 be 10 56 25 3e
       0.017591959 0.107744664 -0.286568 0.16146111
0000d0 59 ea 07 be 98 82 72 bd 1f 05 59 3e 5b b9 31 3c
       -0.1327299 -0.059206575 0.2119336 0.010847415
0000e0 60 6b 37 bd 35 47 eb bd 17 91 46 3e 05 80 40 bd
       -0.044780135 -0.11488191 0.19391285 -0.04699709
0000f0 de 60 cc 3e 00 fe c8 3e 4d 59 ef 3d 13 f4 4f 3e
       0.39917654 0.39256287 0.11686955 0.2030795
000100 54 41 85 3d e4 da 84 3e 75 29 8b 3e ac 31 b4 3b
       0.06506601 0.2594825 0.27180067 0.0054990854
000110 0e ed 11 3e 5f 45 44 3d 1b 7b d6 bd a7 e1 30 3e
       0.14250585 0.04791772 -0.10472699 0.1727358
000120 95 d5 9b 3e d7 fe aa 3e 1b 08 b0 bb 16 7b bf 3d
       0.30436388 0.33397552 -0.00537206 0.09349649
000130 8b 19 ce 3e 92 22 3e 3e d7 29 15 3e 13 28 63 3e
       0.40253863 0.18567875 0.14566742 0.22183256

lstm.bias_hh_l0 f4 [80]
000000 2a 7e 9d 3e 90 d0 4d 3d 1a 6b 7f 3e e4 b8 24 3e
       0.30760318 0.05024773 0.249432 0.16086155
000010 07 96 83 3e 71 1f 72 3e 40 29 9e 3e 86 f9 42 3d
       0.257004 0.23644806 0.30890846 0.047601245
000020 6e 7c 96 bd 65 f4 74 3e 1f 63 87 bd c9 4b 45 3e
       -0.07347952 0.23921354 -0.06610703 0.19267191
000030 cc 3f 8a 3e 2e 7c 86 3e 1a b3 16 be 99 f8 1f 3d
       0.27001798 0.26266617 -0.1471676 0.03905544
000040 8b cc 40 3e 02 95 3c 3e 60 74 ab 3e 13 83 ea 3d
       0.18828027 0.18416217 0.33487225 0.11450782
000050 4b 59 c3 3d f6 e0 33 3e 9a 19 0d be c1 71 66 3e
       0.09538516 0.17566285 -0.13779297 0.22504331
000060 12 26 fc bd 85 4d c4 3e c2 b7 7a bc 49 b3 f3 3d
       -0.12311949 0.38340393 -0.0153026 0.1189943
000070 df 1a 7d 3e 15 fb 15 3e 56 64 ea 3c 7c 0f 62 3d
       0.24717282 0.14646561 0.028612297 0.05519055
000080 88 42 3c 3e ef 70 56 3e c5 11 d5 bd f6 5d ff bb
       0.18384755 0.20941518 -0.1040378 -0.0077931834
000090 7d 80 7f bc bd 50 85 3e 49 42 89 3e 29 3a 10 3e
       -0.015594599 0.2603816 0.26808384 0.14084686
0000a0 a6 1a 1c bd 29 39 92 3c 61 89 24 3e 32 8d 53 3e
       -0.03811135 0.017849522 0.16068031 0.2065933
0000b0 1b d1 80 be 64 02 a3 be bc 0a ac bd c1 f3 d6 bd
       -0.25159535 -0.3183776 -0.08400485 -0.10495711
0000c0 6e e6 95 bd 99 ab 8e 3d ff 67 e6 3d 42 8a e4 3c
       -0.073193416 0.069663234 0.112503044 0.027897958
0000d0 e4 1c 47 3d b7 6b 39 3e 93 56 2e bd 31 00 12 3e
       0.048611537 0.18107496 -0.042563032 0.14257886
0000e0 5f 38 d1 bd 22 b4 33 3e 78 e2 31 3e 0a c6 09 bd
       -0.1021583 0.17549184 0.17371547 -0.03363613
0000f0 c1 12 50 3e 78 0b 67 3e 0b bb 53 3d 1d 3b 8e 3e
       0.20319654 0.22562969 0.05169205 0.27779475
000100 cb f3 1f 3e dd 1a 39 3e f5 db 27 3e be 75 0f bd
       0.15620343 0.18076654 0.163925 -0.035024397
000110 3d 23 c1 3e f8 fd 5d bd c8 a6 2a 3e 00 29 b5 3e
       0.37722197 -0.05419728 0.16665184 0.35382843
000120 82 32 5b bc fa 02 25 3e ed 5a 94 3e 30 d4 b2 3e
       -0.013378741 0.16114417 0.2897562 0.3492751
000130 00 8a 1d 3d 67 89 8a 3e 61 a0 be 3e 37 3a 77 3c
       0.038461685 0.27057955 0.37231734 0.015089563

lstm.weight_ih_l0_reverse f4 [80, 3]
000000 94 9e 5f 3d 91 1e f3 3d 85 45 29 bd 6d f7 8a 3d
       0.05459459 0.118710645 -0.041326065 0.06785474
000010 e3 92 0b 3e c4 04 c5 bd 92 52 22 be ab c2 34 3d
       0.13630252 -0.096200496 -0.1585181 0.044130962
000020 80 68 57 3c d2 ce 05 be f6 9c 87 be c0 44 07 3e
       0.013147473 -0.13067177 -0.2648694 0.1320982
000030 8c bd 8d 3e 2e 01 4e 3e f0 79 44 3d dc ca 45 3e
       0.27683675 0.20117638 0.04796785 0.19315666
000040 d3 d8 ad 3e d9 a3 f5 bd 62 52 e0 3d f3 b7 6c bd
       0.33954486 -0.11994142 0.10953213 -0.057792615
000050 55 a1 9f 3d df 47 6e be cc 6b 98 bd 8b 63 19 3e
       0.077944435 -0.23269604 -0.074424356 0.14979379
000060 9b 85 1d 3e d6 a2 a4 3d 66 b4 1e be 1b 2f 55 be
       0.15382998 0.08038871 -0.15498504 -0.2081875
000070 a1 6b 86 3e 9c 1d a0 be a5 4c 2a 3e dc 9e 20 be
       0.2625399 -0.3127259 0.166308 -0.156856
000080 e1 2b 7c be ec aa 7c bc 9d f6 07 3e 03 81 e5 3d
       -0.24626113 -0.01542161 0.13277669 0.11206248
000090 a0 e9 1a be 45 b6 3b 3e c9 91 30 be af 65 30 3e
       -0.15128183 0.18331249 -0.17243113 0.17226289
0000a0 0d 93 76 bd 55 82 67 3e bb 93 09 3e 88 c7 26 3e
       -0.060198832 0.22608311 0.13435261 0.16287053
0000b0 89 61 47 3d 50 a1 2c be 46 02 00 be 63 81 92 3d
       0.048677 -0.16858411 -0.12500867 0.07153585
0000c0 ee ec fc 3d c3 a2 80 3d 1e 9f 24 3e 6d 48 ff bd
       0.12349878 0.06281044 0.16076323 -0.12464986
0000d0 75 90 07 be 6a 1c 20 be d1 67 82 bd 30 44 ab bd
       -0.132387 -0.15635839 -0.06367458 -0.08362615
0000e0 dc 16 84 bd 3a 8b e5 bd dc 8d fe bd 16 3c 9f bd
       -0.064496726 -0.11208196 -0.12429401 -0.07775132
0000f0 9b f3 71 3e ed 15 6d 3e 78 0e 2c b8 25 22 0b 3e
       0.23628084 0.23152895 -4.102147e-05 0.13587244
000100 55 ab 22 3e bc 47 58 3e 84 fa 4b be 2a 36 11 be
       0.1588567 0.21121114 -0.19919783 -0.14180818
000110 3f 14 23 3e 84 c3 8a 3c 93 be 1c 3e 10 33 22 be
       0.15925692 0.016938932 0.15307073 -0.15839791
000120 94 2b 7e 3e ee a0 e3 bc 32 60 35 be 42 2e 3c 3e
       0.24821311 -0.027786698 -0.17712477 0.18377021
000130 f1 d4 8d 3e 5d 06 f2 bd e8 58 53 bd 05 d3 ca 3d
       0.27701524 -0.1181762 -0.05159846 0.0990353
000140 2e 27 85 3e c0 4d e2 bd c8 a3 ba bd 96 7a 0c 3e
       0.26006454 -0.11049986 -0.0911327 0.13718638
000150 49 c4 a9 bd cd c2 d8 bc da f6 8a 3d 6e 26 98 be
       -0.082893915 -0.026460076 0.067853644 -0.2971682
000160 74 15 35 bd 6b d7 b4 be 35 b2 03 be 51 bd b7 be
       -0.044209912 -0.353206 -0.1286095 -0.35886624
000170 81 a1 4f 3d 23 f8 3e 3e dc 6f bb 3e af f2 fe 3c
       0.05069113 0.18649344 0.3660878 0.03112158
000180 84 54 fc 3c e1 d5 ea bd 6f 1e 8d bd 94 0a e3 39
       0.030802019 -0.114665754 -0.0689057 0.00043304695
000190 a9 5f 10 bd 84 bf 2c bd 49 ec 0c 3e 28 c6 db 3d
       -0.03524748 -0.04217483 0.1376201 0.10731155
0001a0 fa cd ff 3c 6c 17 8c be 12 21 a8 3d 65 fe 49 3e
       0.031226147 -0.2736162 0.08209433 0.1972595
0001b0 1b e4 44 3d 81 18 fe bd 27 d3 11 3e 6a 98 19 bd
       0.0480691 -0.124070175 0.14240704 -0.03749887
0001c0 7a ff 4f be d7 13 e8 3d 04 cd 28 3d 3c b7 24 3e
       -0.203123 0.11331909 0.041211143 0.16085523
0001d0 04 1a ea bc 9d de 31 bd 67 c3 1b be 2a 2f 54 bc
       -0.028576858 -0.04342519 -0.15211259 -0.012950698
0001e0 52 b2 57 bd da e3 96 3e 98 ea a1 3d 9d 5d 9f 3d
       -0.052660294 0.29470712 0.07906073 0.07781527
0001f0 4f 5c b8 bc 0d df 9b bd f3 f9 3d 3d 17 77 32 3e
       -0.022504954 -0.07610903 0.04638095 0.17428242
000200 99 3c c5 3e c3 3d 6d be b6 a0 2e be 85 d4 8d bd
       0.38522795 -0.23168091 -0.17053494 -0.069253005
000210 c7 ce da 3d e3 2c 59 be 19 12 89 be 34 3f 78 3d
       0.10683971 -0.21208529 -0.2677162 0.06060715
000220 24 7c e4 3c 01 21 57 be dd cb 9e 3d 12 bf 84 3e
       0.027891226 -0.21008684 0.077537276 0.25927025
000230 3d ec 90 3d 05 df 94 3e f9 be 5e bd bc 72 e5 3c
       0.07076309 0.290764 -0.054381344 0.028008811
000240 78 10 51 be 98 35 ee bd 2a 36 56 3e 20 71 39 be
       -0.20416439 -0.11631316 0.209191 -0.1810956
000250 e2 a4 89 bd 36 1c 38 be fb 7d 62 3e cf 60 29 3e
       -0.06720902 -0.17979512 0.2211837 0.16540836
000260 00 64 23 3e 97 4b b3 3d 2f 3c 28 3e 9b 3b 00 3e
       0.15956116 0.08754652 0.16429208 0.12522738
000270 25 93 3d 3e ac c0 15 3e 1f 40 8f 3c 1d de 29 3d
       0.18513162 0.1462428 0.01748663 0.04147159
000280 75 84 92 be 00 6c a9 3d 16 20 ae 3c c1 8a 34 3e
       -0.28616682 0.082725525 0.021255534 0.17631055
000290 7e 80 de 3b 68 3b 80 be f9 50 51 be fc 05 a2 bd
       0.00679022 -0.25045323 -0.20441045 -0.07911298
0002a0 76 37 38 be 14 6d 5a be 59 0d 11 3e da a0 89 3e
       -0.17989907 -0.21330673 0.14165248 0.26880533
0002b0 99 25 63 bd 75 72 2f 3d a2 89 58 3e e0 b0 86 3d
       -0.055455778 0.042833764 0.21146253 0.06576705
0002c0 d4 a4 5d 3d e1 8e 99 3d 27 d2 b1 3c 59 44 c3 bd
       0.05411227 0.07497955 0.021706654 -0.09534521
0002d0 31 be bf 3e 39 0f 65 3e 7f 23 47 3e db 46 46 3d
       0.37449792 0.22369088 0.19447134 0.048407417
0002e0 f6 e9 89 bd 39 73 93 3e 36 21 f6 bc ee 3a dc bc
       -0.06734078 0.28798845 -0.030045133 -0.026883569
0002f0 d4 5d 16 be b1 81 9a be e5 d4 87 be 56 26 a8 bd
       -0.1468423 -0.30177072 -0.26529613 -0.08210437
000300 7e 7c 85 3e b2 3a cf 3d b3 23 2e 3d 39 eb 94 3e
       0.26071543 0.10118617 0.042514514 0.2908571
000310 06 2c c3 3e ad a0 80 3d 7d 5a 2e 3e 9d 79 ab 3c
       0.38119525 0.062806465 0.17026706 0.020932013
000320 35 50 6f 3b 52 77 a0 bd 92 ae 02 be 47 aa 8d bd
       0.0036516313 -0.078352585 -0.12761906 -0.069172435
000330 a5 28 30 3e 9b a3 25 be d0 42 99 bd 54 1f 8b be
       0.17203005 -0.16175692 -0.074834466 -0.2717234
000340 16 c4 37 be 7b a3 2f be ac 70 1c be e4 71 62 be
       -0.17945895 -0.17152207 -0.15277356 -0.22113758
000350 be bf ae be 4f 17 e3 3d 3c 10 54 3e e9 34 9c 3c
       -0.34130663 0.1108843 0.20709318 0.019068198
000360 a5 de ca bd 8c 2f 5a 3d 51 7c 46 be 29 9b 80 3d
       -0.09905747 0.053268 -0.1938336 0.062795945
000370 5e a5 70 3e e1 ab af 3d cb 74 fc 3d 33 96 e0 3d
       0.23500583 0.08577705 0.12326964 0.10966148
000380 cf 00 40 bc fc 8e 63 3d 5d 8c 6b be f7 3b 98 3d
       -0.011718943 0.055556282 -0.23002763 0.074333124
000390 35 bb 37 3e 59 97 69 3e 45 a7 11 3a 0a 71 ae bd
       0.17942508 0.22811641 0.0005556236 -0.08517654
0003a0 6c 43 6b be b3 04 e2 3c 1b 16 3e 3e f7 2c e4 bd
       -0.22974938 0.027590131 0.1856312 -0.11141389
0003b0 90 4b 1d 3d 03 09 bb be e6 f6 fc bd 28 07 81 be
       0.03840214 -0.36530313 -0.1235178 -0.25200772

lstm.weight_hh_l0_reverse f4 [80, 20]
000000 97 99 5f 3e 5c 4b ae be 9a 73 75 3d 2c 08 0a bd
       0.21835934 -0.3404187 0.0599247 -0.0336992
000010 cd e8 04 3e da 06 76 be 57 2e eb 3d d7 4a 79 bd
       0.12979431 -0.24026051 0.11483448 -0.06086239
000020 39 dd 0f be fe 99 51 bd 57 8e 47 3e 61 06 b6 bd
       -0.14049233 -0.05117225 0.19487892 -0.088879354
000030 97 41 5a bd 5d ba 22 be 58 08 f4 3c 9b 1e 13 3d
       -0.053285208 -0.15891404 0.029789135 0.03591786
000040 1c 10 93 be 80 06 1c 3e c1 68 09 be 0b b6 05 3d
       -0.28723228 0.15236855 -0.13418867 0.032644313
000050 25 21 ad 3e 50 97 2f bd ae 2b 37 3e a3 9b 38 3e
       0.3381435 -0.042868912 0.17887756 0.1802812
000060 d5 c6 a6 bc 32 44 36 be 06 80 26 be 69 1e 2f be
       -0.020358482 -0.17799452 -0.16259775 -0.17101444
000070 2f 3d 60 bd f5 22 b5 3e 53 05 f8 bd 69 09 a7 3e
       -0.05474585 0.35378233 -0.121103905 0.32624367
000080 ba 8c bf 3d c2 d9 98 3d 03 5d 45 3d d1 3e a0 3e
       0.09353013 0.07463409 0.048184406 0.31297925
000090 d5 85 32 be 69 2f 08 be 96 a1 15 be ef 07 a9 3e
       -0.17433865 -0.13299336 -0.14612421 0.33013865
0000a0 5a 20 f4 3d b3 4c 48 3e 8f c0 8a bd 62 e6 53 3e
       0.11920233 0.19560508 -0.06775009 0.20693353
0000b0 49 33 fc bd 03 60 b5 be 5d 36 cd bc 82 ba 8d be
       -0.12314469 -0.35424814 -0.025050336 -0.27681357
0000c0 57 8c 86 bd 1a cb d7 bd 95 2c e1 3c 54 42 86 3e
       -0.065697365 -0.105367854 0.027487079 0.2622248
0000d0 24 05 86 bd 45 cd 8d be c8 ba 1a bd cd f7 d9 bd
       -0.06543949 -0.2769567 -0.037775785 -0.106429674
0000e0 a7 0d 91 3c 02 d5 a5 bd 76 d0 bd 3d 77 50 23 3e
       0.017706705 -0.08097269 0.092682764 0.15948664
0000f0 34 d5 50 3c e4 31 bf bb 64 20 29 3e fd f9 b8 3d
       0.012746144 -0.005834805 0.16516262 0.090320565
000100 b7 38 1a be f7 d7 dc 3b 44 bc 31 bd cc 42 5a bd
       -0.15060697 0.006739612 -0.043392435 -0.05328636
000110 ee d5 cb bc 4d b1 b9 3e ad 11 b7 3d e8 b2 91 3e
       -0.024882283 0.36268082 0.08938918 0.28456807
000120 41 90 9c 3d a6 a7 14 3e 3a 61 77 bd 58 5b e2 3d
       0.07644702 0.14517078 -0.060395457 0.11052579
000130 07 fd 3e be 40 f1 bf bd df e2 3a 3c 98 88 5a 3e
       -0.1865121 -0.09372187 0.011406629 0.21341169
000140 80 98 f7 3d 00 1b 11 be 64 a6 b9 be c4 a5 ea 3b
       0.12089634 -0.14170456 -0.36259758 0.007160874
000150 8a 05 63 be 98 40 1f bd de 46 e9 bd 63 6d d0 be
       -0.22170082 -0.03887996 -0.1139047 -0.40708455
000160 c3 59 7f be 6e aa 21 bd 9a 9d 25 be ef 42 8d 3e
       -0.24936585 -0.039469175 -0.16173401 0.2759013
000170 6a 2e 9c 3d d5 2c 92 be 23 f8 34 be 84 2b f4 3d
       0.0762604 -0.2854983 -0.17672782 0.119223624
000180 5d 80 43 3d fc cc 94 3d 02 82 4d 3d f9 02 d1 3e
       0.04772984 0.0726566 0.050172813 0.4082258
000190 cc 28 04 be 85 33 2d be 93 31 41 3e 42 40 13 be
       -0.12906188 -0.16914184 0.18866567 -0.14379981
0001a0 df 0b ea 3d 14 27 57 be ba 11 5e 3e e4 e1 92 3e
       0.114280455 -0.21011001 0.2168645 0.28687966
0001b0 5c 5d cc 3d b0 85 93 3d 29 91 77 3e 2f d2 5e 3e
       0.099787444 0.07203233 0.24176468 0.21759866
0001c0 92 ef 30 3e ea ae 13 bd 2d aa 19 3e 09 88 75 bd
       0.17278889 -0.036055483 0.15006323 -0.059944186
0001d0 4d 39 00 3e d6 7d 89 3d 20 a2 fb bd 91 cf 3f 3e
       0.12521859 0.067134544 -0.12286782 0.18731524
0001e0 91 ae 60 3e f4 60 19 be 49 80 5c be 86 b6 61 3e
       0.21941592 -0.14978391 -0.21533312 0.22042283
0001f0 63 7a d0 bd c4 66 e7 3c d0 24 2d be 0c 2c cd bd
       -0.101795934 0.028247245 -0.16908574 -0.10018167
000200 be ec 4c 3e db 59 45 3e 3a 92 99 bd b1 d7 14 3d
       0.20012185 0.19272558 -0.07498594 0.03633851
000210 a6 6c 83 3c 88 bd 60 be 93 27 2e bd 57 44 07 bd
       0.016043019 -0.219473 -0.04251821 -0.03302416
000220 e0 17 34 be c5 2e 32 be 7e 54 d5 3d c6 e7 a7 3e
       -0.17587233 -0.17400654 0.10416506 0.32794017
000230 29 0c 1d bc 5e b9 97 bd 30 d5 53 3d dc ac 77 3d
       -0.009585419 -0.07408403 0.051716983 0.060467586
000240 71 e2 8f bd 1f eb 96 be cb 3d 2b be 0c 9a 31 be
       -0.07025612 -0.29476258 -0.16722791 -0.1734392
000250 2d 88 56 3e f7 5a d8 bd c7 99 0e bd ef 2e 87 3d
       0.20950384 -0.10564225 -0.034814622 0.06600749
000260 73 ab 0b be d8 67 e0 bd 6e d7 65 3a d6 93 18 3e
       -0.13639621 -0.109573066 0.0008767758 0.14900145
000270 1d 13 13 bd 81 f2 91 be 68 61 f3 3c 59 88 84 3e
       -0.0359069 -0.28505328 0.029709533 0.25885275
000280 62 a6 34 3d 44 82 27 3e a7 b0 f2 3d ae 04 da 3d
       0.044103988 0.16358286 0.118501 0.10645424
000290 e0 f1 54 3e 45 c0 2b be 3c df 09 bb 5c 8d a5 3d
       0.20795393 -0.16772564 -0.00210376 0.08083603
0002a0 78 e9 05 3e 08 e1 e9 3e e0 12 99 3d 8b eb 35 3e
       0.13077343 0.45679498 0.07474303 0.17765634
0002b0 ca d8 5f bd b5 d7 72 3d f7 2b 84 3e af 34 67 3e
       -0.054650106 0.059287746 0.25814793 0.22578691
0002c0 32 c2 8b be d1 cd 11 bf d7 55 01 be 35 02 99 3d
       -0.27296597 -0.56954676 -0.12630402 0.07471124
0002d0 1a 52 ba 3e 96 58 e6 3d 24 a0 2d be da 94 30 3e
       0.36390764 0.11247365 -0.1695562 0.17244282
0002e0 34 15 3d be 99 d1 d2 bd 6b e6 c2 3e 01 87 bb bc
       -0.1846512 -0.10293884 0.3806642 -0.022891523
0002f0 32 42 81 be 12 de 24 3e 42 b6 fb 3d ba 51 53 3e
       -0.25245816 0.16100338 0.12290622 0.20636645
000300 eb 0b 15 3d 57 cf f5 bd 48 4d 87 bc 01 a5 84 3d
       0.03638832 -0.120024376 -0.016516343 0.064767845
000310 bc f0 0a be 60 3d 80 3e a9 9b e0 3d b6 64 48 bc
       -0.13568395 0.25046825 0.1096719 -0.012231043
000320 0f 8c 63 3e c2 35 86 3d d8 ef 7a 3d 7b 7e 8c 3d
       0.22221397 0.06553222 0.06126389 0.06860062
000330 30 a4 a4 bd fb c6 b0 3d 21 b9 82 bd 3a 30 34 be
       -0.08039129 0.086317025 -0.06382967 -0.17596522
000340 88 a0 a8 bd 2a aa 41 3c 13 84 3f be 3e e4 7e be
       -0.08233744 0.011820355 -0.18702726 -0.24891755
000350 f6 38 13 3e 96 09 ab 3d 29 89 11 be 25 3e 36 3e
       0.14377198 0.08351438 -0.14212479 0.17797144
000360 ba 80 90 bd 98 b4 26 3c 42 9a 35 bc 34 41 86 bd
       -0.07055803 0.010174893 -0.011084141 -0.06555405
000370 3b 87 56 bd fe 40 e2 bd 3a 2f ac 3e a1 8d a6 3b
       -0.05237506 -0.110475525 0.3362978 0.0050828015
000380 9b 07 4e 3c 72 c6 88 be c1 78 5f 3e 14 0a 06 bd
       0.0125750555 -0.26713902 0.21823408 -0.032724455
000390 30 ef 94 3c 35 f1 99 3d f8 7c 05 3d b0 42 6e bd
       0.01818046 0.0751671 0.032589883 -0.058169067
0003a0 2b a6 fd 3d b9 52 9d be ba cb a3 3d 45 20 d7 3d
       0.1238521 -0.30727175 0.07997842 0.10504202
0003b0 bf da 89 bc 0f c0 2d bd c7 23 ab bd c2 7b 9e 3d
       -0.01682794 -0.04241949 -0.08356433 0.07738449
0003c0 b2 e0 a1 3d cd ea 8b bc 6f dd 38 be 73 93 4a 3e
       0.07904185 -0.017079735 -0.1805322 0.1978281
0003d0 38 e0 42 3d 33 c0 91 be 70 8b ce bd 1f b4 c5 3c
       0.047577113 -0.2846695 -0.10085189 0.02413374
0003e0 98 87 36 3e 4f ed ac 3d ca c2 81 be 1d e5 48 3e
       0.17825162 0.084437005 -0.25343925 0.1961865
0003f0 02 78 82 be 1f 0a 41 be 0f 33 a2 3e 39 06 94 3d
       -0.25482184 -0.18851517 0.3167958 0.072277494

lstm.bias_ih_l0_reverse f4 [80]
000000 d0 40 22 3e 0e fb 83 3d 73 20 1d 3d b7 55 c0 bb
       0.15845037 0.06444369 0.038361024 -0.005869593
000010 fa 7a 4d 3e d2 1d 84 bc de 4e c1 3d 5b d3 02 3e
       0.20066443 -0.0161275 0.09438871 0.12775938
000020 f4 b6 88 3e 41 41 f0 3d 90 2e cd 3d 7f 4a 11 bd
       0.26702082 0.11731196 0.10018647 -0.035471436
000030 1c 4b a6 3b 0a 6b ed 3d 2c 3c 8f 3e 7a ee d2 3d
       0.0050748717 0.11592682 0.27975595 0.10299392
000040 aa 40 d3 3d 04 51 26 3d fd d0 61 3e 28 f0 0c 3e
       0.10315068 0.040604606 0.22052379 0.13763487
000050 0e ac 20 be 27 e4 8c 3e 32 45 c3 bc 85 65 94 3d
       -0.15690634 0.27517816 -0.023836706 0.07245926
000060 25 01 f3 3d 76 04 d9 3d 57 4d 66 3e 7e 6a bc bd
       0.11865453 0.10596554 0.2249044 -0.09199999
000070 5b 22 ee 3c 21 4b a0 3c 3e f8 63 3e 5c 0b cd bd
       0.029069116 0.019567074 0.22262666 -0.10011932
000080 49 0b e3 3b 61 35 54 3d 44 44 8b 3e 4c 97 21 3e
       0.0069288355 0.05180872 0.2720052 0.15780371
000090 9d 58 f2 bc 2e 6e ac 3e ed 0e 16 be e7 2b 25 3d
       -0.02958327 0.3367781 -0.14654131 0.04032507
0000a0 7c a5 15 3e ed e1 c8 3d eb f6 af bd e0 a7 c4 3d
       0.14613909 0.09808717 -0.08592018 0.09602332
0000b0 09 2b 64 be e9 39 94 be c7 d5 ef 3d c8 41 5f be
       -0.22282042 -0.28950432 0.11710697 -0.21802437
0000c0 62 80 95 bd 52 a8 3e 3d 22 6d 13 be ae 8b 06 3d
       -0.07299878 0.04654724 -0.143971 0.032848053
0000d0 43 10 67 3e ad 05 85 bd 9d 3a b9 3d 7f 89 82 bd
       0.22564797 -0.06495223 0.09044383 -0.063738815
0000e0 1d 8a ee bd 27 51 1c 3d f9 ff 4a 3e 23 2c 46 3e
       -0.11647437 0.03816333 0.19824208 0.19352774
0000f0 8c 96 f2 3d 39 b9 90 3e 8a de b6 3e 4a 33 e3 3d
       0.11845121 0.28266314 0.3571666 0.11093767
000100 f0 1e 9a 3e c1 0c c0 3d ba 36 7c 3e 9b f1 20 3e
       0.30101728 0.093774326 0.24630252 0.15717165
000110 69 ba 90 3e 0a 64 86 3e ef 77 a7 bd d0 d8 c0 3e
       0.2826722 0.262482 -0.081771724 0.37665415
000120 84 76 8c 3d af 8b b0 bc 47 d3 1d 3e e2 08 c9 3d
       0.068585426 -0.021550981 0.15412627 0.098161474
000130 95 82 8a 3e 1c 5b 40 3d d2 9f 64 3d cc 43 b5 bd
       0.2705275 0.04696189 0.05581648 -0.08850822

lstm.bias_hh_l0_reverse f4 [80]
000000 70 3a a2 bd 53 85 4f 3d e3 25 77 3e 36 af 2a be
       -0.07921302 0.050664257 0.24135546 -0.166684
000010 dd 97 84 3e 53 53 81 3e 4e a8 0a 3e 1d 39 ca 3d
       0.25897112 0.25258884 0.13540766 0.09874175
000020 0e 39 77 3e 48 45 b8 bb ed d0 2b 3d 29 b2 2a 3d
       0.24142858 -0.0056234933 0.041947294 0.041673813
000030 4a e4 64 bd 55 dc 8e 3e 03 f2 b9 bd 95 1d 71 3e
       -0.055881776 0.27902475 -0.09079363 0.23546441
000040 bb 74 8a 3b f2 3b af 3c 5a 58 03 3e eb 0b 54 be
       0.004225341 0.021390889 0.12826672 -0.20707671
000050 b9 25 b4 3d 1b 19 36 bb 27 4b 21 bd 55 63 52 3e
       0.087962575 -0.002778596 -0.03937831 0.20545705
000060 5a 95 46 3e ec 69 df bd 69 7a 91 3d dd 89 9d 3b
       0.1939291 -0.10908875 0.07103426 0.0048076943
000070 db fa 93 3e 1c 29 82 3e 4c 67 80 ba 66 a3 19 bd
       0.28902325 0.2542199 -0.000979641 -0.037509345
000080 0b 0a 99 3d f2 3d 92 3e 3f 25 a3 3d ba d3 69 3e
       0.07472619 0.28562886 0.079660885 0.22834674
000090 eb ee c6 3e 00 f7 04 3e 7d ea 95 3e 1b de 8d bd
       0.38854155 0.12984848 0.29280463 -0.06927129
0000a0 14 be 45 3e cd 43 41 bd 86 3b c9 3c b9 2c fd 3a
       0.1931079 -0.0471838 0.024564516 0.0019315697
0000b0 d6 56 84 be b4 78 18 be 69 00 f1 3d c7 1d 28 bd
       -0.258475 -0.14889795 0.11767656 -0.041044023
0000c0 b2 9c 17 3e e5 a2 ae be 3f 6f 04 be 0d f7 69 3d
       0.14805868 -0.34108654 -0.12933062 0.05712037
0000d0 17 23 e2 bd 12 32 66 be 3d 2b 0a be bf 94 9f 3d
       -0.11041849 -0.22480038 -0.13493057 0.07792043
0000e0 8f b1 07 3d be 33 78 3d b2 bd 09 be 68 fb 98 3e
       0.033128317 0.06059622 -0.1345127 0.29879308
0000f0 88 b4 da 3d cb 38 c8 3e 2b 9a a3 3e d3 8e 37 3d
       0.10678965 0.3910583 0.31953558 0.044813942
000100 6c ee 08 3e a9 d0 84 3d 14 7e 83 3e aa 3a 07 3e
       0.133722 0.06485111 0.25682127 0.13205972
000110 da 77 d6 3e 70 4c 52 3e f1 b7 4a 3e 23 e6 b9 3e
       0.41888314 0.20536971 0.1979673 0.36308393
000120 33 3c 6d 3e 06 11 79 3d 61 63 bf 3e 71 6c c8 bc
       0.23167495 0.06080725 0.37380508 -0.024465771
000130 b8 91 1e 3e b5 ac 61 3e 2f a8 2a 3e 4b d5 9b 3d
       0.15485275 0.22038539 0.1666572 0.07609042
