models/100-seed-100-prognostic-linear/itr-4-nsc.pth.pth (torch, 394927 bytes, 18 tensors)

B f4 [400, 200]
00000000: 17b7 d138 a066 8fbf 5902 003f a33a 88bf
00000010: c5fe 26bd 346c f4bd b117 943f 6762 51bf
00000020: ceb9 87bf d128 1ebe 0d6e 19bf 0795 9fbe
00000030: dcf5 7bbf eb04 8dbf ed53 8540 5927 0dbf
00000040: dfb5 d03e fabe 893e 7c86 30bf 200c 12bf
00000050: 87a9 1140 4570 03bf 5c7d b03f d97f 9abe
00000060: 7bf5 a1bf 82ac 2440 6823 cfbe 68b1 89bf
00000070: 6d65 1340 74fb e7be 0006 cb3e faaa 84bf
00000080: 90e4 62be cb9d 55bf dbe6 65bf f310 88bf
00000090: 5877 3fbf ce01 1fbf 45ad 2fbf 9b58 60bf
000000a0: fd4d 83bf 7df6 5240 e30f 88be 0bb1 6fbf
000000b0: 7cb9 8e3e ddc3 11be 0c37 333e e1de 8bbe
000000c0: 7761 85bf b700 83bf 6c36 82bf 9de4 62bc
000000d0: d49a 2240 4fd8 083f 9047 87bf 45bd 8bbf
000000e0: 10ad f83f 449e 01bf c46c 71bf 5525 86bf
000000f0: 0490 c4be 8b11 71bf 868d 433f 98ca 8abf
00000100: dd47 ed3e 771f 90bf f2eb eabe c5db 23bf
00000110: 1d73 dbbe da4c f2be 9942 64bf 38a0 16bf
00000120: 3b4f 803f 5b51 8a3e 0a5e 9ebf e8bd 80bf
00000130: 9281 d03f 6384 82bf 48f3 ba3f 1cc5 3b40
00000140: a641 88bf 95dd e2bd b09f 77bf 6302 83bf
00000150: ec89 f33f a17d cc3f 4bd3 88bf 5b5b 8abf
00000160: caa0 94bf ea75 9bbf c7de 9dbf 6d62 4e3e
00000170: d448 8abf cb8b bf3e 00c6 31bf a90c 87bf
00000180: 4569 72bf 426e b63f 65bc 44be 558b e43f
00000190: 3d79 1940 8306 3abf f9d3 fb3f b899 ad3f
000001a0: 7f08 a1be da86 d03f 1a20 3f40 50e7 3140
000001b0: be9c 2940 dac1 1940 2c37 1f40 47e8 8440
000001c0: 199c 19bf 9083 14bf f6bc 3740 fedc 3ebf
000001d0: 8359 75bf 088c 32bf 9eb1 db3f 5571 4b40
000001e0: 8a49 4d40 815a 46bf 8510 3f40 8d57 c13e
000001f0: 0063 f93d 8d5b 813e 3f16 fb3f 7c21 0cbf
00000200: 87be d63f 99f3 7f3f b2df 673f 0348 703f
00000210: 25cc 5340 4972 2ebf a22e 86bf cef4 dc3f
00000220: bcbf df3f 7e92 87bf a65e 3b40 3703 c23f
00000230: 34d0 11bf f270 6740 ba85 c33f 01cc 4640
00000240: 8541 70bf 7ae9 883f 6ef7 6040 17a0 003e
00000250: aa94 6040 205f 3340 255b be3f e307 eb3f
00000260: d6ec 1c40 f299 7f40 7648 1fbf 25ae a43f
00000270: 5d89 8abf 36d5 993f c862 e13e 46de 2c40
00000280: e476 f0be ba56 4640 a009 c03f 394b 51bf
00000290: 5646 2540 8988 4140 f868 b33e 7563 7340
000002a0: c3c4 13bf 893f 9ebe eadc 1140 142c 2e40
000002b0: 8ec1 3f40 64a9 1040 f3d1 8d3f 59e2 8040
000002c0: ce01 903f 4ec8 1ebf d92a 1740 415b 77be
000002d0: 1e76 35bf a90b 1b40 de70 603f f3fa 7d40
000002e0: b613 883f dece 6d40 057e 2940 9e57 1040
000002f0: 6b48 1440 b5c3 8a3d 09b2 d5bd f661 c1bd
00000300: fb1f 5abf 0da1 d13f bef0 3e40 13ad dcbe
00000310: a6fd 1abf 32c5 4240 9128 5540 750b 6240
00000320: 1700 a8bf 17b7 d138 4ff0 b6bf 9749 7140
00000330: 88aa ab3d cad1 a8bf 9d42 b9bf ba9f 0dbd
00000340: 2cf9 2340 fcd7 bcbf 3c92 95bf a3a3 aabf
00000350: 10cc 0640 18bd d43f 0e2e b0bf 1c31 9abf
00000360: 621b 98bf 091d a3bf 42ad 99bf 719c a5bf
00000370: b51a aebf f10b b5bf 0a6b bcbf bf24 b0bf
00000380: 1c68 1640 718d b4bf a8a9 a5bf 8f83 8240
00000390: 358a bdbf 762f 39bf 84d0 a6bf 1f68 c63f
000003a0: 00f1 5cb9 384e 0640 dd2a c53f 3383 1540
000003b0: 2952 1540 486c c83f 4d33 b73f 0e75 763e
000003c0: f08e 1cbf 8da0 95bf d66d 9ebf 7a21 4640
000003d0: 2c56 afbf 6ef6 92bf b3fc a0bf d8e8 a3bf
000003e0: 3f8a 7d3f e1c1 0740 4de5 ac40 632c a0bf
000003f0: 1835 aabf 4d7a efbe 06a1 3640 760e 1140
1e-04 -1.1203194 0.5000358 -1.0642895 -0.04077031 -0.119347006 1.156973 -0.81790775
-1.0603578 -0.15445258 -0.5993355 -0.31168386 -0.98422027 -1.1017126 4.166495 -0.55138165
0.40763757 0.26903516 -0.68955207 -0.5704975 2.2759721 -0.51343185 1.3788257 -0.30175665
-1.265304 2.573029 -0.404567 -1.0757265 2.3030655 -0.4530903 0.39653015 -1.0364678
-0.22157502 -0.834439 -0.8980538 -1.0630172 -0.7479148 -0.6211213 -0.68623763 -0.876352
-1.0258175 3.2962945 -0.2657462 -0.9362952 0.27875888 -0.14234872 0.17501467 -0.2731848
-1.0420369 -1.0234593 -1.0172858 -0.013848451 2.5407 0.5345506 -1.0568714 -1.0917135
1.9427814 -0.5063212 -0.9430659 -1.0480143 -0.38391125 -0.94167393 0.7638782 -1.0843077
0.4634389 -1.1259602 -0.45883137 -0.64007217 -0.42861262 -0.47324258 -0.8916412 -0.58838224
1.0024179 0.27015194 -1.2372448 -1.0057955 1.6289542 -1.0196651 1.4605494 2.9339056
-1.0645034 -0.1107742 -0.9672804 -1.0235103 1.9026465 1.5975839 -1.0689481 -1.080913
-1.1611569 -1.214536 -1.2333611 0.20154734 -1.0803475 0.3741134 -0.6944275 -1.0550739
-0.9469188 1.4252398 -0.19212492 1.7855021 2.3980248 -0.72666186 1.9674064 1.3562536
-0.31451795 1.6291153 2.9863343 2.7797432 2.6501918 2.4024568 2.4877424 4.153354
-0.6000381 -0.5801325 2.8709083 -0.7455596 -0.9583971 -0.6974492 1.716358 3.1787922
3.2076135 -0.7748185 2.9853833 0.37762108 0.12177086 0.2526516 1.9616164 -0.54738593
1.6776894 0.99981076 0.90575707 0.9385988 3.309335 -0.68143135 -1.0482981 1.7262208
1.7480388 -1.0591581 2.927652 1.5157231 -0.5695832 3.6162686 1.5275185 3.1062014
-0.93849975 1.0696251 3.515102 0.1256107 3.5090737 2.802681 1.4871565 1.8361782
2.4519553 3.993771 -0.6221994 1.2865645 -1.082317 1.2018192 0.44020677 2.7010665
-0.46965706 3.0990434 1.5002937 -0.81755406 2.582418 3.0239584 0.35041022 3.8029454
-0.5772211 -0.30907848 2.2791085 2.7214403 2.9961886 2.2603388 1.1079696 4.0276303
1.1250551 -0.6202439 2.3619902 -0.24155904 -0.7088336 2.4225867 0.8767222 3.9684417
1.0631015 3.7157512 2.6483166 2.2553477 2.31692 0.067756094 -0.10434348 -0.09442513
-0.8520505 1.6377274 2.9834437 -0.43100795 -0.60543287 3.0432858 3.330601 3.5319493
-1.3125027 1e-04 -1.4292086 3.7701166 0.08382136 -1.3189023 -1.4473454 -0.034576155
2.5620832 -1.4753413 -1.1685252 -1.3331188 2.106205 1.6620207 -1.3764055 -1.2046237
-1.1883357 -1.2743236 -1.2005999 -1.2938367 -1.36019 -1.4144269 -1.4720166 -1.3761214
2.3501043 -1.4105664 -1.29424 4.0785594 -1.4807802 -0.72338045 -1.3032384 1.5500525
-0.00021070614 2.098524 1.5403706 2.3361328 2.3331397 1.5658045 1.4312531 0.2406809
-0.61155605 -1.1689621 -1.2377269 3.0957932 -1.3698173 -1.1481454 -1.2577118 -1.2805433
0.9903907 2.1212084 5.402991 -1.2513546 -1.3297453 -0.46772996 2.853578 2.2665076

encoder.attn_v f4 [40]
00000000: 8806 8d3f 403c 7b3f f8b9 8d3f 9bfe 973f
00000010: 456e 9b3f e3b8 863f fc97 653f 1e65 483f
00000020: d345 5e3f 86d7 8a3f 5eda 813f 2eff 9a3f
00000030: 522e a03f 90af 9b3f 16ff 5f3f 85ab 723f
00000040: 7bc4 623f 888d 4c3f ea0b 793f 50a1 413f
00000050: 664b 8a3f 427a 9c3f 3213 8c3f e77d 733f
00000060: 9025 723f 005c 873f 012a 843f effb 843f
00000070: 894c 853f 5074 763f f04a 6b3f 21e4 863f
00000080: 5fad 943f 5490 873f 0477 893f c5cb 623f
00000090: a2d8 7d3f 8815 823f 54a2 8c3f e430 753f
1.1017618 0.9813881 1.1072378 1.1874574 1.2143027 1.0525173 0.89685035 0.7827929
0.86825293 1.0847023 1.0144765 1.2109125 1.2514136 1.2162952 0.87498605 0.9479297
0.88581055 0.7990346 0.97283804 0.7563677 1.080426 1.222481 1.0943358 0.95113987
0.94588566 1.0574951 1.0325319 1.0389384 1.0413982 0.9627123 0.9191122 1.053837
1.1615409 1.059092 1.0739446 0.8859218 0.9915868 1.0162821 1.0987039 0.95777726

encoder.lstm.weight_ih_l0 f4 [80, 3]
00000000: b760 52bd e3a1 f7bd 4394 b0bd 01a0 6abe
00000010: a1e2 9f3d 9528 e63d 1d00 42bd fd3f 54be
00000020: 668c 73be 06b1 98be b4d9 30be cef1 98bd
00000030: 5b94 ce3d bd3e 85bd 06a7 053e 6205 37bd
00000040: c5b6 ca3c 5e6c 09be 9c69 7b3d c5e2 46bd
00000050: c173 acbd 4fa5 383e 2e14 bd3a 37be 38bc
00000060: 6e25 3d3d 7743 eebd 341c 03be 572d 83ba
00000070: da1d 93be 61d5 50be a582 90bd 66b6 283e
00000080: d3f2 89bb 1f6c 903e 3fb6 453d c8d0 58be
00000090: 29cf 573e 3974 b7bd 04b0 bb3b c66d 033e
000000a0: 7b9f 34be 5708 4ebe e57b 1e3e 5afe ae3d
000000b0: 9c34 43be 1334 c53d 28ed 0f3e 33e0 e3bd
000000c0: bc3e 543d 0dc8 103e f3ba 25be f4d2 52be
000000d0: 56c1 24be cdb5 163e 0844 373d 62a9 d03c
000000e0: 38fd 4cbd 2275 71bd 998c 103d b886 803d
000000f0: 1f6a 2abe bff8 ea3d 9916 11be fe96 8ebe
00000100: f283 d6be 5c8d 33be 5443 b13e 29d1 693e
00000110: a973 21bd b3fc 86bc 57a6 a6be 846b 01be
00000120: a827 3fbb 1757 a23c 76aa c23e c40f 883d
00000130: cbf2 2cbe b454 eebd a1d9 51be dea2 6ebe
00000140: 1887 84bd 6104 fd3d e8f1 8b3d 9220 1cbe
00000150: 6654 5b3d 4ee0 3cbe 0603 913c 2f11 b7bd
00000160: 8b95 1bbe ec98 8abe 20c9 253e 464c d4bc
00000170: c7a7 4cbc 9d66 143b 1238 bb3d bb92 393e
00000180: 4f5b 4d3e 0aaf 8cbd 4b4d 2bbe 2cf5 fc3c
00000190: 3f72 00be c310 51bd 4f58 e43d 8c79 2bbe
000001a0: a7b2 2a3d d31e a53d d797 34be 9660 8cbd
000001b0: c263 07be 5aae 2a3e 654d f0ba 13a0 213d
000001c0: 27b1 e0bb 26b2 4fbe f995 1fbd cfb2 a8bd
000001d0: 0783 40bc 920f 833e 300e 26bc eb4e 62be
000001e0: c3ea 0e3e 7483 783e 8a20 0abc 9eaf e6bd
000001f0: 5242 15be b3df e7bd 46f9 493e e825 513e
00000200: 1033 9e3d 456f 90bd 3698 0cbe d1ae 9bbc
00000210: 4658 63bd 4cf7 213e 2df3 1d3e 3bae 843e
00000220: a8ca 593e 88a8 0bbc 0140 723d 029f 0ebe
00000230: 8697 68be c8bb 69be 0300 eabd 114f e83d
00000240: 287a 77be d10e 0cbe 2f8a c93d b6e8 23be
00000250: 29ad 51be 17d9 1bbe 8fb8 733e dd0f 093e
00000260: e6ae 3cbd ed28 1c3e 1a99 9e3d e36c a4bd
00000270: 8663 543d 64e4 ec3c 92fb e9bb f4c2 303e
00000280: 6ef4 263e 11a7 01be 09b1 82be c5cc 5dbe
00000290: 027c 763d c111 3abe 73e5 28be d77c 29be
000002a0: 0ca1 12be d59c 25be 7921 50be 5858 8a3d
000002b0: dfa2 99be 7e57 36be b818 87be edf8 b1bd
000002c0: f0d6 4dbd 7cd5 13be 7506 51be 03e6 e33d
000002d0: bb07 be3c 383b 2fbe aabd 70bc 2ca6 12be
000002e0: 438d 96be daab b7be 5412 1f3e 1beb 7c3d
000002f0: abf4 073a 1933 e6bd ad33 abbe b060 99bd
00000300: d2be ab3e 7e26 b23e 1c88 8b3e 351b 8ebc
00000310: 9a1d e8bd d0fc 1dbd 195d c0bd c4f1 c3bd
00000320: 63e0 9f3c ba8b 993e 423b 973d 2179 dc3d
00000330: 6be0 b7bd 91d4 7a3c 3044 84bd a949 09be
00000340: be9f d9be 8633 f8bb b32d 353b 49dd 523d
00000350: 447c c0bc cae8 9a3e 1fe7 863e 2f0b 033e
00000360: 9907 803e 57ec b23e a085 113e e13e 153d
00000370: 4061 0c3d d20b 7cbe 6cd9 f43d 9d2f 25be
00000380: 47df 81be 8ad5 283e 532c 093e bb41 71be
00000390: 1d15 993d e8b0 7bbd 0e7f 103b d5fa a43d
000003a0: ca8d cdbd da24 ee3c bc6d 413e 9a10 a5bd
000003b0: 5e92 f0bd 7d77 923e 7b7e 76bd 47e9 bdbd
-0.051361766 -0.12091424 -0.08622029 -0.22912599 0.07806898 0.11238209 -0.04736339 -0.20727535
-0.23784027 -0.29822558 -0.17270547 -0.074679956 0.1008689 -0.06506107 0.13051996 -0.044682868
0.024745354 -0.13420245 0.061380014 -0.048556108 -0.08420516 0.1803181 0.001442557 -0.0112758195
0.046178274 -0.11633962 -0.12803727 -0.0010008019 -0.28733712 -0.20393898 -0.070561685 0.1647583
-0.004209855 0.2820749 0.048269507 -0.21173394 0.21075119 -0.089577146 0.00572777 0.12834844
-0.17638962 -0.20120369 0.1547695 0.085446075 -0.19063038 0.09629073 0.14055312 -0.11126747
0.05181764 0.14138813 -0.16184597 -0.20588285 -0.16089377 0.14717789 0.044742614 0.025471393
-0.050046176 -0.058949597 0.035290334 0.062756956 -0.16642044 0.11473226 -0.14168777 -0.27849573
-0.4189754 -0.17534393 0.3462168 0.22833695 -0.039416943 -0.016477918 -0.32548782 -0.1263867
-0.0029167924 0.019816918 0.38020676 0.06643632 -0.16889493 -0.116372496 -0.20493175 -0.23304316
-0.064710796 0.12354351 0.06833249 -0.152468 0.053547285 -0.1844494 0.017701637 -0.089388244
-0.15193765 -0.27069795 0.16190004 -0.025915276 -0.012491173 0.002264417 0.09141554 0.1812238
0.20054363 -0.068693236 -0.16728704 0.030878626 -0.12543581 -0.051041376 0.11149656 -0.16745585
0.041674282 0.0806252 -0.17636047 -0.0685436 -0.13221648 0.16668072 -0.0018333612 0.0394593
-0.0068570557 -0.20282802 -0.038961384 -0.0823723 -0.011749989 0.25597817 -0.0101352185 -0.22100417
0.13956742 0.24268895 -0.0084306095 -0.11263965 -0.1457608 -0.11321964 0.19723997 0.20424616
0.07724583 -0.07052473 -0.13729939 -0.019004257 -0.055504106 0.15816993 0.15424795 0.25914177
0.21268713 -0.008524068 0.05914307 -0.13927844 -0.22714052 -0.22825539 -0.114257835 0.11343206
-0.24167693 -0.13677527 0.098408096 -0.16006741 -0.20476212 -0.15219532 0.23800872 0.13384958
-0.046065234 0.15249987 0.077440456 -0.08028581 0.051852725 0.028917499 -0.007140585 0.17261869
0.1630418 -0.12661387 -0.25525692 -0.21660145 0.060176857 -0.18170835 -0.16493778 -0.16551529
-0.14319247 -0.16173108 -0.20325269 0.067551315 -0.30007073 -0.17806813 -0.26386046 -0.08690057
-0.05025381 -0.14436907 -0.2041262 0.11127856 0.023197046 -0.17112434 -0.014693657 -0.14321202
-0.2940465 -0.358733 0.15534335 0.06174765 0.00051862997 -0.11240215 -0.33437863 -0.07489145
0.33544022 0.34794992 0.2725228 -0.017346958 -0.11333771 -0.03857118 -0.09392757 -0.095675975
0.019516176 0.29989415 0.073843494 0.10765291 -0.08978351 0.015309469 -0.06458318 -0.13407005
-0.42504686 -0.0075745014 0.0027645647 0.051480565 -0.023496754 0.3025573 0.26348206 0.12797235
0.25005797 0.34945938 0.1421113 0.03643692 0.034272432 -0.24613884 0.119555324 -0.16131444
-0.2536566 0.16487709 0.13395815 -0.2356023 0.0747473 -0.061448008 0.0022048387 0.08055655
-0.1003681 0.029070307 0.18889517 -0.08059807 -0.11746667 0.28606787 -0.060179215 -0.0927301

encoder.lstm.weight_hh_l0 f4 [80, 20]
00000000: ce19 043d e72e 613e 7b8f 4e3e 80bd 523d
00000010: 7f49 863e 93eb a43e e95e ae3b 75e5 86bd
00000020: c68c f13d 7c00 5c3d 257a 70bd 2b7f a43e
00000030: 0b8a b03c b5a9 473e 3e8c 55be 698e 85be
00000040: 3e0b 8dbd 97ba babd 0cd5 fdbc 68ea 043d
00000050: b8a8 063e db58 54bd 1cad 66be 110e e73d
00000060: 98d9 d4bd a78b 953d 844d 203e 6521 20bd
00000070: 2bd3 783b 7409 17be a075 bdbe 1c4a 77be
00000080: 2379 08be 089e 42bd d460 f33c c3cc 67bd
00000090: 6f2c 71be ba62 043e 914a 9f3e 6069 383d
000000a0: 11b2 0dbe a162 a03d f188 0d3d f2d8 073f
000000b0: e6aa e9bb fc71 02bd f664 8d3e ce1a f23c
000000c0: 7f70 cc3c cfa5 7a3e c0ac 823e 488d ad3c
000000d0: 626e c3bc 69ea bbbd 8364 963c e7e9 ed3c
000000e0: 2d10 723e e21f c1bd 041e 8bbd c052 99bd
000000f0: 22f3 b13d df92 91bd 692a 69be a188 5f3e
00000100: a556 a13d c6f0 8bbc 01a7 223e 74f3 893e
00000110: e508 623e 24eb 983e a9a0 88be 1349 2d3e
00000120: 8bb5 00bd b916 8ebd a538 77bc 73a7 c93d
00000130: 772d c0be ae8e 483e 16c8 9bbd a5de 853d
00000140: 1f92 483e 4593 4ebe cf1e 303e 3cc4 063e
00000150: 4bfd 563e 5fee 7d3d c564 04be 27e8 4ebd
00000160: e0df 96be 9e93 07be 56c4 a53e 85c1 4a3d
00000170: d452 3ebd 850d 903e 7463 39be dfde bd3d
00000180: 029d 72be 62a2 36be 6363 8fbe 11e4 76be
00000190: 2b74 c1be c2b7 ec3e 29a6 0f3e 7802 d73c
000001a0: 6250 e33d 9e79 4dbd 81fd 013e 663a dbbd
000001b0: 24d7 24be 7a64 c73d 0507 de3e e5bd 05be
000001c0: 401b 783e e8fe 01be bde6 6ebe 0510 3bbe
000001d0: c366 91be 05ab e13c 5abb 2c3d 9c8f 87be
000001e0: abf7 0fbe 933d 9a3e e52b fe3d bf49 2e3e
000001f0: 9e81 303e 086d 7dbc d19b 483e 3e57 68be
00000200: a15c 6cbe 63dc 1f3e b956 6f3e 6d74 b63e
00000210: 4e10 59bc dee3 f03d 9dd9 f93b c6a4 9e3d
00000220: 5032 83be d607 463e 453b 2cbe 8816 50be
00000230: c91a babd b2e8 fdbb 8cce 2b3e 0ef7 733e
00000240: a18f 143e 2e63 33be 5757 523c 94d9 45bd
00000250: 4dee ac3c a3a0 563e c3ae cb3d 09f1 13be
00000260: 89b5 973d 942c d0bd 8080 cb3d c7da 9cbd
00000270: 328f 03be 540a 0bbe d5cd 883d 7e66 6abe
00000280: d4d3 24be 7f39 1fbd 467a 5b3d 393c 7d3e
00000290: ed83 363d 1a12 b93d 34e5 44be 449a 85be
000002a0: 1b11 8fbc 6728 ff3e 9a5e 31bd 9fcf 37bc
000002b0: 0a3a 513e ed5b 6f3e f794 993c 2fe8 0b3e
000002c0: 2037 a9bd ad0b 1d3d f401 eb3d 5134 57be
000002d0: 672f 83be 726a ca3d ef61 21be 9db2 24bd
000002e0: a6ff b43d 7f82 8ebe f38f 84bc f398 103e
000002f0: 8827 883d 5195 703e cf4b 91bd 3846 42be
00000300: 20b0 3ebe 573c e33c 4011 9c3d 8a37 15bd
00000310: 3be2 91be c464 d8bd bcc8 9e3d d202 64bd
00000320: ccef 16be d777 5cbd 5325 463e 45e5 a63e
00000330: 48fa 593e 8fa4 b33b 5138 9fbd 2e4b 84be
00000340: e10e 23be a1b8 b13e 085f 2d3e a34d c53e
00000350: 219a e23e 18fc d5bd aa80 12bd 2e90 24be
00000360: cb1c 873e 9fa2 06be 94ce 64bd b869 13bc
00000370: 2887 54be 71e0 cabd 2313 6d3d 55e1 fb3e
00000380: dbe4 c7bd d44b 443e 8978 e9bd 0705 133e
00000390: fa7e d1bd 307c 9f3d 683b 8a3d 6de2 0fbe
000003a0: 6c6f 2abd eeeb 53bd c8ba 17bc 52fa d73d
000003b0: e6ff 4e3d 0668 be3d 242c f73d fd6c 81bd
000003c0: 3ed1 b8bd a00b 083e 7316 35bd cb5f 6d3e
000003d0: 66bb ab3d b567 80bd c448 60be d652 1cbe
000003e0: 5f46 11be 8d66 0f3e a433 c33e b197 deba
000003f0: a8a1 e93c cf76 4a3e 5373 c33d bdd8 cf3c
0.03225117 0.21990548 0.20171921 0.051450253 0.26227948 0.3221098 0.0053213728 -0.06586734
0.117944285 0.0537114 -0.058710236 0.3212827 0.021550199 0.19498332 -0.2085428 -0.26085213
-0.0688691 -0.091176204 -0.030985378 0.03245011 0.13150299 -0.05184255 -0.22526973 0.1128198
-0.10393065 0.07302027 0.1565457 -0.039094348 0.0037967663 -0.147497 -0.37003803 -0.24149364
-0.1332746 -0.04751399 0.029709257 -0.05659176 -0.23552106 0.12928286 0.31111577 0.04502237
-0.13837458 0.07831312 0.034554426 0.5306541 -0.0071309684 -0.031846985 0.2761609 0.029553797
0.024955986 0.24477313 0.25522423 0.021185532 -0.023856346 -0.091755696 0.018358475 0.029042197
0.23638983 -0.09429909 -0.067928344 -0.074864864 0.08688952 -0.071080916 -0.22770084 0.21829464
0.07877854 -0.017082583 0.1588402 0.26943552 0.22073705 0.29866898 -0.26685074 0.16922407
-0.031423133 -0.06937928 -0.015089189 0.098463915 -0.37534687 0.19585678 -0.07606523 0.06536607
0.19586991 -0.20173366 0.17199253 0.13160795 0.20995061 0.061994907 -0.12929066 -0.050514366
-0.29467678 -0.13239905 0.32376355 0.04950096 -0.04646571 0.28135315 -0.18104345 0.09271025
-0.23692706 -0.17835382 -0.28005514 -0.24110438 -0.37783942 0.46233946 0.14028229 0.026246294
0.11099316 -0.05016481 0.1269436 -0.10704498 -0.16097695 0.09735961 0.4336473 -0.1306072
0.24229145 -0.12694895 -0.23330207 -0.1826783 -0.28398713 0.027547369 0.04217086 -0.26476753
-0.14059322 0.30125102 0.12410716 0.1702032 0.17236945 -0.01546789 0.19590689 -0.2268953
-0.2308221 0.15611415 0.23372926 0.356357 -0.013248516 0.11762212 0.0076248185 0.07746272
-0.25624323 0.19338927 -0.16819485 -0.20321095 -0.0908714 -0.0077486867 0.1677801 0.23824713
0.14507915 -0.17518303 0.012838206 -0.0483032 0.021109724 0.20959716 0.099454425 -0.14447416
0.07407672 -0.101647526 0.09936619 -0.07658916 -0.12847593 -0.13578159 0.06679884 -0.2289066
-0.16096431 -0.038873192 0.053583406 0.24730004 0.044559408 0.09036656 -0.19228059 -0.26094258
-0.017464211 0.49835512 -0.04330311 -0.011218934 0.20432296 0.2337491 0.01874779 0.1366279
-0.082624674 0.038341213 0.11474982 -0.21016051 -0.25622103 0.09883584 -0.15760015 -0.0402094
0.088378236 -0.27833936 -0.016181922 0.14120845 0.06648165 0.2349446 -0.070945375 -0.18972099
-0.18621874 0.027738733 0.07620478 -0.03642992 -0.28492913 -0.105660945 0.07753131 -0.055666752
-0.14739913 -0.053825226 0.19350176 0.32596794 0.21286881 0.0054822634 -0.077744134 -0.25838608
-0.15923645 0.34711173 0.16930783 0.38535795 0.44258216 -0.10448474 -0.035767235 -0.16070625
0.26389155 -0.13147973 -0.05586107 -0.008997373 -0.20754683 -0.0990609 0.05787958 0.49195352
-0.097604476 0.19169551 -0.113999434 0.14357387 -0.10229297 0.07787359 0.06749612 -0.14051218
-0.041610166 -0.051738672 -0.009260841 0.10545792 0.050537013 0.09297185 0.12068966 -0.06319616
-0.09024285 0.13285685 -0.044210862 0.23181073 0.08385353 -0.062697805 -0.21902758 -0.15265974
-0.14187 0.14003964 0.38125336 -0.0016982463 0.028519467 0.19771884 0.09543481 0.025371904

encoder.lstm.bias_ih_l0 f4 [80]
00000000: 4cdd 083e 3984 113d b553 8d3d 4880 dfbd
00000010: aeaa 89bd 6d8a a83c ec1f aabd ad75 0bbd
00000020: 80cc 9e3e 2d3f 20bd 10d5 1a3e d8d2 833e
00000030: 0ff1 a53d df40 013e 67ab 58bd 9511 6e3e
00000040: 19da 873e 8a6e ad3e b5b2 ba3e 0c4c 8e3e
00000050: 5f18 6c3e 7d30 b83e fd67 6e3e 1db5 833e
00000060: 8bd9 6a3e d808 1dbd 99ee 173d 88de 36bd
00000070: 1ea3 743e 2cdc a1bd 1018 ae3e 1bbe 323d
00000080: 97f1 323e 373a 223e ab5b bb3d 3efe 403e
00000090: 78ea ac3e a09a a43d 867a 5a3e 4988 0a3e
000000a0: 2686 14be 9e3a 7fbd 25b6 693e 29e1 9e3d
000000b0: cab4 733e f9aa c53d 9d0b 50be cc52 5cbe
000000c0: 100c 8bbe 4304 953d d540 e83d be2c 2c3e
000000d0: cb5f 953e 3774 d93d 6395 87bd 8a89 0abe
000000e0: d25d e3bd d96c 57bd 71c9 7ebe a233 98be
000000f0: be57 963e 1ed9 0d3e a201 bf3e 7368 b03d
00000100: d33e 163c e777 74bc f04c a53e 40fd d23d
00000110: ccfe dd3e 87b8 593d 4c05 d73d 9ec8 273e
00000120: 9548 293e 6fc6 a33e 4cb8 af3d 940a 093d
00000130: def5 883d b978 733e 5c7e 163e 9d2d 5e3e
0.13365668 0.035526488 0.069007315 -0.109131396 -0.06722008 0.020573819 -0.0830687 -0.03404777
0.31015396 -0.03912275 0.1512034 0.257468 0.08102619 0.12622403 -0.052897837 0.23248895
0.26533583 0.33873397 0.36464468 0.27792394 0.23056172 0.35974494 0.23281856 0.25724116
0.22934549 -0.038338512 0.03709278 -0.044645816 0.2389035 -0.079033226 0.34002733 0.04363833
0.17474972 0.1584252 0.09148344 0.18846986 0.33772635 0.08037305 0.21335801 0.13528551
-0.14504299 -0.06231176 0.22823389 0.0775779 0.23799434 0.09651751 -0.2031693 -0.2151596
-0.2715764 0.072762035 0.11340491 0.16813943 0.29174647 0.10617869 -0.0662029 -0.1352903
-0.11101879 -0.05259404 -0.24881531 -0.29726893 0.29363817 0.13852355 0.37305933 0.08613672
0.009170252 -0.014921165 0.3228526 0.1030221 0.43358457 0.053154495 0.10499057 0.16385123
0.16531594 0.3198733 0.08580074 0.033457354 0.066875204 0.23776521 0.1469664 0.21697088

encoder.lstm.bias_hh_l0 f4 [80]
00000000: 5e21 6a3e 5bca d73d 7346 623e 5fef 883d
00000010: 519d 6b3d 695e e0bd 6dfc 893e ba8e 813e
00000020: 6bf5 ce3e 1b28 093e 9ef5 b63d 1ed6 8abc
00000030: d57d ac3c 7b59 ab3e 805a 463e e07c 853c
00000040: 93b1 5f3e 5efe 803e 09bc 833e 34b8 713e
00000050: 6a7c 9b3e e428 4a3e 8e6d 8a3e 8a26 af3e
00000060: d600 2abb 72f8 ba3e 8b5a c93e c20d 8e3b
00000070: 6ff2 a63d 5b92 1ebe f5a3 2a3e 2497 f9bc
00000080: 1b74 1c3e 29a7 85bc 5e46 9ebd 8152 963e
00000090: 2456 993e 066d 473e 32d6 613e 37f1 5c3e
000000a0: 264a 763d ed42 3dbe 9680 9fbd 5291 273e
000000b0: fbfa 93bd 3963 4a3c 4af0 583d 6228 7ebd
000000c0: fb1a f73c 0180 143e ec9b 7e3e 05c1 483e
000000d0: be01 053e 31dc 2ebe 76f7 073d 1a99 563d
000000e0: 407e 8cbc c0ea f3bd 19af 32be a7c8 92be
000000f0: 52da c53e e31a 5f3d 6c92 bf3c 2967 f23d
00000100: 7a9a 923c 53b8 113d 3f7b a53e 7582 9e3e
00000110: 9055 6f3e a993 b6bd 8869 953e d74f a93e
00000120: e4f5 61bd 0d78 b23e fa7a 843e bfc3 aa3e
00000130: c18b 973d 88c7 253d 1d0d ca3e d414 ef3d
0.22864291 0.10536643 0.22097187 0.066862814 0.057523075 -0.10955507 0.26950398 0.25304204
0.40421614 0.13394205 0.089335665 -0.016947802 0.021056095 0.33466706 0.1937046 0.016294897
0.21845083 0.25194067 0.25729397 0.23605424 0.30368358 0.19742161 0.2703671 0.3420909
-0.002594044 0.36517674 0.3932689 0.004335136 0.08151709 -0.15485518 0.16664107 -0.030467577
0.15278666 -0.01631506 -0.07728265 0.2935982 0.29948533 0.19475183 0.22054365 0.21576391
0.060129307 -0.18482561 -0.07788198 0.16364029 -0.07225605 0.012352758 0.052963533 -0.06205023
0.030164232 0.14501955 0.24864167 0.19604881 0.12988946 -0.17076184 0.03319498 0.052392103
-0.017150044 -0.119100094 -0.17449607 -0.2866871 0.38643128 0.054469 0.02338525 0.118360825
0.017895926 0.035576176 0.32320592 0.30958906 0.23372483 -0.08914883 0.29182076 0.33068725
-0.05516614 0.34857216 0.25875074 0.33352467 0.07399703 0.04047349 0.3946313 0.116738945

encoder.lstm.weight_ih_l0_reverse f4 [80, 3]
00000000: 81e7 0e3d 1b38 08bd a04c 27bd c8ef 673d
00000010: e7ac 213e 9f6f 98bd de04 d4bd 8380 39be
00000020: 671d 84bb 135f c5bd 9a3f f6bd ff88 933d
00000030: 8d00 2c3e 51c7 74be 855a 11be 5bb6 49be
00000040: 1880 92be 7c38 07be 0f36 d33d d954 80bd
00000050: 5fca 20be 0789 9a3e e87d 243d 4fcd f43d
00000060: 9b02 9abe 9a4e 723c 548e 1ebe 8cbc 9b3d
00000070: c97a 8bbc c150 33be d785 9a3d 9d9b aa3e
00000080: 7c4d c03d 7a03 02be bfe6 f2bd 07b1 a73a
00000090: d772 31be c3b2 0abe c73e 2a3e 0698 6abe
000000a0: 8204 0b3d 795a 3fbd f589 fdbd 6f64 5dbd
000000b0: b82c febb 9cae c63d ffab 64be fe78 633e
000000c0: 2fcc 6fbe f0d5 bab8 1469 113e ce74 97be
000000d0: 4056 9d3c 3b41 ddbd b314 54be 200e ab3d
000000e0: da3d 3cbe 7284 2f3d 5b3c 94bd f50a 083e
000000f0: 7226 c3bd c1e8 61ba 9678 823e 0e0c b5bd
00000100: 2678 24be 083b 53bd bec2 883c dc35 803d
00000110: 4fc7 0a3e 9cbc 0c3e 85d0 6a3e 133c 06be
00000120: d9e2 10be b554 11be cd2c fbbd 8755 64be
00000130: fb0d 96bb 3227 7abc 54cd cf3d 9a44 d13c
00000140: ebbf 253e c43c 973e 1bf4 e23c 8d49 123c
00000150: f072 b4bd 43b6 00be 158f c73d 6578 8f3c
00000160: d239 64bd eeb3 1a3e 2fb9 333e c823 913e
00000170: 4680 243d 517a 25be a796 85bd 5783 463e
00000180: b1a0 0dbe 64b1 143e d6bd 4d3d ee77 cd3c
00000190: e5e2 693e 1514 7fbe d51e fe3c db92 5dbe
000001a0: 7cb1 06be 6eea 2b3e ff23 00be 4fab 8b3d
000001b0: 27b7 a03e 22ac bd3d 978d 40bd 2dfe b1bd
000001c0: c427 07be a6c9 c13d 8796 72be a4a3 9ebd
000001d0: 59bf 313d f1d6 9c3e 92cb 883e 7fed 533e
000001e0: 2cef 6c3e 95d7 7e3e 2c19 bf3d e109 22be
000001f0: ad8b 28be 63a3 90be 6590 963a b1bb 1e3e
00000200: af24 4d3e c6ef 1bbe bd82 29be 3422 8cbe
00000210: 7742 643d 84bf 5d3e d74b 543e e791 633d
00000220: 1073 88be 9a15 61bd ca93 063e 3047 f63d
00000230: 50ef fc3d cb72 9f3e 9246 04be f398 5bbd
00000240: 2436 3bbc 736b 7bbe 8257 f9bc ea30 263e
00000250: eb00 6f3e 75e0 f0bd ef4f a5bd 5933 ae3b
00000260: 0c2a bebd 1a37 a8bd 684f 113e ab1d 153e
00000270: 1acb 703e d721 5b3d ed12 c4bd 6916 083e
00000280: 1e6f d13d 38c3 113d 384a d8bd 9a37 6c3d
00000290: d1c0 48be 5036 15be 755a 8dbe 8439 343c
000002a0: 8740 043e a2a2 283e 16c0 143e 5f2a 753a
000002b0: b695 433e 3442 b8bc f679 6cbd 5b5e ac3d
000002c0: 004d 89be c73b 2abd df0f 5abe be72 4dbe
000002d0: 01d3 963d c7f3 9e3e cdd4 8c3d 9571 023d
000002e0: 4847 08bd a790 263e b215 8b3c 0990 663e
000002f0: cabe 21bd 0dd3 cc3d 13e0 8f3d 4c3d 2ebe
00000300: 7946 28be 93dc 8ebe ff6e 0dbe 047b 39be
00000310: 33fb c4be 6bf5 0ebb 92ac 2dbe 705e 30be
00000320: 3f5a ad3d 711e 933e 2674 85ba bc6c 503e
00000330: 7be0 1cbe 651d 4fbe 9783 cfbd 1e04 f8bc
00000340: c26f bf3d 1a60 0cbe f537 153c 170d d83e
00000350: b2a5 3a3e 4064 283c 2605 743d 355d bdbe
00000360: 3913 f93c e1b0 413d 2904 233e 0547 89be
00000370: d7cd cfbd 4f31 e0bd 4c12 1dbe 39e5 00be
00000380: 82c2 36be 185e 9a3d f2e5 f73d 909e 243e
00000390: 7c4e 943e 4c08 bdbd cb13 2039 6e00 9cbe
000003a0: 468a 6abc 4b30 babc d184 72be daeb 97be
000003b0: fd6a a4be 398b bb3e c131 f63c c162 773e
0.034888748 -0.03325663 -0.04084456 0.056625158 0.15788613 -0.07443165 -0.10352491 -0.1811543
-0.0040318253 -0.096372746 -0.1202385 0.07203864 0.16797085 -0.23904158 -0.14194687 -0.1969847
-0.28613353 -0.13205141 0.10313045 -0.062661834 -0.15702198 0.3018267 0.040159136 0.11953222
-0.30080113 0.014789248 -0.15483981 0.07604322 -0.017026322 -0.17511274 0.07545059 0.3332185
0.09389779 -0.12696639 -0.118604176 0.0012793847 -0.17328964 -0.13544755 0.1662551 -0.22909555
0.033939846 -0.04671714 -0.12379829 -0.05405086 -0.0077567957 0.09701273 -0.22331236 0.22214124
-0.23417734 -8.90902e-05 0.1420024 -0.29581302 0.019206166 -0.10803457 -0.20711021 0.083523035
-0.1838297 0.04285092 -0.072380744 0.1328543 -0.09528817 -0.0008617752 0.25482625 -0.0884019
-0.16061458 -0.05156997 0.016694423 0.06260273 0.13552593 0.13743824 0.22931106 -0.13108854
-0.14149036 -0.1419247 -0.122644044 -0.22298251 -0.0045793033 -0.015268134 0.10146585 0.025545407
0.16186492 0.29538548 0.02770429 0.008928669 -0.08810985 -0.12569527 0.097440876 0.017513463
-0.055719204 0.151077 0.1755111 0.2834761 0.040161394 -0.16159941 -0.06522875 0.1938604
-0.1383083 0.14520794 0.05022987 0.025081601 0.2284046 -0.24910004 0.031020561 -0.21638052
-0.13153642 0.16788647 -0.12513731 0.06819784 0.31389734 0.09261347 -0.04701003 -0.08691058
-0.13198763 0.094622895 -0.23690234 -0.07746056 0.043395374 0.30632737 0.26717812 0.20696066
0.23138112 0.24886926 0.09330973 -0.15824081 -0.16459532 -0.28249654 0.0011487125 0.15501286
0.20033525 -0.15228185 -0.16553779 -0.27369845 0.05572745 0.21655089 0.20732056 0.055559065
-0.26650286 -0.05495224 0.13142315 0.12025297 0.12350333 0.31142268 -0.12917545 -0.05361266
-0.011426482 -0.24552707 -0.030437235 0.16229597 0.23340194 -0.11761562 -0.08071887 0.0053161797
-0.092853636 -0.08213635 0.14190447 0.14562099 0.23514977 0.05349907 -0.09573922 0.13289799
0.10226272 0.035586566 -0.10561031 0.057670213 -0.19604804 -0.145715 -0.27608076 0.011000041
0.1291524 0.1646829 0.145264 0.0009352322 0.19100079 -0.022492506 -0.0577335 0.084164344
-0.2681656 -0.041560914 -0.21295117 -0.20063302 0.073644646 0.31045362 0.06876526 0.0318466
-0.033271104 0.16266118 0.016978119 0.22515883 -0.03948859 0.10001192 0.07025161 -0.1701557
-0.16433133 -0.2790266 -0.13811873 -0.18113333 -0.384729 -0.002181376 -0.16960362 -0.17223525
0.08464479 0.28734162 -0.001018171 0.20353979 -0.15320008 -0.20226057 -0.10132521 -0.0302754
0.09347488 -0.13708535 0.0091075795 0.42197487 0.1822727 0.010277808 0.059575222 -0.36985174
0.030404674 0.047287825 0.15919556 -0.26811996 -0.10146683 -0.10946905 -0.15339011 -0.12587442
-0.17847636 0.07537478 0.121044055 0.16076112 0.2896613 -0.09230098 0.00015266163 -0.30469078
-0.0143151935 -0.022728106 -0.23683478 -0.29672128 -0.32112876 0.36629656 0.030053021 0.24158765

encoder.lstm.weight_hh_l0_reverse f4 [80, 20]
00000000: 8e6f 76bd 8172 abbd 98ae 843e 6db4 7c3d
00000010: fc8e 0c3e 72b4 de3e 9c42 263d 9fda 203e
00000020: af31 da3d 348a 313d 497a 80be ffc2 4dbe
00000030: d145 75be baba febc 92ee 553e 2dca 053e
00000040: 7257 743d e628 70be 6d6b 0a3e 6a4d 86be
00000050: bbf1 34bd fc7b 3a3e 4f65 0e3e bcae 4abe
00000060: 4f59 41be 96c3 bd3d ed19 463e 64a2 d63d
00000070: 01da d63e fdb1 3abd ce70 0dbe 2145 6b3c
00000080: f0c7 87bc 3e1f 593b db96 143e 7115 e23d
00000090: 2250 273e 46c6 0fbe ee1e c53e aacd 74bd
000000a0: 17a9 a5bd a395 e4bd 5d7b 23be 091b b5bd
000000b0: 690a 8bbe da06 f2bc bf58 bd3c 1401 713d
000000c0: cd4d 193d 7e41 df3d cd26 8abe 5886 7abe
000000d0: 8117 a23c 7c19 5ebe 14d0 e23d 68b5 76be
000000e0: 0c83 743e ea1a a3bd 6e69 913e 5d47 85bd
000000f0: e510 6f3e 21e6 003e 5bb2 6f3d a960 5ebe
00000100: ad2b 0e3d 90eb af3e 8b71 b93d e455 853d
00000110: 550c 313d 218e 57bd bb9d 73be 48d0 abbe
00000120: 5182 1abd 858a 9fbe b935 a8bd 100a c2be
00000130: 8afb d63d d06a 9dbe 50f1 7c3e b857 80bd
00000140: 5d7f b43e df9c 3ebe a4a1 e23d a9fe fbbd
00000150: 2495 69be 0795 f0bd 3cc3 9b3d 33cb 103e
00000160: 49d8 643e a9f1 bdbc 2e3e 8fbe bbf9 67be
00000170: c4f2 ad3d 8b98 8bbe 966d 693e 0509 31be
00000180: ec2a 0e3d a380 953d 87ac e93d 7f97 9a3b
00000190: 8583 7f3e 2a90 c7bd c88c 28be 6839 b1bd
000001a0: 1206 09bb 9b42 523e aef5 dcbd 92b0 b63e
000001b0: e2f7 1fbd c90e 543d 8d12 96be d318 eb3d
000001c0: f6ab 6b3e 8575 333e 6eca 1d3e 34d4 01bd
000001d0: 4388 c0bd aa0d 393e 149b 263e c2a1 bbbc
000001e0: df56 9d3e a971 04be 3e74 b0bd b45c 803d
000001f0: 2ec5 003c bc2c 9c3e 9819 6bbd 974a 843d
00000200: 5b8f 8c3e 6653 dd3c abf4 a73c e036 8dbe
00000210: 8981 34be 7553 99be dea5 b53d 2b4f 013e
00000220: 7e06 8c3c 3672 56be ee76 be3e 844e 8dbe
00000230: 8067 343c c2f1 a03d 8bb9 39be 238a 4bbe
00000240: 3f09 ce3d 4ba0 22bd 6613 ae3d 4435 083e
00000250: b497 553e 43ec 1ebe 74a9 303e feb7 95be
00000260: aec9 f8bb 8c8d 65bd e37e 0cbc e0bb 443b
00000270: 98b6 733d 3dcf 2abe cb0d 953e 6b91 4cbd
00000280: 4823 ca3e aa3b f3bd 9d81 76bc 368d 93be
00000290: 6270 17be 2f5b d1bd 7339 753e c84d 683e
000002a0: 144e 7a3e 24fb 0c3d b9b7 38be 6feb 0e3d
000002b0: 1862 a63e 9e48 cd3c 2e55 023e caeb 2fbe
000002c0: 8eae be3e 9dea 80be 437f 073e c2f5 71be
000002d0: bc67 67bd 0689 dbbd 55fc 8cbc a7f2 b2bc
000002e0: 355b 313d 7b68 c93e acc2 9bbd a259 5a3e
000002f0: 8ece 433e 4133 77bd 2842 ff3c c0fa a4be
00000300: abbd a73b 622e 27be 9e65 c73d ae75 53be
00000310: d32d 483e 6373 30bd ff72 a43e 0a3d 033e
00000320: 6640 d23c ba7c 6f3d 18d4 1d3e e8c6 6b3d
00000330: 4dda 89bd c66d a13d 3e7f c83d 4759 aabd
00000340: eae1 1d3e d9e1 b03d af58 90bd ee6e 423e
00000350: 15fb 003e ad93 153e 4417 c33d ce96 8d3d
00000360: a67d b2bd 4510 05bd 2aaa b03d 6538 943d
00000370: 5001 123e 546b f43d 5eb9 513d d4a2 ac3d
00000380: 84de 66be 1587 e93d e7e2 ec3d 5e25 39be
00000390: c80b ed3d 1f4e 82be bcf8 64bd 5292 f7bd
000003a0: 1d71 1fbe 0e50 2cbe 0091 a23e 4185 113e
000003b0: ec6f 5f3e 46e9 953d 3fd3 fc3c 490c 903d
000003c0: 4c14 493e 5274 433e 176e fc3c 6ca2 3fbe
000003d0: c432 b1be 2d79 8b3e 8ed9 40bd b08e 8e3d
000003e0: 46ae df3d 50dc 703e 7b1a 00be 187e d4bd
000003f0: aa0d 663e ce6e 09be 8e78 9cbd 4f1c 033e
-0.06016498 -0.08371449 0.25914454 0.061695505 0.13726419 0.43497044 0.040590867 0.15708397
0.10654008 0.04334469 -0.25093296 -0.20093916 -0.23952414 -0.031094898 0.20891789 0.13065405
0.059653707 -0.23453102 0.13517542 -0.26230937 -0.044175845 0.18211359 0.13905834 -0.19793218
-0.18881725 0.09265821 0.19345827 0.10480192 0.419632 -0.0455799 -0.13812563 0.014359743
-0.01657483 0.0033130194 0.14510672 0.11039246 0.16339162 -0.14040479 0.3850016 -0.05976645
-0.08088892 -0.111613534 -0.15965028 -0.08843047 -0.2715638 -0.029544283 0.023113606 0.05883892
0.037427712 0.109011635 -0.26982728 -0.2446531 0.019786598 -0.21689409 0.11074844 -0.24092638
0.23878115 -0.07964118 0.2840075 -0.06507752 0.23346289 0.12587787 0.058519702 -0.2171656
0.03470962 0.34359407 0.0905486 0.06510523 0.04322465 -0.05262578 -0.23790638 -0.33557343
-0.037721936 -0.3116037 -0.08213372 -0.37898302 0.10497196 -0.30745554 0.24701428 -0.06266731
0.3525342 -0.18614529 0.11065987 -0.12304432 -0.22810799 -0.11747175 0.076055974 0.14140014
0.22348131 -0.023186522 -0.27977127 -0.22653858 0.084935695 -0.2726482 0.2279571 -0.17288597
0.034708902 0.07299926 0.1140986 0.004717767 0.24952514 -0.09744294 -0.16459954 -0.086535275
-0.002090816 0.2053322 -0.10789047 0.35681587 -0.03905476 0.051771913 -0.29311028 0.11479344
0.23014817 0.17525299 0.15409252 -0.031696513 -0.0940099 0.18071619 0.16270095 -0.02290428
0.3073034 -0.12933983 -0.086159214 0.06267682 0.007859511 0.3050288 -0.057397455 0.064595394
0.27453122 0.027017307 0.020502409 -0.2758093 -0.17627539 -0.29946485 0.08869527 0.12627856
0.01709294 -0.20942006 0.3720011 -0.27598965 0.011011004 0.07858612 -0.18137185 -0.19876914
0.10060357 -0.03970365 0.08499794 0.13301569 0.20858651 -0.15519814 0.17252141 -0.29241937
-0.0075924015 -0.056043193 -0.008575174 0.0030019209 0.059500307 -0.16680618 0.29112086 -0.04994337
0.39480042 -0.118766144 -0.015045551 -0.28818673 -0.14788964 -0.1022247 0.23947696 0.22685921
0.24443847 0.034419194 -0.18038835 0.034892496 0.32496715 0.02505904 0.12727806 -0.1717979
0.3724255 -0.25178996 0.1323214 -0.23628905 -0.056495413 -0.107194945 -0.017210165 -0.021844221
0.043299872 0.39337525 -0.0760549 0.21323255 0.19121763 -0.060351614 0.031159475 -0.32222557
0.0051190457 -0.16326287 0.09736179 -0.2065036 0.1954873 -0.04307879 0.32118985 0.12816253
0.025665473 0.058468558 0.15412939 0.05756274 -0.06731091 0.07882266 0.097898945 -0.083178096
0.1541821 0.08636827 -0.07048165 0.18987629 0.1259578 0.14607115 0.09525922 0.06913529
-0.08715372 -0.03248622 0.08626206 0.07237319 0.14258313 0.11934534 0.05120217 0.084294945
-0.2254582 0.11402718 0.11566716 -0.1808066 0.11574513 -0.25450227 -0.055901274 -0.12088455
-0.15570493 -0.16827413 0.3175125 0.14210989 0.21820039 0.07319884 0.030862449 0.07033593
0.19636649 0.19087341 0.030814214 -0.18714303 -0.34609044 0.27240887 -0.047082476 0.06960809
0.10921912 0.23521543 -0.12510101 -0.10375613 0.2246615 -0.13421175 -0.076401815 0.12803768

encoder.lstm.bias_ih_l0_reverse f4 [80]
00000000: 276d 1cbd 4618 053d 24f0 613e 32bd 6ebc
00000010: a44a 9e3c 4c97 ecbc 5440 763e 2b12 2dbd
00000020: 14b3 1a3e 4046 a9bd 954f 6a3e 202e a33d
00000030: c6c1 843e 33cd 883e 25e7 9dbd 3147 55bd
00000040: 6d08 2f3e b333 163e cacc c03d b1b0 20bd
00000050: 47dd 403e 4147 e03d 1796 9f3d 386a ca3a
00000060: a93b 383e b2ba a8bb ee62 9ebc a2ec 103e
00000070: 5e95 0ebd 04d6 953e c52e a43c 1008 423d
00000080: c9c8 833e a8ae ae3e 36b6 e23d a63f 47bc
00000090: 192b af3e 0657 1b3e 441a 843e 66d8 3d3e
000000a0: ace5 8e3d 950a 3ebe dc76 2ebd f955 7e3e
000000b0: 8cc9 97bd 2318 a0bc a09c 88be f060 6cbc
000000c0: 49ee 143e e8db 99be 8474 58be 377e 90be
000000d0: e579 fabd 73fd a9be 3a71 f6bd 900e edbd
000000e0: 9dbb 863d 6829 6dbd 1ade 623e a0bd 203e
000000f0: cd16 3b3b 3422 ca3d a784 ef3d 75da 813e
00000100: f368 143d 5c33 9bbd 73bc 2f3e 7415 c43e
00000110: 69de 8b3d e9fb 5c3e e3ed 9e3d 7144 3c3e
00000120: 8681 d53e 3d75 803c 3766 923e 9ffd 883e
00000130: 1086 263d 7823 393d bae6 80bd 60a7 043d
-0.038190033 0.032493852 0.22064263 -0.014571475 0.0193227 -0.028880738 0.24047977 -0.042253654
0.15107375 -0.08265352 0.2288192 0.07967782 0.25929087 0.26719055 -0.07710103 -0.052069847
0.17093058 0.14668159 0.094140604 -0.039231006 0.1883441 0.109510906 0.07792299 0.0015443033
0.17991509 -0.005149209 -0.019334283 0.14152768 -0.034810416 0.29264843 0.020041833 0.04737097
0.25739124 0.34117627 0.1106991 -0.012161171 0.34212568 0.15169916 0.2580129 0.1853958
0.069774 -0.18558724 -0.042593822 0.24837483 -0.07411489 -0.01954276 -0.26681995 -0.014427409
0.14544024 -0.30050588 -0.21138197 -0.28221294 -0.12230281 -0.3320118 -0.12033315 -0.11575043
0.06578753 -0.057900816 0.22155038 0.15697336 0.0028547526 0.09869805 0.11695223 0.25361982
0.0362329 -0.075781554 0.17161731 0.38297617 0.06829531 0.21580471 0.07760217 0.18385483
0.4170038 0.015680904 0.2859361 0.26755998 0.040655196 0.04519984 -0.062940076 0.032386184

encoder.lstm.bias_hh_l0_reverse f4 [80]
00000000: 5087 943c fded a23e 8af2 403e bd38 a53e
00000010: cad0 a33e 1cc6 7d3b 0127 773d 1a0b 0bbe
00000020: 0660 063e 8218 543e 1d8a 4e3e f5dc 683d
00000030: 5409 a13e 1478 913c fb2a a03e e538 a53e
00000040: 39ae 983c 4729 953d 5ef8 8c3e 2fc3 1a3e
00000050: 8bf0 88bd 0275 8f3e b30b 4a3e 379c d0bc
00000060: 5a4f 8e3e c5e8 963e e153 853e 4f06 ac3d
00000070: 0f8a 7fbd 96e0 4b3e 4c9e b33d 84c1 913e
00000080: 19a1 dc3c 17ad 213e f75d d7bd 5b46 853e
00000090: 08c3 ac3e 6859 f73d 709b 213e cfa0 813e
000000a0: f980 2a3e ea2b 49be f0b1 1cbe 4581 383d
000000b0: 9067 d5bd c4a4 eb3d 3cc6 90be 831a 933b
000000c0: 4584 dbbd 5255 973c 6625 2d3e b296 cfbd
000000d0: 97b7 013e 21f5 19be ffd2 673e 4d78 11be
000000e0: ef36 26be 84ed 3a3c 7445 4c3e de1f 063d
000000f0: 207f 643d b35f 023e 37f5 c93e f883 cf3e
00000100: 465d ed3d a388 12bd 1fb3 5d3d 76af 9b3e
00000110: 97f8 9e3e c0b9 153e c65c 3e3d e3f7 2ebd
00000120: ed85 a73e 0aa7 a33e 2f6b 923c 2b8c b63d
00000130: df68 923e 4175 ab3c e8aa fe3d 086d a33e
0.018130928 0.31822196 0.18842521 0.3226985 0.3199523 0.0038722819 0.06033993 -0.13578454
0.13122568 0.20712474 0.20169874 0.056851346 0.3145243 0.017757453 0.31282791 0.3226997
0.018637763 0.07283264 0.2753324 0.15113519 -0.06686505 0.28018957 0.19731025 -0.025465114
0.27794915 0.29474464 0.26040557 0.08399641 -0.062387522 0.19909891 0.08770427 0.28467953
0.026932286 0.15788685 -0.10515969 0.2603024 0.33742547 0.120776 0.15781951 0.25318
0.16650762 -0.19645658 -0.15302253 0.045045156 -0.104201436 0.11506036 -0.2827624 0.0044892444
-0.10718588 0.018473301 0.16908798 -0.10136165 0.1266769 -0.15034916 0.22639082 -0.14206047
-0.16231893 0.011409167 0.1994837 0.032745235 0.0557853 0.12731819 0.39444897 0.40530372
0.11590056 -0.03577484 0.0541259 0.30407304 0.31049034 0.14621639 0.046475194 -0.042716872
0.32719365 0.31963378 0.017873375 0.08913454 0.28595635 0.020929934 0.124349415 0.31919122

decoder.lstm.weight_ih_l0 f4 [160, 40]
00000000: 5c34 c63d b761 223e 6699 67b9 7e10 23bd
00000010: 4315 153e b420 143e 89d2 0dbe 1a57 c2bd
00000020: a01f 6d3e f127 243e e04e a5bd 0626 0f3d
00000030: d74b 163e 5a3b fbbd 2845 b5bd 2914 1abe
00000040: f40c 17bd ecc0 b33d 0b16 3b3e b165 ed3d
00000050: 28c8 20bd b54c 123e 820f bb3d f180 c5bd
00000060: 2c31 16be 7a8d 243e e6ac 9c3c bb17 29be
00000070: 46a6 653e 451c c6bd ced3 1dbe d230 a43b
00000080: a6da 113d 0ad7 c5bd 6834 9e3d 780f b6bd
00000090: 1fd7 573e c318 00be 13d0 c73c 1510 fdbd
000000a0: 1c8e 05be 5d7c 7f3e 92fa 24bd 4a39 523e
000000b0: 1685 7d3e a51f 8fbd a374 183e bc10 70be
000000c0: cf03 6abe b635 e63d 7a8f 983d e825 363e
000000d0: 12c9 493e 2c30 e93b 5af6 b53c 18fb 8b3e
000000e0: 278e 72bc a6ec 62bb 9799 04bd 5467 64be
000000f0: f3a3 9b3d 17f3 413e dd97 1abe 7fd1 223e
00000100: 4253 efbd 85af 043e 00d3 0a3e 34d6 773e
00000110: a441 4cbe f23e 0f3e f235 fdbe 6f1f 2fbe
00000120: c55b 543e be01 103e 14fd ac3d e6bc 9dbd
00000130: eb4a fabd 1f0e 7a3e 77f8 ec3d 158d 1c3d
00000140: b051 563a c2f5 de3d b421 ae3c 045a 6a3e
00000150: df8c 993d 4968 89bc da08 e73c 50dd 8cbe
00000160: d053 2dbe 0c5f 413d a45e 993e 3ddd 333e
00000170: 1e49 9f3e ef74 333e e390 a3be 99c5 1e3e
00000180: 4596 97bd 9eb5 7fbe 8595 babe c6d8 42be
00000190: 8205 0e3e c2b8 a8bd e5ff b93d 30e9 08bd
000001a0: e9b2 8bbc 8670 4a3e 7a64 833c af06 523c
000001b0: 93b4 0a3d 1fe0 08be 6218 a6bd 2c08 c83c
000001c0: 01d0 2a3e 92e7 e1bd 04cd ee3c cfad 6c3c
000001d0: 387a 30bd a092 febd f4a8 813e 34b5 eabc
000001e0: 8e6d 0ebe 65db 983e dad1 113e 539f 153e
000001f0: e245 ec3e 2f80 1a3e 3087 c9bc 9af7 ddbe
00000200: 6f8f 0ebe 8ae9 253e 05ff f33d 1bdd 8c3e
00000210: 2e9d 0f3f ee8d 953d 165d 84be e8aa ab3d
00000220: d3a0 cf3d 3604 ddbc 5833 78be dd3e a4be
00000230: 0488 4c3e 9a0b bfbd 77b5 2cbe 7840 f63c
00000240: ed0e 3fbe 799a 573e 006a 61be e9cb e6bb
00000250: 34d3 893d f8e8 83bd 3bdd d5be ffa9 4abe
00000260: c2ad 3c3d 941f 99be 10cf dd3d 8f17 5fbe
00000270: 7b48 11be d570 32bd 7977 fe3d 5c7d 6fbe
00000280: ce95 cb3d 189b 873e 28ce c33d 99cf 053e
00000290: cf98 1e3e 5cfa 273d 9b6b 383e 4dd6 b43d
000002a0: 18cb fdbc 1a1b 76bd bbcf 863d f334 4fbd
000002b0: d72c ce3d 10af edbd 6370 31be f385 e13b
000002c0: 08e8 19be d0a2 f23d cea2 4e3d cad3 a1bd
000002d0: 4d73 413d 9ae1 153e 2201 0f3e 7bf3 ecbb
000002e0: 5157 273e 2c15 163c 2f4e a63d ebda 2d3d
000002f0: 4b16 07bd 4ee8 edbc 4055 83be 3a87 af3d
00000300: df7a f3bc 3674 353d f309 b3bc eb07 8b3c
00000310: 4e1b ac3d 69ce 51be 22bd d2bd 10f7 9dbe
00000320: b0bd 023e b085 62bd 833d b9bd a634 003e
00000330: 1283 7e3e d665 79bd 2b71 8bbd 7f4d b2bc
00000340: b150 733e d881 b53d 5d44 d3bd 3db0 6d3c
00000350: 1a9d 563d 37d5 82bd 5852 4f3d eea8 8f3d
00000360: 82c4 90be 0e3b 07be 4f50 e13d 22e3 6e3d
00000370: 1353 aabd e237 a03d cb1d f5bc 0ca5 33be
00000380: abf6 eb3d 599a fbbc 1988 a2bc d2e9 77bd
00000390: a260 613e 04ca fdbd 6c78 cc3d 2d67 97bc
000003a0: e116 9b3c 5d90 beba a1f0 1e3e 2446 99bd
000003b0: fa5b 5bbc 2168 b73d 9b66 27bb b821 1bbe
000003c0: ec76 093c 99a3 533e aad8 983d 4845 dc3d
000003d0: bb26 adbd a0b9 8b3c 539c 8fbd 10ce a53d
000003e0: a65e 0a3d 779b 993d 260d 213e 3e50 133e
000003f0: 61fb 853c 24bb da3d 7b60 b6bd e58b a3bd
0.096779555 0.15857588 -0.00022087022 -0.03981065 0.14558892 0.144656 -0.13849844 -0.094892696
0.23156595 0.16030861 -0.08071685 0.03494837 0.14677368 -0.1226718 -0.08851081 -0.15046753
-0.036877587 0.08777031 0.18270127 0.11591662 -0.039253384 0.14287074 0.09133817 -0.09643734
-0.14667195 0.16069594 0.019125413 -0.16512959 0.2242671 -0.09673361 -0.15412828 0.0050107026
0.03560891 -0.09660156 0.077248394 -0.08889669 0.21078156 -0.12509446 0.02439121 -0.12356583
-0.13042492 0.24949785 -0.040278025 0.20529667 0.247578 -0.069884576 0.14888243 -0.23443884
-0.22853015 0.11240713 0.07449241 0.17787898 0.19705608 0.0071163382 0.022212196 0.27340007
-0.0148044 -0.0034625917 -0.032373037 -0.22305042 0.0759963 0.18940388 -0.15096994 0.15900229
-0.11685802 0.1295758 0.13557053 0.24202806 -0.19946915 0.13988855 -0.4945522 -0.17101835
0.20738132 0.14063165 0.08446708 -0.07702045 -0.12221321 0.2441945 0.115708284 0.038220484
0.00081756245 0.10886718 0.021256305 0.228859 0.07497572 -0.01677336 0.028202463 -0.27512598
-0.16926503 0.047209784 0.29955018 0.17564864 0.3111047 0.17525075 -0.31946477 0.15505065
-0.074017085 -0.24971625 -0.364422 -0.19028005 0.13869289 -0.08238365 0.09082011 -0.03342551
-0.017053084 0.19769487 0.016039122 0.012818976 0.033863615 -0.13366745 -0.081101194 0.02441796
0.1668091 -0.11030497 0.029150493 0.014445736 -0.043085307 -0.1243031 0.25324214 -0.028650858
-0.1390898 0.29854885 0.14240208 0.14611559 0.46147066 0.1508796 -0.024600595 -0.43352968
-0.13921903 0.1620237 0.119138755 0.2751244 0.5609921 0.073024616 -0.2585227 0.08382207
0.10138097 -0.026979547 -0.24238336 -0.3207921 0.19973761 -0.09328385 -0.16866098 0.030060038
-0.18658037 0.2105502 -0.22013092 -0.007043351 0.06729737 -0.0644092 -0.41770348 -0.19791411
0.046064146 -0.29906905 0.1083051 -0.2178633 -0.14187805 -0.043564636 0.12425131 -0.23387665
0.09940682 0.26485515 0.095608056 0.13067473 0.1548798 0.041010246 0.18009798 0.08829937
-0.030980632 -0.06008444 0.0658259 -0.050587606 0.10067146 -0.11605656 -0.17328028 0.006882423
-0.15029919 0.1184746 0.05044823 -0.07901724 0.0472291 0.14636841 0.13965276 -0.0072311736
0.16341902 0.009160321 0.08120381 0.042445105 -0.032980245 -0.029041436 -0.25650978 0.08570714
-0.029721675 0.04430028 -0.02185533 0.016971549 0.084036455 -0.20488895 -0.102899805 -0.30852556
0.12767673 -0.055303276 -0.090449356 0.12520084 0.24854687 -0.060888134 -0.068086945 -0.021765469
0.2376125 0.08862656 -0.10315774 0.0145073505 0.052395917 -0.06388324 0.05061564 0.07014643
-0.28274924 -0.13206121 0.11001646 0.05832208 -0.083166264 0.07823159 -0.029921433 -0.17543429
0.115216576 -0.030713247 -0.019840287 -0.060525723 0.22009519 -0.12392047 0.09983906 -0.018481815
0.018931808 -0.0014538873 0.1552148 -0.074840814 -0.013388628 0.08955408 -0.0025543335 -0.15149581
0.00839017 0.20667876 0.074632004 0.10755402 -0.08454653 0.017056286 -0.07012238 0.08095944
0.03378167 0.07500356 0.15727672 0.14386079 0.016355218 0.106802255 -0.08905121 -0.07985667
