models/102-seed-100train_control-40-15/itr-0-nsc.pth.pth (torch, 433145 bytes, 24 tensors)

B f4 [400, 200]
000000 17 b7 d1 38 17 b7 d1 38 17 b7 d1 38 17 b7 d1 38
       1e-04 1e-04 1e-04 1e-04
000010 17 b7 d1 38 17 b7 d1 38 17 b7 d1 38 17 b7 d1 38
       1e-04 1e-04 1e-04 1e-04
000020 17 b7 d1 38 17 b7 d1 38 17 b7 d1 38 17 b7 d1 38
       1e-04 1e-04 1e-04 1e-04
000030 17 b7 d1 38 17 b7 d1 38 17 b7 d1 38 17 b7 d1 38
       1e-04 1e-04 1e-04 1e-04
000040 17 b7 d1 38 17 b7 d1 38 17 b7 d1 38 17 b7 d1 38
       1e-04 1e-04 1e-04 1e-04
000050 17 b7 d1 38 17 b7 d1 38 17 b7 d1 38 17 b7 d1 38
       1e-04 1e-04 1e-04 1e-04
000060 17 b7 d1 38 17 b7 d1 38 17 b7 d1 38 17 b7 d1 38
       1e-04 1e-04 1e-04 1e-04
000070 17 b7 d1 38 17 b7 d1 38 17 b7 d1 38 17 b7 d1 38
       1e-04 1e-04 1e-04 1e-04
000080 17 b7 d1 38 17 b7 d1 38 17 b7 d1 38 17 b7 d1 38
       1e-04 1e-04 1e-04 1e-04
000090 17 b7 d1 38 17 b7 d1 38 17 b7 d1 38 17 b7 d1 38
       1e-04 1e-04 1e-04 1e-04
0000a0 17 b7 d1 38 17 b7 d1 38 17 b7 d1 38 17 b7 d1 38
       1e-04 1e-04 1e-04 1e-04
0000b0 17 b7 d1 38 17 b7 d1 38 17 b7 d1 38 17 b7 d1 38
       1e-04 1e-04 1e-04 1e-04
0000c0 17 b7 d1 38 17 b7 d1 38 17 b7 d1 38 17 b7 d1 38
       1e-04 1e-04 1e-04 1e-04
0000d0 17 b7 d1 38 17 b7 d1 38 17 b7 d1 38 17 b7 d1 38
       1e-04 1e-04 1e-04 1e-04
0000e0 17 b7 d1 38 17 b7 d1 38 17 b7 d1 38 17 b7 d1 38
       1e-04 1e-04 1e-04 1e-04
0000f0 17 b7 d1 38 17 b7 d1 38 17 b7 d1 38 17 b7 d1 38
       1e-04 1e-04 1e-04 1e-04
000100 17 b7 d1 38 17 b7 d1 38 17 b7 d1 38 17 b7 d1 38
       1e-04 1e-04 1e-04 1e-04
000110 17 b7 d1 38 17 b7 d1 38 17 b7 d1 38 17 b7 d1 38
       1e-04 1e-04 1e-04 1e-04
000120 17 b7 d1 38 17 b7 d1 38 17 b7 d1 38 17 b7 d1 38
       1e-04 1e-04 1e-04 1e-04
000130 17 b7 d1 38 17 b7 d1 38 17 b7 d1 38 17 b7 d1 38
       1e-04 1e-04 1e-04 1e-04
000140 17 b7 d1 38 17 b7 d1 38 17 b7 d1 38 17 b7 d1 38
       1e-04 1e-04 1e-04 1e-04
000150 17 b7 d1 38 17 b7 d1 38 17 b7 d1 38 17 b7 d1 38
       1e-04 1e-04 1e-04 1e-04
000160 17 b7 d1 38 17 b7 d1 38 17 b7 d1 38 17 b7 d1 38
       1e-04 1e-04 1e-04 1e-04
000170 17 b7 d1 38 17 b7 d1 38 17 b7 d1 38 17 b7 d1 38
       1e-04 1e-04 1e-04 1e-04
000180 17 b7 d1 38 17 b7 d1 38 17 b7 d1 38 17 b7 d1 38
       1e-04 1e-04 1e-04 1e-04
000190 17 b7 d1 38 17 b7 d1 38 17 b7 d1 38 17 b7 d1 38
       1e-04 1e-04 1e-04 1e-04
0001a0 17 b7 d1 38 17 b7 d1 38 17 b7 d1 38 17 b7 d1 38
       1e-04 1e-04 1e-04 1e-04
0001b0 17 b7 d1 38 17 b7 d1 38 17 b7 d1 38 17 b7 d1 38
       1e-04 1e-04 1e-04 1e-04
0001c0 17 b7 d1 38 17 b7 d1 38 17 b7 d1 38 17 b7 d1 38
       1e-04 1e-04 1e-04 1e-04
0001d0 17 b7 d1 38 17 b7 d1 38 17 b7 d1 38 17 b7 d1 38
       1e-04 1e-04 1e-04 1e-04
0001e0 17 b7 d1 38 17 b7 d1 38 17 b7 d1 38 17 b7 d1 38
       1e-04 1e-04 1e-04 1e-04
0001f0 17 b7 d1 38 17 b7 d1 38 17 b7 d1 38 17 b7 d1 38
       1e-04 1e-04 1e-04 1e-04
000200 17 b7 d1 38 17 b7 d1 38 17 b7 d1 38 17 b7 d1 38
       1e-04 1e-04 1e-04 1e-04
000210 17 b7 d1 38 17 b7 d1 38 17 b7 d1 38 17 b7 d1 38
       1e-04 1e-04 1e-04 1e-04
000220 17 b7 d1 38 17 b7 d1 38 17 b7 d1 38 17 b7 d1 38
       1e-04 1e-04 1e-04 1e-04
000230 17 b7 d1 38 17 b7 d1 38 17 b7 d1 38 17 b7 d1 38
       1e-04 1e-04 1e-04 1e-04
000240 17 b7 d1 38 17 b7 d1 38 17 b7 d1 38 17 b7 d1 38
       1e-04 1e-04 1e-04 1e-04
000250 17 b7 d1 38 17 b7 d1 38 17 b7 d1 38 17 b7 d1 38
       1e-04 1e-04 1e-04 1e-04
000260 17 b7 d1 38 17 b7 d1 38 17 b7 d1 38 17 b7 d1 38
       1e-04 1e-04 1e-04 1e-04
000270 17 b7 d1 38 17 b7 d1 38 17 b7 d1 38 17 b7 d1 38
       1e-04 1e-04 1e-04 1e-04
000280 17 b7 d1 38 17 b7 d1 38 17 b7 d1 38 17 b7 d1 38
       1e-04 1e-04 1e-04 1e-04
000290 17 b7 d1 38 17 b7 d1 38 17 b7 d1 38 17 b7 d1 38
       1e-04 1e-04 1e-04 1e-04
0002a0 17 b7 d1 38 17 b7 d1 38 17 b7 d1 38 17 b7 d1 38
       1e-04 1e-04 1e-04 1e-04
0002b0 17 b7 d1 38 17 b7 d1 38 17 b7 d1 38 17 b7 d1 38
       1e-04 1e-04 1e-04 1e-04
0002c0 17 b7 d1 38 17 b7 d1 38 17 b7 d1 38 17 b7 d1 38
       1e-04 1e-04 1e-04 1e-04
0002d0 17 b7 d1 38 17 b7 d1 38 17 b7 d1 38 17 b7 d1 38
       1e-04 1e-04 1e-04 1e-04
0002e0 17 b7 d1 38 17 b7 d1 38 17 b7 d1 38 17 b7 d1 38
       1e-04 1e-04 1e-04 1e-04
0002f0 17 b7 d1 38 17 b7 d1 38 17 b7 d1 38 17 b7 d1 38
       1e-04 1e-04 1e-04 1e-04
000300 17 b7 d1 38 17 b7 d1 38 17 b7 d1 38 17 b7 d1 38
       1e-04 1e-04 1e-04 1e-04
000310 17 b7 d1 38 17 b7 d1 38 17 b7 d1 38 17 b7 d1 38
       1e-04 1e-04 1e-04 1e-04
000320 17 b7 d1 38 17 b7 d1 38 17 b7 d1 38 17 b7 d1 38
       1e-04 1e-04 1e-04 1e-04
000330 17 b7 d1 38 17 b7 d1 38 17 b7 d1 38 17 b7 d1 38
       1e-04 1e-04 1e-04 1e-04
000340 17 b7 d1 38 17 b7 d1 38 17 b7 d1 38 17 b7 d1 38
       1e-04 1e-04 1e-04 1e-04
000350 17 b7 d1 38 17 b7 d1 38 17 b7 d1 38 17 b7 d1 38
       1e-04 1e-04 1e-04 1e-04
000360 17 b7 d1 38 17 b7 d1 38 17 b7 d1 38 17 b7 d1 38
       1e-04 1e-04 1e-04 1e-04
000370 17 b7 d1 38 17 b7 d1 38 17 b7 d1 38 17 b7 d1 38
       1e-04 1e-04 1e-04 1e-04
000380 17 b7 d1 38 17 b7 d1 38 17 b7 d1 38 17 b7 d1 38
       1e-04 1e-04 1e-04 1e-04
000390 17 b7 d1 38 17 b7 d1 38 17 b7 d1 38 17 b7 d1 38
       1e-04 1e-04 1e-04 1e-04
0003a0 17 b7 d1 38 17 b7 d1 38 17 b7 d1 38 17 b7 d1 38
       1e-04 1e-04 1e-04 1e-04
0003b0 17 b7 d1 38 17 b7 d1 38 17 b7 d1 38 17 b7 d1 38
       1e-04 1e-04 1e-04 1e-04
0003c0 17 b7 d1 38 17 b7 d1 38 17 b7 d1 38 17 b7 d1 38
       1e-04 1e-04 1e-04 1e-04
0003d0 17 b7 d1 38 17 b7 d1 38 17 b7 d1 38 17 b7 d1 38
       1e-04 1e-04 1e-04 1e-04
0003e0 17 b7 d1 38 17 b7 d1 38 17 b7 d1 38 17 b7 d1 38
       1e-04 1e-04 1e-04 1e-04
0003f0 17 b7 d1 38 17 b7 d1 38 17 b7 d1 38 17 b7 d1 38
       1e-04 1e-04 1e-04 1e-04

encoder.attn_v f4 [40]
000000 23 b2 92 3f bb 8d 81 3f 2e ff 6f 3f ac 79 83 3f
       1.1460613 1.0121378 0.9374875 1.0271506
000010 4e 0e 80 3f 0a b0 8f 3f 88 1a 94 3f 7d dc 46 3f
       1.0004365 1.1225598 1.1570597 0.7768019
000020 f2 0f 9a 3f a5 97 68 3f cf a0 2d 3f b4 80 4c 3f
       1.2036116 0.9085639 0.678235 0.79883885
000030 40 ec 8f 3f 46 fb 53 3f c9 d7 82 3f d8 0c 90 3f
       1.1243973 0.8280529 1.0222102 1.125392
000040 c1 68 93 3f 91 c8 9e 3f 47 4a 94 3f dd ac 91 3f
       1.1516343 1.2404958 1.1585168 1.1380879
000050 77 77 98 3f 37 61 81 3f ef a2 9d 3f 22 b7 67 3f
       1.1911458 1.0107793 1.2315348 0.90513813
000060 f5 09 79 3f 40 6e 5a 3f e6 42 8f 3f 86 bc 67 3f
       0.9728082 0.8532448 1.1192291 0.9052204
000070 92 c8 64 3f 76 c3 81 3f 26 35 69 3f cc 8d 5d 3f
       0.89368546 1.0137775 0.91096723 0.8654449
000080 4b 88 5d 3f 77 83 85 3f f1 04 48 3f ab 27 93 3f
       0.8653609 1.0430745 0.7813254 1.1496481
000090 06 80 93 3f db 83 73 3f 52 ce 81 3f 81 56 61 3f
       1.1523445 0.9512307 1.0141089 0.8802262

encoder.grud.zl.weight f4 [40, 44]
000000 9b 4a 8e 3d 80 8c 00 be d2 88 db 3d 1f c0 83 3e
       0.069478236 -0.12553596 0.10719456 0.25732514
000010 8e e0 ae be e6 78 97 bd de d0 c0 be 30 df 3f 3e
       -0.34155697 -0.073961064 -0.37659353 0.18737483
000020 69 ef f7 3d 41 96 a4 bd 8c cb 36 be df 88 46 3e
       0.12106211 -0.08036471 -0.17851084 0.1938815
000030 60 06 cc bc b2 de a5 3e a0 e0 4a 3d 95 09 97 3d
       -0.024905384 0.32396466 0.049530625 0.073748745
000040 f6 13 07 3d 89 47 a5 3d 6b 82 53 3e 63 79 2c 3e
       0.03297802 0.08070285 0.2065522 0.1684318
000050 a5 9b bb 3d 71 a9 ba bb 1c 97 e5 bd 65 f2 5f be
       0.09160546 -0.0056964685 -0.112104625 -0.2186981
000060 6f 4a 07 3d 43 46 fb bd 65 d8 35 3d c7 0a cb bd
       0.03302997 -0.12269261 0.044395823 -0.09914165
000070 41 e4 82 be 27 cf 0b 3e bd b6 32 bd 18 9c 2f 3e
       -0.2556477 0.13653241 -0.043631304 0.17149389
000080 3f ca 82 3d 28 4d 86 be fd 9a 52 be 0b b8 3c be
       0.06386232 -0.2623074 -0.20566936 -0.18429582
000090 d6 5c 83 3e 21 47 5e 3e 25 b5 6a 3c 64 44 1a be
       0.25656766 0.21706821 0.014325415 -0.15065151
0000a0 5f 79 04 3e ff 49 ff bd 10 43 95 3e 2b 95 38 3e
       0.12936924 -0.124652855 0.29152727 0.18025653
0000b0 f7 2c a7 be 95 3b 2a 3d 3e 9a 3f be f0 1d 90 3e
       -0.32651493 0.041560728 -0.18711182 0.2814784
0000c0 f8 de 00 39 40 4f dd 3e 95 67 28 3e ac d5 89 be
       0.00012290094 0.43224525 0.16445763 -0.2692083
0000d0 3c 2b 5f 3e ff 4c bb 3d ec b9 03 3f 31 a7 16 be
       0.21793836 0.09145545 0.5145557 -0.14712216
0000e0 35 d2 58 3e 68 fb dd bd 8b b0 08 3e f7 da 4f be
       0.21173938 -0.108389676 0.13348596 -0.20298372
0000f0 1e e9 bd be d8 11 9d 3d 21 69 f6 3e e2 4c 41 be
       -0.37091917 0.07669419 0.48127082 -0.18876985
000100 80 f5 8f be cd 34 7a bc ff cd 85 3e ea 29 da 3e
       -0.2811699 -0.015271378 0.26133725 0.42610103
000110 73 e6 83 be 5f 60 db bd 26 45 66 bd 6f ad 69 3e
       -0.25761756 -0.10711741 -0.05621829 0.22820066
000120 de 03 96 3e 79 eb 28 be d7 4c 3b 3d b3 59 68 3e
       0.29299825 -0.16496076 0.045727577 0.22690468
000130 69 d6 eb 3d a6 2f ac 3d 95 fb da bd b7 05 80 3e
       0.11515505 0.08407526 -0.10692517 0.2500436
000140 ee 7c 3a be b6 24 61 be 90 e7 aa 3d c8 c0 2a 3e
       -0.1821172 -0.2198666 0.08344948 0.16675103
000150 a2 bc 8e 3e ea 83 97 bd 15 38 d7 be a4 da 34 be
       0.2787829 -0.073982075 -0.42034975 -0.1766153
000160 33 92 ed be 91 e3 33 be 83 5f b5 3d 10 3d 3c 3d
       -0.46400604 -0.17567278 0.08856108 0.04595667
000170 1b 36 8d 3c 8a 52 23 be d4 7a 82 bd d4 5c 59 3c
       0.017237714 -0.15949455 -0.06371084 0.013266761
000180 88 b6 11 3e f6 6e 10 be 9b 37 a4 bd 00 10 9e bd
       0.14229786 -0.14104828 -0.080184184 -0.077178955
000190 53 e9 9e be 36 d5 69 be 1c 42 35 3e e7 45 75 bd
       -0.31037387 -0.2283524 0.17701 -0.059881117
0001a0 09 42 8b 3d 58 b4 e2 bd 10 58 9c 3e 38 48 73 3e
       0.067997046 -0.11069554 0.30535936 0.23758018
0001b0 e7 4e 80 3e c1 84 e8 3c e2 27 18 3e f2 df f7 3d
       0.25060198 0.028383614 0.14858964 0.12103261
0001c0 b2 74 92 3e 67 b9 5b be 9e 02 50 3e f9 b0 86 bd
       0.28604656 -0.21457444 0.20313498 -0.065767236
0001d0 90 d3 94 3d 29 32 f1 3d 3a 68 e1 bd 2a af af 3d
       0.07266915 0.117771454 -0.11006208 0.08578332
0001e0 b4 21 95 be 1a cf 13 3d a7 e3 1b 3d 7a ab 58 be
       -0.29127276 0.03608618 0.038058903 -0.21159163
0001f0 51 6c 9c bd 42 1c 38 3e a5 be c6 3d 08 70 13 be
       -0.07637847 0.1797953 0.09704331 -0.14398205
000200 3b 8c 11 bd e1 d3 a8 bc f9 11 a2 3d 8c 68 52 3e
       -0.035534125 -0.020608844 0.07913584 0.20547694
000210 21 78 5c bd 2d 49 62 bd 46 37 89 3e 50 b6 af 3d
       -0.0538255 -0.055245567 0.26799983 0.08579695
000220 f3 3e 23 be f8 ea 53 3d b9 d0 b3 be 73 d4 7f 3d
       -0.15941982 0.051737756 -0.3512018 0.062458467
000230 d7 62 21 3e cf b6 5a be 43 25 8a 3a b0 53 89 bd
       0.1576036 -0.21358798 0.0010539669 -0.06705415
000240 79 be 97 bd 62 24 5c 3d 36 07 63 3e d1 b3 0b be
       -0.07409377 0.053745635 0.2217072 -0.13642813
000250 b6 ec 07 be 88 70 92 3e bc e4 af 3e 3c 4c 5f 3e
       -0.13273892 0.2860148 0.34354198 0.21806425
000260 c5 28 18 3e 16 ed 3d 3e b6 81 63 3b 04 97 70 be
       0.14859302 0.18547472 0.0034714765 -0.23495108
000270 b7 a3 ad 3c e7 46 86 be 45 ca 08 be a1 a4 3d be
       0.02119623 -0.2622597 -0.1335841 -0.18519832
000280 83 46 28 3d 21 42 ce bd f4 90 23 be 21 c6 27 bd
       0.04108287 -0.10071207 -0.15973264 -0.040960435
000290 9b 8e 7e be 6b 7d 19 be 5b 44 82 be df 6d a7 3c
       -0.24859087 -0.1498925 -0.25442776 0.020438133
0002a0 96 ce 87 be 94 d2 02 3e 6d 36 3c 3d 9b 47 9f bd
       -0.265248 0.12775642 0.045950342 -0.077773295
0002b0 b8 84 49 3e be 0d 58 be 6d cc b4 3e 87 fc b2 3e
       0.19679534 -0.21098992 0.35312214 0.34958288
0002c0 69 d0 8e bd 61 9f 05 be a1 b7 91 bd 83 97 28 3e
       -0.06973345 -0.1304908 -0.071151026 0.16464047
0002d0 36 72 f4 bc db 06 97 3d 91 c2 02 be 94 2a 8d 3d
       -0.029839616 0.073743545 -0.12769534 0.06892887
0002e0 8b 20 a6 bc 6e 16 98 3d 4e 5e a4 ba 25 1d 63 be
       -0.02027919 0.07426153 -0.0012540312 -0.22179087
0002f0 4f 92 87 bd 54 f9 a3 be b9 a7 13 3e 7a 0f 5d be
       -0.06619703 -0.3202616 0.1441945 -0.21587935
000300 7a 3c 0b be d9 ed 65 3d 9c ba 75 3e 4d 82 d5 bd
       -0.13597289 0.056135032 0.23996967 -0.104252435
000310 e2 1b d6 3d ff fe 0f 3e 32 2f 8c 3e 01 64 d0 bd
       0.10454537 0.14062117 0.27379757 -0.10175324
000320 f1 a2 e4 3d 43 7f 32 be 50 f9 9c 3d c2 02 cf bd
       0.11163891 -0.17431359 0.0766474 -0.10107948
000330 57 1e e8 3d 96 87 95 bd b8 f0 82 bd 1b 04 10 bd
       0.11333912 -0.073012516 -0.0639357 -0.035160165
000340 3a 83 ba bd 6e 02 a9 3c ca 95 7a bd b6 71 ff 3d
       -0.09107061 0.020631041 -0.061178006 0.124728605
000350 81 ab 7d be 2f a2 60 3e 99 8d 4d 3e 51 f5 66 3d
       -0.24772455 0.21936868 0.20073546 0.056386296
000360 1d f2 27 3e 5d 27 51 be 37 64 d5 b9 bd ec 40 3e
       0.16400953 -0.20425172 -0.00040701192 0.18840308
000370 2c b7 e1 bd ab 8e d1 3d 40 58 29 bd af 3e 21 3d
       -0.110212654 0.1023229 -0.041343927 0.03936642
000380 32 5d 23 3c bc dc fd bd 0a 88 15 be d2 3c 2b 3e
       0.00997095 -0.12395617 -0.14602676 0.1672242
000390 8c ee 50 3e 41 9e 3b 3e 1e 48 40 be b0 49 93 3d
       0.20403498 0.18322088 -0.1877751 0.07191789
0003a0 30 0f 30 3e 98 cd aa 3e 6e b3 c1 bb 30 88 c3 3d
       0.17193294 0.3335998 -0.0059112823 0.0954746
0003b0 4c 18 78 3c 71 49 da 3d 16 83 37 3e c2 c6 a0 bd
       0.015142512 0.10658539 0.17921099 -0.0785041
0003c0 0e 17 0c bd 66 c9 82 3d d2 21 48 3d 41 3c 9d bd
       -0.034201674 0.0638607 0.04886038 -0.07677508
0003d0 9b 57 04 bd 99 af cd bc ce 87 7b bd 80 0e 1b be
       -0.03231011 -0.025108146 -0.06140881 -0.1514225
0003e0 fb e4 52 be 65 08 65 3e 46 5b 0e 3e 49 5b 7c 3c
       -0.20595162 0.22366484 0.13902006 0.015402623
0003f0 16 7a 68 3c 4e 64 5f 3d 93 80 91 3d 14 e0 37 be
       0.014189264 0.054539017 0.07104602 -0.17956573

encoder.grud.zl.bias f4 [40]
000000 d3 b1 9b 3e a6 91 b2 be a2 d0 9a 3d 40 7a b2 3e
       0.30409107 -0.34876746 0.07559325 0.34858894
000010 b8 6c cc bc 7a 72 00 bc 80 72 46 3d 62 71 be 3d
       -0.024954185 -0.007839793 0.04844904 0.0929897
000020 bf e5 d6 3e c1 cc b5 3e e3 12 9b 3e 88 09 7a 3e
       0.41972157 0.35507777 0.30287847 0.24417698
000030 39 53 02 3e 22 b2 a1 3e c2 aa 51 3e e2 e5 29 3e
       0.1272706 0.31581217 0.20475295 0.165916
000040 95 c4 90 3e 8c ff 4a be d5 1b 0a 3e 37 77 53 3e
       0.2827498 -0.19824046 0.1348718 0.20650946
000050 29 1f fa 3e 34 7f 06 be 5e f7 9d 3b 4b 1e 08 3e
       0.48851898 -0.13134462 0.004820748 0.13292806
000060 94 b7 7c 3e 14 2c 82 be ef d1 14 3e 85 70 7e 3e
       0.24679404 -0.25424254 0.14533208 0.2484761
000070 d0 0c 8a 3e 78 cb 98 be f6 f0 bb bd 72 5d ca 3d
       0.269629 -0.29842734 -0.09176819 0.098811045
000080 7b c9 a1 be 26 b3 ae 3e ef fb 4d 3e 22 be 47 3e
       -0.3159903 0.34121054 0.20115636 0.19506124
000090 73 eb a5 3d 46 dc 9d 3c c5 e1 f2 3e c3 98 2c 3e
       0.08101549 0.019270074 0.47437873 0.16855149

encoder.grud.rl.weight f4 [40, 44]
000000 80 44 9a 3d b9 cc af 3d 97 03 c0 bd fc 09 be 3b
       0.075325966 0.085839696 -0.09375685 0.00579953
000010 6f ac 1d be 37 ba a4 3d 62 07 d8 bc 8f b3 4f 3d
       -0.1539781 0.0804333 -0.026370708 0.05070835
000020 b6 8f 96 3c 0d 0b 61 3d 3c 55 b6 3d 2f c6 89 bd
       0.018379074 0.05494218 0.08902976 -0.06727254
000030 02 23 f7 3d 70 5a b4 be 09 47 56 3e 44 26 57 be
       0.12067224 -0.35225248 0.20925535 -0.21010691
000040 0f 91 59 be a1 fc aa 3d a8 72 8a 3e dd b0 79 bd
       -0.21246742 0.083489664 0.270406 -0.060959686
000050 10 c6 70 bd 38 0d 48 3d 1a 42 e9 3c ee f4 05 3e
       -0.058782637 0.04884073 0.028473902 0.13081715
000060 f7 76 8b bc c4 ba e9 bc b5 46 52 be b2 77 22 3e
       -0.0170245 -0.02853144 -0.20534785 0.15865973
000070 d5 c9 7f 3e 0f 12 47 be 97 2b 42 3c b3 92 6c bd
       0.24979337 -0.19440483 0.011851213 -0.05775709
000080 12 a9 5c bd d7 13 d5 3d 3f 48 2a be 2d 5c 24 3c
       -0.053872176 0.10404175 -0.16629122 0.010031742
000090 06 74 a0 ba 56 c9 9f 3d 55 22 55 be 73 88 bb bd
       -0.0012241609 0.07802074 -0.20813878 -0.09156885
0000a0 0a 3e 10 3e 09 d4 37 be e6 5e 6b bb 13 9f f3 bd
       0.14086166 -0.17951979 -0.0035914718 -0.118955754
0000b0 75 47 82 3e a4 3b 15 3e d6 14 9d bd bb 58 d9 3e
       0.25445142 0.14573532 -0.0766999 0.42450508
0000c0 81 75 e9 bd 31 0e 35 be 76 24 3a be ed 8a b1 3d
       -0.11399365 -0.17681195 -0.18177971 0.08669076
0000d0 7e 2b b2 3d ce e9 16 3c ec 16 04 bf 38 fc 08 3f
       0.08699702 0.009211017 -0.51597476 0.53509855
0000e0 c8 cb 84 bd a5 90 30 3f f7 c2 22 3e ac e9 0d 3e
       -0.06484181 0.6897071 0.15894686 0.1385867
0000f0 9c 6b 27 3e be 7d e6 3d 7b 20 ed be 23 0e cb bd
       0.16349643 0.11254452 -0.46313843 -0.09914806
000100 84 e6 26 3e 0a ba 05 3d fb a8 e1 be 20 00 c7 be
       0.16298872 0.032648124 -0.44074234 -0.38867283
000110 e1 e2 68 3e d0 56 26 be 78 f9 4b 3e 13 d8 99 be
       0.22742797 -0.16244054 0.19919384 -0.30047664
000120 b1 f0 dc be a0 25 b8 3d e0 0d 93 bd 07 90 6c be
       -0.43152383 0.089915514 -0.07180381 -0.23101817
000130 0a 1d 8e bd b5 f7 34 bd da cf a3 bd 5f 84 83 3c
       -0.069391325 -0.044181544 -0.07998629 0.01605433
000140 2c 55 85 3e 34 26 a3 3e 66 f8 87 3e 5f 11 24 be
       0.26041543 0.31865084 0.265567 -0.16022252
000150 b3 40 61 be f8 24 bf 3d 7a 13 3d bd a1 8d 00 3c
       -0.21997337 0.09333223 -0.046161152 0.007846267
000160 3e d2 c6 be e8 ea 7f be 50 d8 29 3e 61 88 bd bd
       -0.38832277 -0.24991953 0.16586423 -0.09254528
000170 94 ca 3c be 2b a7 06 3f bb 12 20 bc 1c e3 17 3e
       -0.18436652 0.5259883 -0.009770091 0.14832729
000180 b9 6e 07 3e c7 68 0d be bb 5b d0 3d bb cf 0f 3d
       0.13225831 -0.138095 0.10173746 0.035110217
000190 e0 6f d8 3d 11 01 b1 3d a6 db 75 3e 8c 94 9b bd
       0.105682135 0.086427815 0.2400957 -0.075966924
0001a0 71 7f 9d be cc 35 45 3e 51 84 0b 3e 98 31 d7 39
       -0.30761293 0.19258803 0.13624693 0.00041044946
0001b0 58 74 bd bd 13 47 7c 3e 74 16 a7 3d 5b a4 a4 3d
       -0.092507064 0.24636488 0.081585795 0.08039161
0001c0 ff cc 1a 3e 81 51 51 bd f7 7a c5 be 0c e8 61 3d
       0.15117262 -0.05110312 -0.38570377 0.055152938
0001d0 e9 df aa 3c 7c 14 a7 be f4 d1 93 bd 28 e1 08 be
       0.020858722 -0.32632816 -0.0721778 -0.1336714
0001e0 d2 6d 0a be 63 4c 97 be 4a c7 dd bd c8 a2 df 3d
       -0.13518456 -0.29550466 -0.10829027 0.1091972
0001f0 7f 59 23 be 18 7a 98 3d fd f8 38 be 90 4e d5 3a
       -0.15952109 0.074451625 -0.18063731 0.0016274024
000200 6c ee bf 3d 07 85 0a be 04 8d 42 be c2 37 7d bd
       0.09371647 -0.13527308 -0.18999106 -0.061820753
000210 cb d5 a5 bd 9e 86 98 bd b3 43 03 3d 8b 2b 39 3e
       -0.080974184 -0.07447551 0.032046985 0.18083017
000220 eb 1a ed bc 07 da 88 3e e0 3b 30 be 6a 8a 47 3c
       -0.0289435 0.26728842 -0.1721034 0.012178997
000230 d4 99 9a 3d 59 23 42 be 06 8a 8a 3e 60 ea 25 be
       0.07548872 -0.18958797 0.2705843 -0.16202688
000240 fc 81 22 be 82 4b a3 3d e5 bf 44 3e 2e eb bc be
       -0.15869898 0.07973386 0.19213827 -0.36898178
000250 ca 54 93 be 66 15 8d 3d 77 bd 48 3e 54 70 c6 3d
       -0.28775626 0.06888847 0.19603525 0.09689394
000260 14 05 68 3d 7c a9 e8 3d 48 51 5d 3e 78 cd 8d bd
       0.056645468 0.113604516 0.21613038 -0.06923956
000270 e4 53 33 3e 02 8d 45 3b 06 ab 28 bd dc 64 ba 3d
       0.1751247 0.0030143862 -0.041178726 0.09101269
000280 d0 19 b3 3e 7f 3e 15 be 46 da 7e be f8 91 83 be
       0.3498063 -0.14574622 -0.24887952 -0.25697303
000290 ca 37 0e be 0b f5 75 bd 2b 84 88 bd 10 67 d2 3e
       -0.1388847 -0.060048144 -0.06665834 0.41094255
0002a0 46 86 c5 3d 72 65 74 3e 93 66 25 3e 1e cf 0d be
       0.09644751 0.23866823 0.1615241 -0.1384854
0002b0 d6 82 6a 3e 26 18 8b 3d 2d 0c 65 3c 7a 82 9f bc
       0.22901472 0.06791715 0.013979954 -0.019471396
0002c0 40 af 81 3e d3 2c 38 3e ee 04 3a bd 9d 66 bc 3d
       0.25329018 0.17985849 -0.045414858 0.091992594
0002d0 08 78 2b be ec 81 03 bf 3f e9 29 bd 71 96 b7 bd
       -0.16745007 -0.5137012 -0.041482206 -0.08964241
0002e0 6a 84 26 be 61 83 2c be 21 0f 90 bd c8 1a 44 3e
       -0.1626145 -0.16846992 -0.070341356 0.19150841
0002f0 31 5b d2 3c a1 a0 ad 3d 3f c0 9b bc fe 10 07 3e
       0.02567825 0.08477903 -0.019012569 0.13190076
000300 55 2f 1c 3e 64 13 9f bd 37 c2 26 be d1 49 09 3e
       0.1525243 -0.0776737 -0.16285025 0.13407065
000310 1f 9a 42 3d c9 3c 41 bd ab b2 f7 bd c9 c5 fe bd
       0.047510263 -0.04717711 -0.12094625 -0.12440068
000320 ff d4 35 3c a9 04 22 bd f5 e8 89 3e 5d d3 89 3d
       0.0110981455 -0.039555226 0.26935545 0.067297675
000330 cf b7 0d be 35 57 7f 3e 1c 65 3b bd ea 29 42 3d
       -0.13839649 0.2493561 -0.045750722 0.047403254
000340 dc d7 09 be fd 98 0e 3d 6f 3d b1 3d b5 52 96 be
       -0.1346125 0.03481387 0.08654296 -0.29359975
000350 db 71 12 bc ee ca a7 bd d3 24 69 bd da 57 e8 bd
       -0.008938278 -0.08193003 -0.056919884 -0.11344881
000360 a1 ee 1e be 7c 44 23 be 21 10 62 3e 5b c5 24 3d
       -0.15520717 -0.15944093 0.22076465 0.040227275
000370 27 c5 c1 3d 96 dd 99 3c 1e 2a 02 be ea f1 55 3e
       0.09461432 0.018782418 -0.12711379 0.20893064
000380 24 45 c6 3c d5 75 22 be 95 d7 e3 bc 95 6a c2 bd
       0.02420289 -0.15865262 -0.027812758 -0.09492985
000390 23 96 c2 bd 73 05 fc 3d d7 f8 27 bd 0a 11 88 3e
       -0.095012926 0.12305727 -0.041008797 0.265755
0003a0 5b e7 e6 3d f9 36 95 3c 4e 15 16 3e f9 d3 ab 3d
       0.11274596 0.01821469 0.14656565 0.0839004
0003b0 8f 49 0e 3d 36 1a 9c 3d 1d 09 16 3e d0 95 6d be
       0.03473812 0.07622187 0.14651914 -0.2320168
0003c0 08 27 2c be 56 82 be bd 68 70 42 be f9 b9 3a bb
       -0.16811764 -0.09302203 -0.18988192 -0.0028492196
0003d0 21 fd e1 3c 1d 74 d3 bd e7 04 ba bd 59 88 a7 bd
       0.027586522 -0.10324881 -0.09082966 -0.08180303
0003e0 ba 04 3b be 52 35 1a 3e be c3 26 3e 62 02 35 3e
       -0.18263522 0.15059403 0.16285607 0.1767669
0003f0 4c 91 fe 3c d8 0f f7 bd 35 3a 1e 3e 41 dc 19 be
       0.031075142 -0.12063569 0.15451892 -0.15025426

encoder.grud.rl.bias f4 [40]
000000 9a df 33 bd a5 73 ea 3c 8c 91 2b be 86 9d b4 3b
       -0.043914415 0.028619597 -0.1675474 0.0055119423
000010 70 15 0c 3e 69 4b 07 3e 75 52 f1 3d 0a ee e2 bd
       0.13680053 0.1321236 0.117833056 -0.110805586
000020 40 a4 ef 3c 07 a6 ba 3d d3 2d 77 be 94 8e a8 3d
       0.029253125 0.091136985 -0.24138574 0.082303196
000030 48 6d b1 3d 9a b6 07 bd ed 7f 12 3e 8f 8b 9a 3c
       0.08663422 -0.033133127 0.14306612 0.018865375
000040 80 98 ab bd d9 f3 45 bc ca 83 cc bd da cd 81 be
       -0.083786964 -0.012082064 -0.09986074 -0.25352365
000050 1d af 17 3e 2c b5 bb 3e c8 cc da bd 51 d1 e4 bd
       0.14812894 0.3666166 -0.1068359 -0.111727364
000060 3c 1c a4 3d 3e de 49 3d 40 95 3a 3c 55 93 f7 3d
       0.08013198 0.049284212 0.011388123 0.12088648
000070 dc ef 35 3e 6c 6f 8c 3e eb 32 b9 bc 2d d8 13 3e
       0.1776728 0.27428758 -0.022607287 0.14437933
000080 73 f4 80 bd ec 0e 9f 3b 72 f5 17 3e 72 a7 84 3d
       -0.06296625 0.0048540737 0.14839724 0.0647725
000090 9c a0 6e 3d 3c 1d aa 3d 3a 22 17 3e a6 85 ec 3d
       0.058258638 0.08306357 0.1475915 0.11548929

encoder.grud.hl.weight f4 [40, 44]
000000 a4 d4 48 be 88 c1 98 be 88 37 0b 3d 25 11 11 be
       -0.19612366 -0.29835153 0.033988506 -0.14166696
000010 11 57 09 be f2 82 83 bd 6f 4f 06 3d 10 4d 2c 3e
       -0.1341212 -0.0642146 0.032790598 0.16826272
000020 05 0f aa 3c 37 63 7c 3d 52 31 a2 3d a3 4b f2 bd
       0.020759115 0.061618056 0.07919563 -0.11830833
000030 32 eb ab 3d dd 0e fd 3d 53 70 7f bc d5 ab a5 bd
       0.08394469 0.123563506 -0.015590745 -0.08089415
000040 7f e4 01 be d0 97 b1 bc 79 5c 59 3e d0 64 20 3e
       -0.1268482 -0.021678835 0.21226682 0.15663457
000050 df 55 9d 3d 71 32 98 3d 49 f3 43 3b ba 08 f8 3d
       0.07682394 0.07431496 0.0029899648 0.121110395
000060 a8 ac 7c bd cf 57 ad bc 29 b4 81 bd b6 ff f1 bc
       -0.061688095 -0.021160034 -0.06333191 -0.029540878
000070 db 62 eb 3c 67 c7 8b bb 0f 2d b6 bc a3 9c 8c bd
       0.028733661 -0.004265714 -0.022238282 -0.068658136
000080 0a 8d 8a 3c ab c2 5f be 1f 89 57 bd 6b fd d1 bd
       0.016912956 -0.21851604 -0.052621003 -0.10253414
000090 89 47 38 be ea 2f 82 3e b4 bb ed 3d 11 69 82 bd
       -0.17996038 0.2542718 0.11608067 -0.06367696
0000a0 f8 b8 37 bd 76 23 28 be ea 15 05 3e 39 28 b0 bd
       -0.044854134 -0.16419777 0.12996641 -0.08601422
0000b0 52 6a 8e 3e 16 b2 1a bd 65 b0 30 3e c9 98 93 3e
       0.2781549 -0.037767492 0.17254789 0.28827503
0000c0 8e 24 d4 be cc 5e 37 3e ca 28 f5 bb 2e 14 7f bd
       -0.4143414 0.17907256 -0.007481669 -0.062275104
0000d0 90 cf 38 bd b5 6b 04 3d ad f4 07 be e8 c3 b0 3e
       -0.045119822 0.03232928 -0.1327693 0.34524465
0000e0 c1 e7 81 bd cd 93 e3 3e 03 73 46 3e a8 f6 21 3e
       -0.06343032 0.444487 0.19379811 0.15816748
0000f0 bf e7 d1 bc 75 27 2e 3e 2f 13 89 3d db 7d ec 3d
       -0.0256232 0.17007239 0.06693112 0.115474425
000100 5f 30 92 3d 75 51 79 3e 5d a9 93 be 4f e3 a6 bd
       0.07138132 0.2434748 -0.2884015 -0.081488244
000110 fa ed 29 be 44 f1 ac be da b5 1e 3d 22 5d be 3d
       -0.16594687 -0.3377782 0.038747646 0.092951074
000120 bb f5 8c 3e bf 45 10 be 5a 44 1d 3e 62 e6 07 be
       0.27531227 -0.14089106 0.15358105 -0.13271478
000130 28 e8 04 be b4 8d 4b be 09 4a 6f bd 60 07 fc 3e
       -0.12979186 -0.19878274 -0.058420215 0.49224377
000140 19 4e c8 3d 96 e2 89 3e 49 b2 7d bd 32 c7 29 be
       0.09780521 0.26930684 -0.061937604 -0.16579893
000150 ac 4e f0 bd a2 79 5a 3e 51 31 be 3d 55 29 69 3d
       -0.117337555 0.21335462 0.0928675 0.056924183
000160 1f 88 7c 3e 55 b1 68 3d ae 5c cb bd 24 cc 24 3e
       0.24661301 0.056809742 -0.099297866 0.16093498
000170 1a 48 d8 3d 82 20 a0 bd 97 b1 1f bd 8a 5a f6 3d
       0.10560627 -0.078187004 -0.038987722 0.12028988
000180 4d cb 9a 3d f3 af 07 be c4 17 32 be 2b b2 50 3e
       0.07558308 -0.13250713 -0.17391878 0.20380466
000190 8a 08 ab 3d 5c bf 8c 3e 0f c9 b8 bc 0b 16 27 3e
       0.08351238 0.27489746 -0.02255681 0.16317002
0001a0 97 23 26 3e ca 28 e7 bd d3 0f 20 be 49 7b 07 3e
       0.16224514 -0.11287077 -0.15631036 0.13230623
0001b0 e5 39 92 3e df 13 2d be cc 9a 0f 3d 9f 83 a5 3d
       0.28559795 -0.16902111 0.035059735 0.08081745
0001c0 65 3a 99 3d eb e0 53 3e 2a 55 82 3e a4 eb fc bd
       0.07481841 0.20691268 0.254556 -0.123496324
0001d0 a1 31 30 be a1 44 41 3e 36 48 99 3c 8f 1f ad bb
       -0.17206432 0.18873836 0.01871119 -0.005283303
0001e0 a3 cd 7a bc 63 c6 a1 bd b4 37 36 3d b7 01 91 bd
       -0.015307817 -0.078991674 0.044486716 -0.07080405
0001f0 27 b2 42 3d c5 63 e6 bd 36 7d c0 bd 84 47 39 3e
       0.04753318 -0.11249498 -0.09398882 0.18093687
000200 91 24 4e 3b 96 cc c0 bc 44 ad 7f bd f6 bc 10 3c
       0.00314549 -0.023535054 -0.0624211 0.008834114
000210 8c 4e ca bd 16 0f 5f be da 7d 31 be 74 70 85 3d
       -0.09878263 -0.21783099 -0.17333165 0.06515589
000220 62 2b ac bd fd 43 2f 3f 7d 4c 74 3e 8b e2 0f be
       -0.08406712 0.68463117 0.23857303 -0.14051263
000230 08 f8 1d bd ca d4 9c 3e 72 f7 25 3c 67 bc 1c 3d
       -0.03856662 0.30631095 0.010129796 0.038265612
000240 be f5 26 3e 41 44 c0 bd ea 8c f2 3b 80 16 b9 3d
       0.1630468 -0.093880184 0.007402052 0.09037495
000250 6b 44 96 bd 40 af e7 bd c8 b8 a1 3d a7 4f e2 3c
       -0.073372684 -0.11312723 0.07896572 0.027625872
000260 70 bb 6b 3c 2c c0 81 3d 9e 0e 52 be 8d dc 0f 3e
       0.01438795 0.06335482 -0.20513389 0.14048977
000270 ce 27 33 be ff 44 8c bd 93 1b cc bc 93 e5 60 3e
       -0.17495653 -0.068490975 -0.024915492 0.21962576
000280 6b 70 84 3e 86 02 9e 3d 7b 57 8f 3e 62 a3 cc bc
       0.25867018 0.07715325 0.2799643 -0.02498025
000290 15 e7 5c bd b9 82 cc bd ff 9f a2 3d 9a 46 0a 3f
       -0.053931314 -0.09985871 0.07940673 0.5401398
0002a0 52 21 64 3e 1c a6 13 be 3c 05 c3 3e 70 e2 dd 3c
       0.22278336 -0.14418834 0.3808993 0.027085513
0002b0 1f d3 e8 3d 97 61 33 3e be a3 8e be 36 b6 ab bd
       0.11368393 0.17517696 -0.278593 -0.08384363
0002c0 32 26 07 bd 8c c4 d3 3c 2f 39 3e be 0f c9 37 3e
       -0.03299541 0.025850557 -0.18576501 0.17947792
0002d0 60 6b 0c 3e 51 e5 3d be 3e c3 d1 bc d7 27 22 be
       0.13712835 -0.18544509 -0.025605794 -0.1583551
0002e0 4d 08 fe bc 6e b4 8e 3e aa 7c 84 be 97 b7 3a 3e
       -0.031009817 0.27872032 -0.2587636 0.18234096
0002f0 e7 81 a9 bc ad d3 a7 3d fe 34 25 be 71 92 a4 bb
       -0.020691825 0.08194671 -0.16133496 -0.00502234
000300 43 12 80 3e 8a 9a 8c be 74 8a 0d bd 1f a5 42 be
       0.25013933 -0.27461654 -0.034555867 -0.19008301
000310 51 05 01 bd e6 b0 46 bd 92 fc 8a bd c6 20 fe 3d
       -0.03149921 -0.048508547 -0.06786455 0.12408595
000320 44 25 7a be f2 46 8f 3c 2b f4 76 3e da ef 67 3e
       -0.24428278 0.017489884 0.2411658 0.2265009
000330 f1 70 d7 bd 0d a7 6f 3d 8c af cd 3d 88 35 ba 3d
       -0.10519589 0.05850892 0.100432485 0.090922415
000340 ec 9e 8c 3d 89 b9 76 3e a9 a8 aa 3d aa 2c 89 bc
       0.068662494 0.24094214 0.083329506 -0.01674493
000350 35 9c 7c 3e 15 09 43 be e9 52 8e 3c 9b 16 96 bc
       0.24668963 -0.19046433 0.017373519 -0.018321326
000360 38 ce d1 bd 36 3e 8c 3b 96 51 f4 bd 79 50 bd 3c
       -0.10244411 0.004279877 -0.11929624 0.023109661
000370 a0 43 18 3d a6 9b 20 be 54 19 82 3d 15 2f c8 3c
       0.037173867 -0.15684375 0.06352487 0.024436513
000380 63 42 23 be 52 90 19 3d 6c d2 b7 bd 44 fa 43 3c
       -0.15943293 0.03749115 -0.08975682 0.011961523
000390 b3 86 36 3e 7f 1b 25 be 24 57 8c bd 22 38 0d be
       0.17824821 -0.1612377 -0.06852558 -0.13790944
0003a0 4b 09 8e bd 71 6a 06 be 4b e7 ff bd 80 79 73 bd
       -0.06935366 -0.13126542 -0.124952875 -0.059442043
0003b0 6c a1 2b 3e 38 ed de bd 9c e3 4a 3c 71 06 d0 bd
       0.16760796 -0.1088509 0.012383368 -0.101574786
0003c0 60 1f 77 be b3 b3 33 3d 26 22 30 3d 7e 63 28 be
       -0.24133062 0.043872546 0.043001316 -0.16444203
0003d0 5e 54 5d 3c e7 8a 42 be 16 06 4b bd 23 2b 36 be
       0.013508884 -0.189983 -0.04956635 -0.17789893
0003e0 07 d7 93 bd 2d 5c 0d bc 1e 14 2f bd 1d 31 25 be
       -0.072187476 -0.008627933 -0.042743795 -0.16132016
0003f0 eb 2e df bc 01 71 6e be f7 ce 95 be 26 9e a2 bd
       -0.027244052 -0.23285295 -0.29259464 -0.07940321

encoder.grud.hl.bias f4 [40]
000000 22 28 be bd d4 00 29 3e e1 45 05 3e 64 db a1 be
       -0.092849985 0.16504222 0.13014938 -0.31612694
000010 a0 67 18 be d7 f0 d2 3c 0e 85 87 bd 48 5c b9 bd
       -0.1488328 0.025749607 -0.06617175 -0.090508044
000020 5d e2 11 3c 37 75 7a bd 72 04 6a be 45 02 09 be
       0.008904067 -0.06114694 -0.22853258 -0.13379772
000030 34 ef 94 bb 83 28 4f 3d 7c 7d 21 3d cb a6 92 bd
       -0.004545117 0.050575744 0.03942631 -0.071607195
000040 b7 34 34 3d 76 62 6e 3e 81 19 9a 3d 22 28 98 bd
       0.043995585 0.23279747 0.07524396 -0.0742953
000050 df f5 31 3e e7 0e 21 bc ed 52 01 3d ba 79 1a 3e
       0.17378949 -0.009830213 0.031573225 0.15085497
000060 0a bf 3a 3d 55 c5 16 be 60 83 be 3d df f3 b5 3d
       0.045592345 -0.14723714 0.093024015 0.08884405
000070 e2 ca 8a 3d 28 7b 2f bd 51 31 e5 bc a8 5b cc 3d
       0.06776978 -0.04284206 -0.027977617 0.099784195
000080 3f fd 25 3d 75 40 5e be 85 b6 1b 3d a5 68 e0 3d
       0.040524717 -0.21704276 0.03801586 0.10957459
000090 e0 42 51 3d 5c 92 41 bc 68 d7 93 bc 00 83 4c 3d
       0.051089168 -0.01181468 -0.01804705 0.04992962

encoder.grud.gamma_x_l.weight f4 [2, 2]
000000 00 96 ec 3d a7 88 0f 3f 4d 16 e0 be 0a 5c 7f be
       0.11552048 0.5606789 -0.43767014 -0.24937454

encoder.grud.gamma_x_l.bias f4 [2]
000000 a8 d6 a6 bd 12 af 92 3e
       -0.08146411 0.28649193

encoder.grud.gamma_h_l.weight f4 [40, 2]
000000 24 3a 7c 3e b2 16 c0 3e f4 a0 c8 be 90 91 00 be
       0.24631554 0.37517315 -0.39185297 -0.12555528
000010 d8 ef 8c 3e 8f fb 9f be 43 64 01 3f 72 2d ff 3e
       0.27526736 -0.3124661 0.5054361 0.4983936
000020 c2 9b c8 3e de 21 c1 3e 56 89 da 3e 85 55 19 bf
       0.39181334 0.3772115 0.42682904 -0.5989612
000030 8a 08 5d be c9 a9 07 3f 18 39 96 be 90 92 72 3d
       -0.21585289 0.52993447 -0.29340434 0.059221804
000040 64 37 76 be 40 b8 e5 bc 98 2d f9 bd 38 e4 4f be
       -0.24044567 -0.028041959 -0.121668994 -0.20301902
000050 3c 82 00 3e 47 41 26 3f 40 7f 5d 3c 2c f6 4f be
       0.1254968 0.64943355 0.013519108 -0.20308751
000060 d3 fd 13 3f d9 33 a5 be 2c ac 3b 3e 00 e5 55 3c
       0.5780918 -0.3226612 0.18327397 0.013055086
000070 58 c9 54 3e 2e e5 d3 3e b0 be 3f 3e 20 2e 4d bd
       0.20779932 0.41385788 0.18725085 -0.050092816
000080 02 3c 9b 3e 10 0f d2 3d e8 4b f9 bd 54 37 1c 3e
       0.3031922 0.10256779 -0.12172681 0.15255481
000090 48 a2 b7 be 60 c2 81 3d f6 e2 d6 be e2 0f a3 3e
       -0.35865998 0.06335902 -0.41970032 0.31848055
0000a0 db b1 2f 3f d2 d0 6b be 17 f5 21 bf eb 18 15 3f
       0.6863076 -0.23028877 -0.632646 0.58241147
0000b0 a2 c7 ba be 96 b6 ef 3e 32 eb fa 3e f4 e2 7e be
       -0.36480433 0.4681899 0.49007565 -0.24891263
0000c0 40 c1 92 3c 5f 54 99 be fd 5c 17 3f 2c 51 02 bf
       0.017914414 -0.29947183 0.59126264 -0.5090511
0000d0 50 45 a1 3d 88 96 cb be bb 9e 0e 3f 66 d7 af 3e
       0.078745484 -0.39763284 0.55710953 0.34344023
0000e0 99 67 1c 3f 88 27 a6 be c0 d4 74 3e d4 55 1a bf
       0.6109558 -0.32452035 0.23909283 -0.60287213
0000f0 3a 1e d7 3e 86 5f 70 be d4 64 71 3e ba d9 af 3e
       0.4201525 -0.2347394 0.23573619 0.343458
000100 41 0a e3 be 36 6e cb 3e c0 0d 94 be 94 98 8b 3e
       -0.4434376 0.39732522 -0.2891674 0.27264845
000110 ee 43 77 be 40 bb ff 3c b8 36 93 3d a5 0a 1c 3f
       -0.24147007 0.031217217 0.07188171 0.6095374
000120 e8 d9 4e 3e 50 e6 fb 3d ac cb 05 be 47 50 34 bf
       0.20200312 0.12299788 -0.13065976 -0.70434994
000130 dd eb a0 be 68 6e 76 be 0e a0 87 3e 50 0e 52 bd
       -0.3142995 -0.24065554 0.264893 -0.05128318

encoder.grud.gamma_h_l.bias f4 [40]
000000 5c ad 8c 3d be ce bb be 0e 2f 34 bf b8 c4 15 bb
       0.06869003 -0.3668117 -0.703843 -0.002285285
000010 e6 e1 86 3e c8 68 75 3e a7 ca f5 3e fa 8c 30 bf
       0.26344222 0.23965752 0.48006174 -0.68965113
000020 b8 ba 9e ba 32 ce 8d 3e 7d f6 b8 be 5b b0 5c bb
       -0.001211009 0.27696377 -0.36125556 -0.0033674452
000030 80 14 9f 3e db 5c 9a bb 64 23 2d bf 6e 31 20 3e
       0.31070328 -0.0047107763 -0.67632127 0.15643856
000040 7d e8 e7 3e 88 9a c6 bd a8 b6 b0 3b df 80 de 3e
       0.45294562 -0.09697443 0.005392868 0.43457696
000050 26 27 07 bf 29 6c 28 bf 94 35 ab 3d 20 06 f3 bc
       -0.5279411 -0.6579004 0.083598286 -0.029666007
000060 4c 32 aa be 43 21 29 bf 6e a2 e0 be 3d 46 ac 3d
       -0.33241498 -0.6606638 -0.43873924 0.084118344
000070 a8 37 05 be 0d 4e 1d bf 78 81 92 bd c0 78 12 bd
       -0.13009512 -0.6144722 -0.071536005 -0.035759687
000080 dc e9 28 bf c7 24 87 3d 91 53 d3 3e ea bd ac 3e
       -0.6598184 0.065988116 0.41274694 0.33738643
000090 a0 b9 22 bf f2 b4 de be 12 76 0d bf 02 eb d8 3e
       -0.6356449 -0.43497425 -0.55258286 0.42366797

decoder.lstm.weight_ih_l0 f4 [160, 80]
000000 be b5 91 bd 56 c4 46 3e 3f 99 b8 bc 16 76 36 3e
       -0.07114743 0.19410834 -0.022534011 0.17818484
000010 5f b9 96 3e 41 9e 33 be 44 0a 08 3e b2 90 39 3e
       0.29438302 -0.17540838 0.13285166 0.18121603
000020 32 46 c0 3d cd ad 17 bd 23 c6 a0 3d 8d f6 e9 3d
       0.09388389 -0.037030984 0.078502916 0.11423979
000030 39 ab f7 bd 5d bc cd bd 92 ae 4b bd 0f d0 c8 3d
       -0.12093205 -0.10045693 -0.04972703 0.09805309
000040 35 49 81 3e 65 9f 34 be 48 e3 2b be e4 1c 18 bb
       0.25251165 -0.17638929 -0.1678592 -0.002321058
000050 bb 05 a2 3c 96 f1 3a 3e 49 9c 36 be c6 2c 1b bd
       0.019778123 0.1825622 -0.17833056 -0.037884496
000060 a9 8d 32 bd 60 16 15 3c 2c da a3 3d 39 2b 17 be
       -0.04359213 0.009099573 0.08000597 -0.14762582
000070 7e 8f 19 be 70 3a 27 3e a3 fe d5 bd d1 e1 02 3e
       -0.14996144 0.16330886 -0.10448959 0.12781455
000080 49 2f 35 bb ca 56 cf bd 2d e0 12 3e 1c 0e ca bc
       -0.0027646592 -0.101239756 0.14343329 -0.024664931
000090 a7 92 73 3e 16 04 30 3e 3e 1e 21 3e 87 41 04 3e
       0.23786412 0.17189059 0.15734193 0.12915622
0000a0 92 76 b0 3d f9 c8 b4 bd 25 21 54 bd b0 f5 17 bc
       0.086163655 -0.08827395 -0.05178942 -0.009274885
0000b0 4f 2d f9 bb 52 f6 e9 3d 73 48 64 3d c4 4e 0a be
       -0.007604278 0.11423935 0.055733155 -0.13506609
0000c0 05 76 45 3d 5a 28 51 ba fa 35 a1 3d 9d a0 97 bb
       0.048208255 -0.000797873 0.07871623 -0.004627301
0000d0 58 88 00 3e df 08 d8 bd 45 31 ee 3d e8 9a 18 3e
       0.12552011 -0.10548567 0.11630491 0.14902842
0000e0 d0 e1 f7 bd c0 52 cc bd 2e 05 bf 3d fe e5 f1 bd
       -0.12103617 -0.09976721 0.0932716 -0.11811446
0000f0 8e c6 8a bc 3f 18 c8 bd 17 7b 9a 3d a1 5b 2a 3e
       -0.016940381 -0.097702496 0.07543009 0.16636516
000100 9b 5f 0b 3e 28 57 03 3e 30 e0 9b 3d 31 4c 03 be
       0.1361069 0.12826216 0.0761112 -0.12822033
000110 7d ad 4d 3d 77 1c 09 3e 1f 39 a8 3d d6 17 bb bd
       0.05021428 0.13389765 0.0821402 -0.09135406
000120 40 91 77 3d 42 3f 32 3d c6 b2 b9 bd ac 05 06 be
       0.060441256 0.04351736 -0.090673015 -0.13088101
000130 04 b1 1a be 3f d0 ed bd c7 b4 3a bd cc 97 1e bb
       -0.15106589 -0.116119854 -0.04558256 -0.0024199365
000140 65 fb 26 be 6e c0 e3 bd 4f 5b ce bb 53 9a bf 3d
       -0.16306837 -0.111206874 -0.006297506 0.09355607
000150 83 3c 22 3d 7b b4 30 bd 1f 84 29 3e 08 56 a5 3e
       0.03960849 -0.04314087 0.16554306 0.322922
000160 77 3a 2e 3e ef a3 05 be 98 91 31 3e 22 80 4b 3e
       0.1701449 -0.13050817 0.17340696 0.19873098
000170 9a 95 40 be ab 9e 24 be f2 5f b6 3d e2 9f b8 bd
       -0.18807068 -0.16076152 0.08905019 -0.0901487
000180 32 f1 a6 3e b6 fe 6b be 58 89 2a be bf 17 07 be
       0.32605892 -0.23046383 -0.16653955 -0.13192652
000190 72 e5 70 3d e1 ec 66 3e 2c 86 59 be 06 d8 ef 3d
       0.058812566 0.225513 -0.21242589 0.11711125
0001a0 83 0a 03 3d 1e cc 78 3e c0 a8 41 3e c0 6e 53 bd
       0.031992447 0.24296615 0.1891203 -0.05161929
0001b0 b5 82 c1 3d 18 6d a4 3d 30 97 ff 3d d2 f9 57 3e
       0.094487585 0.080286205 0.124800086 0.21091393
0001c0 5e f6 81 3d b0 55 eb 3b 17 5b 14 be 0f 71 30 bd
       0.06345819 0.0071818456 -0.14487873 -0.04307657
0001d0 0f 76 0f bd 9c 82 47 bb 81 32 d6 bc 77 25 35 be
       -0.0350247 -0.003044284 -0.026147129 -0.17690073
0001e0 a5 9c 53 3d 18 c3 20 be 19 e4 9b 3d 34 73 0c 3e
       0.05166306 -0.15699422 0.076118656 0.13715822
0001f0 98 38 c5 bb e8 47 bc 3d 0a 31 0e be 40 ae 0e 3d
       -0.0060187094 0.091934025 -0.13885894 0.034834146
000200 51 df 03 bd 3d f5 d7 3d 1a 4a 14 3e 83 a9 01 be
       -0.032195393 0.10544822 0.14481393 -0.1266232
000210 fe d2 2c bc 9e 85 db bd d4 4f 9e 3d 00 55 04 3e
       -0.010548351 -0.10718845 0.0773007 0.1292305
000220 93 15 16 bd 32 de 03 3e dc c8 fd 3d da 9f 0b bd
       -0.03664167 0.1287773 0.123918265 -0.034087993
000230 7e 85 ca 3d 20 07 15 3e 35 9c c6 3c be 55 1a be
       0.09888743 0.14553499 0.024244407 -0.1507177
000240 81 fa f6 3c 2d 44 03 be 5d 6e d4 3c e1 90 f2 bd
       0.030148746 -0.12818976 0.025931532 -0.1184404
000250 87 5a 09 3e 27 ed 9a bd 27 2b 79 bd 9f 96 ba 3d
       0.1341344 -0.075647645 -0.06083217 0.0911076
000260 35 0a b7 bd 21 bb 10 3e 8a 5e 52 3c 69 aa 8e 3d
       -0.08937494 0.14133884 0.012839923 0.06966097
000270 92 0d 2e bd 59 cb 94 bc 0b 39 75 3d f0 24 c7 3d
       -0.04249341 -0.01816337 0.059868854 0.09723842
000280 4a 81 6e 3b ce 47 18 3e 43 52 bb 3d 9b 6b 8a 3d
       0.003639298 0.14871141 0.091465496 0.06758805
000290 e5 a8 84 bc 63 8c 8c 3d de a0 40 3e bc 53 b7 bd
       -0.016193816 0.06862714 0.18811366 -0.08951518
0002a0 de 10 d5 3d bd 86 35 3d 64 0e 51 3e 30 0b 74 bc
       0.10403608 0.04431795 0.20415646 -0.014895245
0002b0 dc 72 06 3e fc 64 57 be ed 9e e7 bd e0 2c 66 3c
       0.13129753 -0.21034616 -0.113096096 0.014048785
0002c0 b2 87 25 3e 81 36 08 3e 70 3e 19 bc 4d f6 25 3e
       0.16165045 0.13302042 -0.009353265 0.16207238
0002d0 00 19 10 3c 57 46 a3 3d b9 43 d3 3d 06 c3 3f bd
       0.008795023 0.07972401 0.103156514 -0.04681685
0002e0 82 d7 c6 bd 30 34 70 3d c2 55 cd 3d 75 5e b8 bd
       -0.097090736 0.05864352 0.10026123 -0.09002391
0002f0 af da 07 be 99 8d 24 3c a1 cc 8e bd ce 26 50 3b
       -0.13267015 0.010043525 -0.069726236 0.003176141
000300 78 d1 0a be 43 4d 03 3e 1b 9c 08 be b8 e7 30 3b
       -0.13556468 0.12822442 -0.133408 0.0026993584
000310 e8 d1 b9 3d f5 15 f8 3c 3d 47 48 3d 85 ae cd bc
       0.090732396 0.030283907 0.048896063 -0.025107631
000320 d3 9a 0e bc af 5d ed bd 1d 15 ae 3d fd c8 0a 3e
       -0.008703905 -0.11590134 0.08500121 0.13553233
000330 cb 40 e7 3d 2a ce 0c be 50 f2 c4 3d 45 63 28 3d
       0.11291655 -0.1375052 0.0961653 0.041110296
000340 bd 16 1d be 06 0d 21 3e d5 c5 f1 3d a8 d1 17 3e
       -0.15340705 0.15727624 0.118053116 0.14826071
000350 c3 da 03 be a7 66 68 bd b5 b5 af 3c 26 ec c4 bd
       -0.1287642 -0.056738522 0.02144895 -0.09615354
000360 34 81 84 bc be 63 26 bd a1 0c 79 3d 86 38 eb bd
       -0.01617489 -0.040622465 0.06080306 -0.1148539
000370 40 58 be bb 1d 3b 12 3e 3b 36 ea 3d b0 6a e5 3c
       -0.00580886 0.14280362 0.11436125 0.028004974
000380 ac ff c0 bd f0 7c a9 bd e8 87 14 3e ae 9b d4 3b
       -0.094237655 -0.08275783 0.14504969 0.006488285
000390 67 21 b1 bc 34 aa f9 bd ff 87 2e bd 65 c7 26 be
       -0.021622373 -0.12190667 -0.042610165 -0.16287
0003a0 82 6e a6 3d 4e 32 11 3c 41 e2 37 bd 6f ce 29 3d
       0.081265464 0.008862091 -0.044893507 0.041456636
0003b0 b9 c2 45 bd a9 fc c5 3c 70 5d e2 3d 21 a6 95 bd
       -0.048281405 0.02416833 0.11052978 -0.07307077
0003c0 b0 7b 11 bc 86 9a 35 3e dd 07 ee bd 31 1e c4 3d
       -0.008879587 0.17734727 -0.116225936 0.09576071
0003d0 dc 86 7a 3d f1 f2 17 3d 5e d6 97 3c 30 e0 19 3e
       0.06116377 0.03709692 0.018534835 0.15026927
0003e0 a5 71 f2 3d 9a ef 34 be ec c9 aa 3d 33 0f 86 3d
       0.11838082 -0.17669526 0.08339295 0.06545868
0003f0 ed ce 8f 3d 6f 12 a0 ba 4e 94 82 3d 85 66 04 be
       0.0702189 -0.0012212525 0.06375943 -0.12929733

decoder.lstm.weight_hh_l0 f4 [160, 40]
000000 c9 1d b2 bc 65 b2 55 3d 1c 32 42 bd 85 d8 c2 3d
       -0.021742718 0.052172083 -0.04741107 0.09513954
000010 a4 81 f6 bd d5 bb 71 3c 37 e2 8c bc c5 5e 88 3e
       -0.12036446 0.014754255 -0.017197711 0.26634803
000020 e4 cb a6 3d bc b9 d0 3d 84 b7 88 3d 24 4a 1c 3d
       0.08144358 0.10191676 0.06675628 0.038156644
000030 59 29 04 3e d5 71 7b b9 ad d2 c6 bd 8c 41 c0 3c
       0.12906398 -0.00023979631 -0.09708152 0.023468755
000040 61 bc 05 bc 10 1c 95 bd c2 a9 06 bd c4 db 5e be
       -0.008162589 -0.07280743 -0.032876737 -0.21763521
000050 59 0a a4 3c 87 6f 4a bd 30 d1 30 bd f3 cd c0 bd
       0.020024465 -0.049422767 -0.043168247 -0.09414282
000060 03 f9 37 bd 5d 72 84 bd 59 ed 12 be 27 a6 c3 bd
       -0.04491521 -0.064671256 -0.14348353 -0.095531754
000070 7b 70 51 bc 36 4a d0 bd ee b4 3b bd 39 f7 41 3e
       -0.012783165 -0.101704046 -0.045826845 0.18941964
000080 7a d6 06 3e 2e 4e 6c 3e 0a da 8d bd c1 e0 c1 3d
       0.13167754 0.23076698 -0.06926353 0.094666965
000090 72 c7 a3 bc e6 43 da bd e8 a3 3e 3d 3a b0 ec ba
       -0.019992564 -0.10657482 0.046543032 -0.0018057891
0000a0 5f b2 58 3d 92 af 14 bc 9f 78 17 bd 84 0e b4 bd
       0.052904483 -0.009075062 -0.036980268 -0.08791831
0000b0 04 d3 83 be b7 61 0f 3e c2 79 88 be 40 f4 0f bd
       -0.2574693 0.14002119 -0.26655394 -0.035145044
0000c0 40 2f 6a 3d eb 8c 4c 3c 30 51 48 3e 67 a4 7f bd
       0.057173967 0.012484769 0.1956222 -0.062412646
0000d0 b5 ea a5 bb 13 07 ac 3d da 4e 92 bd aa 32 77 be
       -0.0050633796 0.08399787 -0.07143946 -0.2414042
0000e0 57 c4 26 bd 91 61 bf bc cf b4 dd bd 6f 87 90 bd
       -0.040714588 -0.023361953 -0.10825502 -0.07057082
0000f0 87 cc 2f be d5 40 0b be 32 69 8c bd 2c 3d 72 3c
       -0.17167865 -0.1359895 -0.06856002 0.014785092
000100 a2 ab 5f bc eb e3 84 be 6c 62 6a 3e 03 d6 a5 3d
       -0.01365176 -0.25955138 0.22889107 0.0809746
000110 1b e1 86 be 39 7a 0f be 1b f0 6c 3d 2b 6c ee 3d
       -0.26343617 -0.14011468 0.05784617 0.11641725
000120 be d9 aa 3d aa e3 26 be 5d 5d 1f 3e 26 ac d5 bd
       0.08342312 -0.16297784 0.15562959 -0.10433225
000130 3c ae 81 bd 88 b4 9c b9 a1 00 8b 3d 95 c2 24 3e
       -0.06332061 -0.00029889145 0.06787229 0.16089852
000140 7a d3 1b 3d 38 87 68 be 71 34 77 3e a3 af 4c be
       0.038043477 -0.22707832 0.24141099 -0.19988875
000150 65 64 59 3d 2b e8 54 be a6 b7 4d 3b eb 72 05 3d
       0.05307426 -0.2079169 0.003138998 0.032580297
000160 9d 59 ce bb dd 91 85 be 37 c5 3b 3e 12 e4 0a be
       -0.006297304 -0.26087847 0.1833695 -0.13563564
000170 21 77 5a bd 6d 5e 05 be 39 d2 05 3e cd ab 85 3d
       -0.053336266 -0.13024302 0.13068475 0.06526909
000180 3d cb a9 3d c8 64 5a 3d c4 e7 aa bd 45 2f af 3d
       0.08290718 0.05331877 -0.08344987 0.08553938
000190 ce 68 bd bd 7e c9 5e bd 45 52 1b 3e 55 a8 87 be
       -0.092485055 -0.054391377 0.15168102 -0.26495615
0001a0 8c c0 ee bd 1d f8 49 3e a1 1b de bc 34 b4 08 3d
       -0.11657819 0.19723554 -0.027112784 0.03337498
0001b0 d6 7b fe bd e5 82 4d be e2 cb 98 bd 34 a3 d1 3c
       -0.124259636 -0.20069464 -0.074607626 0.025590517
0001c0 02 f6 2b 3d ad bf 9d bd 0a 73 a3 bc 20 d5 05 3e
       0.04198266 -0.07702575 -0.019952316 0.13069582
0001d0 5f 5b c4 bc f1 fb 2a bc f9 19 c4 bd ba e9 ba 3d
       -0.02396935 -0.010436044 -0.095752664 0.09126611
0001e0 d0 e1 57 3c e2 fe 69 be 0f 8d dd 3d 47 14 9b bd
       0.0131763965 -0.22851136 0.108179204 -0.07572227
0001f0 31 ce 54 3d a7 84 00 3e fc 46 50 be 68 49 0d 3e
       0.051954452 0.12550603 -0.20339578 0.13797534
000200 28 a7 53 3c ed 9a b4 3c 52 10 c8 3d 30 13 28 3d
       0.012918271 0.02204653 0.09768738 0.041033924
000210 74 e7 19 3d 39 1b 1c be 43 37 bb bd 52 64 be 3d
       0.037574247 -0.1524476 -0.091414 0.09296478
000220 68 3d 0d be 00 b8 3e 3e cf a9 0d be 73 95 86 bd
       -0.13792956 0.18624878 -0.13834308 -0.06571474
000230 d3 4c bb bb 36 1e 01 3e 4c f3 51 be d9 9f b8 bd
       -0.0057159453 0.12609181 -0.20502967 -0.090148635
000240 e5 cf 73 3b 78 f2 4e 3d e1 39 e3 bd 12 07 ae 3d
       0.0037202772 0.050524205 -0.11095024 0.08497442
000250 a0 b5 01 be 6c b0 19 be 65 a4 97 3d c6 04 85 3c
       -0.1266694 -0.15008706 0.07404403 0.016237628
000260 23 4c e4 3b 10 e3 18 be 01 4b b1 3d e0 7a 9c bd
       0.006967084 -0.14930367 0.08656884 -0.07640624
000270 6f 46 49 be e5 e2 02 3e 25 88 2a 3c 89 14 29 3e
       -0.19655775 0.12781866 0.010408436 0.1651174
000280 5c 94 a7 bd 2e bb 54 be 03 b5 a0 3d ad ae b0 3d
       -0.08182594 -0.20774528 0.07847025 0.08627067
000290 07 55 85 3d 19 6d a1 3c 76 4f 1e 3e ab 2d 52 bc
       0.06510358 0.019705342 0.1546 -0.012828271
0002a0 ce de 80 bd 62 0a 31 bd e3 08 83 39 a2 b6 c4 bc
       -0.062924966 -0.043222792 0.00024992888 -0.024012867
0002b0 94 ad ca bc b1 06 2e 3d 55 12 42 bd ce 84 62 3d
       -0.024740972 0.04248685 -0.047380764 0.055302434
0002c0 ee bf ab 3d fb c9 54 be 62 cc a8 3d 02 42 b0 3c
       0.08386217 -0.20780174 0.08242108 0.02151585
0002d0 1b 78 00 3e 2e ff 0b 3e c8 0c 94 3b c0 87 b5 bd
       0.12545817 0.13671562 0.004518125 -0.08863783
0002e0 f0 eb 07 3d 44 42 b1 3d ba d6 96 bd 62 73 0e 3c
       0.033183992 0.08655217 -0.073651746 0.008694502
0002f0 fb 98 24 be 4e 99 c8 bd 40 a1 fa bd 85 7d 1c 3e
       -0.16073982 -0.097948655 -0.12237787 0.15282257
000300 10 92 d9 3d 25 fe cc 3c 8a b8 d5 bd d7 0a 3f 3d
       0.10623562 0.02502353 -0.10435589 0.046641197
000310 a1 d6 23 3e 9c 38 38 be 55 6a d5 bb 6b 43 78 bc
       0.15999843 -0.17990345 -0.00651292 -0.015152792
000320 26 d7 ba 3d b5 18 02 3e d9 00 d8 3d e0 aa 04 3e
       0.091230676 0.12704737 0.10547037 0.12955809
000330 15 16 8d 3d 08 b1 c8 bd b0 dc f8 bd 73 7a 71 3e
       0.068889774 -0.09799391 -0.12151468 0.23581867
000340 a7 5c 4e bd 4a e1 cb bd c8 02 0a ba 65 bc 24 bc
       -0.05038133 -0.0995508 -0.00052646967 -0.010054682
000350 76 9a 4d 3d 87 77 a7 bd 2e c7 14 3e 1d 6e 13 be
       0.050196134 -0.08177095 0.14529106 -0.14397474
000360 89 de ca bd f7 35 03 3d 63 1c df 3d fe a0 a3 bd
       -0.099057265 0.032033887 0.10894086 -0.07989691
000370 46 10 50 3d 29 fe 28 3e 94 d9 b5 3d b9 95 1a 3d
       0.05079677 0.16503204 0.0887939 0.037740443
000380 8f f6 2a 3d c9 28 ea bc a4 a8 f0 bd ce 57 34 3e
       0.041739043 -0.028583901 -0.11750916 0.1761162
000390 aa 59 00 3e 0d 6a 0c be 8a 5c 1e 3e 14 aa 97 bd
       0.12534204 -0.1371233 0.15464988 -0.07405487
0003a0 d6 24 20 3e 10 78 13 be 8c 6b 0f 3b 55 33 e4 3c
       0.15639052 -0.14401269 0.0021884171 0.027856508
0003b0 0e 68 14 3e 9e 64 3c bd 2f 71 ae 3d 2e 7e 3c be
       0.14492819 -0.045994394 0.08517682 -0.18407509
0003c0 5e 36 80 be c3 2d 10 bd 51 18 77 3e 72 b3 63 3a
       -0.2504148 -0.03519989 0.2413037 0.0008686102
0003d0 ca 8b 48 3e fa b5 37 bd 79 97 15 bd b4 78 46 bd
       0.19584575 -0.04485128 -0.03652141 -0.048454955
0003e0 5c 95 ea 3d 95 02 af bd b7 57 8e 3e 50 4d 54 bd
       0.11454269 -0.08545414 0.27801296 -0.051831543
0003f0 c9 0f 82 bd 80 99 c1 bd a8 c1 85 3d f0 f0 3d bd
       -0.06350667 -0.09453106 0.065310776 -0.046372354
