models/102-seed-100train_control-40-13/itr-0-decoder.pth.pth (torch, 81459 bytes, 8 tensors)

lstm.weight_ih_l0 f4 [160, 80]
000000 d9 b2 37 be 84 6b 56 bd 42 d4 a0 3e aa 21 1a 3e
       -0.17939319 -0.05234863 0.3141194 0.15051904
000010 ad 85 14 be 01 b6 3b be ce 90 ec 3d 82 ed 6a 3e
       -0.14504118 -0.18331148 0.11551057 0.22942165
000020 a1 c3 ed bc 8d c5 4c be 15 99 27 be 8a f3 37 3e
       -0.029023947 -0.19997235 -0.1636699 0.17963997
000030 9a f7 9f bd 64 e7 32 3e 7e 4f 6b be 69 ac 45 bd
       -0.07810898 0.17471081 -0.22979543 -0.048260126
000040 2f ee 9f 3c c5 8c 3b 3d 24 f8 ac bd b8 04 99 3b
       0.019522754 0.045788545 -0.084457666 0.004669752
000050 74 1d 65 3d fd 89 a7 bd f4 47 ad 3d 6b 75 05 3e
       0.05593629 -0.08180616 0.084609896 0.13033073
000060 d9 4a 21 3e 7d b2 04 3e bd cd e4 3c de 61 1e be
       0.15751208 0.12958713 0.027930135 -0.15467021
000070 5e 7f 15 3e a3 f6 29 3e f4 e9 24 3c b5 9d 7d bd
       0.14599368 0.1659799 0.010065544 -0.06191798
000080 54 0e b5 bd 6e a3 7d bd f2 39 af 3c 62 ba db 3d
       -0.088406235 -0.061923437 0.021389935 0.10728909
000090 9c b4 fb bd 64 5b 74 3d 41 9b 2f 3e 5b a0 16 be
       -0.12290308 0.05965747 0.17149068 -0.14709608
0000a0 0f 51 f4 3d 8d a7 d0 3d 60 04 8a bd 26 63 06 be
       0.11929523 0.10188208 -0.06739116 -0.1312376
0000b0 3a 3b 06 3e 2c 92 89 bd 5d f2 db 3c 8c 03 34 be
       0.1310853 -0.06717333 0.026848966 -0.17579478
0000c0 5f 2e 58 3d 91 72 d0 3d d0 e7 82 bc 8b e8 0a 3d
       0.052778598 0.10178102 -0.015979677 0.033913177
0000d0 b8 a4 10 3e 69 7c e9 3d cd f8 11 bd a4 aa 86 3d
       0.14125335 0.114006825 -0.035637666 0.06575516
0000e0 a1 75 ce bd ab 35 7e 3a 4d 86 c1 3d f7 80 2a be
       -0.1008103 0.0009697328 0.09449444 -0.16650759
0000f0 94 e7 c0 3b 06 aa 68 3d 99 07 fb bd ed 5d 80 bd
       0.0058869813 0.056802772 -0.122573085 -0.06267915
000100 8a 4f c8 3d aa b8 a9 bd 64 a2 34 3d a2 99 a8 bd
       0.09780796 -0.08287175 0.04410018 -0.08232428
000110 9b 32 70 3d 9f 1e 64 bd ef df de bd 2b 48 93 3d
       0.05864201 -0.055693265 -0.10882556 0.07191499
000120 36 dc 1d bd 6a 87 15 be 1b e8 c8 bd 1b e2 08 be
       -0.038540088 -0.14602438 -0.098098956 -0.13367502
000130 42 22 f8 bd 9a 45 01 3e 4c 7a 47 bd f6 92 a0 bd
       -0.12115909 0.12624207 -0.048700616 -0.078405306
000140 fd 3e d3 3d 02 ca 08 3e e5 29 76 bc 80 a4 75 3d
       0.103147484 0.1335831 -0.015024637 0.059971333
000150 1f 37 b8 3c b2 66 8a 3d 23 67 b7 3d 6b 6c 2a be
       0.022487221 0.06757869 0.08955219 -0.1664292
000160 bc 67 2b 3e d7 c1 6f 3d de ab c1 bd 62 5a 7e bd
       0.1673879 0.05853447 -0.09456609 -0.062097915
000170 21 ba 0d be b7 34 37 3e d4 5a 23 3e 7a e2 cb bd
       -0.13840534 0.17891203 0.15952617 -0.09955306
000180 39 13 26 3e 97 7f cc 3c de fc 22 bd 1a 40 d0 bd
       0.1621827 0.024963183 -0.039791934 -0.101684764
000190 14 e5 de bd 2e 56 da bd 0c 2c 9c 3d df 1f f3 3c
       -0.10883537 -0.10660969 0.07625589 0.029678283
0001a0 6d c6 b0 bd cc 0f 04 be c3 8c d8 bd dd 84 58 3c
       -0.08631597 -0.12896651 -0.10573723 0.013215271
0001b0 9e 25 8d bd 7a b6 96 bd 63 6c 12 be cd 18 12 bd
       -0.068919405 -0.073590234 -0.14299159 -0.035668183
0001c0 44 be 74 bd f4 52 a2 3d cb 63 b7 bd 01 ad c2 3c
       -0.059751764 0.07925978 -0.08954581 0.023764135
0001d0 95 c5 26 3e 08 d8 c8 bd 8d 01 e8 bd a0 a9 23 3d
       0.16286309 -0.0980683 -0.11328421 0.03995669
0001e0 ac ec 71 3e 14 0c 2a 3e ce 3b 49 3e cf f9 ce 3d
       0.2362544 0.1660617 0.1965172 0.10106241
0001f0 fd 39 fc 3d fb 4a c4 bb 41 28 8c 3d 1c 49 ce bd
       0.12315748 -0.0059903837 0.06843615 -0.10072538
000200 65 8f bc 3d 7a d5 80 3e ab 9d 4e 3d b5 ad a1 3d
       0.09207038 0.2516287 0.050443333 0.0789446
000210 b2 81 42 3e 34 14 93 3d af 7a 35 3e 49 d9 2b 3d
       0.18994787 0.07181588 0.17722581 0.041955266
000220 79 fd c9 bd 38 89 5c bd da 59 45 3e bd b4 4a be
       -0.09862799 -0.0538418 0.19272557 -0.19795509
000230 39 63 16 3e 93 35 58 3e 4a d8 36 3d f7 41 4b 3d
       0.14686288 0.21114187 0.044639863 0.049623456
000240 7b 66 64 be 30 1f 86 3d b4 fa 37 3c f1 ad f5 3c
       -0.22304718 0.06548917 0.011229206 0.029990168
000250 db 2b ac bd 0e c7 0c be 32 89 f2 3d 7d ce 06 bd
       -0.08406802 -0.13747808 0.11842574 -0.032911766
000260 08 94 bd bd a0 ec 04 bd c3 e7 da 3d 37 36 4e 3d
       -0.0925675 -0.032452226 0.10688736 0.050344672
000270 04 57 2d bd af c2 89 3c 5d 6c 82 3e 28 bf af bc
       -0.042319313 0.016816465 0.254733 -0.021453455
000280 b0 82 8b bd 05 00 67 bd d5 f2 a2 bd 22 95 5a bd
       -0.06812036 -0.056396503 -0.07956473 -0.05336488
000290 5c ed e8 bd ad b0 38 3e b6 b3 ac bd 66 3e ad 3d
       -0.11373398 0.18036146 -0.08432715 0.08459167
0002a0 ce ca f9 3d 92 57 58 bd cb a8 36 be 33 ff 0f 3e
       0.12196885 -0.05281789 -0.17837827 0.14062195
0002b0 34 81 de 3d 6d 9b e0 3d 87 db 09 be ef 2c 46 bc
       0.10864487 0.10967145 -0.1346265 -0.012095674
0002c0 1a c5 88 3b 7f 71 7c bd e6 dd 9b 3c a6 b1 9c 3d
       0.004173887 -0.061631676 0.019026708 0.07651071
0002d0 6e ea dc bd 27 8c 2c 3e a3 f5 76 bd 10 2f 38 bd
       -0.107869014 0.16850339 -0.06029285 -0.044966757
0002e0 9a 6e 27 be f8 83 e2 bd d2 ae e2 3d b7 3b 8b 3d
       -0.16350785 -0.11060327 0.110685006 0.06798499
0002f0 39 ab 47 be 44 b3 b2 3d 61 38 09 3c 92 c8 25 3e
       -0.1949891 0.087255985 0.008375258 0.16189793
000300 d5 b2 0e 3e 26 4b 27 be bf d1 2d be c3 31 e1 3d
       0.13935407 -0.1633726 -0.16974543 0.109958194
000310 f6 95 14 3e 49 0e ef 3c 21 a5 38 3e 55 e8 98 bd
       0.1451033 0.029181616 0.18031742 -0.07466189
000320 42 5d 0f 3e 0f 22 e7 3d b2 ba 35 bd 64 f9 f3 3d
       0.14000419 0.11285793 -0.0443675 0.11912802
000330 4b 59 e4 3b 59 ce 0f be 2c 5c 39 3e 87 5d 0c be
       0.0069686524 -0.14043559 0.18101567 -0.13707553
000340 0a cc 11 3e 8b 0f c5 bd 9c 09 e6 3d 58 c3 42 3e
       0.14237991 -0.09622105 0.112323016 0.1901983
000350 fb d3 1d 3e 67 ce ec bd 17 cb be 3d 18 e6 f0 3c
       0.15412895 -0.115628056 0.0931608 0.029406592
000360 77 4d 93 bd 59 65 60 bc 8b cf 6f bd 1a 99 86 bd
       -0.071925096 -0.013696038 -0.058547538 -0.065721706
000370 40 7a 02 3e c2 08 96 3c 89 2c b0 bd b5 a1 c1 3d
       0.12741947 0.018314723 -0.086022444 0.09454671
000380 75 73 37 be 3d c2 cf 3d 75 f7 d8 bd 91 0b f1 3d
       -0.17915137 0.1014447 -0.10594074 0.11769784
000390 e0 b0 36 be 47 15 8b bd 4a b0 10 3e b0 1a 8f bd
       -0.1784091 -0.06791168 0.14129749 -0.06987512
0003a0 d1 1f fc 3c 90 c6 38 be e6 bd 18 3d d3 d5 1e 3e
       0.03077689 -0.18044496 0.037290476 0.15511255
0003b0 86 39 28 3e 85 f6 67 3d c3 45 6c bd 8d 97 86 3d
       0.16428193 0.056631584 -0.057683717 0.06571875
0003c0 65 f1 6e 3c 58 e0 ca 3d 58 cd 2c 3e 76 af 62 3c
       0.01458392 0.099060714 0.16875207 0.013835778
0003d0 18 0e 06 be af ca 00 3e 64 ac 82 3d 2e 34 dc bc
       -0.13091314 0.12577318 0.06380537 -0.02688035
0003e0 b0 04 9e 3c 87 7f 8a bd 3c 72 b1 3d 34 17 ff 3d
       0.019289345 -0.06762605 0.086643666 0.124555975
0003f0 86 9c e9 3d 48 0a e1 3d 59 ac db 3d b8 4c 03 be
       0.114068076 0.10988289 0.10726232 -0.12822235

lstm.weight_hh_l0 f4 [160, 40]
000000 d8 45 2c be 1a 70 9f 3d ea 3b b1 bc e2 2a 24 be
       -0.16823518 0.077850536 -0.021635015 -0.16031983
000010 0b 8e be bd 8b 44 9c bd c8 10 11 bd eb 36 21 3e
       -0.09304436 -0.07630261 -0.035416394 0.15743606
000020 e4 6e 97 bd 21 9e 56 3e 9b f3 77 bd 1a fd 03 3d
       -0.073941976 0.20958759 -0.060535055 0.0322238
000030 8f 44 7e 3d aa ca 04 be b1 c6 a1 3d a4 39 dc bd
       0.0620771 -0.12967935 0.078992255 -0.107531816
000040 70 85 76 3e 4c 73 64 3e fa b4 83 3e ee af d1 bd
       0.2407434 0.22309607 0.25724012 -0.10238634
000050 af 12 8e bd 12 69 f0 bd be 83 91 3d cd 14 b2 3d
       -0.06937157 -0.117387906 0.07105206 0.08695374
000060 83 31 39 bd bf 72 82 3e f6 8d 5c 3c 3e 99 32 be
       -0.045213234 0.2547817 0.0134615805 -0.1744127
000070 ec 05 3d bd f2 50 d4 bd 01 1b 15 3d 76 99 1b bd
       -0.046148226 -0.103670016 0.036402706 -0.03798815
000080 b0 27 99 3d 7d 8d 02 be 24 22 b4 bd ca 7f 8f bd
       0.07478273 -0.12749286 -0.08795574 -0.07006796
000090 f0 7e bf 3d 20 3a 1f 3c 3c b0 dd bd 79 21 c1 3d
       0.09350383 0.009718448 -0.1082463 0.094302125
0000a0 1f fb 0f bd b6 f4 38 3d 2c 70 0a bc d1 0d b7 3c
       -0.035151597 0.04515525 -0.008449595 0.022345455
0000b0 fe c9 00 bd 7f c5 be bd 47 94 f9 bd 78 be ed bc
       -0.031442635 -0.09315013 -0.12186485 -0.029021487
0000c0 bf 3f ce 3d 3b 95 0b be 94 c0 c8 3d ae 70 09 3e
       0.10070752 -0.13631146 0.09802356 0.1342189
0000d0 a1 23 00 bd f6 93 9f bc 25 42 16 be 03 c2 b2 bc
       -0.03128398 -0.019479733 -0.1467367 -0.021821028
0000e0 40 59 32 be be 47 66 3b d8 31 eb bb dc f9 3c 3d
       -0.17416859 0.0035137977 -0.0071775727 0.046136722
0000f0 70 06 52 3d 97 d7 d0 bd ab 1e 67 3d 3d db 98 bd
       0.05127567 -0.101973705 0.05642573 -0.074636914
000100 ef 39 4e 3d c3 cc 84 bc 4c 71 ec 3d 1e f7 c4 bd
       0.05034822 -0.01621092 0.11545047 -0.09617446
000110 ba ef 14 be ad 46 f9 b9 35 0c 96 3d ee 7d b9 bd
       -0.14544573 -0.00047545639 0.07326547 -0.09057222
000120 71 7e 4b 3e f9 3f 6e 3d 68 ec c7 3d 6b a1 ad 3d
       0.19872452 0.058166478 0.09761888 0.08478054
000130 0a 2d d3 bd 86 6e 27 3e 6d f5 30 3e 3d e1 27 bd
       -0.10311325 0.16350755 0.17281123 -0.04098629
000140 b7 79 b8 3d 9d fc 22 3e f6 87 c0 bd 38 81 25 3d
       0.0900759 0.15916677 -0.094009325 0.040406436
000150 0f be f9 3d c9 e2 18 3d bf fb 1a bd a7 1b f6 3d
       0.12194454 0.037325654 -0.03783774 0.12016993
000160 33 5a 9c 3d 52 83 b1 bc 75 66 44 bd 6d 2c 3e 3e
       0.07634392 -0.021669064 -0.047949273 0.18571635
000170 d0 de 29 3e 00 55 ea 3d 8d 4c 8d bc f4 e7 30 bb
       0.16588902 0.11441994 -0.017248416 -0.0026993724
000180 e4 3e 86 3d dc 98 b0 bd ea 9b 9f bd 6d fe b9 3d
       0.06554964 -0.086229056 -0.0779341 0.09081731
000190 75 4c 0b bd 58 98 66 be f7 db 7a bb 9b ea 5d 3d
       -0.034008462 -0.22519052 -0.0038278082 0.054178815
0001a0 41 77 e3 3c d7 8e 05 be 6f 2e b0 3d 7d f9 6d 3d
       0.027766826 -0.1304277 0.086026065 0.05809926
0001b0 b6 a6 f7 3c b8 d3 94 bd cd 72 e2 3b bd ee 01 3d
       0.030230861 -0.07266945 0.006910658 0.03172182
0001c0 46 83 c3 bd 39 45 0d be 32 0c c0 bd 42 af c6 bd
       -0.09546523 -0.13795938 -0.09377326 -0.097013965
0001d0 cd 73 09 3e aa 8a d3 3d 6f ff a8 3d 09 a5 b5 3d
       0.1342308 0.103291824 0.08251845 0.088693686
0001e0 2a 34 60 3d 86 dc 42 3e 2f 60 b6 3d 3b 48 3a 3e
       0.054737248 0.19029436 0.08905064 0.18191616
0001f0 da 35 6a 3e 1d 5b 0d 3e 3b 79 45 bd 04 b4 df bc
       0.22872105 0.13804288 -0.048211318 -0.027307518
000200 05 00 e4 bd 89 b7 4b 3d 16 d7 5e be 2a f1 f4 3d
       -0.11132816 0.04973558 -0.21761736 0.11960061
000210 05 de 50 bc 23 04 fd bb b2 3a a5 3c 35 6c 0b be
       -0.012748246 -0.0077214404 0.02016959 -0.13615496
000220 17 0e 52 3d a1 90 ac bd d4 cb b7 3c 9f 8d 05 be
       0.05128297 -0.08426023 0.02243606 -0.13042305
000230 52 86 e3 bd 47 0a b3 bc 31 1f 37 bb ee 08 2f 3d
       -0.11109604 -0.021855487 -0.0027942176 0.042733125
000240 73 49 16 be 88 fe 12 bd f1 d2 09 bc 0f 91 98 be
       -0.14676456 -0.03588727 -0.008412109 -0.2979817
000250 a2 c0 0b 3e 4d e0 06 be c6 ab 32 be 49 ac f2 bd
       0.13647702 -0.13171501 -0.17448339 -0.11849267
000260 24 f0 e1 bd 5b 96 d6 3d a7 4b 5f 3e 14 d2 1f 3d
       -0.11032131 0.10477897 0.21806203 0.039018705
000270 0c 95 1e bd 27 44 e2 3b cd ef dd bd de 28 02 be
       -0.03871636 0.006905097 -0.10836754 -0.12710902
000280 b0 44 4d be f2 44 dd ba bc 86 3b bd 73 cd 19 3e
       -0.20045733 -0.0016881509 -0.04578279 0.15019779
000290 2f ad 09 bc 43 5c 26 bd 82 49 73 bd 90 32 67 3e
       -0.008403107 -0.04061533 -0.059396274 0.22577882
0002a0 c6 cd 1c 3e c6 f6 0b 3e 6a 43 35 bb 8b e4 cc 3d
       0.15312871 0.13668355 -0.002765859 0.100045286
0002b0 4f 6b 02 3e 55 e8 a9 bd 67 da cf bd c5 bb 6d bc
       0.12736247 -0.08296267 -0.10149079 -0.0145101
0002c0 68 47 e4 3d 33 0d f9 bd e9 61 8d bc 3a de b8 bd
       0.11146432 -0.12160721 -0.017258601 -0.09026761
0002d0 6b 62 1a 3d 0e 3e b6 bd 1c ef 57 3d d4 b4 2a be
       0.037691515 -0.08898555 0.052718267 -0.16670543
0002e0 c6 e0 25 be 09 f5 08 3e 62 09 a1 3d 0d b7 80 be
       -0.16199026 0.13374723 0.07863118 -0.25139657
0002f0 ce a3 e5 3d 47 a4 9e b9 74 5b d1 bc 9d 42 0d 3e
       0.11212884 -0.00030258505 -0.025556304 0.13794942
000300 5e d7 58 3d 24 42 9a 3d 20 af a1 3d da 0b 2f 3d
       0.052939765 0.075321466 0.078947306 0.042735912
000310 e5 f0 6c 3c 77 57 7c 3d b8 85 92 3b 08 a8 e3 bd
       0.014461731 0.06160685 0.004471507 -0.11116034
000320 2f 9d 40 3d 9e 26 ff 3d a2 39 81 bd a6 b5 1f 3c
       0.047024902 0.124585375 -0.06309821 0.009747898
000330 63 7f 09 3e d8 72 ec bd 40 4c 36 be 8c b6 aa bb
       0.134275 -0.11545342 -0.17802525 -0.0052097496
000340 74 9b 41 3e 7a 6d 66 3d 35 8a 5a 3e 6a 3b d5 ba
       0.18906957 0.05625675 0.21341784 -0.0016268317
000350 7d 91 d7 bd de 26 a4 bc ef 41 1a be a4 2a f4 bc
       -0.105257966 -0.020038065 -0.15064214 -0.029805489
000360 28 57 85 bd 48 16 38 bd 26 03 4a bd 08 2e 63 bd
       -0.06510764 -0.044943124 -0.04931941 -0.05546382
000370 a4 d1 41 3e ba a4 27 be a4 6e eb bd 94 e3 22 3c
       0.18927628 -0.16371432 -0.114957124 0.009941954
000380 fb 57 f3 bc 88 82 0a 3e 80 79 19 bd 60 bb b7 bc
       -0.029705038 0.13526356 -0.037469387 -0.022428215
000390 49 65 ae bd 45 8f 37 ba 9a 36 ef 3d cd 26 36 be
       -0.08515412 -0.0007002245 0.11680336 -0.17788239
0003a0 67 4a 07 3d 1a d2 9a 3e f0 10 ce 3c 7f 9b cc 3c
       0.03302994 0.3023842 0.02515456 0.02497649
0003b0 36 04 ee 3d e6 2f 7d 3e 5c 6f 47 3e 62 0a 0e 3e
       0.11621897 0.24725303 0.19476074 0.13871148
0003c0 a5 4d c5 3d d8 a6 9e bd f7 e0 bc 3d 78 dd 88 3d
       0.0963395 -0.07746667 0.09222596 0.06682867
0003d0 bc 4e 0e be 10 32 30 3c 97 c8 44 be 43 dd 03 bd
       -0.13897222 0.010754123 -0.19217144 -0.032193433
0003e0 06 4c ad bd e9 be e3 3d b2 6b 02 be 0d df 46 3e
       -0.08461766 0.111203976 -0.12736395 0.19421025
0003f0 01 0c 1a 3e a5 fa 11 3e b8 00 71 bd cb 9d c0 3c
       0.15043642 0.1425577 -0.058838576 0.023512742

lstm.bias_ih_l0 f4 [160]
000000 a5 9b d7 3c d3 0b 45 3e 14 b1 18 3d 60 a5 75 bc
       0.026319334 0.19242792 0.03727825 -0.014993042
000010 e2 c7 14 3e d0 30 50 3d 51 25 80 3e 30 d9 35 3d
       0.14529374 0.0508278 0.2502847 0.04439658
000020 0a fb f0 3c 8f 6d 2c bd df 1c 84 3e bf e4 38 3e
       0.02941658 -0.04209667 0.25803277 0.1805601
000030 d5 64 e1 bd 26 9f b4 3d 3b c8 02 3c fa e2 8b 3e
       -0.1100556 0.08819418 0.007982309 0.27321607
000040 10 97 3b 3c a0 3a 76 bc ca f5 88 bc be b7 8b 3b
       0.01144959 -0.015028626 -0.016718764 0.004263847
000050 1d cc 51 3e 46 13 10 be 4a 4b bd bb 35 01 a6 3e
       0.2048802 -0.14069852 -0.0057767974 0.32422796
000060 2a 7a 49 3e b4 a2 28 3e ec b7 11 3e ca 9f 5b 3d
       0.19675508 0.16468316 0.14230317 0.053619184
000070 3a cb ac bd bf 9a 32 3e 9b 1f 21 be db 51 57 3e
       -0.084372 0.17441843 -0.15734713 0.21027319
000080 58 5e 79 3e b7 e6 bb 3d 11 f6 57 3d 0d 8f 20 3d
       0.24352396 0.09174865 0.0527249 0.039198924
000090 b8 21 c7 3d bf e2 e3 3b ec c9 e4 3d 7b 28 f6 3d
       0.09723228 0.0069545205 0.11171326 0.1201944
0000a0 4c be 16 3e f5 48 10 3d 7e a0 9b 3c d2 05 96 3d
       0.1472103 0.035225827 0.018997427 0.07325329
0000b0 8d e9 cd bd 92 84 ae 3d 34 9a de 3d 54 ec 01 3e
       -0.10054312 0.085213795 0.10869256 0.12687808
0000c0 37 8d 11 bd d1 4d 69 bd af 4f 05 bd ab e1 56 3d
       -0.035535064 -0.056958977 -0.032546695 0.052461307
0000d0 62 cb 0a 3e 80 b7 3e bd b8 16 c2 3d 5b d8 35 3d
       0.13554147 -0.046561718 0.094769895 0.044395786
0000e0 2e 20 32 3e 21 29 a8 3c 68 4c 93 3d e5 f5 de 3d
       0.17395088 0.020527424 0.07192308 0.108867444
0000f0 95 6a a3 bd 1d 20 d6 3d 00 d5 b4 3d bf 3d 0f bd
       -0.07979313 0.10455344 0.08829689 -0.034970995
000100 77 ab 4c bd d1 b4 30 3e c7 2d ff bb f6 73 75 3b
       -0.04996821 0.17256476 -0.0077874395 0.0037453151
000110 3b f4 af bd 3e e5 01 3e ce 91 89 bd 71 3c a3 bd
       -0.08591505 0.12685105 -0.06717263 -0.07970513
000120 b0 49 62 3d e0 0e 02 3e 68 ec 36 3d c6 ab e6 bd
       0.055246055 0.12700987 0.04465905 -0.11263232
000130 32 fa 0c 3e ca 15 90 bd 2e 32 46 3e 70 00 ec 3d
       0.13767317 -0.07035406 0.1935508 0.11523521
000140 72 9a 3c 3d 21 48 d9 3c a6 92 00 3d c0 9d ee 3d
       0.046045728 0.026523652 0.031389855 0.11651182
000150 f9 68 f9 bd b5 6a f5 3c e6 f5 46 bc f5 2e 92 3d
       -0.12178225 0.029958108 -0.012143588 0.071378626
000160 c5 7c 1e 3e 3e 78 41 3d 70 45 bb bd 1a 3f 54 bd
       0.15477283 0.047233813 -0.091441035 -0.05181799
000170 ce 9c 4b bd 88 a2 f1 3d 3d e9 cb bc 48 af 7f 3d
       -0.049710087 0.117985785 -0.02489149 0.06242302
000180 72 55 55 bb f6 bd 1d be 06 34 7d bd 05 d9 39 3d
       -0.003255215 -0.15404496 -0.06181719 0.04537298
000190 34 f7 6f 3d 2b 22 d2 bd 1b d6 ae 3d 79 cd 0c be
       0.05858536 -0.10260423 0.08536931 -0.13750257
0001a0 d7 05 25 3c c2 cf a9 3d fc b5 62 bd 94 9d ed 3d
       0.010072193 0.0829158 -0.055349335 0.11602321
0001b0 a7 d7 00 3d 98 4c f0 3d 4c 6b 05 3e 96 14 04 be
       0.031455662 0.11733359 0.13029212 -0.12898478
0001c0 a1 38 00 be 98 8a 21 be a7 01 79 3d 38 38 f4 3c
       -0.12521602 -0.15775526 0.06079259 0.029811963
0001d0 e1 b3 ab bd aa d1 9d 3d 8b c7 34 3c 98 ff fc bc
       -0.083839186 0.07706006 0.011033903 -0.030883595
0001e0 ad 2c 97 bd c5 fb 2a 3e 4e d1 89 bd 8d 6c ba bd
       -0.07381568 0.16697605 -0.06729375 -0.09102736
0001f0 6a f4 18 3e ae ee 80 3e 5d 25 35 3e 1c d3 cb bd
       0.14936987 0.25182098 0.17690034 -0.09952375
000200 6b 33 40 3e 6a d4 c1 bc 46 c9 ea 3c 96 68 07 3e
       0.18769614 -0.023660857 0.028660428 0.1322349
000210 5f 05 27 3d e4 70 49 3e 14 97 c0 3d 36 c3 2f 3e
       0.040776607 0.1967197 0.09403816 0.17164311
000220 92 37 4c 3e 98 28 04 3e d8 ba 67 bc 25 af 02 3e
       0.19943073 0.1290611 -0.014143668 0.12762125
000230 5b 4a 02 3e 1e 79 5c 3d e9 65 86 3d ea 74 8e 3d
       0.12723677 0.053826444 0.065624066 0.06955893
000240 4a d2 45 3d 8e c7 28 3d 83 33 ec bd a2 09 54 3d
       0.04829625 0.041205935 -0.115332626 0.051767
000250 50 82 52 3e 06 3e a1 3d f5 db 97 bd 66 e8 78 3c
       0.20557523 0.07873158 -0.07415 0.015192127
000260 0f 88 49 3e c0 f2 83 3e c5 be 4c 3e 4e fb 71 bd
       0.19680808 0.2577114 0.19994648 -0.059077553
000270 c0 8b 20 3e 8c 51 07 3e 55 37 0e 3e 0d 02 57 3e
       0.1567831 0.13214701 0.13888295 0.20996876

lstm.bias_hh_l0 f4 [160]
000000 04 d4 21 3e 42 2c ce 3d 50 8a 23 bd 99 83 24 be
       0.15803534 0.10067035 -0.039926827 -0.16065826
000010 66 7c 9f bd 0c 68 56 bb 00 cc 71 3e 6c 79 87 bd
       -0.07787399 -0.0032715825 0.23612976 -0.06614956
000020 75 fe eb bd d2 d8 2c 3d 1f c5 ae 3d 75 b9 d8 bb
       -0.11523143 0.042198963 0.085336916 -0.006613905
000030 29 d0 1b 3e 10 77 81 3e 89 45 43 bd a3 8e 04 3d
       0.15216126 0.2528615 -0.047673736 0.03236259
000040 07 94 9c 3d 2a 65 e2 bd 89 ce ed bc c8 f6 7b bd
       0.076454215 -0.11054452 -0.029029148 -0.061514646
000050 6f d6 41 3e c9 4f f6 bd b6 28 4b 3d 8e 51 da 3d
       0.18929456 -0.120269366 0.04959937 0.106600866
000060 72 54 bc 3c 6c 5d 13 3e 36 d8 a6 3b b3 93 a3 3d
       0.022989485 0.14391106 0.0050916923 0.07987156
000070 13 7b de bc aa 4a e3 3d 2e 01 d9 bd 1c ed eb 3d
       -0.027158296 0.110982254 -0.10595928 0.115198344
000080 0b d6 12 3e 5a 49 73 3e bc 80 c3 3d de cd bf 3d
       0.14339463 0.2375845 0.095460385 0.09365438
000090 22 5f 9b 3d 48 01 30 3e 7c df 07 3e 3b 21 d3 3d
       0.075865045 0.17187989 0.13268846 0.103090726
0000a0 1e d5 d5 bd 8b 08 c5 3d a1 fd 71 bc 28 93 95 bc
       -0.104410395 0.0962077 -0.0147699425 -0.018258646
0000b0 53 cb bc bd f5 7d e7 3d 5c 22 32 3a db fc e4 bd
       -0.092184685 0.11303321 0.0006795281 -0.11181041
0000c0 93 b1 03 3d b8 65 a7 3d 65 e3 08 be c3 2a 98 3c
       0.03215177 0.08173698 -0.13367994 0.018575078
0000d0 8d 19 f9 3c 9a f3 54 3e 8b 16 65 3d 7f 5d 1b bd
       0.030407691 0.20796052 0.0559297 -0.03793096
0000e0 45 21 09 3e ec 67 15 3d 52 df a8 bd 5f 68 86 bd
       0.13391598 0.03647606 -0.0824572 -0.06562876
0000f0 55 b3 89 3d 18 0b 26 3e ec d7 eb bc d3 15 d1 3d
       0.06723658 0.1621517 -0.028789483 0.10209241
000100 fa 9b 2a 3e 01 54 26 3e 5b a4 cf 3c de 2f 5a 3e
       0.16661063 0.16242982 0.025346925 0.21307322
000110 2f 8d c1 bd 7c 2a 0d bd 41 be 4b 3e 8b 0d dc 3d
       -0.09450757 -0.034464344 0.19896795 0.107447706
000120 60 c8 b1 bd 83 8e 69 3c 4c 19 3d 3e 5c 20 27 3b
       -0.086807966 0.014255169 0.18466681 0.0025501465
000130 a9 15 b0 3d a0 6d e4 bc a3 bb 55 3d 03 31 b4 3c
       0.08597881 -0.027884305 0.052180897 0.021996027
000140 10 5a 29 3e 0f 71 46 bd a4 81 d4 3c 85 04 a3 bd
       0.16538262 -0.048447665 0.025940724 -0.079598464
000150 16 07 14 3e a6 fd 81 3c 55 14 94 3d ae f2 2f be
       0.14455828 0.01586802 0.072304405 -0.17182419
000160 d9 0f 46 3d 3d 3a f6 bd e8 25 ad 3d cc 02 42 bd
       0.048354957 -0.12022827 0.08454496 -0.04736595
000170 b2 b0 b1 3d 86 25 d4 3d 97 b5 90 bc b8 68 b8 3d
       0.0867628 0.103587195 -0.017664714 0.090043485
000180 19 e7 ac 3d c4 e7 0b be 44 b5 f0 ba 09 ec bd bd
       0.08442516 -0.1366263 -0.0018364568 -0.09273536
000190 eb 16 0f 3e 53 cb 8a 3c 81 6e d3 3d 45 a9 90 3c
       0.13973586 0.016942656 0.10323811 0.017658839
0001a0 be 47 2d bd 05 ef 1d 3d fa be 4b bd 40 8e dd bc
       -0.042304747 0.038558025 -0.049742676 -0.02704537
0001b0 09 c4 33 be fc a3 db 3d df 4a d7 bb 5f 0b ba bd
       -0.1755525 0.10724637 -0.0065702046 -0.090842
0001c0 55 39 3d 3d f5 04 dc bd 26 a0 ff bd f2 be 49 bd
       0.046197254 -0.10743133 -0.12481718 -0.049254365
0001d0 6f 64 77 bd 46 3b 76 3d c9 f3 81 3d 76 09 87 3c
       -0.060398515 0.06011512 0.063453265 0.016484004
0001e0 52 47 9d bc 6b a4 3b 3e 88 53 c7 bd bb 06 23 3e
       -0.019199047 0.18324439 -0.09732729 0.15920536
0001f0 42 58 fd 3d ed e1 f2 3d 75 0a 83 b9 23 bd 2e 3e
       0.123703495 0.11859498 -0.00024994058 0.17064337
000200 4a 6a 01 3c df 8e 08 bd b8 9e 0e 3d fb 4a 8e 3d
       0.007898876 -0.033339377 0.034819335 0.06947895
000210 d0 42 2b 3e 86 95 3a 3e f9 e2 bf bb 46 a7 6c 3c
       0.16724706 0.18221101 -0.0058559147 0.014444178
000220 0d b7 7f 3e 69 e8 95 3c 38 93 47 3e 47 b3 5f 3e
       0.24972172 0.018299298 0.19489753 0.21845733
000230 91 63 4b 3e 8a 61 ac 3b 4a 44 e8 3c 0b 8b 4c 3e
       0.198622 0.005260651 0.028352875 0.19974916
000240 c9 0c fe bd bc c1 1a bb 24 d9 08 3e b8 21 4e 3d
       -0.12404782 -0.002361401 0.13364083 0.050325125
000250 b8 11 92 3d 3e ce 98 3d 61 5f a1 3d 0d 98 02 3d
       0.07132286 0.074612126 0.0787952 0.03188329
000260 60 7b 2b 3d c0 42 e8 3d 21 69 b6 3d 34 fd be bc
       0.041865706 0.113408566 0.089067705 -0.023314096
000270 d7 5d 61 3e 92 4e 5f 3e d4 6c c4 3a c0 00 e1 ba
       0.22008453 0.21807316 0.0014986047 -0.0017166361

lin.weight f4 [2, 40]
000000 22 bc 86 be f8 5e a3 be c3 6e 94 3d 0c d7 39 3a
       -0.2631541 -0.31908393 0.072476886 0.00070892344
000010 50 0d b5 3d 6a 9a a2 3e 78 9b 93 3e 98 82 28 be
       0.0884043 0.31758434 0.2882955 -0.16456068
000020 9a 8a 8a 3e 62 f1 57 3e 5c c1 b6 be 85 8b b8 3e
       0.2705887 0.21088174 -0.35694396 0.36043945
000030 92 48 72 be 5a 2d c0 3d 8f db 90 bd 0a 42 a2 be
       -0.23660496 0.0938365 -0.070731275 -0.3169101
000040 27 b0 d8 be e9 27 9b bd 0b ef b8 3e d6 b7 e8 3d
       -0.42321894 -0.07575972 0.36119875 0.11363189
000050 67 a3 38 3e ae 63 25 3e da e4 19 be bb 54 e9 be
       0.18031083 0.16151306 -0.15028706 -0.45572457
000060 98 7b e0 bd cc 58 58 be 20 c6 70 3d 3a fd d6 3e
       -0.10961074 -0.21127623 0.058782697 0.41990072
000070 2f a0 85 be cc 6f eb bd a9 22 89 bd d2 dd 7d 3e
       -0.26098773 -0.11495933 -0.06696064 0.24791649
000080 bf 0c bc 3e 68 3e 85 be d7 aa e8 3d b3 14 0b 3d
       0.36728474 -0.26024175 0.1136071 0.033955287
000090 9c 6c b0 be 32 79 c7 be 20 cf 7a be 2f 18 94 bc
       -0.34457862 -0.38959652 -0.24493074 -0.018077938
0000a0 ad c6 a4 bd 2a 02 59 be 21 0f 32 3e c9 fb 47 3e
       -0.08045707 -0.21192232 0.17388584 0.19529642
0000b0 a3 16 6f 3e 25 9f 15 3e cd 23 90 3e 1b 1b 81 be
       0.23348479 0.1461149 0.28152314 -0.25215992
0000c0 d2 5d 58 3e 66 0e fe 3d b4 77 ad 3d 51 7d 5f 3e
       0.2112954 0.1240509 0.08470097 0.21825148
0000d0 1f 87 0f 3e 13 9f 7b 3e 89 70 3b be 9b a9 e9 3c
       0.14016388 0.24572401 -0.18304648 0.028523257
0000e0 bb eb 6d be 1b 2b 84 3e 63 14 09 be cc 3b 68 3e
       -0.23234455 0.25814137 -0.13386683 0.2267906
0000f0 2d cd 48 3e f8 56 09 be 21 a9 ed 3d 26 f6 c7 bd
       0.19609518 -0.13412082 0.116045244 -0.09763746
000100 60 35 8f bd 18 40 05 be 13 81 5f be b4 fb 4a 3e
       -0.06992602 -0.13012731 -0.21826582 0.1982258
000110 90 22 c4 3d dc e9 71 be 6f 5a 51 3b 34 a5 0e be
       0.09576905 -0.23624367 0.0031944772 -0.13930207
000120 41 c5 c1 3e 32 ac 2b bd c3 44 98 3e f6 f9 85 3e
       0.37845805 -0.041912265 0.2973996 0.26167268
000130 03 de f8 3d 78 a9 e5 3c 93 43 1f be 88 ef 3e 3e
       0.121517204 0.02803491 -0.15553121 0.18646061

lin.bias f4 [2]
000000 19 fa 3e bd 56 6a ed bd
       -0.04662523 -0.115925476

time_lin.weight f4 [40, 1]
000000 d0 d7 ec be c0 d1 49 bd b0 b0 64 3e 90 b5 03 3f
       -0.46258402 -0.0492723 0.22333026 0.5144892
000010 64 8b a0 3e d8 28 60 3f 14 ea 52 bf f0 db 36 3e
       0.31356347 0.8756232 -0.82388425 0.17857337
000020 48 33 6f 3e ac 39 e0 be 52 7a 0a bf 30 c6 ce bd
       0.23359406 -0.43794 -0.54092896 -0.10096395
000030 50 1b f3 3e c2 eb 09 3f ec 7c a1 be cc cf 58 bf
       0.47481775 0.5387536 -0.3154062 -0.8469207
000040 64 d6 e2 3e 50 01 f8 bd e0 0b b3 be 6c 97 25 3f
       0.44304192 -0.12109625 -0.34969997 0.64684176
000050 50 fa 67 3f 0c 6e a3 be b0 96 2d 3f 1e 39 73 bf
       0.9061632 -0.31919897 0.67808056 -0.9500903
000060 20 ea 0a bd 2a 67 04 bf 8c 38 dd be 88 69 56 be
       -0.033914685 -0.51719916 -0.43207204 -0.20938694
000070 86 de 50 bf 12 ff 38 bf dc 3a 39 3f d2 08 05 bf
       -0.81589544 -0.72264206 0.7235544 -0.51966584
000080 30 91 9d bd 9c 13 43 bf f4 1e b2 3e 08 7b ba 3e
       -0.07693708 -0.76201797 0.3478924 0.3642199
000090 08 a1 2f 3f 80 f2 76 3c ea 24 74 bf 00 10 81 3b
       0.6860509 0.015072465 -0.95368826 0.003938675

time_lin.bias f4 [40]
000000 79 cc 4d 3e 20 60 63 3f 55 f4 26 3e f9 ca 22 3f
       0.20097531 0.8881855 0.16304143 0.6359096
000010 6c 41 9f 3e ad c4 22 bd 5b f8 11 3e 3d a5 50 bf
       0.311046 -0.039738346 0.14254896 -0.81502134
000020 56 1c c9 3d ce 1a 70 3f 92 2a 69 3f 58 7b f6 3e
       0.09819858 0.937909 0.9108058 0.4814098
000030 5b 76 f3 3d bf 37 80 3f 18 2f 08 3f 8c 6d 48 3f
       0.11887809 1.0017012 0.5319686 0.78292155
000040 e6 7c 11 be 96 88 c0 3e 9d a5 3a 3e 9d dc e2 be
       -0.14207801 0.37604207 0.18227239 -0.4430894
000050 33 de ec 3e ee 76 d0 3e 2b cf 61 bf 42 b4 cd be
       0.46263275 0.40715736 -0.8820674 -0.40176588
000060 e6 4e a8 bc 67 9b 6a 3e e3 5b 5c 3d 32 e8 86 3f
       -0.020545434 0.22910844 0.053798568 1.053961
000070 d4 ab 00 bf 75 97 d3 be c4 d7 95 3b 0f a7 bc be
       -0.5026219 -0.4132649 0.0045728404 -0.36846206
000080 cb ce 25 bf 40 64 0b be 1d c7 e3 3e e6 37 52 3f
       -0.64768666 -0.13612461 0.4448785 0.82116544
000090 c8 a0 19 3f fc 5c 77 3f 3d ac 5d 3e 57 66 53 3f
       0.6001096 0.9662626 0.21647735 0.82578033
